DQN_param/cartpoleDQN.pth (torch, 7255 bytes, 6 tensors)

linear_relu_stack.0.weight f4 [32, 4]
00000000: 9172 793e 03c0 97be fd69 eebe 5e64 cd3e
00000010: 4c5b 39be fc57 ef3e 08b9 db3d 8cbb c13e
00000020: 6c62 a23e 604e b33c 41c6 933d 9c33 d4bd
00000030: dc03 f93e d34f 21be fd53 283e 8433 84be
00000040: fc3c 9b3e 0782 11be 5b2a ef3e 0d5c 30be
00000050: 0da2 3d3e a523 1a3e 2a44 0e3f a70b c2be
00000060: a351 ddbe 1bac d23e 2d69 a63e 9ba1 95bd
00000070: cc9c 273e d8a2 55be 005f 6ebb c865 28be
00000080: 8ef7 353e 36fe 933e faa6 073f 0509 99be
00000090: 3cf3 653e 3517 2dbe 2fda 0abd 17dc b3be
000000a0: 2180 3d3e eab5 023f 4f8b 1ebf 7239 283e
000000b0: d646 efbe 9aab 633d 19ad 743e 7420 783e
000000c0: 82ef d33e 93ee 69be 0f96 903e f270 1e3e
000000d0: e2b5 15be a457 36bc 3dbe c03e f433 593d
000000e0: fe89 823e 51b3 cfbe a0e6 d5bc 55be ed3d
000000f0: fa77 91be ca6d e6be 96dc 0bbf f3ec 5dbe
00000100: 2801 943e 163d 4ebe 18ea cc3e 676d 9abe
00000110: 71ab ffbd 147d 08bf 8b78 0abf 4f8b e8bd
00000120: 3268 c33e 0184 f0be 7d12 f5be cf7f 8ebe
00000130: 5ea8 7bbe 6d22 82be 3855 aebd 29ac 8cbe
00000140: acf3 b0be ecaa 033e b086 8c3e b18b d5be
00000150: 801e f7be 449a abbe e055 ff3d 8d5d 633e
00000160: c129 d6bd ed40 e63e 2e69 26bf 7576 97be
00000170: 64eb 3ebe d689 c4be de6a a53d 4a2a d9bb
00000180: d464 c03e 2db9 2ebe 3b38 df3d 24cb 873e
00000190: 709f 013f b99d 073f f4dc bfbc 7006 913d
000001a0: 3f05 fcbd d728 34be ef04 e5be 66f9 bdbe
000001b0: 17fb 3cbf b308 513f e6cf bb3e 3cba 053d
000001c0: 53cc 3a3f 8771 92be cd04 72bf f7f7 46be
000001d0: 1e51 9f3e b4a5 473e 20f9 c4bc 8437 713e
000001e0: e1fc e1ba f988 ab3e 1f92 8dbe 2287 8cbd
000001f0: 6297 963e 1f35 173e dfd5 06bf dddf 63bd
0.2436011 -0.2963868 -0.46565238 0.40115637 -0.18101233 0.46746814 0.10728651 0.378384
0.31715715 0.021887958 0.07215548 -0.10361406 0.48635757 -0.15753107 0.16438289 -0.25820553
0.30319965 -0.14209758 0.46712002 -0.17222615 0.18518849 0.1505266 0.5557276 -0.37899515
-0.43226346 0.4114693 0.32502118 -0.073062144 0.16368407 -0.20862901 -0.0036372542 -0.16445076
0.17770216 0.28904885 0.5298916 -0.29889694 0.22456068 -0.16903384 -0.033899482 -0.35128853
0.18505909 0.5105883 -0.6193132 0.16428164 -0.4673373 0.055583574 0.23894157 0.2423113
0.41393667 -0.22844915 0.28239486 0.15472773 -0.14620164 -0.011129294 0.3764514 0.053028062
0.25495905 -0.40566495 -0.026110947 0.116085686 -0.28411847 -0.45005637 -0.5463346 -0.2167242
0.28907132 -0.2014049 0.4002235 -0.30161592 -0.12483872 -0.53315854 -0.54090184 -0.11354696
0.38165432 -0.4697571 -0.47865668 -0.27831885 -0.24575946 -0.2541689 -0.08512348 -0.27475098
-0.34560907 0.1285817 0.27446508 -0.4170814 -0.48265457 -0.33516133 0.12467551 0.22203656
-0.10457183 0.4497141 -0.6500424 -0.29582563 -0.18644482 -0.3838641 0.08077024 -0.0066273557
0.37576926 -0.17062826 0.10899397 0.26522171 0.5063391 0.5297504 -0.023420788 0.07081306
-0.12305688 -0.17593704 -0.44730327 -0.37104338 -0.7382063 0.816539 0.3668205 0.03264831
0.72968024 -0.2860224 -0.94538575 -0.19430529 0.31116575 0.19496804 -0.024044573 0.23556334
-0.0017241501 0.3350294 -0.27650544 -0.06861712 0.2941237 0.14766358 -0.5267009 -0.055633415

linear_relu_stack.0.bias f4 [32]
00000000: 09ac bdbd a280 b0be 8e6a 973e f2ff a5bc
00000010: 34e3 33be 1471 ac3e 8dc4 cbbe f8f3 b5be
00000020: 8dfc a53d fd4c 0ebe 8058 353e 00b5 febe
00000030: 3a36 ebbd 9be0 463e 15a3 debd 2cba 143e
00000040: 8df2 913e dd59 9a3e b16b 393c 6f91 aebe
00000050: aa1c dabe 55d6 413d 2fa2 df3e 597e b03d
00000060: d5e2 a63d 2603 81be c502 25be 5309 303f
00000070: 4d4f b1bd 12f2 e4be 4a83 b4be 773e bfbd
-0.09261329 -0.3447314 0.29573482 -0.020263646 -0.1756714 0.33680022 -0.39798394 -0.35537696
0.08104811 -0.13896556 0.17709541 -0.49747467 -0.11484952 0.19421618 -0.10870949 0.14524144
0.28505364 0.30146685 0.01131718 -0.34095332 -0.42599994 0.047323544 0.43678424 0.08617849
0.081487335 -0.25197715 -0.16114338 0.6876423 -0.086577035 -0.44715935 -0.35256416 -0.09338086

linear_relu_stack.2.weight f4 [32, 32]
00000000: efd2 29be f8c0 21be b92e 30be 5756 8fbe
00000010: b3e6 01bc 0123 8a3e 5cfd 0cbe 4fdb cb3a
00000020: 2a85 023e 3ff9 9abe 5bbe 3abe 7377 ea3d
00000030: 0e90 16be bbf6 793e 4642 b43d 4539 2ebd
00000040: 4c88 18be 53f5 80be 4543 cbbd d56d 6a3d
00000050: 71f1 f7bc eadf 3e3d ba64 bdbc b012 973c
00000060: 36d2 6abd 4baa 67be 6d1c 98be 13cd 293e
00000070: 2f9c d8be 1bbf 913d 3ea9 e23c d479 42be
00000080: 2782 79bd 3653 75bd f37e e33d ed88 803e
00000090: c0af cabc 108f 09be 9832 b3bc 403d 293d
000000a0: c75d 5fbd 5b3e a33e b678 723e 197e 0a3d
000000b0: f238 853d 720c b6ba bddc ddbd a014 833e
000000c0: e3b0 83bc 3c75 8f3e 8e68 b43e 9737 30be
000000d0: f4cf 213d e109 973d c383 7a3d 9ef4 94bd
000000e0: 3acd c3bc 2144 793d 7a42 a53e 8a82 65be
000000f0: 4fad 043f ae83 9fbd 3988 fd3d 78fb a73e
00000100: 1985 fb3d 980d 563c fac7 133e 7bbb c4bd
00000110: 8766 cfbc 413a c63d 7985 c73b ac68 70bd
00000120: a0dc 48be cc95 cc3d c08d 2a3d f743 843d
00000130: 19b3 ef3d 3bf1 2ebb 0b0c 9f3d 4eb7 113d
00000140: 9ba2 26be 5b20 943d a5b9 70be 016b c53d
00000150: d7f9 12be 47da f73d ff35 1e3d 1b17 77bd
00000160: 18e6 b4bd c738 62be 3d1f e9bb 7e3c ef3d
00000170: af43 b9bd 5a45 d0bc 70ce 81bb bd29 bf3c
00000180: bc54 81bd 4f75 0f3e a060 013e 2663 1cbc
00000190: bbb8 f0bd 457f 28be a84f 903b c80c c23d
000001a0: 58d7 ecbd 3063 273e 77d4 97bc ab49 fb3d
000001b0: d529 b5bd cc4b 073d d0d1 203e 4527 1f3e
000001c0: 36fa e03d 8940 ad3d c0bb 2eb9 905c ff3d
000001d0: c137 073e e47e d6bd 0234 babd f6e9 f8bd
000001e0: cad5 a23c 93d6 0dbd 2a3b 20be 6de4 5cbc
000001f0: 9387 aebb 33ac 14be 7704 563d eaeb 38bd
00000200: 05ca b4bd 4c50 0e3e e551 9b3c ca55 49bd
00000210: c6cf 763d 86c1 523d 8806 bfbc 44ae 2b3e
00000220: e4d9 a2bd 5ff4 3abd 305a 3ebd c58e 8fbd
00000230: d40f e63d f1d5 2f3e f942 b1bc 0b24 083d
00000240: 06c3 6dbb ee99 283e 0910 063e 55bd 5b3d
00000250: 8302 703d c03c 223e 0f14 27be cf2f 2bbe
00000260: 2f43 1c3e b39a 213d 45fb fabd 4e99 0d3e
00000270: 3cf5 41be bba3 293e d26e 0cbd 5351 e53d
00000280: f22e d63d 25c6 4abd 217d 88bd 23cd 94bd
00000290: 3481 6f3c 193c 89bd 6cde 9a3c 0cae ddbc
000002a0: 8891 fe3d 13df ddbd 9783 113e 23bd 153e
000002b0: 18c7 8cbd c5d5 b33c f60a 173e 40ab a9bb
000002c0: 40bb a63d abdd 4cbd d971 a0bc cedd c4bc
000002d0: 33c6 893d 1fe5 81bc ec5a 1fbe 05bf 09bd
000002e0: 9df5 f5bd 15fa debb f6c1 2dbe f882 99bd
000002f0: 060a 2d3e cfb6 573d 76b7 0dbe 0e2d 79bd
00000300: ed56 b2bc 0197 21bd 337b 0c3e 4e8a febc
00000310: e2c0 72bd 0b05 20be baa2 b7bd be0b 98bd
00000320: aa3c 0e3c 3450 e23d 6f3a d1bd efbe c73d
00000330: f3db 963d e3ab e0bd e17b 263e 7721 14be
00000340: b87b 2bbe 8868 56bd 4d8b e7bd c3d9 e83d
00000350: 98bc 48be e13b 19be c281 023e 567d 76bd
00000360: a81f e93d 9034 aebd daf3 763c 8758 9c3d
00000370: 6171 30be c7a6 ca3d 168d 8e3d aa5b 613d
00000380: 0525 9c3d cdcc 333e f058 3fbd ee2c 1bbd
00000390: 978b 1b3e 6f03 8dbc b86f 83be 79be 64bd
000003a0: 053a 213e 5e96 56be a01c bfbd 88b5 d63d
000003b0: 62e7 023e 865a 49bd 10d4 f1bd 6150 81be
000003c0: e3a2 fcbd 0ee1 b5bc 3402 a2be 6f56 73bd
000003d0: 6e38 17ba 64d5 0bbd ca41 4b3d fdaf 083d
000003e0: 1b8f a0bd e5a4 8bbe 7f57 35bd 78cc 933e
000003f0: 6892 b0be b4e6 eabd f82f 85be 574a 35be
-0.16584371 -0.15796268 -0.17205323 -0.2799556 -0.007928538 0.2697983 -0.13768524 0.001555303
0.1274611 -0.30268285 -0.18236677 0.114485644 -0.1470339 0.24410526 0.08801703 -0.042535085
-0.14895743 -0.25187168 -0.0992494 0.05723365 -0.030266495 0.04660026 -0.02311932 0.018441528
-0.05732938 -0.22623555 -0.29709187 0.16582136 -0.4230666 0.071165286 0.027668592 -0.18991786
-0.06091514 -0.05989381 0.11108198 0.25104466 -0.024742007 -0.1343348 -0.02187471 0.04131818
-0.054532792 0.3188351 0.2367886 0.033811662 0.06505002 -0.0013889207 -0.10833118 0.25601673
-0.016075557 0.2801913 0.3523602 -0.17208706 0.03950496 0.07374931 0.061160814 -0.072732195
-0.02390157 0.06085599 0.3227728 -0.22413078 0.5182695 -0.07788788 0.12379498 0.32809043
0.12281246 0.013064764 0.14431754 -0.096060716 -0.025317444 0.0967908 0.006088909 -0.058693573
-0.19615412 0.09989509 0.04163909 0.06458276 0.11704082 -0.0026694078 0.07765969 0.035575204
-0.16272967 0.07232734 -0.23508318 0.0963955 -0.14353119 0.1210218 0.038625713 -0.06032477
-0.088329494 -0.22091971 -0.0071143196 0.1168146 -0.09046113 -0.025423694 -0.003961377 0.023335332
-0.0631499 0.14009593 0.12634516 -0.009545123 -0.117539845 -0.164548 0.004404027 0.09475094
-0.11564511 0.16346431 -0.018533928 0.122699104 -0.088458695 0.03303127 0.15705037 0.15542324
0.10985224 0.08459575 -0.00016663875 0.12468827 0.13204862 -0.10473421 -0.09091951 -0.121539995
0.019877333 -0.034628462 -0.1564757 -0.013482195 -0.0053262203 -0.14518814 0.05225035 -0.04514686
-0.08827595 0.13897818 0.018959949 -0.04915408 0.060256742 0.05145409 -0.023318544 0.16765696
-0.079517156 -0.045643207 -0.04647273 -0.07009653 0.11233488 0.17171456 -0.02163838 0.0332375
-0.0036279573 0.1646497 0.13092054 0.053647358 0.058596145 0.15843487 -0.16316245 -0.16717456
0.15260004 0.039454173 -0.12254957 0.13828012 -0.18941206 0.16566364 -0.034285374 0.11197152
0.10458173 -0.04950537 -0.066644914 -0.07265689 0.014618207 -0.06700916 0.018904887 -0.027060531
0.12430102 -0.10833564 0.14210354 0.14622931 -0.068739116 0.02195252 0.14750275 -0.0051778853
0.08141184 -0.050016087 -0.019585537 -0.024031546 0.067272566 -0.015856324 -0.15562028 -0.033629436
-0.12009738 -0.0068047144 -0.16968521 -0.074956834 0.16898355 0.052664574 -0.13839516 -0.060833983
-0.021769965 -0.03945065 0.13718872 -0.031071808 -0.05926598 -0.15626924 -0.089665845 -0.07424115
0.008681456 0.11050454 -0.102162234 0.097532146 0.07366171 -0.10970285 0.16258194 -0.14465891
-0.16746414 -0.052345783 -0.113058664 0.1136966 -0.19603193 -0.14964248 0.12744811 -0.060178123
0.11382991 -0.08506119 0.015072787 0.07634073 -0.1723075 0.098950915 0.06960504 0.05501906
0.076242484 0.17558594 -0.046715677 -0.037884645 0.15189968 -0.017213551 -0.25671172 -0.05584571
0.15744789 -0.20955798 -0.09331632 0.10483843 0.12783578 -0.049158596 -0.11808026 -0.25256637
-0.12335756 -0.022202041 -0.31642306 -0.0594086 -0.00057686015 -0.034139052 0.04962329 0.03337096
-0.07839795 -0.27274242 -0.044272896 0.28866935 -0.344867 -0.114697844 -0.2601316 -0.1770414

linear_relu_stack.2.bias f4 [32]
00000000: d41b bb3e 159e 48bd e8dd 86bc f812 0bbe
00000010: 0664 083e e696 6bbc 88e6 15bd 6e41 793e
00000020: 36a2 563d 0992 c0bb 8a1e 153e 25e6 29be
00000030: 3ec1 28bc 8f78 813e 2574 ac3c 2dcd 09be
00000040: 2a26 ae3d ce05 b73d eb87 353e bb9e 163d
00000050: 9144 eb3c 6b5a 8f3d 5b2d ffbd 9caa afbc
00000060: 48c5 d23d d626 bfbd 6ab8 2abe 9f07 8cbd
00000070: 4658 ba3d d603 a43e 2df5 3d3e 92dd d4bd
0.3654467 -0.048978884 -0.016463235 -0.13581455 0.13319406 -0.014379239 -0.036596805 0.24341366
0.05240079 -0.0058767837 0.14562431 -0.165917 -0.010299979 0.2528729 0.021051476 -0.13457175
0.08503373 0.08936654 0.1772763 0.03677247 0.028719218 0.06999668 -0.12459823 -0.021443658
0.10291535 -0.09333579 -0.16671911 -0.06837391 0.09098868 0.32034177 0.18550558 -0.10393824

linear_relu_stack.4.weight f4 [2, 32]
00000000: 1430 14bd 88f6 20be 921a 65bc 4704 b53d
00000010: 68c9 aa3d 636a 6f3d 0acc 323e 9b1b 03bd
00000020: e388 03bc 6675 d93d 337a e0bc d8e7 13bd
00000030: 10a2 d5ba 40d4 d6bc 9530 27bd 78c4 21be
00000040: 5159 b1bd cb42 1b3e 080f dbbd f4b0 24be
00000050: da98 e33c 12a4 9f3d df9a b2bd 83b8 05be
00000060: ea44 0f3e beb0 94bc 95bd b53d bd0a 0fbe
00000070: 5be8 26be 3a4f 5b3d 7af5 15bd 7fa7 91bd
00000080: b2ce 1d3f 7198 48bf 16f2 1d3e 77b2 adbd
00000090: 0d2a 283e 5b46 d63c 7af8 1e3e 94af 033f
000000a0: d284 11be 86d3 cd3d 330f c63e 179e 823d
000000b0: 12ca 0b3e 60d3 bc3e 0ec2 89be 6fd6 dd3d
000000c0: 64c7 72bd e2f4 ee3d 4658 43bd 9410 8a3d
000000d0: 5bbe b9bb 19f9 0cbf ca4b b7bd b863 8a3d
000000e0: 92d8 44bf 6179 b93d 924d 0f3e f6b5 b4bd
000000f0: c2de c8be b315 253f 9622 b83e 2445 2d3e
-0.036178663 -0.15719044 -0.013983386 0.088387065 0.083391964 0.058451068 0.17460647 -0.03200875
-0.008028242 0.10618095 -0.02740202 -0.036109775 -0.0016298909 -0.026224256 -0.040817816 -0.15797603
-0.08659614 0.15162198 -0.10696226 -0.16083127 0.027782846 0.07794966 -0.087209456 -0.13058667
0.13991132 -0.018150683 0.088740505 -0.1396894 -0.16299574 0.053542353 -0.036611058 -0.071120255
0.61643517 -0.7835761 0.1542438 -0.08481305 0.16422291 0.026156595 0.15524474 0.51439786
-0.14210823 0.100501105 0.3868347 0.063778095 0.13651302 0.36880016 -0.26905864 0.108319156
-0.059272185 0.116678014 -0.047691606 0.06741443 -0.005668444 -0.5506759 -0.089500025 0.06757301
-0.7689296 0.09056354 0.13994434 -0.08823769 -0.3923245 0.64486235 0.35963887 0.16920906

linear_relu_stack.4.bias f4 [2]
00000000: b7b3 52bb 55b7 5f3f
-0.0032150575 0.8738912
