DQN_param/hopperDQN.pth (torch, 24343 bytes, 6 tensors)

linear_relu_stack.0.weight f4 [32, 11]
00000000: a63c 2c41 ee6d c6c0 c112 cfc1 d247 8cc1
00000010: 9e3c e1c0 ea03 9dc0 1fcd 9541 38e7 ac41
00000020: f7f9 55c1 808f 05c1 baf3 8a40 9b39 e73f
00000030: c1b1 93c1 9ffd a83f f565 7b41 b703 8940
00000040: c005 32c0 717c c1be 5fa7 b1bf fc99 d7bf
00000050: ab1a a53e 8236 ffbe c736 62c0 0c7d 71c0
00000060: a864 09c2 7fea 54c1 773c 83c1 6856 e4c1
00000070: 952c d73f 0192 2cbe 3f4b 8140 9bde 01c1
00000080: c6fc ad40 1f9d f440 ac21 5a41 26b9 7141
00000090: 3686 4641 5d6d 44c1 4d9c 2bc1 2df0 9a41
000000a0: 7993 3741 9990 b0c0 04ba 8fc1 331b ebc0
000000b0: 7c50 58bd 3ebc 39c0 11de 553f 3dd1 f841
000000c0: 4ae3 a1c0 59a1 7641 8773 c440 54d9 c5bd
000000d0: 3136 5741 1e3d a8c0 4a76 0abf 17fe 0141
000000e0: 3f42 a4c0 d54c e641 1f4e a641 85f3 1bc1
000000f0: fb22 8ebf 73a4 8641 71b1 9741 57a8 9dc1
00000100: 0719 fabd e0e7 7f41 f8eb 2740 9cce 5441
00000110: d824 de41 b6f2 bdc0 149e e0c1 2508 c9c0
00000120: 84e7 23c1 8f94 fd40 dc91 07c1 2a8f d940
00000130: c56d 0c41 e43f d1c0 afd5 c1c0 9294 f8c0
00000140: 5a42 92c0 6a9e c3c1 aa94 a3c1 dc2b f841
00000150: 01ae e641 4b00 d7c1 6c5c b240 2799 cbbf
00000160: 6abd febf af2f 4541 acbc b5c1 86eb 4a41
00000170: 5233 8841 09c7 65c1 3310 a6c0 b67e 8340
00000180: 2d00 09c1 26fe afc0 6ae9 2ac1 7e68 fcbe
00000190: 4f8d fcc0 7d57 b3c0 a356 6ec1 d830 9841
000001a0: 5c60 2341 9e66 7441 be60 2840 5105 e2c0
000001b0: b00a 16c1 8ae4 ab40 7561 99c0 b540 6941
000001c0: 8c75 1941 ba5e 6941 acac 4f41 0907 0541
000001d0: 3554 9bc0 208f b740 50d1 a6c1 b237 56c1
000001e0: f8a2 b8c0 0db9 94bf f0da 6241 15e0 8241
000001f0: 30bf 3641 8481 f9c0 3738 63c0 fe74 81bf
00000200: 30bd c2bf c4ac 87be 53d5 1940 5153 9a40
00000210: e0e0 d43f ce8c 72c0 ea4c 2041 4350 883f
00000220: a85c dbc0 c55f e1c0 f4cd 53c1 da5e ed3f
00000230: 02f2 d1c0 aa51 4f41 2acf ec40 adfb 2cc0
00000240: 8bd5 1bc1 baeb 8e41 0215 0241 695e cf40
00000250: 4251 5b41 30f7 2841 3b0f c3c0 d4b3 e13b
00000260: bb8b 26c1 9b53 9440 eddd 83c0 998f 2542
00000270: ae73 0042 1aa3 f6c1 bc15 34c2 459d 8fc1
00000280: 60a0 e1be 6219 6d41 eec9 1e41 d845 8241
00000290: e9b6 0840 28f2 bc3f e965 0141 9c98 5e41
000002a0: da29 bec1 6cf6 d040 9569 96c0 7ac4 5941
000002b0: d8ed 9540 afe8 6ac1 3ee5 e1be efa0 923e
000002c0: 1880 1740 1f12 1cc1 c5f5 3fc1 3c1d 5042
000002d0: dd58 60c1 a4dd 1242 8dca 0e41 a8ec 0641
000002e0: c3a9 2441 4387 a641 f2d0 0c41 68df e740
000002f0: 192a 8541 b021 40c1 c69e c0c1 4f56 6fc1
00000300: c7d2 b140 8a2d 0e3f 6363 3841 eb82 e4c0
00000310: d473 abc1 f2cc 3bbf f996 b840 a94a f840
00000320: a6c2 9641 d32a 5cc0 965f 9640 0f92 4441
00000330: 66ef 0c3f e831 0ac0 648e a4bf b0ff 8540
00000340: d0a8 f5be 7359 4740 873f 953f 94e6 8241
00000350: a2c8 84c0 5b69 3ac1 8fd0 7940 d5db 3a41
00000360: dcf8 d840 abe3 c8c0 a7a7 a3bf 66c7 10be
00000370: c18d 563f fab5 2940 0a71 72c0 60fa 8f40
00000380: 8f95 a13d d303 6a40 a4f5 3ac1 232b 02c0
00000390: 35b7 04c1 3cb4 7ac0 659c cb40 3ac4 2ec0
000003a0: db61 1b41 62af d4c0 c087 19c2 26fe a4c1
000003b0: 6be6 7f40 5c08 ee41 4fda 0540 aed9 22c1
000003c0: 75b2 0342 4ff4 2741 5c79 7d41 9ca2 bfc1
000003d0: b870 06c2 9dfa 2542 eb52 cfc1 9891 61bf
000003e0: 9dd8 85c0 1f99 6f41 a9bb 4b41 e122 1c41
000003f0: e547 a341 5ec8 aa3f 8231 1fc1 6e60 0942
10.764807 -6.200919 -25.884157 -17.535069 -7.0386496 -4.906728 18.725157 21.6129
-13.373527 -8.347534 4.342252 1.8064455 -18.461794 1.3202399 15.712392 4.2817035
-2.781601 -0.37790254 -1.3879203 -1.6843867 0.3224691 -0.49846274 -3.5345933 -3.7732573
-34.348297 -13.30725 -16.404524 -28.54219 1.681048 -0.16852571 4.0404353 -8.116847
5.437106 7.64418 13.633221 15.107702 12.407766 -12.2767 -10.725659 19.367273
11.473504 -5.517651 -17.965828 -7.34707 -0.05281113 -2.9021144 0.8354197 31.102167
-5.0589952 15.4143915 6.1391025 -0.09660593 13.45073 -5.2574606 -0.54086745 8.124534
-5.1330867 28.787516 20.788145 -9.746953 -1.1104425 16.830297 18.961641 -19.707197
-0.12211805 15.99411 2.6237774 13.300442 27.76799 -5.935878 -28.077187 -6.282244
-10.244022 7.9243846 -8.47311 6.798726 8.776799 -6.539049 -6.0573344 -7.768136
-4.5705996 -24.45235 -20.44759 31.021416 28.834963 -26.875143 5.573782 -1.5906113
-1.9901555 12.3241415 -22.717125 12.682501 17.025059 -14.361093 -5.1894774 4.1092176
-8.562543 -5.499774 -10.681986 -0.4929847 -7.8922496 -5.6044297 -14.896152 19.02385
10.211025 15.275053 2.6309047 -7.063149 -9.377609 5.371648 -4.7931466 14.578298
9.591198 14.585627 12.979656 8.314218 -4.854029 5.7362213 -20.852203 -13.3885975
-5.7698936 -1.1618973 14.178452 16.359415 11.421677 -7.79706 -3.550306 -1.0113828
-1.5213985 -0.26498997 2.4036453 4.8226705 1.6631126 -3.789844 10.018778 1.0649494
-6.8550606 -7.0429406 -13.237782 1.8544571 -6.560792 12.9574375 7.4002886 -2.702861
-9.7396345 17.8651 8.130129 6.4802747 13.707338 10.5603485 -6.095609 0.0068878923
-10.409114 4.6352057 -4.1208405 41.390232 32.11297 -30.82964 -45.021225 -17.951792
-0.4406767 14.818697 9.924299 16.284103 2.136164 1.47614 8.08738 13.912258
-23.770435 6.530081 -4.7003884 13.610468 4.6852837 -14.6818075 -0.4412021 0.28638408
2.3671932 -9.754424 -11.997502 52.02855 -14.021695 36.716446 8.924451 8.432777
10.291446 20.816046 8.801012 7.2460213 16.645555 -12.0082245 -24.077526 -14.958571
5.5569797 0.5553824 11.524264 -7.140981 -21.431557 -0.73359597 5.7684293 7.759114
18.845043 -3.4401138 4.699168 12.285659 0.55052793 -2.159296 -1.2855954 4.187462
-0.47980356 3.1148345 1.1660012 16.362587 -4.1494913 -11.650722 3.9033544 11.67867
6.7803783 -6.2777915 -1.2785538 -0.14138564 0.8381005 2.651732 -3.7881494 4.4993134
0.07889854 3.6564834 -11.684971 -2.0338829 -8.294728 -3.9172506 6.362841 -2.7307267
9.7113905 -6.646409 -38.38257 -20.624096 3.9984386 29.754082 2.0914495 -10.178144
32.924274 10.497146 15.842129 -23.9544 -33.610077 41.49474 -25.915487 -0.88112783
-4.182692 14.974883 12.733315 9.758515 20.410105 1.3342397 -9.949587 34.34417

linear_relu_stack.0.bias f4 [32]
00000000: 6474 2541 b362 1640 892e c2c0 739b f140
00000010: 3a49 203d d439 0641 67e7 2b40 7f5c e7c0
00000020: 35e1 c7bf 91d9 aa3d a6fd 82c0 c263 bfbf
00000030: 486e 713f 523c acc0 ec44 e9bf 54e1 c03f
00000040: 1d3b 3540 e39a e940 6854 c340 ac5a 5640
00000050: 9499 bc3f 49b0 bec0 5b71 7341 60c2 d03f
00000060: 3c63 19bf e28e bbbf bd87 9dc0 5f17 34c0
00000070: e486 09be 0f1f 73c0 ad04 9f3e ea25 a7c0
10.340916 2.3497741 -6.0681806 7.5502257 0.039132334 8.389118 2.6859987 -7.230041
-1.5615603 0.08342279 -4.093463 -1.4952319 0.943089 -5.3823633 -1.8224158 1.5068765
2.831733 7.300157 6.1040535 3.3492842 1.4734368 -5.959019 15.215175 1.6309319
-0.59917045 -1.4652979 -4.9228196 -2.8139265 -0.13430363 -3.7987707 0.31058255 -5.223378

linear_relu_stack.2.weight f4 [32, 32]
00000000: c497 2abf 7dfa 8fbe 2c36 3dbe bae8 85bd
00000010: 3c59 8b3f 6266 7abe f249 9cbf 5017 a03f
00000020: 94dd 553f e64e c9bf e6b7 68bf 31c9 e73e
00000030: 4c8f 303f d9db febf f047 b1bf b995 bbbf
00000040: bf70 90bf dbf5 16bf 522d e9bf 2277 57be
00000050: 24d9 293f 1610 48bf caed 56c0 d7a4 3dc0
00000060: e4f9 20be fff1 fd3d 3fd5 58c0 456e cdbf
00000070: bdd3 4bc0 f222 b63e 5066 a9be ae49 0bc0
00000080: 8a34 8a3c 45f6 0dbf a589 39bf 82bc e6be
00000090: ce04 353e b3eb 24bf ab6c 56bf a7b6 ebbe
000000a0: 40eb c43e 3314 b03c 470d 26bf 9326 843d
000000b0: 4004 b03c 3afd 8abf 3884 59bf d115 33bf
000000c0: 74b9 38bf b2b4 41bf 637f 0fbf 49e7 2cbf
000000d0: a25d 11be 0561 b6bf 148b 673e 9ead 64be
000000e0: 3e8d 2dbf f0ac 89be a6bd 85bd 82ab 2cbf
000000f0: 0906 f1be d249 603e 75c0 12bf a58c 8ebf
00000100: ba86 eb3f 3c3b 0ebe 0f37 9e3f f31b 513e
00000110: 624e ce3f 8a39 c1bf 490b fcc0 941f d1c0
00000120: a1a7 5bbf c55d 15c0 382a 9ebe 1b3e bf3f
00000130: a479 8140 4114 0ec1 e009 3640 fe85 b0bf
00000140: c276 4bc1 d616 cbbe c77b bdbf 1a4e 1340
00000150: 5edf 6fc0 f35c 59be cc70 25c0 5712 1041
00000160: d5af bc3f e0eb 72c1 8c28 2bc0 1add 243f
00000170: 9309 abc0 4b03 fd40 21c5 a93f fefd 77c0
00000180: 0ffc 85bf b4dd 3abf 4a56 1ec1 ea72 5dbd
00000190: de4b 3b40 40de 1b3f c82c b63f 2159 54c1
000001a0: 488a 7ac0 3e75 08bf 7989 af3f f862 c9c0
000001b0: 38f7 16c1 0003 463e 1561 b6c0 dc73 f23f
000001c0: c63b 343f 7083 17c0 ff85 a93f afd2 86bf
000001d0: 3138 ccbf 94aa 74bf 3142 e4bf 1214 e0c0
000001e0: ab72 d0c1 e958 b5bf 6c8b c140 f662 cd3f
000001f0: ca39 5bc1 eb69 d140 1141 ad3f e37d c4c0
00000200: cdc6 0340 33a3 11c0 c2da dbbf e2b7 11c0
00000210: e349 6fbf 12ba 01c0 4be0 cabf b5b6 3ec1
00000220: dba5 b1bd c340 a9bf 5d22 c3bf dc1e 8040
00000230: 05bc 53c0 1a8a adbf e2c7 dbbf 9182 fa3e
00000240: 6917 debf c395 80c0 01b5 de3e 040c 0d40
00000250: a04b 9abe 812c 59c0 db6a 0bbf 5eb8 533f
00000260: e444 84c0 b33c b23d f52f 8cbe 198c a5c0
00000270: d260 bcbf 2852 83c0 30d9 1340 4250 91c0
00000280: 1820 323e b0a3 8c3f 65e6 d7be b9f0 dd3e
00000290: 8b73 f73f fffc f63d 66c2 74c0 b0bb c9c0
000002a0: 0361 f8bf 46be b43e 78ff 28bf cb5c 8ec0
000002b0: e24b 893f 4399 29c0 3f74 a5bf f612 a8c0
000002c0: 5448 bdbe 70b9 07c0 ea25 94c0 e3e1 963d
000002d0: a2a0 29bf c353 c6bf 46cc 57be ac43 a3c0
000002e0: 497e 27c1 c698 0cc0 3b19 f5c0 8aba 343f
000002f0: ee54 27c0 f6c3 883f b878 94c0 6abc d8c0
00000300: ab0c d0be 9964 f73e 50fe 12bc e60d 5e3e
00000310: fecf 7e3f 20f5 913b 65e0 fdbf f89f afc0
00000320: e5cd a4bf 320e 9dbe 4e65 8abf 698f 38bf
00000330: c1e8 01c0 8e2c 2dc0 f3fc 8c3e d2b5 d2c0
00000340: 1e2e 23c0 a786 00bf ad0e c1bf c26b 69be
00000350: 26e9 5d3e cc2d 5fbf 9b26 a4bf 7c9c 87c0
00000360: 337a 10bf f4a9 5bbf 884d 00bf c2ec 5ebf
00000370: a40c 64bf d424 bdbe 14b0 1f3f 284b a5c0
00000380: b695 fbc0 3128 b8c0 44e9 56c0 b63f 44bf
00000390: 00ee 553f a63a c240 7dac 01c1 b0ca 47c1
000003a0: 7ce1 1ac1 667d d6c0 7266 0240 4a25 6abe
000003b0: ee76 11c0 8b37 97c1 9f59 ce3d 3052 2140
000003c0: 2d51 cdc0 5b3d f0c0 f422 7540 f366 1ec1
000003d0: dcf8 17c0 5469 41c0 bd7f 5bbf 1ee6 ac40
000003e0: 7cc4 5441 6326 f4bf 7595 b040 6b21 d6c0
000003f0: 9bf6 a7bd f4a8 68c1 1025 44c0 6266 bbc0
-0.66637826 -0.28120795 -0.18477696 -0.0653853 1.0886607 -0.24453118 -1.2210066 1.2507114
0.83541226 -1.5727203 -0.90905607 0.45270684 0.68968654 -1.9910842 -1.3850079 -1.4655067
-1.1284407 -0.58968896 -1.8216956 -0.2104154 0.66346955 -0.78149545 -3.3582635 -2.963186
-0.15720326 0.12399673 -3.3880155 -1.6049277 -3.1847985 0.35573536 -0.3308587 -2.176372
0.016870756 -0.554539 -0.72475654 -0.45065695 0.17677614 -0.6442215 -0.83759564 -0.4603779
0.38460732 0.021494007 -0.6486401 0.0645267 0.021486402 -1.0858529 -0.84967375 -0.69955164
-0.7215798 -0.75666344 -0.5605375 -0.67540413 -0.14195874 -1.4248358 0.22611648 -0.22331855
-0.67793643 -0.26889753 -0.06530313 -0.674492 -0.47074917 0.2190316 -0.57324916 -1.1136671
1.840049 -0.13889784 1.2360553 0.20420818 1.611767 -1.5095685 -7.8763776 -6.5351048
-0.85802656 -2.3338482 -0.30891585 1.4940828 4.0460987 -8.879945 2.8443527 -1.3790891
-12.716494 -0.3966586 -1.4803399 2.301642 -3.7480083 -0.21226864 -2.5850096 9.0044775
1.474116 -15.182587 -2.6743498 0.64399874 -5.3449187 7.906652 1.3263284 -3.8748775
-1.0467547 -0.7299454 -9.896067 -0.05406467 2.9265056 0.60886 1.4232416 -13.27176
-3.91469 -0.533039 1.3713828 -6.293331 -9.435356 0.19337082 -5.699351 1.8941607
0.7040371 -2.3673973 1.3244017 -1.0533046 -1.5954648 -0.9557278 -1.78327 -7.00245
-26.05599 -1.4167758 6.0482693 1.6045825 -13.701609 6.5441794 1.3535482 -6.140367
2.0590088 -2.275586 -1.7176135 -2.2768483 -0.9347212 -2.0269818 -1.5849699 -11.919606
-0.086742125 -1.3222889 -1.5244862 4.003767 -3.3083508 -1.355777 -1.7170374 0.4892774
-1.7350894 -4.0182815 0.4349747 2.2038584 -0.30135822 -3.3933413 -0.54459924 0.82703197
-4.1334095 0.08702984 -0.27380338 -5.173352 -1.4717047 -4.103779 2.310131 -4.541047
0.17395055 1.0987453 -0.42167965 0.4334772 1.9332136 0.12059974 -3.8243651 -6.304161
-1.9404606 0.35301417 -0.66014814 -4.4488273 1.0726283 -2.6499794 -1.29261 -5.2523146
-0.36969244 -2.1206932 -4.629628 0.07367303 -0.6626073 -1.5494312 -0.21074018 -5.1020107
-10.468331 -2.1968246 -7.65933 0.70597136 -2.6145587 1.0684803 -4.639736 -6.773
-0.40634665 0.48318937 -0.008971766 0.2168499 0.9953612 0.00445427 -1.9834105 -5.4882774
-1.2875334 -0.30674893 -1.0812166 -0.72093827 -2.0298312 -2.7058444 0.27536735 -6.584695
-2.5496898 -0.50205463 -1.5082604 -0.22795013 0.2167097 -0.87179255 -1.2824281 -4.237852
-0.5643646 -0.858062 -0.50118303 -0.87080014 -0.8908179 -0.3694216 0.6237805 -5.1654243
-7.8620253 -5.754906 -3.3579874 -0.76659715 0.83566284 6.069659 -8.104611 -12.486984
-9.68005 -6.7028074 2.0375028 -0.22865787 -2.272884 -18.90212 0.100756876 2.5206413
-6.416159 -7.5074897 3.8302584 -9.900134 -2.3745642 -3.0220537 -0.8574179 5.4030905
13.29797 -1.9074215 5.5182443 -6.6915793 -0.08201333 -14.541248 -3.064762 -5.856248

linear_relu_stack.2.bias f4 [32]
00000000: 5f8a dd3f 6ce5 96bd 94d3 3540 cbb7 f43f
00000010: 9820 a43f 88c9 573f 6d77 ff3f 13a9 69bf
00000020: e56d 8f3e 19fe aebf 013f 8740 fe49 1940
00000030: 44f0 803f 0411 2d3f 0b65 7c3d 1c3a 4640
00000040: d5e7 d53f 60fe 223f 7daf 8040 db28 853e
00000050: 93a6 8b3f c4d0 6b40 ba73 d33f c839 ae3e
00000060: 14c7 f13f de86 e3bf 2582 683e 373b 67bf
00000070: 670a f43f 508e 243e 7d8b dd3f 6482 883e
1.7307853 -0.073679775 2.8410387 1.9118589 1.2822447 0.8429189 1.9958321 -0.9127361
0.2801353 -1.3671294 4.226441 2.3951411 1.0073323 0.6760409 0.0616198 3.0972967
1.6711375 0.63669395 4.021422 0.26007733 1.091021 3.684617 1.6519692 0.3402846
1.8888879 -1.7775533 0.22705896 -0.9032473 1.9065675 0.16069913 1.7308193 0.2666198

linear_relu_stack.4.weight f4 [125, 32]
00000000: c421 d940 8099 bf3d e8f9 ca40 535e e041
00000010: f696 4041 8e14 a241 1353 fb40 848a 1541
00000020: f209 933d 009a ab41 a2ff 6041 2748 4740
00000030: 644b 353e 83b4 bc41 f1bd 713d eb1d cf41
00000040: 2a35 b141 353f 0a41 839f 4541 294b 3441
00000050: 84cf 283e f782 1d41 4530 2841 e569 c741
00000060: 8d39 1e3c 5300 1842 d9fe 8642 ccec 7a41
00000070: bd21 df40 eb93 4d41 3331 9f40 cc7e a442
00000080: be05 b440 89b7 013f bc83 2341 f032 a041
00000090: ecba 6d41 9737 8241 b52e 9040 4f59 9b41
000000a0: 8191 863f 481f cd41 4816 4e41 8142 8540
000000b0: bb93 1740 0ae1 b641 c4a3 59bd d2c0 1a42
000000c0: c0ed 7241 3c5a 8541 e8b6 9641 72b9 6041
000000d0: 9604 2d40 82f2 6a41 bff1 0f41 918b 0e42
000000e0: c8a9 5440 8546 1342 59c8 9542 4326 a241
000000f0: 9de8 bc40 c322 3741 28e4 6f40 7d5d b942
00000100: bc70 1c41 6b65 313c 3bc3 5041 4720 9241
00000110: a6e5 a141 d52a b841 c4bd 0440 922f 8f41
00000120: 0eed 973e ac38 2842 5d00 4c41 e70a 4e41
00000130: db9d 3040 ddf0 db41 16cc eb3d daea 2f42
00000140: a9ce 3341 3a70 2141 52b4 4541 db4c 9341
00000150: c38c 3040 ed23 7e41 9ec0 6b3e 710a 0042
00000160: eff8 fb3f 702c f441 ae9a 8742 c686 9141
00000170: e2c2 7541 136e 5341 b45f dc40 a581 9942
00000180: e680 0141 6677 0440 4d29 a141 11f0 9241
00000190: 27bd 0541 a0ba b141 49b8 0741 70c6 8941
000001a0: 39ea 48bf 9f92 4542 cc8b 0e41 2f2d fd40
000001b0: caf9 3540 db17 0941 75d5 383e 537c f741
000001c0: 9cc6 9741 b3bc eb40 5c82 aa41 b9bd 8f40
000001d0: 6c98 ee3f c223 9741 6d6d f940 f239 f141
000001e0: e15d 1140 06a8 da41 8e19 6e42 84f7 0cbe
000001f0: 91cc 7941 4ffb 8c41 7a4a 0f3f e3ab b342
00000200: 0e32 b440 7b6b 873f 0a90 b541 5a39 2f41
00000210: 09dc eb40 8ddd 5b41 710a 8f40 2822 8941
00000220: 960e 7f3f c3ef f041 4cb7 6d41 ec8f 3440
00000230: de3d 2e40 deaf 8041 9be4 413e fe9c 3342
00000240: 1451 5d41 3e3a 1041 b6cc 8341 66b7 c741
00000250: 1622 5540 7300 8041 5ac7 1341 466b 1942
00000260: 8fba 6340 7a06 b041 c8b0 7c42 2f72 8c41
00000270: b328 3441 3242 2841 81e5 5040 4691 ac42
00000280: 100e 1d40 b29d e63f 23a2 d541 3faf df41
00000290: 0c82 2041 feba 7141 59e1 c8c0 e1f3 b141
000002a0: 108d 913f 814e 1b42 7266 d341 6df2 2741
000002b0: 8c2d 0040 4615 fb40 b1e7 573c 7c46 2242
000002c0: dcda 6441 cec3 9540 5eef 9f41 9fad a341
000002d0: aaa2 3940 69f8 8141 7b03 1a41 53ac f041
000002e0: fd8e 8f40 de8f 9441 57a0 6142 1674 4641
000002f0: a7df 5f41 6d00 9141 52ec e640 64b0 8b42
00000300: fb43 1d40 baef 0740 f717 8d41 6eed a141
00000310: c85e 8941 79a3 8141 54ad 0f41 f214 7d41
00000320: d87d ef3e 357d 4a41 7a5f 8241 9ceb 7c41
00000330: c542 1f3f e6cc 8a41 6bf1 a7bc 2fd1 1f42
00000340: 2f8b b241 73f2 1c41 b916 b741 40d3 8c41
00000350: a78d 723f 9f70 8a41 08e2 0941 4d1f 9941
00000360: 8e40 f03f 4da7 bc41 a767 3442 7f7d 8541
00000370: 82a7 be41 4dbc 8f41 9743 8240 23b7 8742
00000380: d8d9 5d40 d1e8 f73f 07e4 bf41 289f 2e41
00000390: e25a 5641 d797 ff41 df1a e2bf 01b5 6041
000003a0: 9e91 053d 49a5 e741 6e28 4341 df6a fc40
000003b0: b320 eb3f 4028 3541 94b3 ed3d 41c4 2442
000003c0: e8e5 aa41 0994 1c41 8e26 7e41 e74a 5b41
000003d0: 1b8f fc3f 330d 5741 296d ea40 60b9 3042
000003e0: 28c8 2940 0b44 8a41 1618 5342 066a 8441
000003f0: 9fe1 1b41 83fb 6341 6c3b 0541 64cc b142
6.785372 0.0935545 6.343006 28.046057 12.036856 20.260036 7.853891 9.346317
0.07179631 21.450195 14.06241 3.1137788 0.1770454 23.58814 0.059019033 25.889608
22.150959 8.640431 12.351443 11.26835 0.16485411 9.844474 10.511785 24.926706
0.009657276 38.000317 67.49775 15.682812 6.9728684 12.848613 4.974756 82.24765
5.625701 0.5067068 10.219662 20.024872 14.858135 16.277143 4.5057015 19.418608
1.0513154 25.640274 12.88044 4.164368 2.3683918 22.859882 -0.053134695 38.6883
15.183044 16.66906 18.83931 14.045275 2.703405 14.684206 8.99652 35.636295
3.3228626 36.818867 74.891304 20.268682 5.903395 11.445987 3.7483006 92.682594
9.777523 0.010827403 13.047664 18.26576 20.237133 23.020914 2.0740824 17.898228
0.29673046 42.055344 12.750089 12.877662 2.7596347 27.492609 0.11513536 43.979347
11.237954 10.089899 12.3565235 18.412527 2.7585914 15.883771 0.23022696 32.010197
1.9685344 30.521698 67.80211 18.190807 15.360079 13.214374 6.8866825 76.75321
8.093969 2.0697875 20.145166 18.36722 8.35868 22.216125 8.4824915 17.221893
-0.78482395 49.393185 8.90913 7.9117656 2.843371 8.568324 0.18050177 30.935705
18.971977 7.3667846 21.313652 4.4919095 1.8640265 18.89246 7.7946076 30.153294
2.271355 27.332043 59.524956 -0.13766295 15.612443 17.62271 0.5597302 89.83572
5.63111 1.0579675 22.695332 10.951502 7.3706098 13.74159 4.4700246 17.141678
0.9963163 30.117071 14.85725 2.8212843 2.722526 16.085873 0.18934862 44.903313
13.832294 9.014219 16.474957 24.96455 3.3302054 16.00022 9.23617 38.35476
3.5582616 22.003162 63.172638 17.555754 11.259936 10.516161 3.2640078 86.28374
2.4539833 1.8016875 26.704168 27.96057 10.03175 15.108152 -6.2775083 22.244081
1.1371174 38.826664 26.425022 10.496686 2.00278 7.846347 0.013177798 40.568832
14.303432 4.680152 19.991879 20.459776 2.9005532 16.246294 9.62585 30.084143
4.4862046 18.570248 56.40658 12.403341 13.992103 18.125208 7.2163477 69.84451
2.4572742 2.1240067 17.636702 20.240932 17.17128 16.20482 8.979816 15.817614
0.467757 12.655568 16.29662 15.807522 0.6221126 17.350048 -0.02050086 39.95428
22.31796 9.809192 22.886095 17.60315 0.94747394 17.30499 8.617683 19.140284
1.87697 23.58169 45.101223 16.686277 23.83179 17.966944 4.0707507 67.85769
3.4664211 1.9367925 23.986341 10.9138565 13.397188 31.94914 -1.766445 14.04419
0.032609574 28.955706 12.197371 7.888046 1.8369354 11.322327 0.116065174 41.191654
21.362259 9.786141 15.884413 13.705787 1.9731172 13.440722 7.325825 44.18103
2.6528416 17.283224 52.77352 16.55177 9.742583 14.248904 8.327007 88.8992

linear_relu_stack.4.bias f4 [125]
00000000: db48 0143 6b92 1443 f577 f042 9725 0e43
00000010: ee4d 0143 bfa2 1043 1b1c e642 ca66 0643
00000020: 99b5 ee42 ea73 1343 7e4c ef42 cbb0 1a43
00000030: d0b8 1143 82fc 1f43 d14d 0043 55a2 0143
00000040: 929e 0b43 9ad5 1143 4a72 0b43 12a0 2143
00000050: b385 1943 2dfc 0b43 0148 b042 9a5e e342
00000060: d218 0743 dac3 3743 528b 0d43 e574 0143
00000070: db71 0b43 5bd7 ff42 e547 0243 b195 f142
00000080: 63c6 f642 6872 1d43 68ff e842 af8a f442
00000090: 2c9c 0743 1cdf 0b43 f335 1343 02fe 1943
000000a0: 0d87 f142 e1f1 3143 a35b 1143 eb10 2a43
000000b0: 680f 0343 d165 0143 f6f9 0e43 25f9 0e43
000000c0: 198b 1543 544a fe42 c9c0 1f43 b2c6 0c43
000000d0: 82d2 0c43 e1e2 e642 476a 0243 85f2 f242
000000e0: 9c6a 0e43 14c4 0943 292a ec42 3500 2a43
000000f0: 324b 2843 1883 1143 5756 ff42 f342 1743
00000100: ba8e ee42 6580 fe42 d027 0a43 014e 0443
00000110: 4703 bb42 e8a4 0243 188e 0f43 0c64 1343
00000120: 5dfe 2643 47a4 0043 7e22 fc42 e5fc d942
00000130: 24ac d942 58ab 1d43 1a90 0543 2e02 0843
00000140: 6f90 2043 69e1 f842 1581 0f43 5612 0d43
00000150: f079 2143 54bb 0c43 0c6c 0043 559b 1a43
00000160: 4787 0543 16d8 0543 5bcb f642 4183 eb42
00000170: 94e9 0243 9138 0043 42d8 ec42 4df9 fb42
00000180: 88eb 0943 900b 1d43 2cd4 1f43 f521 2643
00000190: c910 0243 c8e0 1e43 5224 0543 4087 0e43
000001a0: 1956 fd42 b6a8 1843 7efa 0643 746c 0743
000001b0: 3162 e642 932b 1143 3443 0f43 b8fe 1d43
000001c0: 164f 1343 de40 0b43 2113 e842 5675 ca42
000001d0: fe36 ef42 a3e6 1243 266b e542 bdff d742
000001e0: 4f85 2d43 338c e242 8f43 1743 3dd5 0b43
000001f0: 4cba ca42
129.28459 148.57195 120.23429 142.14684 129.30441 144.63573 115.05489 134.40152
119.35468 147.45279 119.6494 154.6906 145.72192 159.98636 128.30397 129.63411
139.61942 145.83438 139.44644 161.62527 153.52226 139.98506 88.14063 113.68477
135.09695 183.76505 141.54422 129.45662 139.44475 127.920616 130.28084 120.792366
123.387474 157.4469 116.49884 122.27087 135.61005 139.87152 147.21074 153.99222
120.76377 177.94484 145.35796 170.06609 131.06018 129.39772 142.97641 142.97322
149.54335 127.14517 159.75307 140.77615 140.8223 115.44312 130.41515 121.47367
142.41644 137.76593 118.082344 170.00081 168.29373 145.51208 127.66863 151.26152
119.27876 127.25077 138.15552 132.3047 93.5064 130.64417 143.55505 147.39081
166.9936 128.64171 126.06737 108.993935 108.83621 157.66931 133.5629 136.00851
160.5642 124.440254 143.50423 141.07162 161.47632 140.73175 128.42206 154.60677
133.52843 133.84409 123.39718 117.756355 130.91241 128.22096 118.42238 125.986916
137.92004 157.04517 159.8288 166.13264 130.06557 158.87805 133.14188 142.52832
126.66816 152.65903 134.97849 135.42365 115.19178 145.17021 143.26251 157.995
147.30893 139.25339 116.03736 101.22917 119.60741 146.90092 114.709274 107.99949
173.52074 113.27383 151.2639 139.83296 101.36386
