Parameter/cartDQN/1.pth (torch, 7255 bytes, 6 tensors)

linear_relu_stack.0.weight f4 [32, 4]
0.25976846 0.39077675 0.289456 -0.013278441 -0.17413013 0.2844661 -0.2951891 0.054969
-0.05836312 -0.17075582 0.12600252 0.23234093 -0.42781907 0.44364366 0.4455713 0.29437062
-0.48931852 0.1733668 0.090648845 -0.24000666 0.49622 0.26772037 0.46453065 -0.46218273
0.40686008 -0.33993128 0.16698274 -0.2795062 -0.44743168 -0.4147908 0.119759865 0.22915249
-0.13751008 -0.382653 0.3822187 0.25451794 0.19191667 0.3789072 -0.18593958 -0.13045901
0.39924634 -0.12630199 -0.38406456 0.2134765 -0.26191723 0.45254517 -0.3527825 0.43418616
0.07143366 -0.336362 0.057807207 0.2298879 0.14744502 0.13767898 -0.2744897 0.26736665
0.007980585 -0.27453506 -0.1407904 0.062949896 -0.24825148 0.10105483 0.1126169 -0.03187855
-0.06466881 -0.14368095 0.30056927 0.041842557 0.46051478 -0.4027831 -0.45264065 0.19737959
0.4822985 -0.20896968 0.31450182 -0.41401973 -0.4638559 0.09970493 -0.13053277 -0.28767988
0.2849725 -0.38171566 0.44819322 -0.3048197 -0.25673088 0.24040104 -0.15020858 0.18546605
0.18719251 -0.46005154 0.22086044 0.20195612 0.06292117 0.35956126 0.19361949 0.45778364
-0.4228736 0.27019197 -0.20914836 -0.47751942 0.25723463 -0.477785 -0.34809518 0.11000019
0.25624758 -0.31878117 -0.38205057 0.37469208 0.15909727 -0.45603487 0.39593008 0.32642132
0.12441802 0.24916005 0.08057314 0.41475946 0.35527074 -0.26027235 -0.071995616 -0.46496132
-0.33046204 0.26999405 0.3126087 0.17726041 -0.40770525 0.4392032 0.4661665 0.40653622
00000000: 5f00 853e e413 c83e 9433 943e d18d 59bc
00000010: 2b4f 32be 8aa5 913e 0723 97be 2d27 613d
00000020: 2b0e 6fbd 9dda 2ebe ce06 013e c8ea 6d3e
00000030: 1a0b dbbe 4325 e33e ec21 e43e bfb7 963e
00000040: f587 fabe 1187 313e 1aa6 b93d 4ec4 75be
00000050: 8c10 fe3e a512 893e f6d6 ed3e 37a3 ecbe
00000060: f74f d03e 790b aebe 86fd 2a3e 701b 8fbe
00000070: c415 e5be 765f d4be a944 f53d f3a6 6a3e
00000080: 71cf 0cbe 18eb c3be 2bb2 c33e 2d50 823e
00000090: ce85 443e 2000 c23e f266 3ebe 0c97 05be
000000a0: 046a cc3e 4f55 01be 1ca4 c4be 9599 5a3e
000000b0: 041a 86be 00b4 e73e e89f b4be a64d de3e
000000c0: d04b 923d a437 acbe 40c7 6c3d bc67 6b3e
000000d0: d4fb 163e b8fb 0c3e ea89 8cbe 48e4 883e
000000e0: 00c1 023c dc8f 8cbe 5c2b 10be e0eb 803d
000000f0: a335 7ebe d6f5 ce3d b0a3 e63d 1593 02bd
00000100: 1571 84bd 1921 13be 37e4 993e 1a63 2b3d
00000110: 98c8 eb3e 9639 cebe 84c0 e7be e01d 4a3e
00000120: d4ef f63e 26fc 55be 6206 a13e 65fa d3be
00000130: 857e edbe 1932 cc3d 62aa 05be c74a 93be
00000140: eae7 913e 3c70 c3be 9579 e53e 5411 9cbe
00000150: 3b72 83be b12b 763e 47d0 19be d0ea 3d3e
00000160: 65af 3f3e e08b ebbe 3d29 623e 96cd 4e3e
00000170: d0dc 803d 6a18 b83e 3044 463e 9e62 ea3e
00000180: e382 d8be 9a56 8a3e fd2a 56be 6d7d f4be
00000190: 42b4 833e 3ca0 f4be 8839 b2be c847 e13d
000001a0: e232 833e 4937 a3be 229c c3be a4d7 bf3e
000001b0: 65ea 223e 677d e9be 59b7 ca3e b220 a73e
000001c0: e0ce fe3d d023 7f3e 8803 a53d 5a5b d43e
000001d0: 0ce6 b53e 6b42 85be 7072 93bd 690f eebe
000001e0: 5232 a9be a93c 8a3e 3f0e a03e c183 353e
000001f0: bebe d0be 3edf e03e 60ad ee3e 8425 d03e

linear_relu_stack.0.bias f4 [32]
0.12372934 0.34409615 0.48352748 0.3623075 0.416324 -0.2684044 0.14429036 0.44141188
0.35929456 -0.23761609 0.4247278 -0.31829315 -0.1953705 -0.2606579 -0.24826694 0.34805498
0.054612815 -0.34707677 -0.47882313 0.02580358 0.2061504 0.20417632 0.359676 -0.3970095
-0.47010288 -0.26046157 0.255913 0.11332456 -0.39644468 -0.08510494 0.12961759 -0.055337608
00000000: cf65 fd3d 5f2d b03e ea90 f73e 5e80 b93e
00000010: 6b28 d53e 4d6c 89be dac0 133e bd00 e23e
00000020: 75f5 b73e a251 73be ec75 d93e 52f7 a2be
00000030: 340f 48be f474 85be b039 7ebe 4334 b23e
00000040: b0b1 5f3d 0cb4 b1be 4e28 f5be 0862 d33c
00000050: 1719 533e 9913 513e 7427 b83e d444 cbbe
00000060: 53b1 f0be 385b 85be 0707 833e b516 e83d
00000070: ccfa cabe 804b aebd 79ba 043e b0a9 62bd

linear_relu_stack.2.weight f4 [32, 32]
-0.1539872 0.12532414 0.07823768 0.027225452 -0.10878823 -0.03808375 0.054276668 0.0038515897
0.021484502 -0.06720323 -0.027638482 -0.09996067 0.14591415 -0.118790135 -0.016523272 -0.0039759306
-0.1395874 0.15412228 0.00014125516 -0.1134535 -0.04138323 0.05946614 -0.032556247 -0.063004166
-0.10659909 -0.17312413 -0.087228164 0.13941061 0.17219701 0.019601328 -0.061379615 -0.161684
0.15451652 0.101037025 0.025002817 0.025505688 0.008071277 -0.09278652 -0.09472345 0.100159064
-0.06420638 0.09143155 0.0035131336 -0.08566412 -0.15837589 0.032789025 0.034419246 0.09977817
-0.11155512 -0.093291014 -0.042250905 0.08913555 -0.07348792 -0.04117649 0.17230038 -0.14716868
0.07599496 0.042092457 -0.12337682 -0.17161995 0.09501621 0.02598281 0.06903561 0.068977006
0.010383866 0.13668264 0.08727727 0.08839694 0.13238321 -0.07171698 -0.016634222 0.12089333
0.036727306 -0.033837937 0.158867 0.004528932 0.12982224 -0.1030207 0.14243586 -0.05959995
-0.0061161206 0.11844834 -0.16834566 0.015863206 0.11261025 -0.1587927 -0.03392434 -0.042459704
-0.08225489 -0.10422446 0.10759535 0.053584658 0.07454915 -0.13929425 0.045161698 -0.14215355
0.14903913 -0.035659093 -0.040853012 -0.055941284 -0.022514556 -0.08172662 -0.09136159 -0.107178695
-0.02894637 0.17012414 0.12790272 -0.0043398608 -0.09934248 -0.1140743 0.05691757 -0.14075337
-0.08181095 0.16056341 0.03821188 -0.0037284412 0.13421635 -0.040495243 -0.050262414 -0.012996845
0.005453503 0.021541528 0.0019102849 -0.11943066 -0.048971392 0.07602171 0.16355617 -0.0730589
-0.04003411 -0.08697449 0.12807076 -0.11990816 -0.05832755 0.03698424 -0.056858227 0.012985297
-0.009549317 -0.01862172 0.0016369204 0.17209022 -0.006134263 0.14879964 -0.12625457 0.1482798
-0.10472289 0.16376686 0.002743802 0.12656847 0.01811147 -0.1460373 0.13622479 -0.15351975
0.045953825 -0.054037906 -0.111628585 -0.14502433 -0.1695968 -0.039786898 -0.14027351 0.17181367
0.06760176 0.14529864 0.06820739 0.09454948 0.10963856 -0.06290794 0.14832507 -0.14774044
-0.15331383 -0.097529136 0.09871761 -0.1270809 -0.032284863 -0.10718974 0.08474775 -0.13952921
-0.1146426 0.15236463 -0.031455036 -0.06227036 -0.13758686 -0.020916022 -0.13917337 -0.037570376
-0.16785902 0.04612446 -0.15798381 -0.040809654 0.14069043 -0.04207101 -0.035520405 -0.09505347
-0.13186035 0.13714622 0.005150762 -0.13081609 0.15765588 0.016329948 0.00065946335 -0.11038501
0.11813692 0.005141815 -0.022183936 0.015501274 0.008949525 0.12939908 0.06977278 0.036283847
-0.0073066554 0.03610455 -0.14614171 -0.13963853 -0.046234157 -0.065774575 -0.07483224 -0.018912323
0.11276535 -0.15715784 0.017666627 -0.020151088 0.023106568 0.15456095 -0.08278243 0.17344728
-0.014943094 -0.16178 -0.0054471726 0.09896781 -0.13275342 0.09479791 -0.12661187 0.1513367
0.06740356 0.12312706 -0.15262622 0.08675168 0.06079826 -0.15213522 -0.15962438 0.15482746
0.1660265 -0.0364236 -0.14408252 0.02895552 0.0031037207 0.14222644 -0.0442445 -0.1524592
0.14537886 -0.038035 0.06237481 -0.031313177 0.04584161 0.17615071 0.029435037 0.090595596
00000000: d2ae 1dbe f954 003e 143b a03d e907 df3c
00000010: 5dcc debd b5fd 1bbd 3651 5e3d f46a 7c3b
00000020: 4400 b03c d9a1 89bd 196a e2bc 2eb8 ccbd
00000030: 856a 153e 3e48 f3bd d05b 87bc 8648 82bb
00000040: 00f0 0ebe 3bd2 1d3e e51d 1439 4f5a e8bd
00000050: 7681 29bd c492 733d b359 05bd 5408 81bd
00000060: a050 dabd 7447 31be aea4 b2bd a8c1 0e3e
00000070: 6a54 303e f792 a03c 3169 7bbd 7e90 25be
00000080: 9439 1e3e 80ec ce3d b5d2 cc3c 4ef1 d03c
00000090: 643d 043c dc06 bebd 5efe c1bd 3220 cd3d
000000a0: a27e 83bd 7740 bb3d 9a3c 663b ac70 afbd
000000b0: 4a2d 22be c94d 063d 32fb 0c3d 7f58 cc3d
000000c0: 0377 e4bd 5c0f bfbd 490f 2dbd b38c b63d
000000d0: d680 96bd aea8 28bd 836f 303e 63b3 16be
000000e0: 3fa3 9b3d 2469 2c3d fcac fcbd 24bd 2fbe
000000f0: dc97 c23d e7d9 d43c 8b62 8d3d d143 8d3d
00000100: 1721 2a3c 89f6 0b3e 6dbe b23d 7409 b53d
00000110: 778f 073e 5ae0 92bd 7e44 88bc ec96 f73d
00000120: 5f6f 163d a699 0abd 08ae 223e 6f67 943b
00000130: 1ff0 043e 84fc d2bd b5da 113e 141f 74bd
00000140: bd69 c8bb 0b95 f23d ce62 2cbe 8ef3 813c
00000150: 34a0 e63d 8e9a 22be 40f4 0abd 3aea 2dbd
00000160: 4075 a8bd a273 d5bd f35a dc3d 967b 5b3d
00000170: 3aad 983d 27a3 0ebe 79fb 383d b390 11be
00000180: b79d 183e 450f 12bd 7d55 27bd b022 65bd
00000190: 7270 b8bc 4960 a7bd c91b bbbd 8180 dbbd
000001a0: f020 edbc 0635 2e3e eef8 023e 6435 8ebb
000001b0: 1274 cbbd c99f e9bd 6622 693d a721 10be
000001c0: 808c a7bd bc6a 243e 0f84 1c3d dd58 74bb
000001d0: 0370 093e 57de 25bd f6df 4dbd b8f0 54bc
000001e0: 4db3 b23b dc77 b03c 8662 fa3a 1098 f4bd
000001f0: 3a96 48bd 45b1 9b3d 457b 273e e89f 95bd
00000200: cffa 23bd ae1f b2bd fb24 033e 6992 f5bd
00000210: dee8 6ebd c97c 173d 2ce4 68bd 48c0 543c
00000220: bd74 1cbc 948c 98bc ef8d d63a 6b38 303e
00000230: ed01 c9bb ef5e 183e e148 01be a9d6 173e
00000240: f478 d6bd 80b2 273e 5cd1 333b 2a9b 013e
00000250: 815e 943c cd8a 15be 837e 0b3e 4834 1dbe
00000260: 143a 3c3d da56 5dbd 879d e4bd 4281 14be
00000270: c9aa 2dbe 96f7 22bd dca3 0fbe ecef 2f3e
00000280: cb72 8a3d 2bc9 143e 51b0 8b3d 28a3 c13d
00000290: 2e8a e03d e1d5 80bd 87e2 173e 4549 17be
000002a0: 4dfe 1cbe 5bbd c7bd 752c ca3d 7f21 02be
000002b0: 223d 04bd 4b86 dbbd 3a90 ad3d bfe0 0ebe
000002c0: bdc9 eabd 7905 1c3e ffd6 00bd 340f 7fbd
000002d0: 92e3 0cbe 1458 abbc 7783 0ebe 65e3 19bd
000002e0: 3ce3 2bbe 00ed 3c3d 82c6 21be 0628 27bd
000002f0: 2711 103e a752 2cbd d87d 11bd 65ab c2bd
00000300: 6606 07be 0f70 0c3e b9c7 a83b a7f4 05be
00000310: 8b70 213e 62c6 853c d6df 2c3a 8911 e2bd
00000320: c5f1 f13d ac7c a83b 16bb b5bc 0ef9 7d3c
00000330: 07a1 123c 3181 043e 08e5 8e3d 5f9e 143d
00000340: ab6c efbb 5de2 133d 2ca6 15be 67fd 0ebe
00000350: 0760 3dbd d2b4 86bd a541 99bd 04ee 9abc
00000360: 85f1 e63d fced 20be 9ab9 903c e513 a5bc
00000370: fc49 bd3c 3a45 1e3e d689 a9bd 2a9c 313e
00000380: e1d3 74bc a8a9 25be 327e b2bb a3af ca3d
00000390: 83f0 07be 6825 c23d 8ba6 01be 02f8 1a3e
000003a0: e10a 8a3d 0a2a fc3d 0c4a 1cbe ddaa b13d
000003b0: 9907 793d 56c9 1bbe 9374 23be 178b 1e3e
000003c0: da02 2a3e ea30 15bd 5e8a 13be 2034 ed3c
000003d0: cb67 4b3b cfa3 113e b939 35bd 441e 1cbe
000003e0: 32de 143e 97ca 1bbd bb7c 7f3d 3f42 00bd
000003f0: 69c4 3b3d da60 343e bf21 f13c 2f8a b93d

linear_relu_stack.2.bias f4 [32]
0.08622046 -0.10523725 0.16616286 0.0117762955 -0.0884986 0.037445255 0.13044694 0.044950057
-0.059676416 -0.02293463 -0.036263663 -0.023302115 0.09339274 -0.018124027 0.066227846 -0.06997586
0.015635528 0.122535445 0.019315032 -0.08142192 -0.112951614 -0.08417458 -0.107724845 -0.12568803
0.04823267 -0.09238784 -0.120213255 0.134264 -0.10668259 0.037354246 0.060103085 0.16616026
00000000: 5a94 b03d a186 d7bd 9926 2a3e 5df1 403c
00000010: c13e b5bd 3260 193d e293 053e 8d1d 383d
00000020: 426f 74bd 68e1 bbbc 3589 14bd 14e4 bebc
00000030: b144 bf3d d778 94bc 77a2 873d 814f 8fbd
00000040: 1416 803c ddf3 fa3d 8f3a 9e3c 89c0 a6bd
00000050: 2d53 e7bd b963 acbd d89e dcbd 5db4 00be
00000060: 9f8f 453d d635 bdbd 5e32 f6bd 817c 093e
00000070: 677c dabd c400 193d a72e 763d ea25 2a3e

linear_relu_stack.4.weight f4 [2, 32]
0.07654129 0.034226563 0.096486814 0.13084991 -0.055862505 -0.061361894 -0.033238634 -0.020827373
-0.081655115 0.10342654 0.0278861 0.09234722 -0.046112508 -0.13227284 0.028321207 0.15169415
0.10744863 -0.12608923 -0.17528094 0.034748305 -0.15503688 0.14453794 0.03193155 0.0491934
-0.079702914 0.1306219 -0.049259257 0.0074908226 0.05479144 0.09737296 -0.12610202 0.056130763
-0.15215828 0.17150311 0.11957325 -0.008053454 -0.05582719 -0.1494724 0.17061944 -0.036871787
0.032689918 0.013605924 -0.16778567 -0.08128204 0.12827998 -0.004502142 -0.08415923 -0.011613466
0.012859971 0.055512678 -0.0887392 -0.13803753 0.09660337 0.032092758 0.06976966 0.021727838
0.14322737 0.09799846 0.113092996 -0.10084443 -0.11624845 0.16062923 -0.11129407 0.16806814
00000000: aec1 9c3d 2731 0c3d e19a c53d 85fd 053e
00000010: 15d0 64bd 9c56 7bbd 3c25 08bd 2b9e aabc
00000020: cc3a a7bd 4bd1 d33d 6471 e43c 8a20 bd3d
00000030: 78e0 3cbd 8872 07be e001 e83c b655 1b3e
00000040: 070e dc3d 891d 01be d97c 33be 3d54 0e3d
00000050: fdc1 1ebe c101 143e a8ca 023d 057f 493d
00000060: 483b a3bd bfc1 053e 13c4 49bd 9375 f53b
00000070: fd6c 603d 796b c73d e320 01be 5fe9 653d
00000080: 61cf 1bbe 839e 2f3e d2e2 f43d a2f2 03bc
00000090: 0dab 64bd 4b0f 19be ddb6 2e3e df06 17bd
000000a0: dde5 053d 62eb 5e3c 02d0 2bbe 3377 a6bd
000000b0: d45b 033e b486 93bb ad5b acbd 6846 3ebc
000000c0: a1b2 523c 4361 633d e6bc b5bd b659 0dbe
000000d0: fdd7 c53d b273 033d 65e3 8e3d 94fe b13c
000000e0: 32aa 123e 6bb3 c83d 4d9d e73d 8687 cebd
000000f0: ab13 eebd fd7b 243e 25ee e3bd 0e1a 2c3e

linear_relu_stack.4.bias f4 [2]
-0.040434755 0.08674481
00000000: ea9e 25bd 43a7 b13d
