Parameter/wallplaneTEST/02.pth (torch, 126791 bytes, 9 tensors)

elu_stack.0.weight f4 [100, 4]
00000000: 2410 72be 8270 e33e a07e 883c 708f b13e
00000010: 1422 933e 181f 09be 2cef 603e bcc7 5d3e
00000020: 9a86 8fbe 2011 cdbd c017 ac3c 4cd1 8f3e
00000030: ac32 533e a2f5 8bbe 588c b83d e49b e43e
00000040: e0a8 53bd 3889 ffbd 60b9 d93c 56d6 983e
00000050: 103b 773e fe3e eabe 34ed 1abe 846f b6be
00000060: e4ab 1fbe 74c1 8abe f028 c63e 5205 a23e
00000070: da93 fcbe c092 463c 0067 273c 2051 be3c
00000080: e461 fabe 7844 14be 48a0 cbbd d45d e13e
00000090: f08c 613e 30e9 01bd 649e c53e b2de b1be
000000a0: 6e6c 9c3e 660b bcbe c0b2 fcbc ac3a 873e
000000b0: 06d4 e83e 22ff a5be 38f1 b4bd 849e 153e
000000c0: 6a54 cb3e 9635 cb3e 78c2 ad3e d434 3b3e
000000d0: 8acf b2be 0010 77bd 723e 8bbe c859 bf3d
000000e0: 4072 de3e c66f a3be 2c6b 44be 6886 3b3e
000000f0: fc0b 6a3e dcb1 773e fce7 23be 40cd 6d3c
00000100: 045f 1e3e 4498 223e 28d9 a9be bce1 09be
00000110: 3853 bebd cc18 c5be 00b0 2cbb 18bd febd
00000120: 3017 d83d fe54 963e a05c 46be a088 d9bc
00000130: e6c5 8fbe a026 c93c 5873 d8be cc49 763e
00000140: 2c84 e5be 8825 373e 420e ccbe 9406 253e
00000150: 48b9 313e a08d bc3e 5c14 86be 58ee c4bd
00000160: 16f7 b8be 8ac8 d2be 94ea b43e ead0 e63e
00000170: 4072 15bd 3c12 29be 9cfb 2d3e 9014 5c3e
00000180: 04fa 07be 645f cabe aec9 e6be d41f 4e3e
00000190: 18fe 01be fa55 d73e 208d ec3e c6fb 89be
000001a0: dc05 e23e ae8f fe3e 0a19 9abe b8b5 1ebe
000001b0: 9042 703d 34b0 f93e c2e7 d13e 4646 e93e
000001c0: 18a0 cbbe d4f2 f9be 7279 f1be 88af 41be
000001d0: fcf6 6ebe 2266 e63e 3e96 93be f814 b1bd
000001e0: ccd2 81be 0035 0f3e 5887 903d c80e e83d
000001f0: 0030 cabd 20f1 613e 60f4 1c3d e2b2 babe
00000200: 70b8 653e 3034 083d 5c0d 78be 1046 91bd
00000210: 461b 923e e452 bfbe 24af b93e 0c06 8ebe
00000220: 3051 583e 14a3 093e c0c9 853c 249c 4ebe
00000230: b849 83be 08a9 81be d40a 5a3e e874 663e
00000240: ace5 90be dc7d 97be 007f 28be baae a43e
00000250: 8033 933b 7a76 bcbe a403 aabe 7eb5 b7be
00000260: ec07 ea3e 8cf8 1c3e 8a9e a4be 085c d33d
00000270: d8c2 dc3e 40fe ee3c d0d3 d03d 0274 fdbe
00000280: 0080 8637 ca29 da3e f84d 90be 2433 13be
00000290: 62ee a43e cc51 d23e 08c6 a73e 308a 0fbd
000002a0: 0028 ab3d a812 d4be d650 d43e f811 5dbe
000002b0: f428 febe 2875 b0bd 66c7 e3be 80c0 d7bb
000002c0: 6007 abbc d679 ce3e 90b2 1fbe 4809 a33e
000002d0: 70e2 07bd 4015 ecbe 4026 be3e 78d5 26be
000002e0: 3478 68be c081 30bd ea27 d2be 7649 f83e
000002f0: 2c9c 953e 0e96 8b3e 02f6 ccbe 76a2 8cbe
00000300: 96e1 98be 100d dbbd 4af8 8b3e 005e fa3e
00000310: 62b3 dbbe c025 7ebd 8e98 a5be 5a9e ffbe
00000320: 6ccf e8be f4f4 aa3e ae46 babe 4cd0 243e
00000330: bce7 a8be f48d 11be ea32 f33e 205d f33e
00000340: 107d 98bd f40d 19be 405f 6d3e 408d 1dbe
00000350: eecb b53e e655 a5be 68fb 903d 0005 d43d
00000360: c058 78bc 0648 c4be bad3 d93e 82b9 dfbe
00000370: b0ef 17bd d447 76be 36f4 cc3e 48a2 df3e
00000380: 88d0 4b3e 184a cb3d 06e3 c73e 8e7a b6be
00000390: acd5 59be 6cb1 06be 948a 933e 8ced 2fbe
000003a0: ec7b bbbe 08ae e03e 305e aebe 02fb ea3e
000003b0: 504e cd3e d0db 4ebd de88 ee3e d85f 8bbd
000003c0: 700d 0e3d 5232 e73e 3cc3 543e 1a56 ecbe
000003d0: a6a7 9c3e 3e37 fc3e f409 cfbe 34a3 4cbe
000003e0: fc5b e5be 4865 813d 346e 8f3e 4871 8e3d
000003f0: 4057 d73c d4f6 b9be 7e0e 94be d442 44be
-0.2363897 0.44421774 0.016661942 0.34679747 0.28736937 -0.13390768 0.21966237 0.21658224
-0.2803238 -0.10013032 0.021007419 0.28089368 0.20624799 -0.2733584 0.090111434 0.44650185
-0.051674724 -0.12477344 0.026577652 0.29851025 0.24143624 -0.45751184 -0.15129548 -0.35631955
-0.15592915 -0.27100718 0.38703108 0.31644684 -0.49331552 0.012119949 0.010217428 0.023232043
-0.4890281 -0.14479244 -0.099426806 0.44016898 0.2202642 -0.031716526 0.38597405 -0.34740216
0.30551475 -0.36727446 -0.030846953 0.2641195 0.4547426 -0.32421213 -0.08835071 0.1461125
0.3971284 0.3968932 0.3393743 0.18281871 -0.34923965 -0.060317993 -0.2719608 0.09343296
0.4344654 -0.31921214 -0.19181508 0.1831299 0.22856134 0.24188942 -0.16006464 0.014514267
0.15465933 0.15878397 -0.3317349 -0.13465017 -0.092932165 -0.3849548 -0.0026350021 -0.124384105
0.10551298 0.2936172 -0.19371271 -0.026554406 -0.28080672 0.02455455 -0.422755 0.24051589
-0.44827402 0.17885411 -0.39854628 0.1611579 0.17355835 0.368268 -0.26187408 -0.09615773
-0.36126012 -0.41168624 0.3533522 0.45081264 -0.03648591 -0.16510862 0.16990513 0.21492219
-0.13278967 -0.39525902 -0.45075744 0.20129329 -0.12694585 0.42057782 0.4620142 -0.269499
0.44145095 0.49718994 -0.30097228 -0.15499008 0.05865723 0.48767245 0.4099713 0.45561427
-0.3977058 -0.48818076 -0.47162968 -0.18914616 -0.23336405 0.44999796 -0.28825563 -0.086465776
-0.25356138 0.13985062 0.07057065 0.11330944 -0.098724365 0.22064638 0.03831899 -0.36464602
0.22433639 0.033252895 -0.24223846 -0.070934415 0.28536433 -0.37367928 0.36266434 -0.27738988
0.2112472 0.13441116 0.016331553 -0.2017675 -0.2564218 -0.25324273 0.21293193 0.22505534
-0.28300226 -0.2958821 -0.16454697 0.32164556 0.0044922233 -0.3680914 -0.33205903 -0.35880655
0.4570917 0.15329188 -0.32152206 0.10320288 0.43117404 0.02917397 0.1019665 -0.4950257
1.603365e-05 0.42610008 -0.28184485 -0.14374977 0.32213122 0.4107803 0.32768273 -0.035043895
0.08357239 -0.41420484 0.41467923 -0.21588886 -0.4964062 -0.08616096 -0.44488066 -0.006584227
-0.02087754 0.40327328 -0.1559546 0.3184302 -0.033174932 -0.46109962 0.37138557 -0.1629237
-0.22702104 -0.04309249 -0.41046077 0.48493546 0.29220712 0.2726292 -0.4003144 -0.27467698
-0.29859608 -0.10695851 0.27337867 0.4889984 -0.42910296 -0.06204772 -0.32342952 -0.499255
-0.4547075 0.3339001 -0.3638205 0.16095084 -0.329893 -0.14214307 0.47499782 0.47531986
-0.07445729 -0.14946729 0.23180866 -0.15385914 0.35507149 -0.32292098 0.07079202 0.10352516
-0.015157878 -0.383362 0.42544347 -0.4369622 -0.03709382 -0.24050838 0.40030068 0.43678498
0.19903767 0.09926242 0.39040393 -0.35640377 -0.21272916 -0.13153619 0.28816664 -0.1718046
-0.36617982 0.43882775 -0.34056234 0.4589463 0.4009881 -0.0505026 0.46588796 -0.0680539
0.034680784 0.4515558 0.20777601 -0.4615944 0.30596656 0.49260896 -0.4043728 -0.19984132
-0.4479674 0.06318146 0.28013766 0.069552004 0.026286721 -0.36321127 -0.28917307 -0.19166118

elu_stack.0.bias f4 [100]
00000000: 1c0c 3abe c08b 263e b4cf 5bbe 42c3 ed3e
00000010: 0039 aebc 74fb 9ebe 4478 77be 5806 7b3e
00000020: 0018 65bb 3440 983e 7ed5 e4be bc5d b53e
00000030: 929f d93e 0abc 933e dca1 963e 2e3e e33e
00000040: f86e 68be 8861 b2be 40bf 43be d63f 8fbe
00000050: 2ad8 debe e6a3 b0be 2e5e f8be a045 78bd
00000060: a03c da3e 6236 9f3e 90a5 de3d c269 9abe
00000070: 0835 58be 84b4 f23e 20c3 6c3e 4882 acbd
00000080: 000c c6bc eca4 123e 9840 9bbe c8f4 993d
00000090: 20d9 2c3e 386c e6bd 9850 70be 68f5 be3e
000000a0: a065 b43e 309b 0b3d 3ac4 bdbe 1275 cbbe
000000b0: c8d9 9b3d e806 0dbe fc02 85be 8455 f03e
000000c0: 8cd0 b83e 28ae 99bd 588f e1bd 244f 3f3e
000000d0: c024 623d 9e02 833e 88c0 e0bd 085a 873d
000000e0: d825 893e 0047 3b3d d086 06be 9cc0 3cbe
000000f0: 5020 063d ac65 7d3e 4e75 af3e 10e9 e73d
00000100: 301f cfbd 940c 4d3e 5030 febd f86d 5dbe
00000110: a6bd 843e 5ce8 8fbe 9648 ccbe 06bb b13e
00000120: 566a a33e 6812 a23d 406c 71bd 563f 873e
00000130: 6099 28be 70df ce3e d051 f4be 50eb 0c3e
00000140: 0cfa fa3e 90c1 cfbe b83f cfbd 8865 aa3e
00000150: 9a39 953e 3031 cabe 8e57 993e 341d 5fbe
00000160: c826 c0bd 085b bb3e 80ce 1c3e 2c9f dcbe
00000170: 30be a9bd 70df 19be fc37 cebe 90d0 8e3d
00000180: c866 95be dca5 083e a0c7 84bc a49c 7ebe
-0.18168682 0.16264248 -0.21465951 0.46438032 -0.021267414 -0.31051219 -0.24166971 0.24514139
-0.0034956932 0.29736483 -0.44694132 0.35423076 0.42504555 0.288544 0.29420364 0.44383377
-0.22698581 -0.34840035 -0.19115925 -0.2797839 -0.43524295 -0.34500045 -0.48509353 -0.060613275
0.42624378 0.31096178 0.10871422 -0.30158812 -0.2111398 0.47403347 0.2312131 -0.08423287
-0.024175644 0.14320725 -0.3032272 0.075173914 0.16879702 -0.1125111 -0.23468244 0.37296605
0.35233784 0.034083545 -0.3706377 -0.39737755 0.07609898 -0.13772166 -0.2597884 0.46940243
0.3609661 -0.07503921 -0.11013669 0.18682534 0.05521083 0.25587934 -0.109742224 0.06608969
0.26786685 0.045722008 -0.13137364 -0.1843285 0.03274566 0.24745816 0.34269184 0.1132375
-0.101133704 0.2002433 -0.12411559 -0.21623981 0.2592594 -0.28106964 -0.3989913 0.34713
0.31917065 0.07913667 -0.058941126 0.2641551 -0.16464758 0.40404844 -0.47718668 0.1376164
0.49018896 -0.40577364 -0.10119575 0.33280587 0.2914551 -0.39490652 0.2994961 -0.21788484
-0.09382397 0.3659289 0.15313148 -0.43090189 -0.082882285 -0.15026641 -0.40277088 0.06973374
-0.29179978 0.1334452 -0.01620847 -0.24864441

elu_stack.2.weight f4 [100, 100]
00000000: ff93 99bd 5a91 9dbd a74d 0cbd ef89 b9bd
00000010: 0035 b1bd 3dce 34bd 9ad9 50bd 4d15 b3bc
00000020: fa6e 303d 1bfa a03d 7f4c bc3d cd2d 7ebc
00000030: 1f7d 8dbd e7b0 9c3b 0d47 133c 8d40 3b3c
00000040: 9d63 3abd 4d85 45bc e019 89bc cd68 7c3d
00000050: 67f7 3abb e7fc e6bb cdcc 7837 332f cabc
00000060: 3ada d6bc 9aa3 25bb f7b9 55bd b57c 833d
00000070: 8d7d 003c 00dd d6bb e767 28bc 1a3d 16bc
00000080: 73b8 083d ea70 adbd e72f abbd d801 adbd
00000090: fdfc 9fbd 3a34 713d 72b3 a73d 85dc b53d
000000a0: aa69 9fbd aa17 adbd 7a71 99bc ada9 16bd
000000b0: 07f8 b43d e0f6 ad3d 00cc eabb cda8 b53c
000000c0: c277 813d b883 be3d 5f4c 933d 2d43 473d
000000d0: ed95 4abd 534b 593d 0710 f0bc 0038 3b3d
000000e0: b0f6 b33d 50dc 4c3d 80c9 eabc 9a18 4f3c
000000f0: 6d5e 6d3d bdbe a9bd c3dd 003d 87ec bb3d
00000100: 47bf 0c3d 1d39 953d cd0c de38 5acd a33c
00000110: 8dcc 68bc 2d76 363d 3037 54bd e741 7d3d
00000120: 5aef 2dbd 8703 cbbd 77e6 be3d 7a2f a4bc
00000130: bde1 463d 35e0 c2bd 5a41 b73c b393 64bd
00000140: e722 4b3d b5cb 92bd 271a e03c e090 43bd
00000150: 98aa c73d e0c1 46bd da1a 8ebd 374b 82bd
00000160: 90e9 843d 7acf 0cbd 3038 6dbd cf88 c73d
00000170: bf0d a7bd faf7 bd3c 2d78 1f3d 75b5 a73d
00000180: cdfc e7bc 5d8e a43d 53e3 cb3d cdc8 6f3a
00000190: c71d a4bc 5716 81bd 83dd 4a3d 625c bb3d
000001a0: 6518 ba3d a7c8 4dbc 1a25 9f3c a7eb 463c
000001b0: 6da4 353d b382 273c 204a 01bd 4087 aabc
000001c0: 22e9 c4bd 27ca 713c 4054 07bd eaf6 583d
000001d0: 58d3 ac3d 3a32 d33c f3da 2b3d 6784 29bb
000001e0: b34a 153c 0754 a23c 8272 b03d 0725 b83d
000001f0: fdc5 933d 350a c43d 5777 4e3d ea4a 59bd
00000200: 2ac9 51bd 335f 373c faba 7d3d d7b1 c23d
00000210: 8a41 bbbd 7b55 bc3d 27bb 343d 7bcb a33d
00000220: 1adc b1bb da83 aa3c 6dfe a9bc 8343 82bd
00000230: 38ef b93d 4d07 c7bb 58b7 9fbd f0e4 a03d
00000240: b3f7 64bc 8798 87bc b5de 9d3d b526 c1bd
00000250: 2089 55bd 4098 66bc 7579 89bd 3364 a03b
00000260: 930b 0cbd ef5f 8d3d 88e7 b23d 23f7 60bd
00000270: cda7 efbb 728a 8e3d 40d8 09bc aab7 723d
00000280: 1a69 ae3c 6349 7cbd ed86 0bbd 4f7f 9a3d
00000290: fa78 86bc 4051 d1bc 3fc6 953d 0d47 fabc
000002a0: 4795 1c3d 98c3 b63d 80f9 ddbb 8dff 70bc
000002b0: 235c 963d 5d61 ac3d 104f 34bd cd47 94bd
000002c0: 93b9 513d 2758 91bc ba0e 9f3d 770e 343d
000002d0: 47a0 92bd bf7f b2bd 45f5 c63d d3b9 ccbd
000002e0: 0deb c73d f7f5 30bd 3397 b43c 7bc7 933d
000002f0: a773 76bd 93d3 c33c 9a83 f7bc 6017 1a3d
00000300: e059 883c 8d17 c53c 333f 33bb a775 cf3c
00000310: 1a0c e9bb b0bf 5c3d e084 11bd 75e5 c8bd
00000320: 07af 543d fab0 babc ab6f 90bd 5ac5 24bc
00000330: ebed 96bd 80a6 aabd dac5 413d 1dcd bbbd
00000340: 9303 52bd 608d d2bc 4d2c 98bc f0a9 c23d
00000350: d370 7b3d 9a68 733b 1d92 1e3d 1da3 42bd
00000360: 5745 c63d 0358 40bd 33b3 e1b8 08f8 993d
00000370: d256 b53d 003c 3dbd b325 f4bb 30fd 52bd
00000380: 503c 233d 2577 82bd c72a 7bbd 28ae 9bbd
00000390: a267 993d da49 4c3d 2d0e 9fbd 8db6 c7bd
000003a0: 8000 503c 336f 723a 3369 76bc 23fa 593d
000003b0: 8ac1 53bd ad50 3b3d 6a12 4f3d c041 adbd
000003c0: 57b4 2ebd cac8 473d 37ec 963d 7dd0 16bd
000003d0: 40cc a4bd 8746 8b3d 9dd5 21bd a393 c53d
000003e0: cf50 a33d 2a4f 7f3d 4031 043c 97cd 973d
000003f0: fd96 353d b3a5 133c 73ab cc3d 17bd 683d
-0.07498931 -0.07693739 -0.034253743 -0.09059512 -0.08652687 -0.044141997 -0.05098877 -0.021860743
0.043074585 0.07860204 0.09194278 -0.015513849 -0.069086306 0.0047818306 0.008989108 0.011428964
-0.045505155 -0.012055707 -0.016735971 0.061623383 -0.002852881 -0.0070491913 1.4829636e-05 -0.02468071
-0.026227105 -0.0025274516 -0.052179303 0.0642027 0.007842434 -0.006557107 -0.0102786785 -0.009169841
0.03337903 -0.08468802 -0.08358746 -0.08447617 -0.078119256 0.058887698 0.08188523 0.088799514
-0.07783826 -0.08451779 -0.018730868 -0.03678291 0.0883637 0.08494353 -0.007165432 0.022175217
0.0632167 0.09302467 0.07192301 0.04864805 -0.049459387 0.05305035 -0.029304517 0.045707703
0.08787286 0.050014794 -0.028660536 0.012640143 0.05795138 -0.082883336 0.03146149 0.091759734
0.034362104 0.07286284 0.00010588169 0.01999538 -0.014208925 0.044546295 -0.051810443 0.061830427
-0.04246459 -0.09912782 0.093213014 -0.02004217 0.048555125 -0.0951542 0.02237003 -0.05580492
0.049593832 -0.0716776 0.02735622 -0.047745585 0.09749335 -0.048524737 -0.06938715 -0.06362002
0.06489861 -0.034377553 -0.057914913 0.09742891 -0.08156919 0.023189534 0.038932968 0.08188907
-0.028318787 0.08034966 0.09955468 0.0009147048 -0.02003373 -0.06303089 0.049527656 0.0914848
0.09086684 -0.012560046 0.019426871 0.012141145 0.04434626 0.010224032 -0.03156483 -0.020816445
-0.09614779 0.0147576695 -0.03303933 0.05296985 0.08438748 0.025780786 0.041956853 -0.0025866271
0.009112048 0.019815458 0.08615591 0.089914374 0.07215498 0.09572259 0.05040678 -0.05304996
-0.051217236 0.011192131 0.061945893 0.095065765 -0.0914336 0.091959916 0.044123795 0.07997795
-0.0054278495 0.020814825 -0.020751202 -0.06360533 0.090788305 -0.0060738684 -0.07798642 0.07856166
-0.013975072 -0.016552223 0.077084936 -0.09431211 -0.052132726 -0.014074385 -0.06712619 0.004894757
-0.034190726 0.069030635 0.08735567 -0.054923188 -0.0073137046 0.0696 -0.008413374 0.059257187
0.02129035 -0.061593425 -0.034064222 0.075438134 -0.016415108 -0.025551438 0.07313203 -0.030551458
0.0382283 0.08924025 -0.0067741275 -0.014709366 0.073417924 0.08417008 -0.044020712 -0.072402574
0.051202368 -0.01774223 0.07766481 0.043959107 -0.07159477 -0.08715772 0.0971475 -0.09996381
0.09761629 -0.04320332 0.022044754 0.07215782 -0.06016889 0.023904597 -0.03021412 0.03761995
0.016644418 0.024059081 -0.0027350902 0.025324656 -0.0071120383 0.053893745 -0.03552711 -0.098093905
0.05192473 -0.022789467 -0.07052549 -0.010056818 -0.07369598 -0.083325386 0.047307827 -0.09169982
-0.05127294 -0.025702178 -0.018575812 0.09505069 0.061386894 0.0037141205 0.038713563 -0.04751884
0.09681194 -0.046958935 -0.000107622145 0.07518011 0.0885445 -0.0461998 -0.007450783 -0.05151099
0.03985244 -0.06370381 -0.061320093 -0.07601577 0.074904695 0.049875118 -0.07766376 -0.09751616
0.012695432 0.00092481374 -0.01503973 0.053217065 -0.051698245 0.045731235 0.05055467 -0.084598064
-0.042652454 0.04877547 0.07369273 -0.036819924 -0.0804677 0.068005614 -0.039510358 0.096473
0.079743974 0.062331356 0.008068383 0.0741226 0.044333447 0.009011674 0.09993639 0.056820955

elu_stack.2.bias f4 [100]
00000000: e760 e9bc cd9a 2c3d 93c3 3ebd 35a3 c9bd
00000010: 2023 983c df58 8b3d 4d6a adbd 0077 d9bc
00000020: cd70 d3ba bb98 963d b357 823d c788 6a3d
00000030: 505f 12bd e368 cc3d b829 babd 0bee a43d
00000040: 3030 203d 1f96 9dbd 0040 a6bb e041 cbbd
00000050: cd95 92bc c712 cc3d 07c5 873c a8de aabd
00000060: 903b 45bd 27d8 b4bd cfe0 b23d b25a aa3d
00000070: 8f7b b9bd 4d05 d7bc 730f b43d adb4 94bd
00000080: e061 dcbc 736b 08bc 0f2d b73d 8db9 3cbc
00000090: 478f 09bd 4b11 883d 9331 e63c 6d1c 5bbd
000000a0: 8754 46bd 8f0e 88bd 67a8 1d3b d50f 833d
000000b0: 6713 853c b32f 023d aa20 00bd 7248 c6bd
000000c0: 5395 353d 1afd 30bd 1f60 bf3d f3e4 56bd
000000d0: 8316 753d 90ea 913d 6b54 c7bd 57fa bf3d
000000e0: e01d 56bd c0bb 5dbc 023d bfbd 458e cc3d
000000f0: 733a 303c f397 773d 1f3f b03d 2590 c1bd
00000100: 5a77 8e3c 28ca babd a7c6 cb3d c7de 9abc
00000110: 0d44 fd3c ea7f 3dbd 5319 2ebd d5c0 8d3d
00000120: f765 053d 6774 a2bd 028c c03d e736 a6bb
00000130: 2dd0 bf3d 7500 97bd caca acbd 7f8a a33d
00000140: f73f 2ebd 77a2 6d3d ad32 d23c c716 613d
00000150: c757 b3bd 7ada a43c 80fa 7f3d 00b9 ef3b
00000160: e712 d33c 9ad2 0fbb 733c 4c3c 8a32 083d
00000170: 8f5d cabd c7ac 693d d81d b53d 8762 a23c
00000180: a746 103c 9a7e f1bb ed16 3ebd 5d77 46bd
-0.02848859 0.042139817 -0.046573233 -0.098455824 0.018571436 0.0680406 -0.08467541 -0.026546001
-0.001613164 0.0735335 0.063643835 0.057259347 -0.03573543 0.09980943 -0.090899885 0.080532156
0.039108455 -0.07694649 -0.0050735474 -0.09924674 -0.017893696 0.09964519 0.016573442 -0.083432496
-0.048152506 -0.0883029 0.08734285 0.0831808 -0.0905677 -0.026247645 0.08792009 -0.07261024
-0.02690214 -0.008326399 0.08944141 -0.011518848 -0.033583906 0.06643923 0.02809981 -0.053493906
-0.048420455 -0.06643402 0.0024056674 0.06399504 0.016244603 0.03178377 -0.03128115 -0.096817866
0.04433186 -0.043210126 0.093445055 -0.052464437 0.059835922 0.07124817 -0.09732898 0.093739204
-0.052274585 -0.013533533 -0.09337808 0.09988073 0.010756123 0.060447644 0.086057894 -0.094513215
0.017390896 -0.091205895 0.09949999 -0.018905057 0.030916238 -0.046264566 -0.04250462 0.069215454
0.032567944 -0.07932358 0.09401704 -0.005072463 0.09365878 -0.07373134 -0.084371164 0.079854004
-0.04254147 0.058016267 0.02565893 0.054953363 -0.087569766 0.020123709 0.062494755 0.007315755
0.02576585 -0.0021945597 0.012465584 0.033251323 -0.09881126 0.05704954 0.08843583 0.019822372
0.008805907 -0.0073698284 -0.046408582 -0.048453677

elu_stack.4.weight f4 [100, 100]
00000000: 83be 8abd d355 91bd d399 943c 63a7 603d
00000010: da71 5a3d 1a8a 2f3c 40f6 4ebd 02ab 873d
00000020: f377 663d 5b65 c1bd e048 8d3d 23b2 333d
00000030: d793 25bd a8ee 9ebd 6d45 b2bd f386 083c
00000040: 60d5 24bd 6776 123c fd48 37bd b2cb c33d
00000050: 67c9 7b3c 2a15 bf3d 2be4 aa3d a741 bdbc
00000060: b8f0 c2bd e087 043d e062 2f3d c094 813c
00000070: f5cd a1bd ad56 b03d 826a acbd e37c 1f3d
00000080: cd8d 8fbd e72a f9bc 8086 40bd 7af5 463d
00000090: f05b 94bd 5da7 38bd 6703 4fbb df1e 9a3d
000000a0: 8793 b9bd 4d36 0b3d a20b 993d ff47 a83d
000000b0: 6712 723c 0068 bdbb b892 bd3d f7c1 793d
000000c0: 13cc 9dbc dd3b 7dbd 0d26 053d 232a 203d
000000d0: bf06 c03d e0bf 973c ebb6 adbd ef21 b2bd
000000e0: bab7 32bd 0756 db3c 1a42 b8bc f739 55bd
000000f0: fad2 95bc 3398 abbd 0d3e 49bd dbe0 c73d
00000100: 6750 c33c ad1c fabc 27ed 2bbd 7d94 b53d
00000110: 8d1d 473d 7a2a ca3d a0fe 033d 10e5 85bd
00000120: aac9 193d 404d 83bc 0a6b c2bd 40c3 123c
00000130: b029 43bd d7ae 643d e074 8ebd a0c7 bfbc
00000140: 3ab8 9dbd 9afd 863c d70f 793d 0d3e 283c
00000150: cd8e 363c 0b41 96bd 879f 643d 77b9 503d
00000160: 7d10 6a3d 135c 4dbd 972e a7bd 00d1 4dbb
00000170: 176b b0bd 82b8 8bbd cdd7 39bc c05d e53c
00000180: 3a62 4c3d fbc3 b63d c0b3 61bd 036e 143d
00000190: 27b5 bcbd edd6 20bd 67fb 4b3b 8de7 0b3d
000001a0: 139f c9bd 3ac9 d13c 1086 9fbd 7acd f6bc
000001b0: 82ed 9c3d cdf5 6f3d b396 413c 206f 163d
000001c0: 3307 0abb 1a6a a3bd 5302 e93c 4d71 b5bc
000001d0: ed5b f6bc fa74 ee3c 83f6 90bd dad5 7ebd
000001e0: 4870 c93d 03f8 61bd 63f3 b83d d08c 87bd
000001f0: 8547 b2bd 5ab5 ae3c 02e8 a33d ad03 b6bc
00000200: 13af a73d 0d89 ac3d 331d adbc cd43 7e3d
00000210: ba44 9fbc 8a54 8b3d dae4 67bc 9312 ca3d
00000220: 2723 483d 2f4f a03d d375 c7bc b319 53bc
00000230: b34a 15bc a7cf 193c 40bd b53d cd4c 503d
00000240: 83f1 9e3d 1a83 3e3c 0aac 10bd b250 c2bd
00000250: cae2 b53d c3cc a6bd 2df4 ab3c 9b7b 9e3d
00000260: 0a3a c5bd 5366 8c3d 9b37 c73d 3373 bcb8
00000270: 7ba9 b43d 5b7c 953d cd6a c23a 402d 4c3c
00000280: c0dc 78bc 2342 1a3d e722 cc3c 350d 9abd
00000290: 9a3e da3c d36c 533d 7f30 89bd 8006 7b3d
000002a0: 5abb cb3d fb6c a53d 07f5 fa3c 1771 1e3d
000002b0: 5a62 df3c a234 9bbd a7a8 033c 6a0e babd
000002c0: 33ef e2ba 8001 7ebd e38e 7b3d 9305 3e3d
000002d0: ef7e abbd f2d1 ca3d 10d1 2fbd 557e 8c3d
000002e0: 8d37 57bd d085 74bd d0d4 3e3d d279 cc3d
000002f0: e726 9c3d a783 47bc 8b09 a73d ed5f aebd
00000300: 477d 353d a290 a3bd 7713 b53d 6713 b63d
00000310: e5be bc3d 33bb b43d fd57 1fbd 0ae2 c63d
00000320: 0a99 08bd 4503 86bd 2b9f c5bd 8d71 873d
00000330: 17e0 b2bd e70d 8bbc fac8 db3c d72a cb3d
00000340: f3f3 593c 209c f7bc 1f71 9abd 0762 603d
00000350: 152e 9a3d 2729 c83c f293 b9bd 304d 18bd
00000360: ab91 8b3d 7ad3 553d 77b7 46bd cd88 2abc
00000370: e5db 8f3d b308 403c 1d83 3bbd ade7 e8bc
00000380: 93fb 7ebd fd06 1d3d 339b 123c e0cf adbd
00000390: 1360 8bbc 3a6e aebc 33ef 6d3d e827 a63d
000003a0: 0d96 e53c 1b28 9cbd fa73 173d 83f2 083d
000003b0: d2fe 8fbd 17c2 53bd 13b1 b93d 43fe ca3d
000003c0: 9d4a 703d 6780 72bb fa6f 863d 1354 e33c
000003d0: b321 d8bb 8acc b03d a321 22bd 33f3 6a38
000003e0: 43cc 4a3d f32f 183c 25f0 8abd 53d3 c8bd
000003f0: c7ed 77bd 4db4 3a3d 4d20 b1bb f573 973d
-0.067746185 -0.07096448 0.018139755 0.054847132 0.053331234 0.010714078 -0.05052781 0.06624414
0.056266736 -0.0944316 0.068986654 0.043871056 -0.040424194 -0.07760364 -0.08704648 0.008332956
-0.040242553 0.008939362 -0.04474734 0.09560336 0.015367842 0.093302086 0.08344301 -0.023102595
-0.0951857 0.032356143 0.042818904 0.015818 -0.07900611 0.08610282 -0.08418752 0.03893746
-0.07009468 -0.030415965 -0.04700327 0.04857395 -0.07244098 -0.045081485 -0.0031587721 0.075254194
-0.09061342 0.033987332 0.07472922 0.08216857 0.014774895 -0.00578022 0.092565 0.060975995
-0.01926235 -0.06182467 0.03250699 0.039102685 0.09376287 0.01852411 -0.084821545 -0.086978786
-0.043632247 0.02677442 -0.022492457 -0.052057233 -0.018289078 -0.08378639 -0.04913144 0.09759685
0.02384205 -0.030531252 -0.041974213 0.088662125 0.048612166 0.09871383 0.03222525 -0.06537831
0.037545837 -0.016028047 -0.09493072 0.008957684 -0.04764718 0.055830803 -0.06955886 -0.023410618
-0.07701154 0.016478349 0.06080612 0.0102687 0.011142445 -0.07336625 0.0558162 0.050958123
0.05714463 -0.050136637 -0.08163183 -0.0031405091 -0.08614176 -0.068223014 -0.011342955 0.027998805
0.049898364 0.08924099 -0.055103064 0.036237728 -0.092142396 -0.03926747 0.003112519 0.03415637
-0.09844794 0.025608648 -0.07789242 -0.030127276 0.076624885 0.058584023 0.011815715 0.03672707
-0.002106142 -0.07979222 0.028443491 -0.022148753 -0.03007313 0.029108513 -0.070782684 -0.062215663
0.09835869 -0.055168163 0.09030797 -0.06618655 -0.087050475 0.02132671 0.08003236 -0.02221855
0.0818769 0.08424578 -0.021132087 0.06207638 -0.019441951 0.06803234 -0.014153684 0.09866824
0.04886165 0.07827603 -0.024348175 -0.012884545 -0.009112048 0.009387887 0.08873987 0.050854493
0.077609085 0.011627937 -0.03532032 -0.09488048 0.08881147 -0.08144524 0.020990456 0.077384196
-0.09630211 0.06855454 0.09727403 -8.985996e-05 0.08821388 0.072991095 0.0014832855 0.01246196
-0.01518935 0.03766073 0.024918986 -0.0752205 0.026641179 0.051617455 -0.06698703 0.061285496
0.09947844 0.08077427 0.030634416 0.03868207 0.027268577 -0.07578398 0.008035815 -0.090847805
-0.0017313719 -0.06201315 0.061415564 0.046392035 -0.0837382 0.09903325 -0.042923987 0.068600334
-0.05254321 -0.059697926 0.046589673 0.09984173 0.076246075 -0.012177384 0.08156117 -0.0851439
0.044308927 -0.07986571 0.08841603 0.088904195 0.09216098 0.08824768 -0.03890227 0.09711082
-0.033349074 -0.06543592 -0.096494995 0.06613455 -0.08734148 -0.016974403 0.026829232 0.099202804
0.013302791 -0.030225813 -0.075411074 0.054780986 0.07528321 0.024433685 -0.090614215 -0.037182987
0.06814893 0.052203633 -0.04851481 -0.010408592 0.070243634 0.011720824 -0.045779336 -0.028430784
-0.06225164 0.038336743 0.008948135 -0.08486915 -0.017013585 -0.021292794 0.058089446 0.0811308
0.028025651 -0.07624837 0.03697584 0.033434402 -0.07031025 -0.05169877 0.09066977 0.09911778
0.058664907 -0.0037002803 0.065643266 0.02775005 -0.006595814 0.08632763 -0.03958286 5.6016444e-05
0.049511205 0.009288776 -0.06784085 -0.09805932 -0.060529497 0.045582104 -0.005405462 0.07395164

elu_stack.4.bias f4 [100]
00000000: cdab 613b 9a13 c93a eae3 02bd 28ce 8a3d
00000010: 4719 b53d 00e7 9b3b cd0c 9c39 6d08 663d
00000020: ba34 5bbd c5de 983d f38e 473c 33ec 92bb
00000030: 33e1 55bc 1fde 873d 5397 cbbd b832 8abd
00000040: 7fa3 9dbd d53f 9f3d 0d4a 863c ea37 613d
00000050: 27c0 1c3c 70bc 0ebd 73ae f73c b3b5 b83d
00000060: 73f4 64bc 788e bd3d b776 2b3d e780 65bd
00000070: 1b9c b43d 4540 cbbd 98fe cbbd a326 7c3d
00000080: d34e e13c 03bf 933d 474c 553d c0ac b7bc
00000090: da67 2ebc ca2b 823d e596 b63d 22cc b6bd
000000a0: 9ab1 69bd ed39 27bd da94 5d3d a54e c9bd
000000b0: 1a25 bc3c a00e 9e3c fadf b23d 80d2 233d
000000c0: 6058 c83d 630b 983d da6e 17bc 23b8 2f3d
000000d0: 4035 35bd 4d63 52bc a755 8f3d 3268 b53d
000000e0: b3b0 b4bb 5ad5 a9bc a064 363d 53be cdbc
000000f0: 9d84 03bd 7283 913d ad87 b93c d011 673d
00000100: 8a63 4a3d 9dce 4dbd 4770 0e3d 3a07 16bd
00000110: 1a70 f7bb c7a5 b5bd 3768 153d e745 993d
00000120: 6769 8ebd 6728 d6bc 7388 0bbd f71d 973d
00000130: f8e2 a4bd c031 dcbc 136a a7bd 8030 d3bc
00000140: 3301 dfbc cdf2 003b 67b4 a6ba 70f1 47bd
00000150: 33c3 88b9 4ddc a6bb 60fa 923d a01c 00bd
00000160: 9aad debc 6085 cfbc 5aca 38bd 8dfb f8bc
00000170: 40fb 743d cd96 dfbc 4a0f 4abd 0a8a 983d
00000180: 402d 71bc 804d a8bc 7a69 9f3c 4371 53bd
0.0034434677 0.0015340925 -0.031955637 0.067776024 0.08842712 0.004757762 0.00029764176 0.05616038
-0.05351708 0.07464365 0.012180078 -0.0044837235 -0.01305418 0.06634163 -0.09940972 -0.06747955
-0.076972 0.07775847 0.016392732 0.054984964 0.009567297 -0.034847677 0.030234551 0.090190314
-0.013974297 0.092556894 0.041861262 -0.056031134 0.08818837 -0.09924368 -0.09960669 0.061560284
0.027503407 0.07214167 0.052074697 -0.02242124 -0.010644877 0.06356008 0.089154996 -0.08925654
-0.05705414 -0.040826727 0.054097034 -0.098294534 0.02296691 0.019294083 0.087341264 0.03999567
0.09782481 0.07424047 -0.009242738 0.042900216 -0.044240236 -0.012841058 0.06998759 0.08857764
-0.0055142283 -0.020731617 0.044529557 -0.025115168 -0.03210889 0.07105149 0.022647703 0.05641347
0.049411334 -0.05024587 0.034775045 -0.036627986 -0.0075512053 -0.0886951 0.03647634 0.07484036
-0.06953698 -0.026142312 -0.034065675 0.07378762 -0.08051103 -0.026879191 -0.08174529 -0.025779963
-0.027222252 0.001967597 -0.0012718559 -0.048814237 -0.00026085376 -0.00509218 0.071766615 -0.0312773
-0.027182389 -0.025332153 -0.045114852 -0.030393386 0.059809923 -0.027293587 -0.049330987 0.07448204
-0.014720261 -0.020544767 0.019459475 -0.051621687

elu_stack.6.weight f4 [100, 100]
00000000: 5077 b93d 9a67 96bc 0059 edbc 7a94 80bc
00000010: 4daf 92bb cdfe 75bc 5bce b73d 274e 68bc
00000020: 2d17 883d 6737 d83c 60ca 613d e090 833c
00000030: ba28 5f3d 4a62 14bd 1046 6ebd b503 be3d
00000040: ea6f 5e3d a36a c3bd 5dfb 6c3d 800e 78bc
00000050: 9d37 8abd 1051 433d a215 823d 7723 bebd
00000060: 003c 823d 609e 8a3d 67b2 c2bb aad5 0b3d
00000070: c7af c13d e74e b63c 2271 883d 6334 15bd
00000080: 031e 93bd 5397 dc3c 5b68 8d3d 2a00 6cbd
00000090: 17aa 0dbd 8af1 413d 00fd f3bb 6a6c ae3d
000000a0: c057 653c 8343 8a3d 3237 8a3d cd7e 253b
000000b0: ed1b bebc c29b 983d 00cf f73b aba8 85bd
000000c0: 5d8f 42bd e014 20bd b3d6 4dbc 5a0f 4f3d
000000d0: 1ae4 fdbc e755 ecbb 4d62 ecbb b819 9b3d
000000e0: fbbe 853d 5a5e 0fbc 27eb 51bd edec e43c
000000f0: 45ae b13d fa23 a3bc babe 123d b86c 8c3d
00000100: 13d6 56bd 4790 c2bc 9a31 aeb9 3016 65bd
00000110: 1a82 0b3d c03e c33d 47f9 0fbd c089 a63d
00000120: fda6 3abd 33a6 153b 0a82 bd3d 47cd ccbc
00000130: 6a3a 0a3d 37cf 763d 603b 5c3d 104e 313d
00000140: a309 073d c703 4b3d 47be 783d e01f e93c
00000150: fa9d 323d cf8e 8f3d e012 a9bd a0c1 d3bc
00000160: 9aff 88ba 8088 183c 8b62 873d 9a5b d23b
00000170: 8a98 5bbd 3326 4a3d 0de6 d5bc cde5 8bbb
00000180: 808a cfbb 0d94 8f3d 8a5d 8b3d 5209 ca3d
00000190: daf8 abbd f72c 873d a227 903d 4d18 bfbd
000001a0: 78f2 8fbd 8090 f9bc 7b52 8fbd 13ab 3ebd
000001b0: 20d8 4d3d 6714 f3bb e32c 4c3d 8d7a 763c
000001c0: dfd0 b5bd 9a00 083c 23f0 90bd 8dad 29bc
000001d0: 8dd5 853c 3750 75bd 05cd 84bd 3561 88bd
000001e0: a7c5 2c3c 872e 423d e76c cbbc ed27 ac3d
000001f0: 2a8b 893d bdd5 a73d 0017 7bbb 5a91 343d
00000200: 0d45 d13c 1ab4 a0bc 3fe4 aa3d 53ef cb3d
00000210: bafe 29bd c716 a73d c7ab c53d 38d8 a8bd
00000220: 2872 8bbd e0ec 8d3c e01e b63c 92cb bdbd
00000230: 2045 c63c 9a44 f13c 1a04 cd3c 9a08 cbbd
00000240: e0fa 553d 333f 51bc 400a a43d 8df5 5f3d
00000250: e892 9bbd fbe9 94bd 3d7b 36bd cd1f e03c
00000260: 07c7 af3c a080 613d 9a8e 03bc 733f 523d
00000270: 5afb 21bc edd5 983d b003 4ebd 476f 323d
00000280: 5ab2 f93c d712 b8bd 9ad9 c4bd cd4e 98bd
00000290: 8040 ed3c 93bd e5bc 0088 99ba cdf8 7d3a
000002a0: c3b6 c63d 90a0 c6bd 752f 963d b844 87bd
000002b0: 3a6c 45bd 2d5c 4abd 8304 a83d da04 64bc
000002c0: 2d50 b2bc 9754 b8bd 9325 8bbd 1a8a cb3d
000002d0: fb24 c5bd 33ed 87bd 400e b13d 5a7a 1abd
000002e0: 937e 943d 6700 cabc da37 b8bd 5db8 563d
000002f0: 4d86 66bc 8003 a63c 1aca 2bbd c87a 863d
00000300: a59f 80bd c5fa a9bd 70ab 763d 5a5f ccbc
00000310: 738e a63d 533e f8bc 3d3a 36bd cd0c f338
00000320: f828 953d d3f4 223d b7a1 7f3d e2be a53d
00000330: e8c7 803d 0757 543d c300 75bd c7d1 313d
00000340: 801e 9dbd 10df acbd 4d44 ed3b b0a4 37bd
00000350: 8d9f 7fbd cd1f 973b cab5 0a3d 4db6 e83c
00000360: 4091 bdbc 0a77 09bd dddf 47bd 338a 083d
00000370: ad0b c53d b3b0 7f3c cd10 953b bded 033d
00000380: 8367 35bd 4780 45bd 3a49 de3c 277f 94bc
00000390: 7818 c9bd 3a20 c03d 5341 b83c cd2e ffbc
000003a0: 6dcd b0bd d391 bc3c 53e7 0dbd 678f 763d
000003b0: 0746 0dbd 0274 a63d ef1a b0bd edf2 f43c
000003c0: df74 bcbd 33c9 593c 605c 79bd 3adc aabc
000003d0: ffe4 af3d 6d6c 153d 8315 87bd 27ea 83bc
000003e0: 58c3 a43d 2755 7c3c 2772 0dbc 7530 c13d
000003f0: 0221 c03d 4749 ff3c 9d4c 29bd 2d56 143d
0.0905596 -0.018359948 -0.028973103 -0.0156958 -0.004476464 -0.0150143625 0.08974906 -0.014178789
0.066450454 0.026393605 0.05512464 0.016060293 0.0544822 -0.03622655 -0.058172286 0.09278051
0.05430595 -0.09541824 0.057856906 -0.015140176 -0.06748889 0.04768473 0.063517824 -0.09284108
0.063591 0.06768489 -0.0059416774 0.034139313 0.09457355 0.02225442 0.06662203 -0.036426913
-0.07183459 0.026927626 0.0690467 -0.057617344 -0.03458604 0.04734949 -0.0074459314 0.08516772
0.013997972 0.06751158 0.06748809 0.002525258 -0.023206675 0.074515834 0.007562518 -0.065263115
-0.047500003 -0.039082408 -0.012563395 0.05055175 -0.030992556 -0.007212389 -0.007213867 0.07573265
0.06530567 -0.0087505225 -0.05124965 0.027945006 0.086758174 -0.019914616 0.035826422 0.06856674
-0.05245025 -0.023750437 -0.00033224822 -0.055929363 0.03405962 0.09533453 -0.03514984 0.081317425
-0.04556941 0.0022834658 0.092533186 -0.025000228 0.033747114 0.06025621 0.053767562 0.043287337
0.032968175 0.04956415 0.060728338 0.028457582 0.04360769 0.070096605 -0.08255553 -0.025849164
-0.0010452152 0.009309888 0.066105925 0.006419611 -0.05361227 0.049352836 -0.026110673 -0.0042693377
-0.006333649 0.0701066 0.068049505 0.09865059 -0.08397074 0.06600373 0.07038809 -0.09330807
-0.07028669 -0.03046441 -0.06998154 -0.046549868 0.05025494 -0.0074182036 0.049847495 0.015043867
-0.088777296 0.008300925 -0.070770524 -0.010356319 0.01633718 -0.059890952 -0.06484417 -0.06659166
0.010545171 0.047407653 -0.024832202 0.08406053 0.067159966 0.08195064 -0.003831327 0.04408393
0.025545621 -0.01961713 0.08344316 0.09957757 -0.04150269 0.08158641 0.096519046 -0.082443655
-0.06808883 0.017324865 0.02223152 -0.092673436 0.024202883 0.029451657 0.02502637 -0.0991375
0.052241206 -0.0127714155 0.080097675 0.054677535 -0.075963795 -0.07271191 -0.044551123 0.027358914
0.021457208 0.055054307 -0.008029604 0.05133004 -0.009886587 0.07462678 -0.050296485 0.043563154
0.030480552 -0.089879684 -0.09611817 -0.07436905 0.02896142 -0.028044498 -0.0011713505 0.0009688258
0.09702828 -0.096985936 0.073332705 -0.06604904 -0.048198916 -0.049404312 0.082039855 -0.013917172
-0.021766746 -0.09000509 -0.06794276 0.0993845 -0.09626194 -0.06637039 0.08645296 -0.03771434
0.072507046 -0.024658395 -0.08995028 0.052421916 -0.014070106 0.02026534 -0.041940786 0.065663874
-0.0628045 -0.082997836 0.06022209 -0.02494781 0.08132639 -0.030303156 -0.044489134 0.00011589527
0.07283205 0.039784264 0.062410083 0.08093049 0.06288129 0.05184081 -0.05981518 0.04341295
-0.07671833 -0.08440983 0.007240808 -0.044834793 -0.06240802 0.0046119452 0.033864774 0.02840724
-0.02314055 -0.03356079 -0.048797477 0.033334922 0.096213676 0.015606093 0.004549122 0.032209147
-0.04428817 -0.048218038 0.027134527 -0.018127037 -0.0981912 0.09381147 0.022492087 -0.031150246
-0.08632932 0.023018753 -0.034644436 0.060195353 -0.03449061 0.081275955 -0.08598887 0.029900992
-0.09201979 0.013292599 -0.06087911 -0.020856965 0.085885994 0.036480356 -0.065959 -0.016102863
0.08045071 0.015401161 -0.008633173 0.094330706 0.09381296 0.031162871 -0.04133283 0.036214996

elu_stack.6.bias f4 [100]
00000000: cda5 2abd b307 313d 374e 0ebd f854 b7bd
00000010: 9be7 a1bd 0a18 0abd 8032 39bc a0f8 493d
00000020: 0059 3bbd fab0 38bd b3ce 49bc 8215 ac3d
00000030: c269 c0bd 40e4 383c a0d7 923c 922a 8bbd
00000040: 8ab9 afbd ca06 ad3d 50db 5f3d 3d4d 7c3d
00000050: dd9d a6bd 1a4a e0bc 9a95 613b 70aa 43bd
00000060: 65cb 91bd f336 c53c ba56 73bd a772 783d
00000070: 1836 8bbd 3a80 f83c cde2 ff3b 0dab d5bc
00000080: 40c8 263c a70b eebc c02d be3d 8059 6fbc
00000090: 2d75 1bbd 5ab8 ee3c 402d 2f3d f312 a43c
000000a0: e7bc 813b e742 de3b adda 253d 5535 833d
000000b0: 2739 9bbc 3033 20bd 336c 11bb 4a91 bd3d
000000c0: 9af8 3abb bb36 a63d 106b 073d 27f7 943c
000000d0: a552 ae3d f2b1 bdbd b740 923d 6779 2e3c
000000e0: 00a0 b5b8 93df c4bc 07f1 f23c e78b 343c
000000f0: 7d68 0e3d 30e7 61bd d7e1 83bd 2067 0d3d
00000100: e32c 813d 6fa7 b83d 1392 fcbc 5af6 d03c
00000110: ba28 673d 9a71 bbba 1249 89bd 0097 5dbb
00000120: ba08 a9bc f243 ad3d cfa1 a63d 4237 a03d
00000130: c761 78bd ff63 ab3d 5394 d4bc 07a3 813d
00000140: 73f9 6e3c cd41 82bb 7333 1c3c f3f8 763c
00000150: cd15 2e3b cbd3 c5bd 453e 87bd c7f6 bbbc
00000160: 2d08 d9bc d881 913d f5ac 85bd c0d2 df3c
00000170: cde4 14bb 13db 02bd 4b48 c13d 6a36 843d
00000180: fd39 5cbd 2dc7 6e3d a79d 043c 8df8 3bbd
-0.041662026 0.043220233 -0.03474256 -0.089517534 -0.07905503 -0.03371433 -0.011303544 0.049309373
-0.045739174 -0.045090653 -0.012317347 0.0840254 -0.09395172 0.011284888 0.017925084 -0.06795229
-0.08580311 0.084485605 0.054652512 0.061597098 -0.08135579 -0.027379084 0.0034421445 -0.047769964
-0.071188726 0.024074053 -0.05940888 0.060656216 -0.06797427 0.03033458 0.007809019 -0.02608254
0.010179579 -0.02905829 0.0928607 -0.014608741 -0.037953544 0.02914064 0.042767763 0.020028567
0.0039592865 0.0067828777 0.04049175 0.06406657 -0.01894815 -0.039111316 -0.0022189736 0.09256227
-0.0028529526 0.08115908 0.033061087 0.018184258 0.08511857 -0.09262456 0.071412496 0.010649062
-8.660555e-05 -0.02403239 0.029655946 0.011019683 0.034767617 -0.05515212 -0.0643956 0.034522176
0.063073896 0.090163104 -0.030831372 0.025508095 0.056435324 -0.0014300824 -0.0670339 -0.0033811927
-0.020634044 0.08460225 0.08136331 0.078230396 -0.060640123 0.08368682 -0.025949633 0.06329923
0.0145858405 -0.003975129 0.009533751 0.015074003 0.0026563287 -0.09659537 -0.06603674 -0.022944821
-0.026493156 0.07104844 -0.065271296 0.027322173 -0.0022719384 -0.031947207 0.09437617 0.06455691
-0.05376624 0.058295418 0.008094228 -0.045891333

elu_stack.7.weight f4 [1, 100]
00000000: f07c 44bd df1e a73d db08 9cbd 5d7d 20bd
00000010: 8009 903b 7ae8 88bd 2326 183d 7df5 52bd
00000020: ea63 55bd e27e 9fbd 9771 be3d e7a6 bcbb
00000030: cd34 633d 60a8 71bd 10a3 9ebd 8009 c73d
00000040: 337a c8bb 00a5 30bd ed7f 913c cdce e53a
00000050: 3305 293d aa93 5dbd d0a4 89bd b3ff 4b3c
00000060: 1347 b5bc ca4d 573d da68 63bc c09d 003d
00000070: 90ce 62bd b322 68bd 6759 a73b c340 183d
00000080: 804e fcbb 1746 3bbd cda4 ff3c b343 9dbb
00000090: 5f70 b43d 975d 5ebd 0a8c 9b3d a718 adbc
000000a0: ad30 f3bc 9afd 77bd d864 91bd 1af9 2b3c
000000b0: ca61 78bd 93d3 393d b33e 40bd 9a14 b13c
000000c0: f84c b5bd 3028 8ebd 27a3 16bc e093 b2bd
000000d0: 230d 8b3d e77d 4b3c d004 83bd 2a2d 523d
000000e0: 7d61 c0bd e784 64bd 2365 903d 6090 a5bc
000000f0: 6f43 c33d 7221 a9bd baea 893d afcd 95bd
00000100: 4d2b 8e3b 0de4 19bc d759 1c3d 4bbb 90bd
00000110: cdfc 34bb aa3d 72bd a0d5 273d c05a bd3c
00000120: 1aa8 563c e033 a7bc d31a 163d e03a 0bbd
00000130: 6311 7bbd a02a 9e3c a379 3bbd 3dc4 963d
00000140: 4a89 58bd ad71 983c 135a 97bc 87a0 7ebd
00000150: 6288 bebd 307b a3bd a05c abbc cdb8 b13b
00000160: f016 3c3d 4d10 0fbc c571 823d 0290 9c3d
00000170: 45d0 abbd da05 163d 5a69 16bc 8254 973d
00000180: 4dea 9b3b 8025 ebbb e752 17bc 6ddf 0cbd
-0.047970712 0.08160185 -0.076188765 -0.039182056 0.0043956637 -0.066849664 0.037145745 -0.051503647
-0.05209724 -0.07787873 0.09299009 -0.005757201 0.055470277 -0.058998466 -0.077459455 0.09718609
-0.006118083 -0.043126106 0.017761195 0.0017532945 0.041264724 -0.0540959 -0.067208886 0.0124511
-0.022128617 0.05256442 -0.013879979 0.031400442 -0.055372775 -0.056673717 0.005107093 0.037171137
-0.0076997876 -0.04572114 0.031206513 -0.00479933 0.088104956 -0.054288473 0.0759507 -0.02112992
-0.029686296 -0.060544588 -0.070993125 0.010496402 -0.060640134 0.04536779 -0.046934795 0.021616269
-0.08852571 -0.06941259 -0.009194172 -0.08719611 0.06789615 0.012420154 -0.06397402 0.051312603
-0.093935944 -0.055790808 0.0705054 -0.020210445 0.09534346 -0.08258332 0.06734224 -0.07314622
0.004338658 -0.00939275 0.038171615 -0.07066973 -0.0027616501 -0.05914084 0.040975213 0.023114562
0.013101602 -0.020410478 0.036646675 -0.033991694 -0.06129588 0.019307435 -0.0457703 0.07361648
-0.052865304 0.018608892 -0.018475568 -0.06216481 -0.09303357 -0.079824805 -0.02091819 0.0054236413
0.045920312 -0.008731914 0.06369356 0.07644655 -0.08389334 0.036626674 -0.009180391 0.073891655
0.0047581554 -0.007176101 -0.009236074 -0.034392763
