Parameter/wallplaneTEST/115.pth (torch, 270359 bytes, 6 tensors)

elu_stack.0.weight f4 [256, 2]
0.21068029 -0.49269935 -0.5827563 -0.21213326 0.1537544 -0.18666139 -0.53763413 0.26370776
-0.006552402 0.3484146 -0.4948925 0.42255697 -0.3527574 -0.18213406 -0.22794381 0.27388918
-0.31822422 -0.6786102 -0.6586702 -0.15382141 0.2338163 0.4953397 -0.40341714 -0.5231199
-0.65173763 -0.31657356 0.24722102 -0.20277683 -0.34680113 0.52138704 -0.19821106 0.24479234
-0.237235 0.47803015 0.6543845 -0.082541905 -0.14818908 -0.31420863 0.6830955 -0.25351566
0.13829553 -0.2854165 -0.14046068 0.19166785 -0.6672413 -0.40007937 -0.6056129 -0.11578329
-0.040120848 0.098429665 -0.36074424 0.46009463 0.51182634 0.4388142 0.3723246 0.113468334
-0.63280606 -0.46989453 -0.20470935 -0.46402112 -0.1729329 -0.31600443 0.58468324 -0.20392634
-0.6868057 -0.3970577 0.2965394 0.44866878 -0.52589726 0.55423373 0.10094726 0.4704968
0.19225402 -0.63569754 0.27947354 -0.2348735 0.47282457 -0.26319468 0.37662017 0.28889516
-0.6192493 0.07358249 -0.6504086 0.14338931 0.41421247 -0.18296427 -0.6843317 -0.08398383
-0.36013865 -0.5854167 -0.48483863 0.28131193 0.36601782 -0.48331055 0.0305756 -0.31010455
0.6701642 -0.51151496 -0.051345903 0.096044995 0.18191397 -0.3110766 -0.0030613784 0.3870082
0.26624298 0.25903547 0.33175588 -0.60366696 -0.1413301 -0.17989665 0.5881928 0.06677106
0.6769013 0.40776393 0.5016461 0.3236888 0.062331226 -0.06618732 0.53382593 -0.3080825
-0.6619953 -0.22732079 -0.6865916 0.24044566 -0.684904 -0.4882801 -0.44217622 -0.011401396
-0.57429785 0.0601685 0.05669493 0.63111466 0.56247455 0.20876522 -0.18432081 0.29567903
-0.586747 -0.52486753 -0.5354081 0.13870873 0.057688665 -0.32191098 -0.4296039 -0.56317884
-0.37218523 -0.49817228 0.3587516 0.2338603 -0.06479614 -0.69693696 -0.19396813 -0.122069746
-0.42787892 0.056239743 -0.44215602 -0.03307794 -0.103963375 0.0539891 0.080005676 -0.5930963
0.0017059358 0.5331353 0.4348736 -0.34241718 0.1756829 -0.40002492 -0.5569685 0.58765656
0.5165354 -0.62409794 0.5861057 0.21543707 -0.14943434 -0.3179758 0.1264933 -0.36574522
-0.5969187 0.6153865 0.6005163 -0.41943127 0.07943627 -0.47259936 0.70192045 0.5161538
0.22573844 0.53933334 0.19307715 0.49301055 0.22101024 0.41265303 0.3380271 0.55469173
0.35487923 -0.48711035 0.37484017 0.27836105 -0.5157691 -0.6382548 0.42179173 -0.29558665
-0.07717315 -0.69257385 -0.15405768 -0.6479521 0.3927834 -0.33124632 -0.02347554 0.15762787
0.20741113 0.59050876 -0.5244443 0.47609678 0.21264121 -0.29981285 0.22598465 -0.6724728
-0.33652773 0.07771845 -0.13907929 0.46444553 0.67222375 0.1040899 -0.39112806 0.5960237
-0.3184551 0.18942024 -0.37816024 0.19775663 -0.024423677 0.27680323 -0.21933 0.39098376
0.5709832 0.68670636 -0.16045372 0.16830088 -0.51711947 -0.020427987 -0.011360851 0.30840912
0.12197955 -0.10024282 0.40197563 -0.04638935 0.40080312 0.012492663 0.66000545 0.5440696
-0.57476264 -0.3959054 0.66453904 -0.20789312 0.13395971 0.42271966 -0.0453699 0.24162568
00000000: 93bc 573e 1743 fcbe 842f 15bf 7639 59be
00000010: cb71 1d3e 2a24 3fbe 64a2 09bf b404 873e
00000020: 88b5 d6bb 6663 b23e 8d62 fdbe 6359 d83e
00000030: 9e9c b4be 5a81 3abe 1a6a 69be 343b 8c3e
00000040: 49ee a2be 66b9 2dbf 9c9e 28bf 5c83 1dbe
00000050: 8a6d 6f3e 2a9d fd3e b18c cebe 30eb 05bf
00000060: 47d8 26bf ee15 a2be 8227 7d3e bba4 4fbe
00000070: eb8f b1be 9f79 053f d7f7 4abe d8aa 7a3e
00000080: bbed 72be 5ec0 f43e be85 273f bb0b a9bd
00000090: e1be 17be f4df a0be 59df 2e3f cecc 81be
000000a0: 589d 0d3e 1d22 92be edd4 0fbe 9444 443e
000000b0: 53d0 2abf 34d7 ccbe 7209 1bbf ca1f edbd
000000c0: c255 24bd 7e95 c93d 78b3 b8be 8691 eb3e
000000d0: 0d07 033f 41ac e03e 54a1 be3e 1662 e83d
000000e0: 94ff 21bf 0496 f0be 549f 51be 2d94 edbe
000000f0: 5215 31be 55cb a1be cdad 153f 11d2 50be
00000100: 80d2 2fbf 264b cbbe 03d4 973e eab7 e53e
00000110: 34a1 06bf 43e2 0d3f 70bd ce3d f5e4 f03e
00000120: 3dde 443e 13bd 22bf 2817 8f3e ae82 70be
00000130: 1016 f23e 74c1 86be 5cd4 c03e 11ea 933e
00000140: 1f87 1ebf 6bb2 963d 2e81 26bf a6d4 123e
00000150: a813 d43e fc5a 3bbe 5d30 2fbf b7ff abbd
00000160: 1864 b8be dedd 15bf c53c f8be 1e08 903e
00000170: b066 bb3e 7b74 f7be ae79 fa3c 06c6 9ebe
00000180: e28f 2b3f a5f2 02bf 1550 52bd 3db3 c43d
00000190: a847 3a3e 6f45 9fbe 68a1 48bb f025 c63e
000001a0: 0051 883e 4ca0 843e e8db a93e eb89 1abf
000001b0: d6b8 10be d436 38be ce93 163f 44bf 883d
000001c0: 6749 2d3f 6fc6 d03e e16b 003f 8aba a53e
000001d0: 074f 7f3d 388d 87bd d1a8 083f fdbc 9dbe
000001e0: 8678 29bf c8c6 68be 78c4 2fbf 6337 763e
000001f0: de55 2fbf d9ff f9be ec64 e2be eccc 3abc
00000200: 2f05 13bf 3f73 763d f138 683d bb90 213f
00000210: 55fe 0f3f 8dc6 553e 98be 3cbe 3e63 973e
00000220: 0d35 16bf b85d 06bf 8110 09bf a909 0e3e
00000230: f34a 6c3d 84d1 a4be 0bf5 dbbe 7d2c 10bf
00000240: 108f bebe 7010 ffbe 4aae b73e 1379 6f3e
00000250: d7b3 84bd 766a 32bf 959f 46be b4ff f9bd
00000260: f212 dbbe a55b 663d 4662 e2be bc7c 07bd
00000270: c0ea d4bd ad23 5d3d 04da a33d 29d5 17bf
00000280: b599 df3a 8e7b 083f c1a7 de3e 4e51 afbe
00000290: 38e6 333e 11d0 ccbe 7d95 0ebf a970 163f
000002a0: aa3b 043f e2c4 1fbf 060b 163f 899b 5c3e
000002b0: 5105 19be b9cd a2be 7687 013e f542 bbbe
000002c0: aacf 18bf f889 1d3f 70bb 193f b2bf d6be
000002d0: 7caf a23d 8bf8 f1be 0fb1 333f a822 043f
000002e0: fa27 673e c011 0a3f 04b6 453e e16b fc3e
000002f0: 8250 623e 4247 d33e e311 ad3e 4700 0e3f
00000300: bbb2 b53e 8766 f9be 0deb bf3e 5785 8e3e
00000310: 7209 04bf ab64 23bf 16f5 d73e 2257 97be
00000320: f50c 9ebd 854c 31bf 4cc1 1dbe 30e0 25bf
00000330: e81a c93e 1e99 a9be c74f c0bc 3369 213e
00000340: 9563 543e 952b 173f fb41 06bf f5c2 f33e
00000350: 9ebe 593e 1281 99be 8568 673e 2d27 2cbf
00000360: 5d4d acbe da2a 9f3d cd6a 0ebe cecb ed3e
00000370: db16 2c3f 162d d53d f041 c8be 0295 183f
00000380: 8c0c a3be 61f7 413e 389e c1be b780 4a3e
00000390: 2a14 c8bc 27b9 8d3e 0b98 60be 062f c83e
000003a0: f42b 123f fdcb 2f3f fb4d 24be 1157 2c3e
000003b0: f161 04bf 9858 a7bc dd22 3abc cde7 9d3e
000003c0: 6ad0 f93d 1c4c cdbd c0cf cd3e c202 3ebd
000003d0: 1136 cd3e 07ae 4c3c 1ef6 283f 2548 0b3f
000003e0: a523 13bf 1db4 cabe 3b1f 2a3f efe1 54be
000003f0: bc2c 093e b66e d83e cad5 39bd b96c 773e

elu_stack.0.bias f4 [256]
0.25219738 -0.32758012 -0.32356092 0.0022209703 0.19782634 0.63191974 -0.39718455 0.46203128
-0.22384967 0.027353304 0.31335455 0.14321347 -0.2682046 -0.6474833 -0.1400125 -0.49874353
-0.12040933 -0.27110505 0.019486932 -0.4164042 0.36729738 0.4905678 0.3970561 -0.51074266
0.16680922 0.36987898 -0.34537792 -0.56400454 -0.57493174 0.67862064 0.031362314 0.489902
0.32466593 0.524582 -0.6249937 -0.30611813 -0.17042878 0.31685376 -0.30570105 0.10008587
-0.6544852 0.5594624 -0.06922207 -0.38779998 -0.068567276 -0.26068532 -0.014809896 0.42766288
0.6286267 -0.60365134 0.44928616 -0.054027285 -0.18792327 0.6928587 0.28519693 -0.33617634
-0.09875445 0.18912917 0.5600747 -0.157859 -0.24950083 0.525553 0.15946403 0.072712
0.14016196 -0.48295695 -0.18942851 0.16026685 -0.18021427 0.5922043 -0.15229687 -0.18789369
-0.48523304 0.21092862 0.39188823 0.46551144 0.05251143 -0.42791855 0.13377991 0.6511188
-0.5592084 -0.07800741 0.55519116 -0.2947942 -0.29834875 -0.68972456 -0.06429013 -0.14289746
-0.24352744 0.12709719 -0.6689809 0.4580639 0.53130984 -0.54576814 -0.20380884 0.24836016
-0.3632829 0.13975811 -0.29336888 0.31365034 0.63626003 -0.27503726 0.103907324 -0.074517906
0.079409465 -0.39897233 0.6425892 0.12181501 -0.5094372 0.11771969 -0.2006597 -0.012967827
0.31040698 -0.33808306 0.613625 -0.09939963 -0.19535005 -0.24263974 0.3256262 0.18714987
0.63460916 -0.2364246 -0.34754232 0.49148107 -0.40821314 -0.43318117 0.38631573 0.4942216
-0.096829854 0.5186373 -0.035545893 -0.59267974 -0.69465774 0.32078052 0.17751174 -0.015868204
0.25126088 0.11176619 -0.08608477 -0.17385852 0.40796715 0.073848866 0.5021308 0.5170394
-0.22319798 0.045819357 -0.20634617 -0.5463629 0.24750324 -0.38494453 -0.37962836 -0.07352492
-0.13555926 -0.11241332 -0.2542748 0.4962626 0.1964484 -0.59563184 0.6521095 -0.5123017
-0.53946745 0.15125509 0.62775165 0.5662318 0.21922278 -0.19252782 -0.321335 -0.59730893
0.18839337 -0.3434352 0.49663866 -0.6974656 0.27461994 0.4616497 0.5811295 -0.5370418
0.15862371 -0.6548869 -0.24750552 0.59964114 0.5198087 -0.54173386 0.52720237 -0.5510832
0.03976791 -0.13463911 -0.08856258 0.101819284 -0.7028605 -0.44787684 0.48726806 0.52941227
0.086920284 -0.62325454 -0.08778742 -0.26290876 0.68109983 -0.6142084 0.11313006 -0.6093612
0.6200868 0.5734027 0.14184403 0.5991075 0.62993133 -0.6783605 0.21135372 0.32568008
-0.4594764 -0.47915235 -0.01564196 -0.6513838 -0.6788278 -0.47292465 0.6428652 0.5617253
0.13477997 -0.37871987 -0.3770607 0.23152713 0.04125974 0.620614 -0.6471703 0.017528284
0.58824396 0.12450103 0.54179174 -0.5445708 0.4987469 0.33615062 0.076748565 0.3226541
0.65736395 0.17870803 -0.43936503 0.11015256 -0.28012592 -0.35904908 -0.3921813 0.45618322
-0.68147457 0.40238 -0.107138805 0.42711002 -0.58431464 -0.61355907 0.40704894 -0.7002748
-0.07880205 -0.013381287 -0.559943 -0.65819955 0.062649265 0.18713099 0.2765345 0.5301359
00000000: 0420 813e 95b8 a7be c7a9 a5be b38d 113b
00000010: fd92 4a3e 7ec5 213f c65b cbbe 5d8f ec3e
00000020: d938 65be 0914 e03c 0270 a03e 8da6 123e
00000030: 1d52 89be 77c1 25bf 705f 0fbe 505b ffbe
00000040: 2b99 f6bd 48ce 8abe 0fa3 9f3c ee32 d5be
00000050: 670e bc3e b42b fb3e f04a cb3e 08c0 02bf
00000060: 09d0 2a3e c760 bd3e 60d5 b0be 9a62 10bf
00000070: ba2e 13bf 15ba 2d3f c575 003d 6fd4 fa3e
00000080: 9d3a a63e 024b 063f 96ff 1fbf 84bb 9cbe
00000090: e284 2ebe a83a a23e d984 9cbe d2f9 cc3d
000000a0: 588c 27bf ee38 0f3f 4dc4 8dbd b88d c6be
000000b0: 006d 8cbd 8c78 85be 35a5 72bc a1f6 da3e
000000c0: aeed 203f e588 1abf d608 e63e b74b 5dbd
000000d0: f56e 40be 305f 313f 5505 923e 4e1f acbe
000000e0: c63f cabd 14ab 413e 0e61 0f3f caa5 21be
000000f0: 257d 7fbe a48a 063f 8a4a 233e 07ea 943d
00000100: 9e86 0f3e 2246 f7be 8cf9 41be fe1c 243e
00000110: 178a 38be b39a 173f b6f3 1bbe 3467 40be
00000120: 7770 f8be acfd 573e 93a5 c83e 8457 ee3e
00000130: 3a16 573d 2418 dbbe 9afd 083e b9af 263f
00000140: 4828 0fbf 59c2 9fbd 0221 0e3f 44ef 96be
00000150: 2bc1 98be ca91 30bf 8baa 83bd b653 12be
00000160: 425f 79be c425 023e 5542 2bbf 5a87 ea3e
00000170: ec03 083f 76b7 0bbf 44b3 50be 2052 7e3e
00000180: 3700 babe c01c 0f3e 7234 96be c796 a03e
00000190: f0e1 223f afd1 8cbe 5dcd d43d d89c 98bd
000001a0: 6ea1 a23d 1a46 ccbe ba80 243f 267a f93d
000001b0: 7a6a 02bf 0517 f13d bd79 4dbe 0277 54bc
000001c0: aaed 9e3e 3919 adbe 8716 1d3f 0992 cbbd
000001d0: d809 48be 8d76 78be 7ab8 a63e 37a4 3f3e
000001e0: bf75 223f 4a19 72be 11f1 b1be 68a3 fb3e
000001f0: 5001 d1be ecc9 ddbe 2dcb c53e 9d0a fd3e
00000200: bb4e c6bd 6ac5 043f 9298 11bd dcb9 17bf
00000210: 17d5 31bf 583d a43e a3c5 353e 09fe 81bc
00000220: 44a5 803e ace5 e43d 364d b0bd f807 32be
00000230: 12e1 d03e 133e 973d a58b 003f b25c 043f
00000240: 038e 64be 14ad 3b3d 694c 53be 70de 0bbf
00000250: 7d71 7d3e 7317 c5be a65e c2be 3c94 96bd
00000260: 0cd0 0abe f438 e6bd 4e30 82be 2216 fe3e
00000270: c529 493e 547b 18bf a6f0 263f 3426 03bf
00000280: 8a1a 0abf 9de2 1a3e 55b4 203f 91f4 103f
00000290: f07b 603e 0326 45be 0586 a4be 3de9 18bf
000002a0: 31ea 403e bdd6 afbe 6c47 fe3e 1b8d 32bf
000002b0: fc9a 8c3e 595d ec3e e7c4 143f 927b 09bf
000002c0: 416e 223e aba6 27bf 1672 7dbe 1582 193f
000002d0: 2f12 053f 12af 0abf bcf6 063f ca13 0dbf
000002e0: ade3 223d d6de 09be 4c60 b5bd a186 d03d
000002f0: aaee 33bf 1d50 e5be 337b f93e 9087 073f
00000300: 4303 b23d 9c8d 1fbf e4c9 b3bd fa9b 86be
00000310: 8f5c 2e3f c33c 1dbf bcb0 e73d 18ff 1bbf
00000320: 02be 1e3f 85ca 123f 903f 113e 1c5f 193f
00000330: 2e43 213f 09a9 2dbf 1c6d 583e 8abf a63e
00000340: 7e40 ebbe 7553 f5be 9123 80bc 17c1 26bf
00000350: a9c7 2dbf 2e23 f2be d092 243f 3bcd 0f3f
00000360: c303 0a3e 92e7 c1be 1a0e c1be 7315 6d3e
00000370: f9ff 283d 8fe0 1e3f f4ac 25bf 7a97 8f3c
00000380: 2897 163f 65fa fe3d ddb2 0a3f fe68 0bbf
00000390: c15b ff3e ef1b ac3e 5a2e 9d3d eb32 a53e
000003a0: 0149 283f 3dff 363e 74f4 e0be aa97 e13d
000003b0: aa6c 8fbe 48d5 b7be fdcb c8be d990 e93e
000003c0: 1e75 2ebf c004 ce3e 976b dbbd 2aae da3e
000003d0: a595 15bf 3512 1dbf b868 d03e 3645 33bf
000003e0: f862 a1bd 303d 5bbc 6d58 0fbf c47f 28bf
000003f0: 424e 803d 449f 3f3e ee95 8d3e fdb6 073f

elu_stack.2.weight f4 [256, 256]
-0.021246448 -0.027754195 -0.03672827 0.011497416 -0.042641237 0.051136576 0.01499144 0.0010142475
-0.057026558 0.03681548 0.01929576 0.044693753 0.033344276 0.008620575 -0.004613824 -0.024749354
-0.02913744 0.04245819 -0.0060929656 -0.018967688 0.049560018 -0.05914133 -0.004425414 0.0016591996
-0.03526865 -0.0046139285 0.034609064 0.01649069 -0.017975792 -0.0023541972 -0.05571422 0.049982235
0.04719995 0.050014272 -0.06043557 0.061140105 0.042319395 0.042550303 -0.012858085 -0.058670655
-0.056774445 0.015204795 0.03570938 0.04809279 0.026343167 -0.037256442 0.013487577 -0.025579706
0.029808179 -0.060314998 0.013411887 -0.034731284 -0.027571611 -0.04554174 0.025679328 -0.0056998134
-0.0615545 -0.05669082 -0.04142969 -0.033535145 0.03765402 0.0071821287 0.050596356 -0.032507204
0.010127291 0.06156738 0.013765834 -0.03515403 0.022516444 -0.023072265 0.01952362 -0.029188938
0.06131185 0.059243217 0.025621496 -0.034830533 0.050839677 -0.039837524 0.0358627 0.009728253
0.0009695515 0.052334897 0.032355614 -0.056828067 -0.028845377 0.04119008 0.03522262 0.04966905
-0.012170114 0.02584467 0.022523291 -0.030202888 -0.03494665 0.035919197 0.01267004 0.023149751
-0.034960948 -0.05638074 -0.038546465 0.054674476 -0.03521257 -0.05904436 0.043593794 0.014444776
-0.051810175 0.036019944 -0.058163196 -0.0070115402 -0.019320391 0.050558873 -0.06205623 0.022334725
0.030205078 0.00022692978 0.049472176 0.049631253 0.0008889064 -0.011451915 -0.034194022 0.02403719
0.05076193 -0.048582613 0.017425887 0.007864095 0.0043061674 0.045685306 0.03583502 -0.034531437
-0.054219045 0.03154271 -0.026733845 0.04197537 -0.041636653 -0.021193415 -0.021924265 0.061027154
-0.024072051 0.013777681 0.00625477 -0.006725952 -0.00073224306 -0.021499768 -0.019718528 -0.020190477
-0.002083227 -0.050768405 -0.06006083 0.026256457 0.028353043 -0.029479578 -0.019200124 -0.022731692
0.024980187 0.030405432 0.03675607 -0.041762806 0.028847195 -0.06059984 0.008001953 -0.032943286
-0.040626064 0.04491909 0.03881771 -0.053821392 -0.026048042 0.0073845237 0.00789962 0.05789896
0.02714955 -0.03595469 0.0075840726 -0.061154634 0.058610834 0.033453353 0.048759714 0.046874575
0.009980023 -0.0070835054 -0.031871445 0.027883582 0.0112416595 0.056004807 -0.061566055 -0.012399174
-0.00035648793 -0.057488836 0.059423424 -0.015841566 0.016758218 0.021069974 0.006733611 0.03741079
-0.0154605955 0.035067946 0.058682896 -0.050238505 0.054682635 -0.007202409 -0.0095430985 -0.062496893
-0.032649077 -0.04414002 0.020471722 0.0020860285 -0.05828575 0.041162737 -0.020111062 -0.022185527
0.03246274 -0.05366668 0.015262857 -0.013515778 0.021713994 0.037433803 -0.05687006 -0.028810874
-0.0017550066 -0.021428525 -0.03429585 -0.0595437 0.0018013343 -0.031273514 0.017565183 -0.01943297
-0.02797401 -0.0433743 0.029126473 -0.039218977 -0.005895421 0.028768942 0.044552 0.04700791
-0.03244272 0.05750177 -0.023009151 -0.0561949 -0.021371916 -0.020693861 -0.008793406 -0.02540233
0.03864955 -0.022919111 0.026815638 0.008289337 -0.01096572 -0.062197037 0.015341744 -0.03521566
0.010819405 0.01875545 -0.050366685 -0.058776908 -0.05702363 -0.030141927 0.05229169 -0.05904334
00000000: 080d aebc c45c e3bc 6270 16bd a85f 3c3c
00000010: 94a8 2ebd 9674 513d a89e 753c 80f0 843a
00000020: ae94 69bd d4cb 163d 2412 9e3c cc10 373d
00000030: 0294 083d 503d 0d3c 902f 97bb 28bf cabc
00000040: a4b1 eebc a4e8 2d3d 80a7 c7bb 2062 9bbc
00000050: 72ff 4a3d 2e3e 72bd 1003 91bb 8079 d93a
00000060: dc75 10bd 7030 97bb 3cc2 0d3d 7c17 873c
00000070: f841 93bc e048 1abb 9834 64bd 2cba 4c3d
00000080: bc54 413d c4db 4c3d 4a8b 77bd 0c6e 7a3d
00000090: 1a57 2d3d 3a49 2e3d b8aa 52bc a450 70bd
000000a0: 528c 68bd 881d 793c 0044 123d f2fc 443d
000000b0: a0cd d73c 369a 18bd 00fb 5c3c 888c d1bc
000000c0: 4830 f43c dc0c 77bd 88bd 5b3c 6442 0ebd
000000d0: dcdd e1bc fa89 3abd 745d d23c 80c5 babb
000000e0: 9220 7cbd a234 68bd 2eb2 29bd 265c 09bd
000000f0: 1a3b 1a3d 1058 eb3b 203e 4f3d 4626 05bd
00000100: f0ec 253c 142e 7c3d 188a 613c acfd 0fbd
00000110: 6874 b83c 0c02 bdbc 00f0 9f3c a41d efbc
00000120: 2222 7b3d 04a9 723d 2ce4 d13c 76aa 0ebd
00000130: 443d 503d ac2c 23bd c4e4 123d 4063 1f3c
00000140: 8029 7e3a 1e5d 563d 5287 043d 8cc4 68bd
00000150: 244d ecbc eeb6 283d 9845 103d c671 4b3d
00000160: 2865 47bc 34b8 d33c c482 b83c 0c6c f7bc
00000170: 3824 0fbd 0220 133d 0096 4f3c 8ca4 bd3c
00000180: 3633 0fbd 7eef 66bd e6e2 1dbd 58f2 5f3d
00000190: 0e3b 10bd 80d8 71bd 688f 323d c8a9 6c3c
000001a0: e836 54bd a689 133d 883c 6ebd 10c1 e5bb
000001b0: cc45 9ebc d216 4f3d ac2e 7ebd 50f7 b63c
000001c0: a470 f73c 00f4 6d39 56a3 4a3d 244a 4b3d
000001d0: 8005 693a d0a0 3bbc 080f 0cbd a4e9 c43c
000001e0: beeb 4f3d 90fe 46bd bcc0 8e3c 68d8 003c
000001f0: c01a 8d3b 8420 3b3d bec7 123d d670 0dbd
00000200: ca14 5ebd ee32 013d f000 dbbc 5eee 2b3d
00000210: 328b 2abd d09d adbc 849a b3bc 9cf7 793d
00000220: c032 c5bc c8bb 613c d0f4 cc3b 6065 dcbb
00000230: 00f4 3fba 4820 b0bc c088 a1bc 8066 a5bc
00000240: c086 08bb 88f2 4fbd 5802 76bd c817 d73c
00000250: a444 e83c 287f f1bc 9449 9dbc d037 babc
00000260: 40a3 cc3c d014 f93c 888d 163d 7a0f 2bbd
00000270: f450 ec3c 8a37 78bd a01a 033c 8aef 06bd
00000280: 8467 26bd 14fd 373d 52ff 1e3d d273 5cbd
00000290: b462 d5bc e0f9 f13b 686d 013c 7627 6d3d
000002a0: bc68 de3c 3a45 13bd d083 f83b 487d 7abd
000002b0: ea11 703d 6206 093d 44b8 473d 8eff 3f3d
000002c0: 4083 233c c01c e8bb a28b 02bd 1c6c e43c
000002d0: f02e 383c 4c65 653d b02c 7cbd e825 4bbc
000002e0: 00e7 bab9 6a79 6bbd fa65 733d 2cc6 81bc
000002f0: 8848 893c f09a ac3c a0a5 dc3b 0e3c 193d
00000300: 704e 7dbc 68a3 0f3d 7a5d 703d e4c6 4dbd
00000310: e6fa 5f3d 3002 ecbb a85a 1cbc befc 7fbd
00000320: 0abb 05bd 2acc 34bd 50b4 a73c c0b5 083b
00000330: 0abd 6ebd 429a 283d f4bf a4bc 6cbe b5bc
00000340: a6f7 043d 98d1 5bbd 1011 7a3c 4871 5dbc
00000350: 8ce1 b13c 3054 193d 94f0 68bd c804 ecbc
00000360: 4008 e6ba e08a afbc ce79 0cbd 18e4 73bd
00000370: c01a ec3a a818 00bd dce4 8f3c e431 9fbc
00000380: c029 e5bc 40a9 31bd a49a ee3c 14a4 20bd
00000390: 602e c1bb d8ac eb3c 287c 363d 5e8b 403d
000003a0: a8e2 04bd fa86 6b3d b07d bcbc a02c 66bd
000003b0: 2814 afbc 2c86 a9bc 3812 10bc 8c18 d0bc
000003c0: fe4e 1e3d dcc0 bbbc 78ac db3c 00d0 073c
000003d0: 90a9 33bc 52c2 7ebd f05b 7b3c 4c3e 10bd
000003e0: e043 313c 08a5 993c 4c4d 4ebd 0ec0 70bd
000003f0: 9c91 69bd 34ec f6bc d02f 563d 6ed7 71bd

elu_stack.2.bias f4 [256]
-0.05882311 0.041729353 0.010416836 0.05851973 -0.005428344 -0.060837522 0.047559507 -0.045173302
0.0028339624 -0.014824986 -0.053403266 -0.0034708977 -0.029678583 0.010683924 0.0012872517 -0.013009049
0.020612791 0.009112373 -0.03722626 -0.022780381 0.008144401 0.017610528 0.022199482 0.060773835
-0.007750772 -0.02468656 -0.01832056 0.045817047 -0.034518242 -0.002477847 -0.02005069 0.019120134
-0.016969837 -0.02075702 0.047422044 -0.041293316 0.009899341 -0.04502914 0.019403592 -0.03905846
-0.011524476 -0.061365306 0.025166564 -0.036134228 0.021477126 -0.03646382 0.044039644 -0.06150704
0.043547794 -0.050145067 0.037029214 0.026629388 -0.017513521 -0.029799655 0.00461448 0.012137629
0.06241703 0.032504313 -0.043818258 0.023646474 -0.054044344 0.03176084 0.03818109 -0.029113524
-0.030372016 -0.030209273 -0.044254117 -0.04668016 -0.045106307 -0.03091707 -0.052914806 0.004649572
0.02693221 0.046794847 0.034925535 -0.03834776 -0.043619543 -0.026966184 0.014829665 0.04001323
0.0436346 -0.0029806644 0.029929921 0.011560723 0.025670193 0.024149083 0.004809983 0.052303225
-0.0050229654 -0.062416688 -0.042856842 -0.059387386 0.009097047 -0.012210131 0.043225303 -0.0058651716
0.062238008 0.026715882 -0.023228526 0.035204455 0.025681973 0.041568376 -0.048438236 0.028183311
-0.029609732 -0.05751116 -0.056807995 -0.036599576 0.062302336 -0.059944518 -0.013217866 -0.0186138
0.047164664 -0.00270769 -0.04080847 0.015628494 0.050082654 0.057340242 0.043046393 0.04106588
-0.028284669 -0.0057158247 0.010394752 -0.014421627 0.0155680105 0.061607838 -0.006080188 -0.03136328
0.039495803 -0.03260179 -0.00821273 -0.033955976 0.0548938 -0.010548465 -0.050936133 -0.057444155
0.03709188 0.0048196986 -0.04892359 0.055777125 0.00082473457 -0.019963205 0.056960538 0.0025618076
-0.010704838 -0.056063227 0.04990127 0.027969897 -0.0152648315 -0.03651294 -0.01771158 -0.008910887
-0.056032784 -0.05997274 0.023941532 0.057312675 -0.043097645 0.05377365 0.047441572 -0.027942874
-0.006584935 -0.016322084 -0.030506045 -0.052946076 0.0464394 0.054598138 0.062171705 0.007023357
0.008097991 0.031079486 0.020933136 0.020307124 0.038872927 0.044756137 0.021273062 -0.01436992
-0.030246377 -0.010849357 0.049614713 0.005371392 0.028289758 0.006381072 0.03146345 -0.013379194
-0.045994617 0.008313507 0.027932227 0.013253108 0.050138064 -0.0011143312 0.04606191 -0.018067233
0.05206357 0.047033146 -0.04816077 0.0547024 -0.048001148 0.044772275 -0.025781564 -0.00052847713
0.045999102 -0.01742287 0.0519583 0.059864655 -0.018687412 -0.015027024 0.023830384 -0.00316979
-0.028723896 0.024330579 -0.017427877 0.03836707 -0.007956997 -0.012167409 0.04878512 -0.053757213
-0.05965787 0.03543587 0.044591054 -0.05003462 0.0616332 -0.004428707 -0.017056152 -0.040687352
0.017028578 0.015164867 0.0475834 -0.05024696 -0.030737862 -0.053743824 0.05066429 0.013504989
0.032705978 -0.048679687 0.0063015595 0.029854193 0.028423056 0.059945375 0.013993949 -0.040266924
-0.052621976 0.05409438 -0.06152094 0.04301084 0.029375874 -0.041183844 -0.009441286 0.011846855
0.04156685 0.0028874055 -0.0221152 0.047925018 -0.011795513 -0.059609838 -0.03336294 0.056758277
00000000: 80f0 70bd 66ec 2a3d 60ab 2a3c 62b2 6f3d
00000010: 40e0 b1bb c430 79bd c2cd 423d a407 39bd
00000020: 00ba 393b 80e4 72bc 62bd 5abd 0078 63bb
00000030: 8020 f3bc a00b 2f3c 00b9 a83a e823 55bc
00000040: 28dc a83c 104c 153c 907a 18bd ec9d babc
00000050: 1870 053c f443 903c b0db b53c fced 783d
00000060: 30fa fdbb 783b cabc 0015 96bc a8aa 3b3d
00000070: 0063 0dbd 6063 22bb 5841 a4bc d4a1 9c3c
00000080: 5404 8bbc a00a aabc 9e3d 423d 2e23 29bd
00000090: d830 223c 7a70 38bd 48f4 9e3c c4fb 1fbd
000000a0: 28d1 3cbc 305a 7bbd 1c2a ce3c 7c01 14bd
000000b0: ccf0 af3c 165b 15bd ea62 343d ceee 7bbd
000000c0: 2c5f 323d ea64 4dbd f2ab 173d e025 da3c
000000d0: 8478 8fbc 681e f4bc 1035 973b e8dc 463c
000000e0: 00a9 7f3d 3e23 053d c67a 33bd 40b6 c13c
000000f0: 9a5d 5dbd a817 023d c663 1c3d 7c7f eebc
00000100: bcce f8bc 7079 f7bc ce43 35bd b233 3fbd
00000110: 64c1 38bd cc45 fdbc 32bd 58bd 705b 983b
00000120: f0a0 dc3c f4ab 3f3d 140e 0f3d 8a12 1dbd
00000130: 68aa 32bd 30e8 dcbc 20f8 723c eae4 233d
00000140: 32ba 323d 4057 43bb 982f f53c 3069 3d3c
00000150: 4c4a d23c 4cd4 c53c 109d 9d3b e83b 563d
00000160: b097 a4bb a4a8 7fbd a88a 2fbd 3040 73bd
00000170: c80b 153c 000d 48bc 040d 313d a030 c0bb
00000180: 48ed 7e3d 44db da3c c049 bebc 8c32 103d
00000190: 0063 d23c 9a43 2a3d 2c67 46bd b0e0 e63c
000001a0: 1c90 f2bc d290 6bbd 80af 68bd 70e9 15bd
000001b0: bc30 7f3d 6288 75bd c08f 58bc f87b 98bc
000001c0: bc2f 413d 8073 31bb c826 27bd 5407 803c
000001d0: 7823 4d3d 9add 6a3d 6a51 303d b234 283d
000001e0: 40b5 e7bc d04b bbbb c04e 2a3c b048 6cbc
000001f0: f810 7f3c 8058 7c3d 503c c7bb c876 00bd
00000200: 5ac6 213d 7489 05bd b08e 06bc 6c15 0bbd
00000210: 52d8 603d 78d3 2cbc 68a2 50bd 904a 6bbd
00000220: a8ed 173d 90ee 9d3b 1a64 48bd 8e76 643d
00000230: 0033 583a e089 a3bc 744f 693d 00e4 273b
00000240: 5863 2fbc 8ea2 65bd 4665 4c3d 2021 e53c
00000250: 5819 7abc 988e 15bd e017 91bc f8fe 11bc
00000260: a282 65bd faa5 75bd 0821 c43c b2c0 6a3d
00000270: 2887 30bd c241 5c3d 1852 423d 74e8 e4bc
00000280: 70c6 d7bb e4b5 85bc d0e7 f9bc fcdd 58bd
00000290: 3e37 3e3d 4ca2 5f3d c2a7 7e3d 3024 e63b
000002a0: 70ad 043c 689a fe3c f87b ab3c 205b a63c
000002b0: 3839 1f3d 3652 373d d844 ae3c d06f 6bbc
000002c0: 40c7 f7bc 80c1 31bc cc38 4b3d 8002 b03b
000002d0: ecbf e73c 5018 d13b d2df 003d 6834 5bbc
000002e0: da64 3cbd 6035 083c 20d2 e43c 9023 593c
000002f0: 925d 4d3d c00e 92ba 6aab 3c3d bc01 94bc
00000300: 9c40 553d d4a5 403d 3a44 45bd a00f 603d
00000310: da9c 44bd 2263 373d dc33 d3bc 8089 0aba
00000320: 8e69 3c3d 68ba 8ebc 3ad2 543d a434 753d
00000330: 5816 99bc e833 76bc f037 c33c 40bc 4fbb
00000340: 604e ebbc ec50 c73c e8c4 8ebc ca26 1d3d
00000350: 105e 02bc d059 47bc e8d2 473d 8630 5cbd
00000360: d05b 74bd 3425 113d 1ca5 363d 1af1 4cbd
00000370: 1873 7c3d b01e 91bb 58b9 8bbc c8a7 26bd
00000380: 847f 8b3c 1076 783c d0e6 423d c2cf 4dbd
00000390: f8cd fbbc 7c22 5cbd 5c85 4f3d 0844 5d3c
000003a0: b4f6 053d 5a64 47bd 507d ce3b c890 f43c
000003b0: 78d7 e83c 4889 753d e046 653c eeee 24bd
000003c0: 248a 57bd 1292 5d3d 62fd 7bbd 222c 303d
000003d0: aca5 f03c 64b0 28bd a0af 1abc 5019 423c
000003e0: 0042 2a3d a03a 3d3b f02a b5bc 064d 443d
000003f0: f841 41bc 7229 74bd 94a7 08bd 5e7b 683d

elu_stack.4.weight f4 [2, 256]
-0.03464041 -0.016503774 -0.054807402 0.035241187 -0.027662493 0.034200273 -0.018863976 0.040917672
0.016379528 -0.009718537 -0.05507633 -0.047460683 0.01751303 0.01180166 -0.051185176 0.033522017
0.024234101 0.010431878 0.044748165 0.045295373 -0.05143556 0.019036949 0.029249735 -0.041845895
-0.013158649 -0.05927507 0.06069745 -0.019579977 -0.035583206 0.015594125 -0.004734345 -0.060179174
0.017653562 0.047915384 -0.012373209 -0.02493424 -0.013725199 0.03228789 0.035727337 0.02295784
-0.04522665 -0.038390756 -0.022840016 0.05214954 -0.04283227 0.051029123 0.034359254 0.005255997
0.0009561926 0.02244486 -0.03657697 0.061488524 -0.016065136 -0.034948 -0.04221417 0.040246665
0.05429744 0.05665569 -0.051955953 0.04326517 -0.049972467 0.017790563 0.011113949 -0.03868474
0.009301983 0.057462007 -0.011472009 0.020503335 0.021458112 -0.017064773 -0.019074365 -0.0031786785
-0.039606057 0.022983246 -0.02448006 -0.028244272 0.02973444 -0.025628932 0.043223955 0.053915568
0.056533135 -0.062246628 0.030282982 -0.04402452 0.004600458 -0.057122484 -0.0025626943 -0.0097396895
-0.053462416 -0.016200066 -0.045962557 -0.0466735 -0.050317504 -0.013623126 -0.008183204 0.038395025
-0.046848707 -0.052681267 0.0044396445 0.011409342 -0.026622087 -0.013427481 0.045854367 -0.003551066
0.021539494 0.01815787 0.028630368 -0.056557827 0.019596502 -0.01925826 -0.04252941 0.042922005
0.06110608 0.0052497685 -0.032615528 -0.02039972 0.029738955 0.02338349 0.023099124 0.020093508
0.019710459 0.04632216 -0.009713396 0.03966116 -0.04559899 -0.039621897 0.032376952 0.011816889
0.028706782 0.055958107 -0.038865358 0.060948603 -0.04474251 -0.034844376 -0.009454727 0.04691288
0.0015602335 -0.04843367 -0.044352204 -0.0347092 -0.037455514 0.03368725 0.012282103 -0.021426484
-0.023086578 0.045858353 0.012796424 -0.005965315 0.044190176 0.044807807 -0.006711513 -0.00096385926
-0.058444753 0.048150323 -0.036662668 -0.057127036 0.024811886 -0.015656851 0.018753625 -0.0036120787
-0.00407172 0.04877449 0.026820779 -0.011110909 0.012243807 0.0018675327 0.036703512 0.011743635
0.005382046 -0.06049508 0.025383003 0.019865178 0.03970003 0.053901114 -0.03267213 -0.0252399
0.03131909 0.047341652 0.023294821 -0.021812782 -0.03285349 -0.049108513 -0.049685217 0.022008017
0.007104188 0.056357972 -0.047776274 0.007752657 -0.06239099 -0.043982826 6.6138804e-05 0.013324708
0.030734062 0.041575722 0.015612677 0.038556993 0.043490306 0.025253952 -0.011837162 -0.056307353
-0.025989585 0.06002879 0.058102302 0.029822752 0.009405583 0.046266966 0.017526679 -0.015891284
0.019626938 0.011684887 -0.037511624 -0.0072743744 0.020641446 0.028882086 -0.03523831 -0.029114224
0.022269376 0.024718657 0.015348524 -0.02788663 -0.0051931664 0.03825856 -0.015714355 0.025615267
-0.06007029 -0.06003681 -0.01869867 0.027766787 -0.051393308 0.029972613 0.0209262 -0.026605971
-0.0046324134 -0.030101307 -0.03483542 -0.04515177 -0.026869833 0.024807662 0.013361059 0.0029543564
-0.04360354 -0.01936528 -0.037129685 0.032893546 -0.0053280145 -0.018257909 -0.011136107 -0.009126179
0.06198688 -0.059155226 0.00079503655 -0.010105975 -0.037508853 -0.019931458 -0.042209513 -0.05893474
00000000: 1ae3 0dbd ec32 87bc ba7d 60bd 1059 103d
00000010: 749c e2bc 9615 0c3d a088 9abc 4a99 273d
00000020: 5c2e 863c 803a 1fbc b897 61bd 2266 42bd
00000030: 7c77 8f3c c05b 413c 8ca7 51bd 624e 093d
00000040: 9886 c63c 78ea 2a3c da49 373d a487 393d
00000050: 18ae 52bd 60f3 9b3c 249d ef3c 9a66 2bbd
00000060: 6097 57bc 6aca 72bd e49d 783d 3066 a0bc
00000070: b2bf 11bd 807e 7f3c 9022 9bbb 707e 76bd
00000080: 349e 903c ec42 443d 00b9 4abc e442 ccbc
00000090: a8df 60bc 4e40 043d d456 123d 1412 bc3c
000000a0: 943f 39bd a03f 1dbd fc1a bbbc c29a 553d
000000b0: e470 2fbd ea03 513d 4abc 0c3d 803a ac3b
000000c0: 00a9 7a3a 48de b73c bcd1 15bd 64db 7b3d
000000d0: 089b 83bc a225 0fbd c4e8 2cbd b0d9 243d
000000e0: fe66 5e3d cc0f 683d c4cf 54bd d236 313d
000000f0: eeaf 4cbd 84bd 913c 4817 363c e473 1ebd
00000100: 5867 183c 485d 6b3d 18f5 3bbc 9cf6 a73c
00000110: ecc8 af3c 6ccb 8bbc d841 9cbc 6051 50bb
00000120: f639 22bd 5c47 bc3c 688a c8bc 8860 e7bc
00000130: a495 f33c c4f3 d1bc 9a0b 313d 92d6 5c3d
00000140: 4a8f 673d 52f6 7ebd 0414 f83c 0e53 34bd
00000150: 70bf 963b 44f9 69bd e0f2 27bb 3893 1fbc
00000160: 68fb 5abd 00b6 84bc 3c43 3cbd b62c 3fbd
00000170: ba19 4ebd 8833 5fbc d812 06bc 1a44 1d3d
00000180: 6ee4 3fbd 50c8 57bd 707a 913b 40ee 3a3c
00000190: 9016 dabc f0fe 5bbc cad1 3b3d 00b9 68bb
000001a0: 9873 b03c d0bf 943c 3c8a ea3c 2ea9 67bd
000001b0: d888 a03c 80c3 9dbc 5233 2ebd fcce 2f3d
000001c0: 5e4a 7a3d 4006 ac3b dc97 05bd 501d a7bc
000001d0: 1c9f f33c bc8e bf3c 603a bd3c 249b a43c
000001e0: d477 a13c 4ebc 3d3d f024 1fbc be73 223d
000001f0: 02c6 3abd 924a 22bd b29d 043d a09b 413c
00000200: 7c2a eb3c 5434 653d 4831 1fbd 3ea5 793d
00000210: ec43 37bd fab8 0ebd 00e8 1abc b827 403d
00000220: c080 cc3a 6262 46bd a8aa 35bd 3c2b 0ebd
00000230: f46a 19bd a4fb 093d e03a 493c 9886 afbc
00000240: 1020 bdbc f8d5 3b3d 18a8 513c b078 c3bb
00000250: c200 353d 6488 373d 40ec dbbb 80ab 7cba
00000260: c463 6fbd 4639 453d 982b 16bd 0afe 69bd
00000270: 4c42 cb3c cc42 80bc 34a1 993c a0b8 6cbb
00000280: 106c 85bb c2c7 473d 40b7 db3c 880a 36bc
00000290: 409a 483c 00c8 f43a 6c56 163d 6068 403c
000002a0: e05b b03b b0c9 77bd 04f0 cf3c 4cbc a23c
000002b0: 809c 223d 6ac7 5c3d 36d3 05bd e8c3 cebc
000002c0: 7248 003d 52e9 413d c8d4 be3c b8b0 b2bc
000002d0: 6291 06bd 0226 49bd ba82 4bbd 284a b43c
000002e0: 40ca e83b 9ed7 663d 0eb1 43bd 000a fe3b
000002f0: b28d 7fbd 5627 34bd 00b4 8a38 e04f 5a3c
00000300: 00c6 fb3c 4e4b 2a3d 50cc 7f3c f0ed 1d3d
00000310: e422 323d 60e1 ce3c a8f0 41bc 8aa2 66bd
00000320: 1ce8 d4bc c0e0 753d aefc 6d3d d84e f43c
00000330: e019 1a3c 6e82 3d3d 1c94 8f3c 702e 82bc
00000340: acc8 a03c f871 3f3c caa5 19bd e05d eebb
00000350: 4018 a93c 209a ec3c 0c56 10bd f480 eebc
00000360: 446e b63c c87e ca3c 6078 7b3c 8072 e4bc
00000370: 702b aabb 02b5 1c3d 64bb 80bc 1cd7 d13c
00000380: 440c 76bd 28e9 75bd f42d 99bc 2c77 e33c
00000390: ca81 52bd 2089 f53c 6c6d ab3c c4f4 d9bc
000003a0: 80cb 97bb 0497 f6bc 96af 0ebd 10f1 38bd
000003b0: 201e dcbc 7039 cb3c 58e8 5a3c e09d 413b
000003c0: a099 32bd f0a3 9ebc 4c15 18bd 62bb 063d
000003d0: a096 aebb 9c91 95bc 3874 36bc f885 15bc
000003e0: f4e5 7d3d c04c 72bd 006a 503a 8893 25bc
000003f0: e2a2 19bd 4c47 a3bc e2e3 2cbd 8e65 71bd

elu_stack.4.bias f4 [2]
0.020941772 -0.0056519136
00000000: 148e ab3c b033 b9bb
