Parameter/wallplaneTEST/3.pth (torch, 545217 bytes, 24 tensors)

b_linear1.w f4 [4, 256]
00000000: 0000 0000 0000 0000 0000 0000 0000 0000
00000010: 0000 0000 0000 0000 0000 0000 0000 0000
00000020: 0000 0000 0000 0000 0000 0000 0000 0000
00000030: 0000 0000 0000 0000 0000 0000 0000 0000
00000040: 0000 0000 0000 0000 0000 0000 0000 0000
00000050: 0000 0000 0000 0000 0000 0000 0000 0000
00000060: 0000 0000 0000 0000 0000 0000 0000 0000
00000070: 0000 0000 0000 0000 0000 0000 0000 0000
00000080: 0000 0000 0000 0000 0000 0000 0000 0000
00000090: 0000 0000 0000 0000 0000 0000 0000 0000
000000a0: 0000 0000 0000 0000 0000 0000 0000 0000
000000b0: 0000 0000 0000 0000 0000 0000 0000 0000
000000c0: 0000 0000 0000 0000 0000 0000 0000 0000
000000d0: 0000 0000 0000 0000 0000 0000 0000 0000
000000e0: 0000 0000 0000 0000 0000 0000 0000 0000
000000f0: 0000 0000 0000 0000 0000 0000 0000 0000
00000100: 0000 0000 0000 0000 0000 0000 0000 0000
00000110: 0000 0000 0000 0000 0000 0000 0000 0000
00000120: 0000 0000 0000 0000 0000 0000 0000 0000
00000130: 0000 0000 0000 0000 0000 0000 0000 0000
00000140: 0000 0000 0000 0000 0000 0000 0000 0000
00000150: 0000 0000 0000 0000 0000 0000 0000 0000
00000160: 0000 0000 0000 0000 0000 0000 0000 0000
00000170: 0000 0000 0000 0000 0000 0000 0000 0000
00000180: 0000 0000 0000 0000 0000 0000 0000 0000
00000190: 0000 0000 0000 0000 0000 0000 0000 0000
000001a0: 0000 0000 0000 0000 0000 0000 0000 0000
000001b0: 0000 0000 0000 0000 0000 0000 0000 0000
000001c0: 0000 0000 0000 0000 0000 0000 0000 0000
000001d0: 0000 0000 0000 0000 0000 0000 0000 0000
000001e0: 0000 0000 0000 0000 0000 0000 0000 0000
000001f0: 0000 0000 0000 0000 0000 0000 0000 0000
00000200: 0000 0000 0000 0000 0000 0000 0000 0000
00000210: 0000 0000 0000 0000 0000 0000 0000 0000
00000220: 0000 0000 0000 0000 0000 0000 0000 0000
00000230: 0000 0000 0000 0000 0000 0000 0000 0000
00000240: 0000 0000 0000 0000 0000 0000 0000 0000
00000250: 0000 0000 0000 0000 0000 0000 0000 0000
00000260: 0000 0000 0000 0000 0000 0000 0000 0000
00000270: 0000 0000 0000 0000 0000 0000 0000 0000
00000280: 0000 0000 0000 0000 0000 0000 0000 0000
00000290: 0000 0000 0000 0000 0000 0000 0000 0000
000002a0: 0000 0000 0000 0000 0000 0000 0000 0000
000002b0: 0000 0000 0000 0000 0000 0000 0000 0000
000002c0: 0000 0000 0000 0000 0000 0000 0000 0000
000002d0: 0000 0000 0000 0000 0000 0000 0000 0000
000002e0: 0000 0000 0000 0000 0000 0000 0000 0000
000002f0: 0000 0000 0000 0000 0000 0000 0000 0000
00000300: 0000 0000 0000 0000 0000 0000 0000 0000
00000310: 0000 0000 0000 0000 0000 0000 0000 0000
00000320: 0000 0000 0000 0000 0000 0000 0000 0000
00000330: 0000 0000 0000 0000 0000 0000 0000 0000
00000340: 0000 0000 0000 0000 0000 0000 0000 0000
00000350: 0000 0000 0000 0000 0000 0000 0000 0000
00000360: 0000 0000 0000 0000 0000 0000 0000 0000
00000370: 0000 0000 0000 0000 0000 0000 0000 0000
00000380: 0000 0000 0000 0000 0000 0000 0000 0000
00000390: 0000 0000 0000 0000 0000 0000 0000 0000
000003a0: 0000 0000 0000 0000 0000 0000 0000 0000
000003b0: 0000 0000 0000 0000 0000 0000 0000 0000
000003c0: 0000 0000 0000 0000 0000 0000 0000 0000
000003d0: 0000 0000 0000 0000 0000 0000 0000 0000
000003e0: 0000 0000 0000 0000 0000 0000 0000 0000
000003f0: 0000 0000 0000 0000 0000 0000 0000 0000
0.0 0.0 0.0 0.0 0.0 0.0 0.0 0.0
0.0 0.0 0.0 0.0 0.0 0.0 0.0 0.0
0.0 0.0 0.0 0.0 0.0 0.0 0.0 0.0
0.0 0.0 0.0 0.0 0.0 0.0 0.0 0.0
0.0 0.0 0.0 0.0 0.0 0.0 0.0 0.0
0.0 0.0 0.0 0.0 0.0 0.0 0.0 0.0
0.0 0.0 0.0 0.0 0.0 0.0 0.0 0.0
0.0 0.0 0.0 0.0 0.0 0.0 0.0 0.0
0.0 0.0 0.0 0.0 0.0 0.0 0.0 0.0
0.0 0.0 0.0 0.0 0.0 0.0 0.0 0.0
0.0 0.0 0.0 0.0 0.0 0.0 0.0 0.0
0.0 0.0 0.0 0.0 0.0 0.0 0.0 0.0
0.0 0.0 0.0 0.0 0.0 0.0 0.0 0.0
0.0 0.0 0.0 0.0 0.0 0.0 0.0 0.0
0.0 0.0 0.0 0.0 0.0 0.0 0.0 0.0
0.0 0.0 0.0 0.0 0.0 0.0 0.0 0.0
0.0 0.0 0.0 0.0 0.0 0.0 0.0 0.0
0.0 0.0 0.0 0.0 0.0 0.0 0.0 0.0
0.0 0.0 0.0 0.0 0.0 0.0 0.0 0.0
0.0 0.0 0.0 0.0 0.0 0.0 0.0 0.0
0.0 0.0 0.0 0.0 0.0 0.0 0.0 0.0
0.0 0.0 0.0 0.0 0.0 0.0 0.0 0.0
0.0 0.0 0.0 0.0 0.0 0.0 0.0 0.0
0.0 0.0 0.0 0.0 0.0 0.0 0.0 0.0
0.0 0.0 0.0 0.0 0.0 0.0 0.0 0.0
0.0 0.0 0.0 0.0 0.0 0.0 0.0 0.0
0.0 0.0 0.0 0.0 0.0 0.0 0.0 0.0
0.0 0.0 0.0 0.0 0.0 0.0 0.0 0.0
0.0 0.0 0.0 0.0 0.0 0.0 0.0 0.0
0.0 0.0 0.0 0.0 0.0 0.0 0.0 0.0
0.0 0.0 0.0 0.0 0.0 0.0 0.0 0.0
0.0 0.0 0.0 0.0 0.0 0.0 0.0 0.0

b_linear1.b f4 [1, 256]
00000000: 15e1 fc3b 0c2c 003c 4c9c e93b 8bf6 153c
00000010: 843f e33b 082e 103c f5d2 ff3b 5801 0b3c
00000020: 4edb 043c 74b7 093c 4d2a 153c a705 ec3b
00000030: 95eb 0b3c d608 fa3b 933a 073c 5a1b 103c
00000040: 638d 153c 390c 0b3c abec 093c dbf1 013c
00000050: 09ef 0b3c 1de5 c53b 0d15 0b3c 84b6 0c3c
00000060: b73a f83b ad1c dc3b 651a 043c a829 073c
00000070: 28f2 013c 2058 e43b 5316 183c 74cd 013c
00000080: d8c7 f83b 2a83 023c 08f8 f23b 6790 193c
00000090: 32a1 033c 41ea 123c 1242 073c 116b 103c
000000a0: 1729 ff3b e4d6 043c 9696 f43b bbd7 173c
000000b0: 1204 ed3b bd63 0a3c 6a3c 043c 1ca3 dd3b
000000c0: 9f37 fe3b 0824 073c 7edb f93b 9131 e83b
000000d0: 9315 e53b d30f f83b cb40 033c fbc4 083c
000000e0: 92c7 e23b 08c8 053c ec8c ee3b be19 053c
000000f0: 6a01 e03b c773 043c a09e f43b f990 223c
00000100: 14c3 143c fe31 1b3c d915 0d3c cd70 fc3b
00000110: 0a75 f73b 4a8f da3b 4099 093c 48ff d63b
00000120: 11ea ca3b 5902 123c 5a4f e43b 84dc 0c3c
00000130: e05f 053c 8c60 023c 95cd 0f3c 22d1 183c
00000140: c201 213c 0e69 113c 2a53 183c 33c2 083c
00000150: f58a 053c 103b e83b 3254 ff3b 0756 003c
00000160: 5bd3 ec3b 4059 1a3c 1234 223c 3bbf 0a3c
00000170: 94fa f23b 3b69 023c a467 c13b ff48 0c3c
00000180: e6fb 0e3c 8140 133c 6ab8 183c 7b7b 0a3c
00000190: 96e4 043c 7e08 0c3c 3a07 083c 468d da3b
000001a0: dde2 103c b426 023c f3ec 0c3c 5ed1 f33b
000001b0: c302 083c 6998 143c f97f 0a3c a758 f63b
000001c0: ff53 0a3c f1bc 0a3c 1469 043c ba44 163c
000001d0: 73be 073c 5d4e 1f3c e163 053c e768 0e3c
000001e0: bd5a 103c dc92 dc3b b407 f53b 460c e83b
000001f0: 0c6a 063c e264 d73b e56e 0a3c a225 f23b
00000200: bcca 133c ecb5 f73b a03d 0a3c e619 143c
00000210: 036a 0b3c 4a33 ee3b 63bb eb3b 6c76 0f3c
00000220: 290d df3b 3c12 1b3c c3ff 0c3c 7e08 053c
00000230: 941e ec3b 3517 133c 83c5 fc3b db9a 0a3c
00000240: 3423 123c ab10 fb3b 64c2 023c 4355 113c
00000250: 9264 fa3b c08b 023c 1959 133c 2a45 fa3b
00000260: 3590 ef3b 38bd 0e3c 04f5 0b3c d4a0 0b3c
00000270: e712 043c f484 103c 338b f33b 0251 153c
00000280: 975b 093c 7c89 153c 53ca 033c dd66 103c
00000290: db6d 0e3c d3e5 083c bda6 123c 170d 083c
000002a0: 8b25 263c 4310 0f3c 07d3 253c 89a3 ec3b
000002b0: 87ec 043c 979d f33b 01d3 003c 9061 fa3b
000002c0: 3ad3 153c 31c7 143c f049 073c 702f ff3b
000002d0: 6424 093c d8bc e63b aba5 173c f884 1c3c
000002e0: d80d 173c affc f63b 016f 0d3c 01bd f33b
000002f0: d8dd 0e3c faee 0c3c d0bb 103c b7b0 033c
00000300: d6fa fb3b a4f0 e73b 6092 0b3c 2c2f 153c
00000310: aa24 193c 3aa2 e63b 4f22 0c3c 57c5 133c
00000320: 71c1 073c 8603 1b3c 2ae3 0b3c e19e e13b
00000330: 7330 093c 49d1 0f3c fbe9 983b aa22 113c
00000340: a3bc 133c dd24 153c 8aa1 073c f4ec 0c3c
00000350: a128 1b3c 6e7e 0d3c c57b 073c c982 f63b
00000360: 516a 033c faae f93b b55b 113c 1ecb 0e3c
00000370: 4993 fb3b 7544 023c 9cde 183c f5c3 163c
00000380: 8058 063c f606 063c 6cfd 103c 1432 123c
00000390: 8974 0c3c d0b4 f93b e0b1 f03b 285d fd3b
000003a0: 3e9e eb3b 1e64 123c c719 d33b df69 1e3c
000003b0: 3c2e 123c b27b 033c cc31 113c 09f9 0e3c
000003c0: 3453 003c 378a 103c f76a 033c 2dfd 053c
000003d0: dded 0f3c d825 053c b78d 003c d15f d63b
000003e0: 79b6 0d3c cc87 e63b 8588 123c a222 283c
000003f0: fd5f 0c3c 9413 013c 67ab e63b bf76 ee3b
0.0077172616 0.007823002 0.0071292277 0.009153019 0.006935062 0.008800037 0.0078071305 0.008484207
0.008108927 0.008405555 0.009104324 0.0072028222 0.008540054 0.007630448 0.008253711 0.008795584
0.0091279475 0.008486801 0.008418242 0.007931198 0.008540877 0.0060392753 0.008488906 0.008588437
0.0075753587 0.0067172856 0.008062934 0.008249678 0.00793127 0.006968513 0.009282666 0.007922519
0.0075921826 0.007965842 0.0074148215 0.009372807 0.008034037 0.008966983 0.0082554985 0.008814589
0.0077868807 0.008107875 0.0074642403 0.009267743 0.0072331512 0.008446631 0.008071044 0.006763829
0.0077580954 0.008248337 0.0076250425 0.007085987 0.0069910972 0.007570246 0.008011053 0.008347745
0.0069207633 0.008165367 0.007279983 0.008123813 0.006836106 0.008084244 0.0074651986 0.0099222595
0.009079713 0.009472368 0.008611166 0.0077038766 0.007551794 0.0066699134 0.008398354 0.0065611936
0.0061924537 0.008911693 0.0069674673 0.008597497 0.008140534 0.007957589 0.008777042 0.009327205
0.009827079 0.008875145 0.009297172 0.008347082 0.008150806 0.007087119 0.0077920193 0.0078330105
0.007227344 0.009420693 0.00990011 0.008468444 0.007415125 0.007959659 0.0059022475 0.0085623255
0.008727049 0.008987547 0.0093213115 0.008452292 0.00811114 0.008546947 0.008302504 0.006669673
0.008843151 0.007943798 0.008601415 0.00744073 0.00830144 0.009069541 0.008453363 0.0075178924
0.008442878 0.008467899 0.008081693 0.009171659 0.008285153 0.009723273 0.008141489 0.008692003
0.008810696 0.006731374 0.007477725 0.007081541 0.0082039945 0.0065733055 0.008449291 0.00738974
0.009020504 0.0075595286 0.008437544 0.009039378 0.008509162 0.0072692977 0.007193969 0.008756261
0.0068069887 0.009464797 0.0086059 0.0081197005 0.0072057936 0.008977701 0.007713975 0.008459772
0.008919526 0.007661899 0.007980917 0.008870426 0.0076413834 0.007967889 0.0089934105 0.0076376395
0.007310892 0.008712105 0.008542303 0.008522231 0.008061147 0.008820761 0.0074323653 0.009113552
0.008383653 0.009127017 0.008043843 0.008813587 0.008693184 0.008355576 0.008950886 0.008303902
0.010140787 0.008731904 0.010121114 0.0072216433 0.008113033 0.0074345577 0.007862807 0.007641025
0.009144599 0.009080694 0.008257374 0.0077876374 0.008370493 0.007041555 0.009255807 0.009553187
0.009219609 0.0075374465 0.008632422 0.0074383025 0.008719884 0.008601898 0.0088338405 0.008037738
0.007689814 0.007078247 0.008518785 0.009105485 0.00934712 0.007038382 0.008553102 0.009019217
0.008285866 0.009461289 0.008538047 0.006885395 0.008373368 0.008777925 0.0046665645 0.008858362
0.0090171425 0.009103027 0.00827826 0.008601416 0.009470136 0.0086361 0.008269255 0.007522915
0.008020953 0.007619736 0.008871962 0.008715419 0.00767747 0.007950892 0.009330418 0.009201993
0.008199811 0.008180371 0.008849483 0.008923072 0.008572706 0.0076204315 0.007345423 0.0077320524
0.007190495 0.008935003 0.006442282 0.009668796 0.008922156 0.008025097 0.00886197 0.008726367
0.007832337 0.0088220155 0.008021108 0.008178038 0.008784738 0.008126698 0.007846287 0.006542184
0.008649462 0.007035231 0.008943682 0.010262163 0.008567807 0.007878203 0.0070394757 0.007277339

b_linear1.w_prior f4 [4, 256]
00000000: 0000 0000 0000 0000 0000 0000 0000 0000
00000010: 0000 0000 0000 0000 0000 0000 0000 0000
00000020: 0000 0000 0000 0000 0000 0000 0000 0000
00000030: 0000 0000 0000 0000 0000 0000 0000 0000
00000040: 0000 0000 0000 0000 0000 0000 0000 0000
00000050: 0000 0000 0000 0000 0000 0000 0000 0000
00000060: 0000 0000 0000 0000 0000 0000 0000 0000
00000070: 0000 0000 0000 0000 0000 0000 0000 0000
00000080: 0000 0000 0000 0000 0000 0000 0000 0000
00000090: 0000 0000 0000 0000 0000 0000 0000 0000
000000a0: 0000 0000 0000 0000 0000 0000 0000 0000
000000b0: 0000 0000 0000 0000 0000 0000 0000 0000
000000c0: 0000 0000 0000 0000 0000 0000 0000 0000
000000d0: 0000 0000 0000 0000 0000 0000 0000 0000
000000e0: 0000 0000 0000 0000 0000 0000 0000 0000
000000f0: 0000 0000 0000 0000 0000 0000 0000 0000
00000100: 0000 0000 0000 0000 0000 0000 0000 0000
00000110: 0000 0000 0000 0000 0000 0000 0000 0000
00000120: 0000 0000 0000 0000 0000 0000 0000 0000
00000130: 0000 0000 0000 0000 0000 0000 0000 0000
00000140: 0000 0000 0000 0000 0000 0000 0000 0000
00000150: 0000 0000 0000 0000 0000 0000 0000 0000
00000160: 0000 0000 0000 0000 0000 0000 0000 0000
00000170: 0000 0000 0000 0000 0000 0000 0000 0000
00000180: 0000 0000 0000 0000 0000 0000 0000 0000
00000190: 0000 0000 0000 0000 0000 0000 0000 0000
000001a0: 0000 0000 0000 0000 0000 0000 0000 0000
000001b0: 0000 0000 0000 0000 0000 0000 0000 0000
000001c0: 0000 0000 0000 0000 0000 0000 0000 0000
000001d0: 0000 0000 0000 0000 0000 0000 0000 0000
000001e0: 0000 0000 0000 0000 0000 0000 0000 0000
000001f0: 0000 0000 0000 0000 0000 0000 0000 0000
00000200: 0000 0000 0000 0000 0000 0000 0000 0000
00000210: 0000 0000 0000 0000 0000 0000 0000 0000
00000220: 0000 0000 0000 0000 0000 0000 0000 0000
00000230: 0000 0000 0000 0000 0000 0000 0000 0000
00000240: 0000 0000 0000 0000 0000 0000 0000 0000
00000250: 0000 0000 0000 0000 0000 0000 0000 0000
00000260: 0000 0000 0000 0000 0000 0000 0000 0000
00000270: 0000 0000 0000 0000 0000 0000 0000 0000
00000280: 0000 0000 0000 0000 0000 0000 0000 0000
00000290: 0000 0000 0000 0000 0000 0000 0000 0000
000002a0: 0000 0000 0000 0000 0000 0000 0000 0000
000002b0: 0000 0000 0000 0000 0000 0000 0000 0000
000002c0: 0000 0000 0000 0000 0000 0000 0000 0000
000002d0: 0000 0000 0000 0000 0000 0000 0000 0000
000002e0: 0000 0000 0000 0000 0000 0000 0000 0000
000002f0: 0000 0000 0000 0000 0000 0000 0000 0000
00000300: 0000 0000 0000 0000 0000 0000 0000 0000
00000310: 0000 0000 0000 0000 0000 0000 0000 0000
00000320: 0000 0000 0000 0000 0000 0000 0000 0000
00000330: 0000 0000 0000 0000 0000 0000 0000 0000
00000340: 0000 0000 0000 0000 0000 0000 0000 0000
00000350: 0000 0000 0000 0000 0000 0000 0000 0000
00000360: 0000 0000 0000 0000 0000 0000 0000 0000
00000370: 0000 0000 0000 0000 0000 0000 0000 0000
00000380: 0000 0000 0000 0000 0000 0000 0000 0000
00000390: 0000 0000 0000 0000 0000 0000 0000 0000
000003a0: 0000 0000 0000 0000 0000 0000 0000 0000
000003b0: 0000 0000 0000 0000 0000 0000 0000 0000
000003c0: 0000 0000 0000 0000 0000 0000 0000 0000
000003d0: 0000 0000 0000 0000 0000 0000 0000 0000
000003e0: 0000 0000 0000 0000 0000 0000 0000 0000
000003f0: 0000 0000 0000 0000 0000 0000 0000 0000
0.0 0.0 0.0 0.0 0.0 0.0 0.0 0.0
0.0 0.0 0.0 0.0 0.0 0.0 0.0 0.0
0.0 0.0 0.0 0.0 0.0 0.0 0.0 0.0
0.0 0.0 0.0 0.0 0.0 0.0 0.0 0.0
0.0 0.0 0.0 0.0 0.0 0.0 0.0 0.0
0.0 0.0 0.0 0.0 0.0 0.0 0.0 0.0
0.0 0.0 0.0 0.0 0.0 0.0 0.0 0.0
0.0 0.0 0.0 0.0 0.0 0.0 0.0 0.0
0.0 0.0 0.0 0.0 0.0 0.0 0.0 0.0
0.0 0.0 0.0 0.0 0.0 0.0 0.0 0.0
0.0 0.0 0.0 0.0 0.0 0.0 0.0 0.0
0.0 0.0 0.0 0.0 0.0 0.0 0.0 0.0
0.0 0.0 0.0 0.0 0.0 0.0 0.0 0.0
0.0 0.0 0.0 0.0 0.0 0.0 0.0 0.0
0.0 0.0 0.0 0.0 0.0 0.0 0.0 0.0
0.0 0.0 0.0 0.0 0.0 0.0 0.0 0.0
0.0 0.0 0.0 0.0 0.0 0.0 0.0 0.0
0.0 0.0 0.0 0.0 0.0 0.0 0.0 0.0
0.0 0.0 0.0 0.0 0.0 0.0 0.0 0.0
0.0 0.0 0.0 0.0 0.0 0.0 0.0 0.0
0.0 0.0 0.0 0.0 0.0 0.0 0.0 0.0
0.0 0.0 0.0 0.0 0.0 0.0 0.0 0.0
0.0 0.0 0.0 0.0 0.0 0.0 0.0 0.0
0.0 0.0 0.0 0.0 0.0 0.0 0.0 0.0
0.0 0.0 0.0 0.0 0.0 0.0 0.0 0.0
0.0 0.0 0.0 0.0 0.0 0.0 0.0 0.0
0.0 0.0 0.0 0.0 0.0 0.0 0.0 0.0
0.0 0.0 0.0 0.0 0.0 0.0 0.0 0.0
0.0 0.0 0.0 0.0 0.0 0.0 0.0 0.0
0.0 0.0 0.0 0.0 0.0 0.0 0.0 0.0
0.0 0.0 0.0 0.0 0.0 0.0 0.0 0.0
0.0 0.0 0.0 0.0 0.0 0.0 0.0 0.0

b_linear1.b_prior f4 [1, 256]
00000000: c3c6 0039 f5c2 0239 a973 ed38 76df 1939
00000010: b892 e638 3661 1339 f05c 0239 d81d 0e39
00000020: eb70 0739 c8c9 0c39 3a0e 1939 7abd ef38
00000030: 5e29 0f39 314d fe38 2327 0a39 e093 1339
00000040: f77b 1939 7821 0e39 b7f8 0c39 7f82 0439
00000050: 504c 0f39 b481 c738 3350 0e39 d70f 1039
00000060: dbf5 fc38 9010 df38 a9de 0639 7955 0a39
00000070: 115a 0439 5497 e738 0d20 1c39 9157 0439
00000080: 920f fd38 7b35 0539 dbba f638 4cde 1d39
00000090: e527 0639 d894 1639 d61d 0a39 0eb7 1339
000000a0: 8bf7 0139 9d98 0739 e7bd f838 61fb 1b39
000000b0: f5cb f038 8780 0d39 a4e1 0639 0abb e038
000000c0: 787e 0139 9ce4 0939 615a fe38 b6e9 eb38
000000d0: 591c e838 4b68 fc38 65dd 0539 30d6 0b39
000000e0: b2aa e538 8098 0839 8ef7 f138 4dd0 0739
000000f0: 7c85 e338 d62b 0739 85ac f838 d25f 2739
00000100: 3d8f 1839 f657 1f39 618d 1039 4e84 0039
00000110: 6c62 fb38 b7a2 dd38 45ba 0c39 74ad d938
00000120: 722d cd38 96a5 1539 9f97 e738 1724 1039
00000130: a73c 0839 f3cf 0439 4a37 1339 308c 1c39
00000140: a2a3 2539 ae0c 1539 4795 1c39 2dfb 0b39
00000150: 064c 0839 a4a0 eb38 a544 0239 7cfa 0239
00000160: 1b89 f038 6f85 1e39 5eed 2639 cdf7 0d39
00000170: 8404 f738 80f9 0439 6bc8 c238 4b62 0f39
00000180: 1972 1239 0afe 1639 ddbd 1c39 c282 0d39
00000190: 9495 0739 9f3d 0f39 2f1e 0b39 c9b8 dd38
000001a0: f681 1439 40a1 0439 ff5b 1039 91b6 f738
000001b0: ae03 0b39 5f3f 1839 be93 0d39 7655 fa38
000001c0: df66 0d39 acbd 0d39 dc0b 0739 0b0f 1a39
000001d0: b2aa 0a39 eafe 2339 a22c 0839 42f9 1139
000001e0: 39ef 1339 c639 df38 7083 f938 8a73 eb38
000001f0: 290e 0939 543c da38 38a7 0d39 3d41 f638
00000200: a396 1739 5f32 fc38 6b5a 0d39 5ffc 1739
00000210: fb99 0e39 edb4 f138 af97 ef38 a1e3 1239
00000220: 6945 e238 d765 1f39 936f 1039 e3c9 0739
00000230: 36b1 ef38 2ed2 1639 a5b1 0039 31ad 0d39
00000240: 9abe 1539 3cec ff38 166c 0539 8923 1539
00000250: be10 ff38 9bee 0439 cf1a 1739 804c ff38
00000260: 6e5e f338 6329 1239 2212 0f39 e6b3 0e39
00000270: 99bb 0639 7b01 1439 c471 f738 9d2a 1939
00000280: be69 0c39 a57a 1939 2d73 0639 8bf9 1339
00000290: 39eb 1139 19b5 0b39 7c5f 1639 65ec 0a39
000002a0: f978 2b39 2938 1239 b4e8 2a39 fb4b f038
000002b0: eb8e 0739 5ebf f738 6638 0339 f334 ff38
000002c0: acad 1939 57b6 1839 d516 0a39 c015 0239
000002d0: 992f 0c39 6e97 ea38 1fb2 1b39 3619 2139
000002e0: 9cf0 1a39 c757 fb38 b9bd 1039 e239 f838
000002f0: 8253 1239 ff73 1039 8358 1439 7f67 0639
00000300: b23c 0039 fac5 eb38 3cf1 0e39 fa0d 1939
00000310: 124a 1d39 fa06 ea38 3b33 0f39 dc75 1739
00000320: 27c6 0a39 ba3c 1f39 2c01 0f39 0195 e438
00000330: 3e3a 0c39 9a4a 1339 cc12 9938 34a1 1439
00000340: e69b 1739 2718 1939 8975 0a39 e039 1039
00000350: 108d 1f39 81cd 1039 7e62 0a39 5b65 fa38
00000360: 6028 0639 5927 fe38 d40e 1539 5267 1239
00000370: 82f8 ff38 3cfd 0439 8105 1d39 37c1 1a39
00000380: b635 0939 b6d1 0839 c394 1439 48e1 1539
00000390: f7b6 0f39 6464 fe38 bbed f438 7fe2 0039
000003a0: 2558 ef38 383e 1639 3b49 d538 6216 2339
000003b0: 9af0 1539 db14 0639 54f4 1439 6c75 1239
000003c0: a3dd 0239 5b3e 1439 5802 0639 d0bb 0839
000003d0: 9a26 1339 ab0a 0839 b113 0339 dc05 d938
000003e0: 85c5 1039 f3ea e938 de14 1639 5454 2d39
000003f0: 90c0 0f39 fea6 0339 3aa5 ea38 867c f238
0.00012281076 0.00012470393 0.00011322584 0.00014674463 0.00010994583 0.00014055226 0.00012432388 0.00013553293
0.00012916668 0.0001342661 0.00014596517 0.00011431701 0.00013652953 0.00012126042 0.00013175285 0.000140741
0.00014637398 0.00013554643 0.00013444094 0.00012637115 0.00013665971 9.5132185e-05 0.00013572052 0.00013738811
0.000120620905 0.000106365536 0.00012862183 0.00013192547 0.00012622053 0.000110431254 0.00014889259 0.00012621122
0.0001206688 0.00012703791 0.000117649986 0.00015055499 0.00012794098 0.00014360563 0.0001317182 0.00014087206
0.00012394616 0.00012931456 0.000118609336 0.00014875598 0.00011482082 0.00013494688 0.00012863294 0.00010715991
0.00012349512 0.00013150502 0.00012128498 0.00011249205 0.00011067902 0.000120357225 0.00012766344 0.00013335864
0.000109513654 0.00013026781 0.00011537886 0.00012952201 0.00010849067 0.00012890933 0.00011857696 0.00015962057
0.0001454921 0.0001519619 0.00013785578 0.00012256319 0.00011986945 0.00010568409 0.00013420831 0.000103796745
9.7836266e-05 0.00014271433 0.0001104318 0.00013746355 0.00012992565 0.00012665968 0.00014039609 0.00014929543
0.00015796584 0.00014214471 0.0001493293 0.00013349643 0.00012998292 0.00011235595 0.00012423338 0.00012491079
0.0001146963 0.00015117762 0.0001591942 0.00013539121 0.00011778719 0.00012681447 9.2879716e-05 0.0001367416
0.0001396615 0.00014399752 0.00014948049 0.00013495519 0.00012930325 0.00013660498 0.00013267317 0.0001057252
0.00014162794 0.00012648571 0.00013767181 0.000118118835 0.00013257444 0.00014519457 0.00013501846 0.00011936847
0.0001348513 0.00013517466 0.00012879021 0.00014692188 0.00013224295 0.00015639854 0.00012986598 0.00013921133
0.0001410813 0.0001064423 0.000118977274 0.00011227194 0.00013070613 0.00010406287 0.00013509102 0.00011742346
0.00014456599 0.00012025679 0.00013480491 0.00014494498 0.00013599537 0.000115254756 0.00011424661 0.00014008443
0.000107894484 0.0001520136 0.00013774475 0.00012949812 0.00011429416 0.00014383413 0.00012273209 0.00013511327
0.00014280752 0.000122033496 0.00012724134 0.00014222985 0.00012162466 0.00012677388 0.00014410469 0.00012173597
0.00011604732 0.00013939063 0.00013644298 0.00013609193 0.00012849121 0.00014114931 0.00011799068 0.00014607092
0.00013390832 0.00014636906 0.00012822142 0.00014111974 0.00013915905 0.00013323537 0.00014340685 0.0001324877
0.00016352897 0.00013944566 0.00016299152 0.00011458244 0.00012927844 0.00011813523 0.00012514144 0.0001216921
0.00014655915 0.00014563776 0.00013169211 0.00012405869 0.00013369172 0.000111861955 0.00014848307 0.00015363548
0.00014776218 0.000119849625 0.00013803587 0.00011836343 0.00013954754 0.00013776122 0.00014147353 0.00012817791
0.00012229642 0.00011242549 0.00013632042 0.00014596424 0.0001500028 0.00011159289 0.00013656628 0.00014444388
0.00013234523 0.00015186044 0.0001363798 0.00010899641 0.00013373137 0.00014046804 7.29911e-05 0.00014174433
0.00014458559 0.00014600214 0.00013204491 0.0001375447 0.00015215972 0.00013809466 0.00013197397 0.00011939808
0.00012794277 0.00012118993 0.00014215271 0.00013962135 0.00012205636 0.00012682838 0.00014974737 0.00014758563
0.00013085347 0.00013048094 0.00014169798 0.00014293671 0.00013705702 0.00012130363 0.000116791074 0.00012291408
0.00011412826 0.00014328293 0.00010170272 0.0001555323 0.00014299378 0.00012787005 0.00014205399 0.00013967388
0.00012480332 0.00014137609 0.00012780109 0.00013039936 0.00014033393 0.00012973945 0.00012500469 0.00010348458
0.00013806492 0.000111540685 0.00014312888 0.0001652998 0.00013709278 0.00012555343 0.00011188765 0.000115626535

b_linear2.w f4 [256, 256]
00000000: ae7d 9f3c ce0b 2ebb aba3 843c 9f5d a43c
00000010: daa1 39bb 30c8 5bbb 6ffe a43c 6bec ab3c
00000020: 64f4 72bb fa4f 33bb b7a2 58bb 11aa b73c
00000030: a4ae 2d3c aa9c ff3b 0648 8a3c 31e5 883c
00000040: 57f2 33bb 6226 24bb 4c77 8c3c dd0d 883c
00000050: a653 c53c 8551 46bb b745 003c 1451 b63c
00000060: 3ff7 3ebb b326 be3c bb45 4fbb 9c1f b03c
00000070: 199c a73c 80e0 55bb 3db4 933c ba3f 62bb
00000080: 26fa 2bbb 7e52 c63c 9e34 46bb 0f62 55bb
00000090: aafc 8f3c 299a 18bb d4cb 40bb a6dd 51bb
000000a0: c517 b03c 16ac 13bb 5089 a53c acf8 af3c
000000b0: 002d 71bb 50e6 1fbb 1980 52bb 4618 ea3b
000000c0: fcd5 3abb 662c 0bbb 7d3d 40bb d6ab b43c
000000d0: d515 69bb d653 3bbb 80d1 583c 11b4 783c
000000e0: d09d b33c bfaa 213c 8c9e 1bbb 254d 993c
000000f0: 16de 22bb 69d5 9d3c aa75 4ebb 5d80 733c
00000100: 755a 80bb 099e 44bb e7d0 473c c094 09bb
00000110: a636 c83c 539c b73c 85f2 45bb 73c0 b33c
00000120: dae7 39bb 7aa0 2fbb 252d 6f3c 16c4 ae3c
00000130: 9027 25bb 2663 44bb b74f 1bbb 5ee0 54bb
00000140: eebe a13c 6835 7a3c eede af3c 8056 6bbb
00000150: 7dc7 00bb 55f1 793c 74d0 17bb 2fe8 c73c
00000160: f43e 3dbb d6be c53c b482 a53c 1265 29bb
00000170: a3e2 ffba 76c7 26bb a289 ac3c 771c 963c
00000180: 9ce5 983c 9174 03bb e3be be3c bf11 963c
00000190: d820 29bb 277b 18bb efa5 793c 4c53 4bbb
000001a0: 857b 353c 6ca9 c83c 62ad 24bb f8da 7e3c
000001b0: cb50 a0ba 26ff 50ba 1ffb 43bb 702e a83c
000001c0: 930a 23bb cff7 a83c 9b74 913c 2067 9e3c
000001d0: a971 45bb e2a2 9d3b e1b0 b23c 61f1 a53b
000001e0: 02f4 34bb 31a0 4c3c 9117 1abb 9232 733c
000001f0: 6c17 043c dc92 883c f1ae 8d3c 60d9 bf3c
00000200: 085f 893c 8e2a 4fbb 4447 66bb bf7b a03c
00000210: 7641 81bb 6238 61bb 35c6 49bb 8f3b 623c
00000220: 919e 6a3c 7f55 4fbb 9858 4bbb a9ac 20bb
00000230: 13d5 8e3c 0631 9b3c c5f1 9f3c c21c 77bb
00000240: 95bc 3bbb a237 943c 9248 943c 67e1 983c
00000250: e3ad a03c 585b 993c 8d9b 44bb c799 39bb
00000260: 0a66 f73b 5f2b 663c a5a7 413c df5f a93c
00000270: 672b 3abb 70cb 15bb 9a05 ad3c 5ec2 9e3c
00000280: 8965 31bb e3ed 893c 16cc 5e3c bad9 4fbb
00000290: b4af b83c e3ce e33c e5c0 8d3c eca8 1ebb
000002a0: b919 3ebb 6c12 4abb ac4f 093c 25bb a13c
000002b0: 9cdd 543c 5ea5 39bb 344a 8b3c 84b0 43bb
000002c0: 6d12 9a3c 5ffd 5cbb 49c0 a43c 1b1b d73c
000002d0: 8fa3 13bb ee3a 3abb a852 bb3c c9d8 b33c
000002e0: b3f3 dcba 68ab 38bb bf91 683c 251b 5ebb
000002f0: 03b9 8d3c 7896 ba3c 7bf1 7a3c eeac 33bb
00000300: f84a 3cbb f7f5 0cbb f30a 1cbb b1a0 08bb
00000310: 5aac b93c d3d8 dfba f620 42bb 4c7f 3abb
00000320: 5cd6 5b3c c6b9 2fbb 683f 35bb c7ab a73c
00000330: f4db a53c 28f4 27bb 201d c33c bb20 e03b
00000340: 08de 2cbb fa84 17bb d835 33bb 625c ae3c
00000350: 91ce 08bb 1196 52bb 753c b03c 1fe0 753c
00000360: 7ff6 5dbb 3d56 4fbb 13ad 9a3c 1bd5 32bb
00000370: c0f5 a83c d650 ba3c d31e 833c 4703 9b3c
00000380: 398f 5f3c 9a9f 913c 5a01 853c 2a1e 1cbb
00000390: 7770 02bb 002d a93c 8b29 c63c 51ab 903c
000003a0: d511 623c 0e5e 363c 8243 52bb 7ac8 2c3c
000003b0: d9d1 31bb 6082 9d3c 58f1 2ebb 3c77 3abb
000003c0: e737 8e3c 147a 40bb 256b af3c e85d 7b3c
000003d0: f85a 873c 1503 57bb 637f b93c d705 62bb
000003e0: 86eb 4f3c 8b36 9d3c 0639 43bb 14c4 953c
000003f0: 1068 833c 3cb0 853c be56 9d3c b436 4ebb
0.019469108 -0.002655733 0.016191324 0.020064173 -0.002832523 -0.003353607 0.020140855 0.020986756
-0.0037071938 -0.0027360902 -0.003305597 0.022419961 0.01060072 0.0078006582 0.016880047 0.01671085
-0.0027457678 -0.0025047292 0.017146729 0.016608173 0.024087738 -0.0030260992 0.007829121 0.022255458
-0.002913907 0.023211813 -0.0031627256 0.021499448 0.020460175 -0.0032635033 0.01803028 -0.0034522847
-0.002624163 0.024209257 -0.0030243765 -0.0032559668 0.017576534 -0.0023285246 -0.0029418366 -0.0032022982
0.02149571 -0.002253299 0.020207077 0.02148088 -0.0036800504 -0.0024398752 -0.003211981 0.007144007
-0.0028508892 -0.002123618 -0.0029333525 0.022054594 -0.0035565991 -0.0028583906 0.013233542 0.01517965
0.021925837 0.009867369 -0.0023745624 0.018713543 -0.0024851612 0.019266801 -0.0031503239 0.014862147
-0.0039170333 -0.0030001423 0.012195802 -0.0020993203 0.02444012 0.022413408 -0.0030204367 0.021942353
-0.0028366954 -0.0026798532 0.014598166 0.021333735 -0.0025200583 -0.0029966324 -0.0023698637 -0.0032482366
0.019744363 0.015271522 0.021468606 -0.0035909712 -0.0019650154 0.015255292 -0.002316502 0.024402706
-0.0028876634 0.02413885 0.020203926 -0.0025847596 -0.0019522499 -0.0025448478 0.021061722 0.01832412
0.018664174 -0.0020058493 0.023284381 0.018319009 -0.002580693 -0.0023266764 0.015237316 -0.003102499
0.011076813 0.02449485 -0.0025127758 0.015555136 -0.001223111 -0.00079725904 -0.0029904319 0.020529956
-0.002487813 0.020625977 0.017755797 0.019336283 -0.0030127561 0.004810677 0.021812858 0.005064175
-0.002761126 0.0124893645 -0.0023512582 0.0148436 0.008062225 0.01667159 0.017295333 0.023419082
0.016768947 -0.0031611058 -0.0035137692 0.019590257 -0.003944571 -0.0034365882 -0.0030788307 0.013808145
0.014320032 -0.0031636653 -0.0031028148 -0.0024516976 0.017435586 0.018944275 0.019524464 -0.003770635
-0.002864634 0.018092934 0.01810101 0.018662168 0.019614166 0.018720314 -0.0029999942 -0.0028320418
0.007550006 0.014048426 0.011819755 0.020675598 -0.0028407217 -0.0022856854 0.021120835 0.01937979
-0.0027068576 0.016837066 0.013598463 -0.0031715469 0.02254472 0.027808612 0.017303893 -0.0024209572
-0.002900703 -0.0030833734 0.008380812 0.019742558 0.012992289 -0.0028327326 0.017003156 -0.002985985
0.018807614 -0.0033720357 0.02011122 0.026258042 -0.0022527908 -0.0028416472 0.022866562 0.021953957
-0.0016857296 -0.0028178338 0.014194905 -0.003389069 0.017300135 0.022776827 0.0153163625 -0.0027416307
-0.0028731208 -0.002150891 -0.0023810237 -0.0020847733 0.022665191 -0.0017078168 -0.0029621697 -0.0028457223
0.0134178065 -0.002681361 -0.0027656201 0.020467652 0.020246483 -0.0025627706 0.023817599 0.0068398393
-0.0026377458 -0.0023120032 -0.0027345326 0.021284286 -0.0020875076 -0.0032132904 0.021513203 0.015007048
-0.0033868847 -0.0031637095 0.018881356 -0.0027287665 0.020624995 0.022743624 0.01600591 0.018922461
0.013644987 0.0177763 0.016235996 -0.002382169 -0.001990346 0.02065134 0.024189731 0.017659815
0.013798197 0.011130823 -0.0032083695 0.010545844 -0.0027133136 0.019227207 -0.0026694145 -0.0028452417
0.01736064 -0.002936964 0.021413395 0.015342213 0.01652287 -0.0032808234 0.02264375 -0.0034488344
0.0126904305 0.019191047 -0.0029788627 0.018281974 0.016040832 0.016319387 0.019206401 -0.003146571

b_linear2.b f4 [1, 256]
00000000: 40d4 063c aef9 1cbb 6272 c43b 905b 133c
00000010: c2af d9ba b41c 64bb d5f7 153c 341d 1c3c
00000020: ff40 95bb f806 04bb d2f3 43bb 89dd 3f3c
00000030: 66a3 403b abb0 053b bb9a ce3b 87e1 c93b
00000040: 3a17 c4ba 5521 f6ba b9b8 d83b 2d64 cb3b
00000050: 7f4d 5c3c 95d1 28bb 44c9 ff3a c530 363c
00000060: 2910 d8ba 3bed 4c3c 7a49 24bb 13b5 233c
00000070: 5f92 173c 8054 52bb 0e6c e13b d8d4 65bb
00000080: 36d9 fbba b453 663c c4d4 53bb 3183 6ebb
00000090: 3b0e e33b 75b2 c4ba 90a5 3bbb 6b5e 48bb
000000a0: 7766 283c 0488 a5ba d16b 163c 5fec 283c
000000b0: dc76 81bb fb40 fbba de68 5ebb fde0 f03a
000000c0: 53d2 1dbb 9955 88ba 6be5 58bb 374c 313c
000000d0: ae3a 73bb 6966 09bb de70 903b 3d35 b03b
000000e0: a7d9 333c df28 343b fd32 aeba 0b01 013c
000000f0: e254 fcba b18b 023c c1c3 4dbb fae9 ab3b
00000100: eab2 82bb d20c 1abb d27b 753b 1279 7eba
00000110: ed73 5f3c 6bc9 373c acf4 2abb 93ac 333c
00000120: 3c99 17bb 5072 c4ba f0bc 9f3b aab2 273c
00000130: 62f5 07bb 1420 2bbb 9023 9aba 276d 2bbb
00000140: 7864 0c3c 8d4f b43b 8e61 2b3c eb07 67bb
00000150: c693 19ba 3e99 ac3b 9668 a7ba c136 6c3c
00000160: 5aa4 48bb 1cd5 593c 3c71 123c ea22 cfba
00000170: cba3 7eba 6497 bdba 5ac2 213c f679 fd3b
00000180: 6317 fc3b 5a80 3bba bde5 4a3c 1afc ec3b
00000190: 090e faba d549 bdba c832 ad3b 8709 59bb
000001a0: 0780 4f3b 1cf0 603c 8e18 d7ba c89c b13b
000001b0: 4a61 bbb9 04cd 6bb9 fbd6 3abb de1a 1a3c
000001c0: 551a e9ba 2be1 1f3c b430 e53b 992c 033c
000001d0: 961d 3ebb 81e8 7f3a 0885 2e3c e0b5 aa3a
000001e0: 24a2 18bb 1a82 843b b7d8 80ba d11b a03b
000001f0: 8c8b 0b3b 582b cc3b 7472 d93b eb8d 513c
00000200: 5589 ce3b 8ceb 19bb 4dc7 73bb 66f8 0d3c
00000210: e40c 96bb 93b5 6bbb 6dd0 14bb f567 943b
00000220: 49f0 9e3b 4c8b 1fbb d09e 0bbb b8ef c2ba
00000230: 4f74 d73b 2bdd 033c 0dd2 0e3c c486 9dbb
00000240: 0b81 02bb d9fc e93b 31ca ef3b abd2 f33b
00000250: a4ba 0b3c c452 f53b 45d5 16bb ba6c 03bb
00000260: 5e2e eb3a 62a5 983b c363 663b 8347 1b3c
00000270: 6258 03bb 8934 77ba 13a4 283c 7bc9 063c
00000280: 7bf6 03bb 8e59 cf3b a8c7 8e3b 17da 39bb
00000290: 6208 373c cd4f a23c f663 d53b dcdc 91ba
000002a0: 452f 3dbb b3ef 25bb 2dc5 093b 45bf 123c
000002b0: 6f6c 8b3b f447 2dbb 9311 d63b caef 3bbb
000002c0: 5e9b fb3b 7063 4bbb 640e 133c c63d 8c3c
000002d0: 6e4c 4cba 18fe 16bb 7cad 423c dfdb 333c
000002e0: ca57 0dba 453b aaba dc50 9c3b 825f 75bb
000002f0: 182a db3b a852 413c 3f77 aa3b 8c45 dbba
00000300: 8958 21bb 2501 adba caf8 82ba 6861 aaba
00000310: d4ec 3d3c 9532 67ba a9e4 ffba 0446 23bb
00000320: 654d 883b 7dcc 07bb 1428 1ebb fa45 163c
00000330: 371e 133c 1415 c0ba 4c8a 573c 2e40 df3a
00000340: f1cb 01bb 66af acba 9281 0fbb 8c7a 263c
00000350: 7fda 99ba aaae 13bb 0f6a 2a3c e02f ac3b
00000360: deb8 56bb a9b0 19bb 3e8c 003c e955 f7ba
00000370: ba2b 153c bdcb 403c 9d61 be3b eb47 023c
00000380: c415 933b 4038 ee3b 3bd5 c53b e85b 8bba
00000390: 86f7 54ba 24ea 193c 6939 633c 4904 e03b
000003a0: 3317 9a3b 5566 533b 4dde 71bb 1821 433b
000003b0: 1a3c 06bb 5311 013c 660e e7ba 0c9f e8ba
000003c0: 2035 d53b 3110 1fbb f720 253c 72dc aa3b
000003d0: f6c1 c43b 49bf 3abb 3cc4 403c 38f2 99bb
000003e0: f5f6 7b3b 7ff3 053c 26ab 11bb 0c2f ef3b
000003f0: c95b b83b fbfa c93b 6f7d 083c d389 25bb
0.008229315 -0.0023952532 0.005995081 0.008993998 -0.0016608166 -0.0034807147 0.009153326 0.009528447
-0.0045548673 -0.0020145755 -0.0029899967 0.011710533 0.0029394268 0.0020399492 0.0063050664 0.006160918
-0.0014960535 -0.0018778244 0.0066138175 0.0062070102 0.013446211 -0.0025759686 0.0019514938 0.011120026
-0.0016484308 0.012507732 -0.002506821 0.009991902 0.009251206 -0.0032093823 0.006879336 -0.0035069492
-0.0019214514 0.014058042 -0.0032322863 -0.0036394114 0.0069291866 -0.0015006798 -0.0028632618 -0.0030573856
0.010278336 -0.0012629037 0.009180979 0.0103102615 -0.0039509367 -0.0019169146 -0.0033937017 0.0018377599
-0.0024081662 -0.0010401487 -0.0033095728 0.010821394 -0.0037113833 -0.0020965582 0.004407986 0.0053774402
0.010977185 0.0027490181 -0.0013290342 0.007873784 -0.0019251371 0.007967875 -0.0031397196 0.005246398
-0.0039886134 -0.0023506177 0.0037457836 -0.0009707372 0.013638479 0.011217455 -0.0026085777 0.010966438
-0.0023132106 -0.0014987681 0.004874818 0.010235468 -0.0020745625 -0.002611165 -0.0011759866 -0.002615759
0.0085688755 0.0055026473 0.010460271 -0.0035252522 -0.0005858507 0.0052672913 -0.0012772258 0.014417351
-0.003061554 0.013295438 0.00893813 -0.0015803252 -0.0009713738 -0.0014464674 0.009872997 0.007735486
0.0076932176 -0.000715261 0.012383875 0.0072322013 -0.0019077669 -0.0014441559 0.0052855946 -0.003311725
0.0031662004 0.013729122 -0.0016410516 0.005420301 -0.00035739905 -0.0002248772 -0.0028509486 0.00940582
-0.0017784337 0.009758274 0.0069943313 0.008006238 -0.0029009334 0.0009762124 0.010651834 0.0013024174
-0.0023290003 0.0040438296 -0.0009830211 0.0048861285 0.0021292893 0.006230753 0.0066359583 0.012790184
0.0063029923 -0.0023486344 -0.003719765 0.00866518 -0.0045791734 -0.003596638 -0.002270724 0.004528994
0.0048504216 -0.0024344502 -0.0021304376 -0.0014872467 0.0065751444 0.008048336 0.008717072 -0.004807325
-0.0019913341 0.0071407375 0.0073178043 0.007440885 0.008528385 0.007486673 -0.0023015302 -0.002005382
0.0017942896 0.004658387 0.0035154677 0.009477499 -0.0020041694 -0.00094301306 0.010293025 0.008226748
-0.0020135927 0.0063278144 0.004357297 -0.0028358751 0.011171432 0.019813443 0.0065121604 -0.0011128443
-0.0028867286 -0.0025319874 0.0021022067 0.008956735 0.0042548697 -0.0026440592 0.0065328567 -0.002867686
0.0076784333 -0.0031034611 0.008975599 0.0171193 -0.00077933713 -0.0023039635 0.011882182 0.010977714
-0.0005391805 -0.0012987634 0.0047703814 -0.003744096 0.0066883676 0.011799492 0.0052022035 -0.0016729101
-0.0024619421 -0.0013199194 -0.0009992358 -0.0012999 0.011592109 -0.0008819488 -0.0019523102 -0.0024913559
0.004159617 -0.002072125 -0.0024132775 0.009171957 0.008979372 -0.0014654719 0.013155531 0.0017032677
-0.0019805396 -0.0013174831 -0.0021897298 0.010161053 -0.001173809 -0.0022534528 0.010401263 0.0052547306
-0.0032763998 -0.0023451245 0.007845936 -0.0018870208 0.0091046635 0.011767325 0.0058099763 0.007951717
0.0044886786 0.007269889 0.006037382 -0.0010632249 -0.0008124042 0.009394202 0.013868668 0.0068364483
0.0047024726 0.003225704 -0.0036906183 0.0029774364 -0.00204826 0.007877666 -0.0017628192 -0.0017747595
0.006506577 -0.0024271125 0.01007866 0.0052142674 0.0060045673 -0.0028495362 0.011765536 -0.004698064
0.0038446758 0.00817573 -0.0022227257 0.0072993096 0.005626176 0.0061639524 0.008330687 -0.0025259152

b_linear2.w_prior f4 [256, 256]
00000000: 4cce a939 87d2 4bb8 c1b9 8839 8856 ae39
00000010: fd75 5fb8 d29b 8ab8 6197 af39 f23b b739
00000020: 5ce8 9eb8 b5fc 52b8 8ecd 89b8 3e06 c539
00000030: bff6 3039 fc94 0039 c4d8 8f39 9a37 8f39
00000040: da5a 55b8 8bce 34b8 60c9 9239 7b97 8d39
00000050: 2dd8 d539 6700 71b8 d693 0239 d310 c539
00000060: 01e7 62b8 3d8a cc39 059e 81b8 1f6a bc39
00000070: ee79 b339 dab6 84b8 18ea 9b39 8228 94b8
00000080: e816 42b8 7d9e d739 63ca 6db8 e645 82b8
00000090: 55b6 9639 8574 29b8 374c 68b8 3600 83b8
000000a0: 6b01 bc39 3c56 1fb8 fdd3 ae39 d6df bc39
000000b0: 9818 9db8 e88d 31b8 e4c4 83b8 eebe e838
000000c0: 40c4 5db8 acdd 14b8 b405 67b8 2855 c339
000000d0: cbbf 96b8 a679 5bb8 6613 5c39 e98d 8039
000000e0: 45ac c039 3c8b 2339 c380 2ab8 3b2b a139
000000f0: 39bb 32b8 084a a739 019a 7ab8 ba30 7b39
00000100: 48d8 a9b8 e969 6cb8 4630 4c39 cb0d 18b8
00000110: bedb d939 4ce7 c539 23b4 73b8 d223 c139
00000120: 5d92 5db8 45b7 4bb8 330e 7639 89c1 b939
00000130: 38b2 37b8 4125 6fb8 162e 31b8 1ba8 84b8
00000140: 8f39 ac39 2bbf 7f39 232a bc39 8057 98b8
00000150: 75ec 0db8 07ee 8139 277d 28b8 a27c d939
00000160: 7367 61b8 32b9 d739 7025 af39 b410 47b8
00000170: 7376 06b8 605b 3db8 b79f b839 22ad 9c39
00000180: fc2f a139 6ecc 08b8 142e ce39 bc85 9f39
00000190: 9a9a 46b8 6006 2bb8 0f38 8239 f709 7fb8
000001a0: 3358 3939 6746 dc39 1b74 39b8 e6a1 8339
000001b0: d0c5 9cb7 197f 4bb7 8940 70b8 6eaa b339
000001c0: 5f87 3bb8 efbb b239 f553 9839 bf52 a939
000001d0: dfe2 6cb8 e939 9c38 a285 bf39 0220 9d38
000001e0: a253 53b8 8fa7 5039 98e3 25b8 bf99 7c39
000001f0: 05d6 0439 1a91 8e39 aef1 9339 5346 cf39
00000200: d265 9039 92b5 82b8 54ce 94b8 f174 a839
00000210: 9a18 afb8 f982 8eb8 f0bf 7ab8 479f 6839
00000220: 4ba2 6f39 d37b 81b8 a3a7 7cb8 6caf 33b8
00000230: 8d09 9739 800a a339 51cd a839 32cf a5b8
00000240: 65fc 62b8 70a2 9b39 dcac 9b39 b7fa a139
00000250: 5733 a939 b366 a239 4800 72b8 f8f6 61b8
00000260: 3815 fc38 f9e9 6b39 08a6 4239 b328 b539
00000270: 1f3e 59b8 3f56 27b8 d3bb b739 0893 a839
00000280: fab5 48b8 5b97 9039 8361 6539 ec30 80b8
00000290: 6e46 c739 a61d fe39 9c90 9539 f5fc 35b8
000002a0: e6a2 61b8 5862 7ab8 2a43 0b39 89b9 aa39
000002b0: 216d 5739 cc8e 61b8 a166 9039 c7da 6ab8
000002c0: 4c5b a239 86b9 89b8 ac0a ae39 f5e1 ec39
000002d0: eb30 25b8 c4bf 5fb8 989a ca39 c40c c039
000002e0: 02e4 efb7 a497 60b8 254e 7039 4cdd 8db8
000002f0: cd59 9439 262e c939 f551 8139 3ff0 51b8
00000300: e901 60b8 9db6 13b8 fd42 34b8 754d 12b8
00000310: 6e66 c739 cb7c d8b7 fcd8 6fb8 7fb7 60b8
00000320: 8569 6539 9a73 4bb8 5d57 53b8 1baa b239
00000330: fe8f b039 39bc 40b8 9229 d339 0dc8 de38
00000340: 5d81 4eb8 d414 27b8 77ec 50b8 ff52 ba39
00000350: 6461 15b8 b459 81b8 b2b1 bb39 0e80 7f39
00000360: 32a3 8db8 fd15 81b8 fe22 a339 4df1 4eb8
00000370: 02ed b539 f78b c839 e87f 8739 c61e a339
00000380: 4ff4 6439 9b9c 9739 9661 8a39 2cb8 31b8
00000390: b8c1 0db8 ced2 b439 9732 d739 d81f 9839
000003a0: 5ca4 6539 d944 3939 4454 81b8 38b3 2f39
000003b0: 6634 4eb8 de04 a739 a22f 48b8 5dc9 5cb8
000003c0: fdb5 9539 5b38 62b8 4d9b bc39 34e5 8139
000003d0: ebd6 8d39 e641 85b8 775c c639 9767 8fb8
000003e0: f736 5639 5ad4 a539 cf1f 69b8 9902 9e39
000003f0: 885f 8939 8abb 8a39 d252 a539 f807 82b8
0.00032387895 -4.859504e-05 0.0002607834 0.00033252337 -5.327723e-05 -6.6093766e-05 0.00033491387 0.00034949143
-7.5773074e-05 -5.0303253e-05 -6.5709566e-05 0.0003757942 0.00016876588 0.00012262532 0.00027436588 0.00027316512
-5.086777e-05 -4.3107702e-05 0.00027997326 0.00027006477 0.0004078759 -5.7459252e-05 0.0001245284 0.00037587303
-5.4097738e-05 0.00039012908 -6.180633e-05 0.0003593722 0.00034232385 -6.328309e-05 0.00029738317 -7.064735e-05
-4.6274537e-05 0.0004112608 -5.669369e-05 -6.211903e-05 0.00028746077 -4.0401257e-05 -5.538409e-05 -6.246606e-05
0.0003585921 -3.7988866e-05 0.0003334581 0.00036024925 -7.490924e-05 -4.233225e-05 -6.2832405e-05 0.000110981855
-5.2873278e-05 -3.5492398e-05 -5.5080003e-05 0.00037256745 -7.1882816e-05 -5.2326963e-05 0.00020988061 0.00024519794
0.00036749445 0.0001559676 -4.0651077e-05 0.00030740522 -4.261287e-05 0.0003190788 -5.9748072e-05 0.00023955377
-8.0988335e-05 -5.636542e-05 0.0001947294 -3.625247e-05 0.00041553186 0.00037747098 -5.810348e-05 0.00036838517
-5.2826817e-05 -4.8569655e-05 0.00023465678 0.00035430145 -4.379658e-05 -5.7016736e-05 -4.224301e-05 -6.3255626e-05
0.0003284928 0.0002438991 0.0003588955 -7.264223e-05 -3.3837237e-05 0.00024782142 -4.017088e-05 0.00041482324
-5.3740525e-05 0.00041145977 0.00033406494 -4.7460853e-05 -3.2058404e-05 -4.514621e-05 0.00035214212 0.00029883633
0.00030744064 -3.2615317e-05 0.00039325713 0.00030426483 -4.7350863e-05 -4.0775514e-05 0.000248373 -6.0806018e-05
0.00017675832 0.00042014124 -4.421557e-05 0.0002510689 -1.8688763e-05 -1.2129335e-05 -5.7280562e-05 0.0003426852
-4.471035e-05 0.00034090827 0.00029054252 0.00032295843 -5.6478075e-05 7.449446e-05 0.00036529923 7.492305e-05
-5.038421e-05 0.00019898846 -3.955103e-05 0.00024089868 0.0001266823 0.0002719246 0.0002821809 0.00039534512
0.00027541682 -6.232703e-05 -7.0956215e-05 0.00032130585 -8.349233e-05 -6.795483e-05 -5.97834e-05 0.0002218458
0.00022853275 -6.1742634e-05 -6.0237606e-05 -4.28403e-05 0.0002880808 0.00031097606 0.0003219643 -7.906406e-05
-5.411766e-05 0.0002968493 0.00029692694 0.0003089511 0.00032272443 0.00030975565 -5.7697558e-05 -5.3874188e-05
0.00012020249 0.00022498508 0.00018563133 0.00034553334 -5.1794686e-05 -3.9896226e-05 0.0003504442 0.00032153004
-4.7853195e-05 0.0002757859 0.00021875468 -6.112628e-05 0.00038008712 0.00048468745 0.00028527237 -4.3389347e-05
-5.379589e-05 -5.9696235e-05 0.00013281094 0.0003256316 0.00020544651 -5.377717e-05 0.00027542285 -5.59937e-05
0.0003096707 -6.5672255e-05 0.00033195817 0.0004518178 -3.9384624e-05 -5.334594e-05 0.00038643624 0.00036630605
-2.8597195e-05 -5.3546988e-05 0.00022917295 -6.764624e-05 0.00028295667 0.0003837209 0.0002466586 -5.005323e-05
-5.340754e-05 -3.5217603e-05 -4.2977732e-05 -3.488125e-05 0.00038032554 -2.5807318e-05 -5.7184123e-05 -5.3576656e-05
0.00021878451 -4.8506634e-05 -5.0387684e-05 0.00034077544 0.00033676618 -4.5951663e-05 0.00040276028 0.00010623047
-4.9234706e-05 -3.98353e-05 -4.981129e-05 0.00035538521 -3.561507e-05 -6.167908e-05 0.00035799813 0.00024366399
-6.7538014e-05 -6.155295e-05 0.00031115854 -4.9338956e-05 0.00034699595 0.00038251255 0.00025844504 0.0003111271
0.00021834786 0.00028917645 0.00026394118 -4.2371612e-05 -3.3797434e-05 0.00034489337 0.00041045688 0.00029015425
0.0002190037 0.00017668623 -6.166895e-05 0.00016756065 -4.9163027e-05 0.00031856349 -4.7728077e-05 -5.263962e-05
0.00028555086 -5.3935084e-05 0.00035973862 0.00024775567 0.00027053742 -6.354209e-05 0.00037834395 -6.8380665e-05
0.00020429106 0.00031629467 -5.5581153e-05 0.00030138044 0.00026201853 0.0002646114 0.00031532958 -6.200367e-05

b_linear2.b_prior f4 [1, 256]
00000000: 1b75 1939 431e 4bb8 6455 d738 b536 2939
00000010: eede 0ab8 bec7 9bb8 639a 2c39 1671 3339
00000020: 8ba3 d2b8 cc67 2ab8 5c22 83b8 65d4 6039
00000030: 9d70 4a38 cf6c 0d38 46c8 e438 7b4b df38
00000040: 6432 f7b7 663c 1db8 d6fe f138 3b27 e138
00000050: 820d 8239 df26 60b8 5d4a 0638 6790 5539
00000060: 6b7d 05b8 debf 6f39 588a 5ab8 77d3 3d39
00000070: 5398 2e39 cd58 8fb8 4f83 fc38 1c65 9eb8
00000080: 6cde 1cb8 9377 8939 d731 8fb8 f798 a2b8
00000090: 8c68 0039 0159 edb7 3254 7cb8 58e7 86b8
000000a0: 246c 4239 adf7 ccb7 7889 2d39 144f 4439
000000b0: 5354 b3b8 bea4 1eb8 7797 98b8 e7e6 fa37
000000c0: 0eb7 4db8 072b a2b7 701d 93b8 e8c2 4e39
000000d0: 7087 a8b8 6956 2fb8 bb55 9d38 5f8a c338
000000e0: da83 5139 a73f 4138 3a9b cfb7 55ad 1239
000000f0: 065d 20b8 134b 1439 7bdc 8ab8 b47f be38
00000100: c51e b5b8 c58e 46b8 7e1e 8438 fa49 98b7
00000110: 5c4d 8439 3910 5739 1c26 64b8 e910 5239
00000120: c0cc 46b8 98ea f3b7 60e6 ab38 6d79 4139
00000130: 1ccf 2db8 f579 61b8 2ee8 bbb7 419e 60b8
00000140: e1ad 2039 210f c638 fd73 4739 3592 9db8
00000150: 0de7 23b7 0cb1 be38 7d22 c8b7 704f 8c39
00000160: a1a6 86b8 d802 8139 66a6 2639 87b3 04b8
00000170: e0c5 99b7 9774 e3b7 2ca1 3b39 6707 1039
00000180: e418 0e39 c273 5cb7 65e7 6e39 6179 0439
00000190: abe9 1cb8 ef4c e7b7 d9e8 bf38 842c 95b8
000001a0: 3004 5838 638c 8539 88d1 05b8 286f c338
000001b0: 1e39 c5b6 b223 7eb6 b48f 79b8 0489 3239
000001c0: 3543 14b8 414c 3839 daf0 0039 596c 1539
000001d0: f66e 7fb8 b921 6737 5064 4a39 dbb3 ab37
000001e0: 2341 45b8 a91e 9138 62fb 8fb7 594f ad38
000001f0: eb88 1438 117c e438 0c2d f138 0a52 7739
00000200: d78e e738 08dd 46b8 93b6 a7b8 f549 2239
00000210: 1801 d3b8 ca8f a1b8 aeb9 44b8 ad62 a038
00000220: b07d ab38 1e62 50b8 0010 35b8 7071 f1b7
00000230: 1e5f ef38 fbe0 1539 f18e 2339 27e3 deb8
00000240: 0cb7 27b8 6971 0439 cdf2 0739 c843 0939
00000250: 019e 1e39 c0c0 0939 db91 44b8 3dfd 27b8
00000260: 029e ec37 82db a538 65f2 7238 fb7c 3239
00000270: 3ce7 25b8 1338 88b7 dde8 4339 0db2 1839
00000280: 2ab9 28b8 f16e e938 7877 9938 201a 76b8
00000290: 2542 5639 0d96 c639 6d12 ee38 b7d4 a5b7
000002a0: 408f 7db8 ecf0 5ab8 7491 0b38 e1aa 2839
000002b0: 1016 9838 4c7f 65b8 ec86 f138 5be1 78b8
000002c0: 626e 0e39 9349 89b8 410a 2839 614f a939
000002d0: b920 6db7 d209 46b8 c238 6439 ab8d 5139
000002e0: 1e5c 1ab7 d3d3 cfb7 30b9 aa38 2207 aab8
000002f0: d8bb f538 d4c3 6239 b671 ba38 f936 0bb8
00000300: ea07 55b8 52b8 d2b7 cdc8 96b7 ea07 d4b7
00000310: 5c99 5e39 d268 85b7 3480 25b8 036f 59b8
00000320: 3215 9338 5ea8 30b8 052c 4cb8 5108 2e39
00000330: 5d29 2939 df0d e5b7 0c3e 7e39 a8d4 de37
00000340: 4e0c 2ab8 8f17 ceb7 d23f 38b8 3d60 4039
00000350: 513f bbb7 125f 42b8 1fc0 4439 63bf bd38
00000360: a427 92b8 8215 4bb8 fb32 1239 29b4 19b8
00000370: 6e21 2b39 2bd9 6139 a936 d238 0b5a 1439
00000380: 7bcd 9f38 c741 0639 37a0 dc38 a270 aab7
00000390: 183e 82b7 1812 3039 f742 8739 a861 fa38
000003a0: 0e9c a838 cf2f 5c38 2264 a4b8 6a5c 4f38
000003b0: 6200 2cb8 6470 1239 a50e 0fb8 35ca 10b8
000003c0: 97a5 ef38 ccdd 50b8 8470 3e39 b91d ba38
000003d0: 99f3 d838 5719 7bb8 1f55 6139 186b d8b8
000003e0: ccf3 8738 089a 1839 1f74 3eb8 7865 0639
000003f0: 1ef5 cb38 6504 e138 2820 1b39 0f5c 5ab8
0.00014634842 -4.8427155e-05 0.00010267904 0.00016137476 -3.3109383e-05 -7.428181e-05 0.00016460712 0.00017112898
-0.000100440426 -4.0627827e-05 -6.252967e-05 0.00021441428 4.8265432e-05 3.3718356e-05 0.00010909191 0.00010647528
-2.946816e-05 -3.7487967e-05 0.000115392424 0.00010736143 0.00024805596 -5.3441963e-05 3.2017346e-05 0.00020367057
-3.1826476e-05 0.00022864292 -5.2104093e-05 0.00018103221 0.00016650678 -6.835312e-05 0.000120407545 -7.55286e-05
-3.7400445e-05 0.00026219766 -6.828055e-05 -7.753254e-05 0.00012245978 -2.8294047e-05 -6.0159895e-05 -6.432709e-05
0.00018541567 -2.4434028e-05 0.00016549777 0.00018721475 -8.551092e-05 -3.7823564e-05 -7.276137e-05 2.9909845e-05
-4.904629e-05 -1.9331941e-05 -7.0149894e-05 0.00019718299 -8.0360915e-05 -4.1803727e-05 7.502312e-05 9.324098e-05
0.00019980912 4.6074067e-05 -2.4748606e-05 0.00013988216 -3.8233607e-05 0.00014142347 -6.6214205e-05 9.0836926e-05
-8.636484e-05 -4.7339843e-05 6.29993e-05 -1.815426e-05 0.0002523464 0.00020510041 -5.4394928e-05 0.0002003346
-4.7397567e-05 -2.9077099e-05 8.196826e-05 0.00018451149 -4.14393e-05 -5.375776e-05 -2.2400254e-05 -5.3553147e-05
0.00015323564 9.444194e-05 0.00019021328 -7.5135766e-05 -9.769353e-06 9.0928836e-05 -2.3857918e-05 0.00026762066
-6.420655e-05 0.00024606916 0.00015892982 -3.163845e-05 -1.8331164e-05 -2.71148e-05 0.00017893751 0.00013735668
0.00013551448 -1.3139974e-05 0.0002278365 0.00012633718 -3.741092e-05 -2.757317e-05 9.150961e-05 -7.113165e-05
5.1502313e-05 0.00025472333 -3.1904812e-05 9.319029e-05 -5.877707e-06 -3.7869727e-06 -5.950006e-05 0.00017026445
-3.534854e-05 0.00017576014 0.00012296755 0.0001425011 -6.0900078e-05 1.3776525e-05 0.0001930159 2.046854e-05
-4.7029123e-05 6.91985e-05 -1.7163988e-05 8.2640625e-05 3.5413465e-05 0.000108949964 0.00011500166 0.00023586318
0.00011041544 -4.741273e-05 -7.997188e-05 0.00015477075 -0.00010061468 -7.703861e-05 -4.690297e-05 7.647774e-05
8.1773265e-05 -4.9682443e-05 -4.3168664e-05 -2.8782262e-05 0.00011414125 0.00014293559 0.00015598141 -0.00010628095
-3.998638e-05 0.0001263075 0.00012965054 0.00013090589 0.00015126915 0.00013137143 -4.686588e-05 -4.005175e-05
2.820697e-05 7.9086996e-05 5.7923044e-05 0.00017021962 -3.955442e-05 -1.6238575e-05 0.00018683398 0.00014562179
-4.022677e-05 0.0001113097 7.317861e-05 -5.86753e-05 0.00020433271 0.000378773 0.000113521564 -1.9768586e-05
-6.0453312e-05 -5.2199626e-05 3.3275646e-05 0.00016085386 7.252034e-05 -5.471641e-05 0.00011516907 -5.9337686e-05
0.00013583296 -6.546373e-05 0.00016025548 0.00032293334 -1.413392e-05 -4.7216025e-05 0.00021764918 0.00019984569
-9.200563e-06 -2.4774961e-05 8.1407255e-05 -8.10756e-05 0.00011717499 0.00021625991 8.8903515e-05 -3.319138e-05
-5.0790528e-05 -2.5119782e-05 -1.7974899e-05 -2.5276055e-05 0.000212287 -1.5903646e-05 -3.9458464e-05 -5.184022e-05
7.013454e-05 -4.2118474e-05 -4.8678387e-05 0.00016597031 0.00016132505 -2.7305387e-05 0.00024246442 2.6563488e-05
-4.0542618e-05 -2.4568084e-05 -4.3928456e-05 0.00018346398 -2.2321621e-05 -4.6341745e-05 0.00018763587 9.047871e-05
-6.969206e-05 -4.8419002e-05 0.00013942637 -3.664583e-05 0.00016320284 0.00021538573 0.000100237616 0.00014147924
7.6199845e-05 0.0001280374 0.0001052026 -2.0318028e-05 -1.5526122e-05 0.00016791408 0.000257991 0.00011939119
8.039932e-05 5.2496613e-05 -7.8387806e-05 4.9438713e-05 -4.1008352e-05 0.00013965514 -3.4107496e-05 -3.4520595e-05
0.000114272516 -4.979763e-05 0.00018161727 8.8747074e-05 0.00010345056 -5.9866663e-05 0.00021489382 -0.000103196304
6.482712e-05 0.0001455323 -4.5407676e-05 0.00012817036 9.725451e-05 0.000107296546 0.00014793931 -5.2060986e-05
