Parameter/wallplaneTEST/311.pth (torch, 545217 bytes, 24 tensors)

b_linear1.w f4 [4, 256]
00000000: 0000 0000 0000 0000 0000 0000 0000 0000
00000010: 0000 0000 0000 0000 0000 0000 0000 0000
00000020: 0000 0000 0000 0000 0000 0000 0000 0000
00000030: 0000 0000 0000 0000 0000 0000 0000 0000
00000040: 0000 0000 0000 0000 0000 0000 0000 0000
00000050: 0000 0000 0000 0000 0000 0000 0000 0000
00000060: 0000 0000 0000 0000 0000 0000 0000 0000
00000070: 0000 0000 0000 0000 0000 0000 0000 0000
00000080: 0000 0000 0000 0000 0000 0000 0000 0000
00000090: 0000 0000 0000 0000 0000 0000 0000 0000
000000a0: 0000 0000 0000 0000 0000 0000 0000 0000
000000b0: 0000 0000 0000 0000 0000 0000 0000 0000
000000c0: 0000 0000 0000 0000 0000 0000 0000 0000
000000d0: 0000 0000 0000 0000 0000 0000 0000 0000
000000e0: 0000 0000 0000 0000 0000 0000 0000 0000
000000f0: 0000 0000 0000 0000 0000 0000 0000 0000
00000100: 0000 0000 0000 0000 0000 0000 0000 0000
00000110: 0000 0000 0000 0000 0000 0000 0000 0000
00000120: 0000 0000 0000 0000 0000 0000 0000 0000
00000130: 0000 0000 0000 0000 0000 0000 0000 0000
00000140: 0000 0000 0000 0000 0000 0000 0000 0000
00000150: 0000 0000 0000 0000 0000 0000 0000 0000
00000160: 0000 0000 0000 0000 0000 0000 0000 0000
00000170: 0000 0000 0000 0000 0000 0000 0000 0000
00000180: 0000 0000 0000 0000 0000 0000 0000 0000
00000190: 0000 0000 0000 0000 0000 0000 0000 0000
000001a0: 0000 0000 0000 0000 0000 0000 0000 0000
000001b0: 0000 0000 0000 0000 0000 0000 0000 0000
000001c0: 0000 0000 0000 0000 0000 0000 0000 0000
000001d0: 0000 0000 0000 0000 0000 0000 0000 0000
000001e0: 0000 0000 0000 0000 0000 0000 0000 0000
000001f0: 0000 0000 0000 0000 0000 0000 0000 0000
00000200: 0000 0000 0000 0000 0000 0000 0000 0000
00000210: 0000 0000 0000 0000 0000 0000 0000 0000
00000220: 0000 0000 0000 0000 0000 0000 0000 0000
00000230: 0000 0000 0000 0000 0000 0000 0000 0000
00000240: 0000 0000 0000 0000 0000 0000 0000 0000
00000250: 0000 0000 0000 0000 0000 0000 0000 0000
00000260: 0000 0000 0000 0000 0000 0000 0000 0000
00000270: 0000 0000 0000 0000 0000 0000 0000 0000
00000280: 0000 0000 0000 0000 0000 0000 0000 0000
00000290: 0000 0000 0000 0000 0000 0000 0000 0000
000002a0: 0000 0000 0000 0000 0000 0000 0000 0000
000002b0: 0000 0000 0000 0000 0000 0000 0000 0000
000002c0: 0000 0000 0000 0000 0000 0000 0000 0000
000002d0: 0000 0000 0000 0000 0000 0000 0000 0000
000002e0: 0000 0000 0000 0000 0000 0000 0000 0000
000002f0: 0000 0000 0000 0000 0000 0000 0000 0000
00000300: 0000 0000 0000 0000 0000 0000 0000 0000
00000310: 0000 0000 0000 0000 0000 0000 0000 0000
00000320: 0000 0000 0000 0000 0000 0000 0000 0000
00000330: 0000 0000 0000 0000 0000 0000 0000 0000
00000340: 0000 0000 0000 0000 0000 0000 0000 0000
00000350: 0000 0000 0000 0000 0000 0000 0000 0000
00000360: 0000 0000 0000 0000 0000 0000 0000 0000
00000370: 0000 0000 0000 0000 0000 0000 0000 0000
00000380: 0000 0000 0000 0000 0000 0000 0000 0000
00000390: 0000 0000 0000 0000 0000 0000 0000 0000
000003a0: 0000 0000 0000 0000 0000 0000 0000 0000
000003b0: 0000 0000 0000 0000 0000 0000 0000 0000
000003c0: 0000 0000 0000 0000 0000 0000 0000 0000
000003d0: 0000 0000 0000 0000 0000 0000 0000 0000
000003e0: 0000 0000 0000 0000 0000 0000 0000 0000
000003f0: 0000 0000 0000 0000 0000 0000 0000 0000
0.0 0.0 0.0 0.0 0.0 0.0 0.0 0.0
0.0 0.0 0.0 0.0 0.0 0.0 0.0 0.0
0.0 0.0 0.0 0.0 0.0 0.0 0.0 0.0
0.0 0.0 0.0 0.0 0.0 0.0 0.0 0.0
0.0 0.0 0.0 0.0 0.0 0.0 0.0 0.0
0.0 0.0 0.0 0.0 0.0 0.0 0.0 0.0
0.0 0.0 0.0 0.0 0.0 0.0 0.0 0.0
0.0 0.0 0.0 0.0 0.0 0.0 0.0 0.0
0.0 0.0 0.0 0.0 0.0 0.0 0.0 0.0
0.0 0.0 0.0 0.0 0.0 0.0 0.0 0.0
0.0 0.0 0.0 0.0 0.0 0.0 0.0 0.0
0.0 0.0 0.0 0.0 0.0 0.0 0.0 0.0
0.0 0.0 0.0 0.0 0.0 0.0 0.0 0.0
0.0 0.0 0.0 0.0 0.0 0.0 0.0 0.0
0.0 0.0 0.0 0.0 0.0 0.0 0.0 0.0
0.0 0.0 0.0 0.0 0.0 0.0 0.0 0.0
0.0 0.0 0.0 0.0 0.0 0.0 0.0 0.0
0.0 0.0 0.0 0.0 0.0 0.0 0.0 0.0
0.0 0.0 0.0 0.0 0.0 0.0 0.0 0.0
0.0 0.0 0.0 0.0 0.0 0.0 0.0 0.0
0.0 0.0 0.0 0.0 0.0 0.0 0.0 0.0
0.0 0.0 0.0 0.0 0.0 0.0 0.0 0.0
0.0 0.0 0.0 0.0 0.0 0.0 0.0 0.0
0.0 0.0 0.0 0.0 0.0 0.0 0.0 0.0
0.0 0.0 0.0 0.0 0.0 0.0 0.0 0.0
0.0 0.0 0.0 0.0 0.0 0.0 0.0 0.0
0.0 0.0 0.0 0.0 0.0 0.0 0.0 0.0
0.0 0.0 0.0 0.0 0.0 0.0 0.0 0.0
0.0 0.0 0.0 0.0 0.0 0.0 0.0 0.0
0.0 0.0 0.0 0.0 0.0 0.0 0.0 0.0
0.0 0.0 0.0 0.0 0.0 0.0 0.0 0.0
0.0 0.0 0.0 0.0 0.0 0.0 0.0 0.0

b_linear1.b f4 [1, 256]
00000000: 3df4 4f36 3073 7ab6 5240 2ab7 71de 3b36
00000010: 0802 1a37 a089 04b6 d72e 63b5 b642 3735
00000020: b37b fcb4 8076 0535 42ae b436 2f27 4db6
00000030: 6080 27b6 57de de33 66a2 92b5 452f 2136
00000040: cd69 f836 099b 49b6 1f2f 45b5 e282 c7b5
00000050: b2ef 3c37 da04 68b7 4ba9 fd35 bf12 0c36
00000060: dd54 c1b6 b099 09b7 286e 0cb4 e304 c936
00000070: 2e06 22b7 a897 11b7 6176 f435 b7ff 2bb7
00000080: 7201 b836 9c18 02b7 9d79 14b6 a31f 8d36
00000090: fe2f 1cb7 8771 5fb6 4c48 4db6 55cc 79b6
000000a0: d394 7cb6 c74e 33b6 a6d7 bfb5 b54c e036
000000b0: b92f 26b5 4a08 a436 d986 2d35 8bcb efb6
000000c0: c530 57b6 fe7d 4ab6 f3a8 ce36 632e 3cb7
000000d0: c759 90b6 d719 87b6 d38e 1eb6 a29e 6f36
000000e0: ac32 66b7 f064 1b36 abcf 43b6 bf2e 1cb6
000000f0: 4831 89b5 3b75 2937 ee4b 37b6 bd3e d136
00000100: c6f7 9036 3d8b 26b5 cceb 5237 38e2 a2b6
00000110: e058 c1b6 16c6 f5b2 da47 07b5 303d 5635
00000120: 1f96 9db6 9697 8836 44a5 00b7 1b58 ee34
00000130: 4e66 d0b6 c1c7 c2b6 7351 0037 4b21 31b7
00000140: d497 09b6 b2be 6837 3cf4 4736 5c82 0b37
00000150: 688c 80b6 4286 05b7 5db0 e034 a5e1 86b5
00000160: ec5b 5eb6 f2f4 1336 833a 53b6 86cc 3bb6
00000170: 0c59 c436 03aa f035 ef26 b0b6 85d5 09b5
00000180: 8729 9336 dbea 9736 6eef ab36 1b40 23b6
00000190: ba98 3d35 c316 6336 a646 ca36 2bd5 aeb6
000001a0: aa61 0a37 2ee0 98b6 064d a436 d81c 04b6
000001b0: 6ab8 b336 4db6 e636 56e3 3ab6 4387 f9b6
000001c0: 4714 4b36 1364 b9b5 3d69 c8b5 5e1e 5a35
000001d0: bcd4 8b36 fb77 d536 2ebb 9cb6 98bf cf36
000001e0: 2136 bb36 32e7 08b7 ae7a a7b6 7b08 84b6
000001f0: 5013 26b7 27d6 7bb7 e667 57b6 a5a7 b834
00000200: aba0 2c37 45cb 1334 b7c0 b9b6 6bf0 eb36
00000210: 73b8 3837 52b0 56b7 7deb 9bb6 d280 fc34
00000220: ca33 ebb6 75d8 64b6 dbcf be36 1b31 c336
00000230: e48b c736 58f0 e9b6 c63b 0635 7bf2 b8b6
00000240: b4c1 c9b6 95a4 0336 184e 1036 5994 3836
00000250: c6bc a9b6 184d 1ab7 7e34 0037 1537 9a37
00000260: 7d0e dfb5 9d51 a335 eb08 6036 5e4b 03b7
00000270: 15dc 42b6 1057 3f37 097f 39b7 57e3 9936
00000280: faa6 ceb5 b448 6536 3de5 2136 8230 feb5
00000290: c5d2 1e37 ae8f 19b6 2a39 ca36 6929 d036
000002a0: fa91 2437 79a8 deb6 762c de36 e2a3 d4b6
000002b0: e7f7 82b6 eb36 91b5 a0d7 c4b6 d955 dab5
000002c0: fdc8 9c36 aa00 77b5 2a69 0535 f2a8 9935
000002d0: 8b99 2836 f7f7 1136 9b49 b636 0543 c436
000002e0: 37fa 0e37 b314 18b7 929d 45b6 d6f3 0136
000002f0: bfef 2937 d5f5 8eb6 70c7 57b5 033e bfb6
00000300: 8798 ed35 3ca9 34b6 c611 d236 f37a 79b5
00000310: e951 1db5 228a 6ab6 f297 2336 edd2 7136
00000320: 8b0a 2b37 70c2 0437 b3c8 16b6 2ed0 d8b6
00000330: 85bd 0935 c614 dc32 cb9f 22b7 af72 0bb6
00000340: e81b 0137 90fd d9b5 2ab1 e0b5 2940 a636
00000350: 8041 5f34 7c46 afb6 ff3a 3fb6 fae3 8cb6
00000360: b053 07b6 519a 6bb6 81b6 c636 11b9 1336
00000370: 3f9b 8d36 d4cb 1b35 2b6d 8c36 2634 8e35
00000380: 8b0c 51b6 324a f136 8a6f 5636 6714 aab6
00000390: a015 d5b5 5c65 d2b6 dd46 8d36 ab8b 5fb6
000003a0: 8ad2 7ab5 3411 b134 a57c 50b7 be98 5137
000003b0: 0ce9 a236 f9d0 1ab5 1339 4b37 ff8f 37b5
000003c0: 2621 ab35 d056 9db4 7908 0bb7 76ad 3ab6
000003d0: 3905 08b6 373d 1f36 21b9 7cb6 e756 08b7
000003e0: 2a69 eeb6 ecf6 2136 308a 3c37 da51 f836
000003f0: 6651 8c36 3bb5 c236 fcd6 9136 0106 57b5
3.098757e-06 -3.731995e-06 -1.0147765e-05 2.799465e-06 9.179588e-06 -1.974964e-06 -8.463225e-07 6.826989e-07
-4.702866e-07 4.97188e-07 5.3847043e-06 -3.0570188e-06 -2.4959663e-06 1.0378124e-07 -1.0925112e-06 2.4018384e-06
7.403293e-06 -3.0041576e-06 -7.345679e-07 -1.4864747e-06 1.1261482e-05 -1.3829407e-05 1.889924e-06 2.0872537e-06
-5.7617276e-06 -8.2016195e-06 -1.307859e-07 5.9908357e-06 -9.657391e-06 -8.677984e-06 1.821387e-06 -1.02519325e-05
5.4837956e-06 -7.754334e-06 -2.2124507e-06 4.2058105e-06 -9.309499e-06 -3.329567e-06 -3.0589463e-06 -3.7222828e-06
-3.7637553e-06 -2.6718933e-06 -1.4293371e-06 6.68465e-06 -6.1909265e-07 4.888546e-06 6.464375e-07 -7.1464506e-06
-3.2065884e-06 -3.0173683e-06 6.1589467e-06 -1.12164735e-05 -4.301986e-06 -4.0263217e-06 -2.362697e-06 3.5706112e-06
-1.3720866e-05 2.3155553e-06 -2.9178143e-06 -2.3273021e-06 -1.0221638e-06 1.010048e-05 -2.7313322e-06 6.235989e-06
4.320379e-06 -6.204244e-07 1.2571876e-05 -4.8543116e-06 -5.7621946e-06 -2.8611833e-08 -5.0395977e-07 7.981025e-07
-4.696441e-06 4.0707628e-06 -7.667873e-06 4.439506e-07 -6.210793e-06 -5.804905e-06 7.648358e-06 -1.0557774e-05
-2.0502966e-06 1.3872677e-05 2.9795474e-06 8.315397e-06 -3.8310427e-06 -7.958677e-06 4.1851573e-07 -1.0049449e-06
-3.3134083e-06 2.2047284e-06 -3.1475508e-06 -2.798422e-06 5.8516216e-06 1.7930873e-06 -5.249741e-06 -5.134719e-07
4.385776e-06 4.5274915e-06 5.1240704e-06 -2.4326207e-06 7.0630233e-07 3.3838885e-06 6.0282937e-06 -5.21042e-06
8.24818e-06 -4.556051e-06 4.8965476e-06 -1.9686322e-06 5.3560843e-06 6.8757568e-06 -2.7848487e-06 -7.436525e-06
3.026116e-06 -1.38127e-06 -1.493179e-06 8.125552e-07 4.1672884e-06 6.3618622e-06 -4.670953e-06 6.191385e-06
5.5793357e-06 -8.160061e-06 -4.9912696e-06 -3.934894e-06 -9.898868e-06 -1.5010627e-05 -3.2097973e-06 3.4394648e-07
1.0289407e-05 1.3764391e-07 -5.5358646e-06 7.031534e-06 1.10102e-05 -1.2796447e-05 -4.6467744e-06 4.7032387e-07
-7.009575e-06 -3.4100642e-06 5.686639e-06 5.8171695e-06 5.9469476e-06 -6.971921e-06 5.000587e-07 -5.5118558e-06
-6.012817e-06 1.961632e-06 2.1503129e-06 2.7504486e-06 -5.0585686e-06 -9.197065e-06 7.641616e-06 1.838388e-05
-1.6619011e-06 1.2168199e-06 3.3383792e-06 -7.825756e-06 -2.9036357e-06 1.1404758e-05 -1.1056437e-05 4.586221e-06
-1.5396793e-06 3.4165978e-06 2.4124304e-06 -1.8938592e-06 9.4666075e-06 -2.288241e-06 6.026724e-06 6.203704e-06
9.80915e-06 -6.6357284e-06 6.6212915e-06 -6.337171e-06 -3.9031615e-06 -1.0819325e-06 -5.8663572e-06 -1.6267251e-06
4.6725604e-06 -9.2015637e-07 4.9699395e-07 1.1448558e-06 2.5123325e-06 2.1751018e-06 5.4325915e-06 5.8490573e-06
8.522117e-06 -9.064725e-06 -2.9447006e-06 1.936443e-06 1.0129005e-05 -4.2605484e-06 -8.038396e-07 -5.6994627e-06
1.7702267e-06 -2.6920598e-06 6.260557e-06 -9.2938643e-07 -5.860625e-07 -3.494912e-06 2.4377337e-06 3.6034573e-06
1.0194849e-05 7.913084e-06 -2.2468564e-06 -6.461537e-06 5.1312264e-07 2.5620817e-08 -9.693157e-06 -2.0779369e-06
7.695497e-06 -1.6241556e-06 -1.6740862e-06 4.9546547e-06 2.0792322e-07 -5.223612e-06 -2.8495558e-06 -4.198865e-06
-2.016528e-06 -3.5107553e-06 5.922106e-06 2.201243e-06 4.2202005e-06 5.803861e-07 4.185034e-06 1.0595002e-06
-3.1150728e-06 7.190997e-06 3.195341e-06 -5.06877e-06 -1.587603e-06 -6.2702875e-06 4.210377e-06 -3.3310887e-06
-9.343863e-07 3.2981336e-07 -1.2426787e-05 1.2492934e-05 4.8551065e-06 -5.7673566e-07 1.21130315e-05 -6.8382354e-07
1.275014e-06 -2.9306693e-07 -8.287018e-06 -2.7817127e-06 -2.026862e-06 2.3728478e-06 -3.7658685e-06 -8.126465e-06
-7.1051954e-06 2.4134597e-06 1.12378475e-05 7.4005047e-06 4.181801e-06 5.8027485e-06 4.346364e-06 -8.010248e-07

b_linear1.w_prior f4 [4, 256]
00000000: 0000 0000 0000 0000 0000 0000 0000 0000
00000010: 0000 0000 0000 0000 0000 0000 0000 0000
00000020: 0000 0000 0000 0000 0000 0000 0000 0000
00000030: 0000 0000 0000 0000 0000 0000 0000 0000
00000040: 0000 0000 0000 0000 0000 0000 0000 0000
00000050: 0000 0000 0000 0000 0000 0000 0000 0000
00000060: 0000 0000 0000 0000 0000 0000 0000 0000
00000070: 0000 0000 0000 0000 0000 0000 0000 0000
00000080: 0000 0000 0000 0000 0000 0000 0000 0000
00000090: 0000 0000 0000 0000 0000 0000 0000 0000
000000a0: 0000 0000 0000 0000 0000 0000 0000 0000
000000b0: 0000 0000 0000 0000 0000 0000 0000 0000
000000c0: 0000 0000 0000 0000 0000 0000 0000 0000
000000d0: 0000 0000 0000 0000 0000 0000 0000 0000
000000e0: 0000 0000 0000 0000 0000 0000 0000 0000
000000f0: 0000 0000 0000 0000 0000 0000 0000 0000
00000100: 0000 0000 0000 0000 0000 0000 0000 0000
00000110: 0000 0000 0000 0000 0000 0000 0000 0000
00000120: 0000 0000 0000 0000 0000 0000 0000 0000
00000130: 0000 0000 0000 0000 0000 0000 0000 0000
00000140: 0000 0000 0000 0000 0000 0000 0000 0000
00000150: 0000 0000 0000 0000 0000 0000 0000 0000
00000160: 0000 0000 0000 0000 0000 0000 0000 0000
00000170: 0000 0000 0000 0000 0000 0000 0000 0000
00000180: 0000 0000 0000 0000 0000 0000 0000 0000
00000190: 0000 0000 0000 0000 0000 0000 0000 0000
000001a0: 0000 0000 0000 0000 0000 0000 0000 0000
000001b0: 0000 0000 0000 0000 0000 0000 0000 0000
000001c0: 0000 0000 0000 0000 0000 0000 0000 0000
000001d0: 0000 0000 0000 0000 0000 0000 0000 0000
000001e0: 0000 0000 0000 0000 0000 0000 0000 0000
000001f0: 0000 0000 0000 0000 0000 0000 0000 0000
00000200: 0000 0000 0000 0000 0000 0000 0000 0000
00000210: 0000 0000 0000 0000 0000 0000 0000 0000
00000220: 0000 0000 0000 0000 0000 0000 0000 0000
00000230: 0000 0000 0000 0000 0000 0000 0000 0000
00000240: 0000 0000 0000 0000 0000 0000 0000 0000
00000250: 0000 0000 0000 0000 0000 0000 0000 0000
00000260: 0000 0000 0000 0000 0000 0000 0000 0000
00000270: 0000 0000 0000 0000 0000 0000 0000 0000
00000280: 0000 0000 0000 0000 0000 0000 0000 0000
00000290: 0000 0000 0000 0000 0000 0000 0000 0000
000002a0: 0000 0000 0000 0000 0000 0000 0000 0000
000002b0: 0000 0000 0000 0000 0000 0000 0000 0000
000002c0: 0000 0000 0000 0000 0000 0000 0000 0000
000002d0: 0000 0000 0000 0000 0000 0000 0000 0000
000002e0: 0000 0000 0000 0000 0000 0000 0000 0000
000002f0: 0000 0000 0000 0000 0000 0000 0000 0000
00000300: 0000 0000 0000 0000 0000 0000 0000 0000
00000310: 0000 0000 0000 0000 0000 0000 0000 0000
00000320: 0000 0000 0000 0000 0000 0000 0000 0000
00000330: 0000 0000 0000 0000 0000 0000 0000 0000
00000340: 0000 0000 0000 0000 0000 0000 0000 0000
00000350: 0000 0000 0000 0000 0000 0000 0000 0000
00000360: 0000 0000 0000 0000 0000 0000 0000 0000
00000370: 0000 0000 0000 0000 0000 0000 0000 0000
00000380: 0000 0000 0000 0000 0000 0000 0000 0000
00000390: 0000 0000 0000 0000 0000 0000 0000 0000
000003a0: 0000 0000 0000 0000 0000 0000 0000 0000
000003b0: 0000 0000 0000 0000 0000 0000 0000 0000
000003c0: 0000 0000 0000 0000 0000 0000 0000 0000
000003d0: 0000 0000 0000 0000 0000 0000 0000 0000
000003e0: 0000 0000 0000 0000 0000 0000 0000 0000
000003f0: 0000 0000 0000 0000 0000 0000 0000 0000
0.0 0.0 0.0 0.0 0.0 0.0 0.0 0.0
0.0 0.0 0.0 0.0 0.0 0.0 0.0 0.0
0.0 0.0 0.0 0.0 0.0 0.0 0.0 0.0
0.0 0.0 0.0 0.0 0.0 0.0 0.0 0.0
0.0 0.0 0.0 0.0 0.0 0.0 0.0 0.0
0.0 0.0 0.0 0.0 0.0 0.0 0.0 0.0
0.0 0.0 0.0 0.0 0.0 0.0 0.0 0.0
0.0 0.0 0.0 0.0 0.0 0.0 0.0 0.0
0.0 0.0 0.0 0.0 0.0 0.0 0.0 0.0
0.0 0.0 0.0 0.0 0.0 0.0 0.0 0.0
0.0 0.0 0.0 0.0 0.0 0.0 0.0 0.0
0.0 0.0 0.0 0.0 0.0 0.0 0.0 0.0
0.0 0.0 0.0 0.0 0.0 0.0 0.0 0.0
0.0 0.0 0.0 0.0 0.0 0.0 0.0 0.0
0.0 0.0 0.0 0.0 0.0 0.0 0.0 0.0
0.0 0.0 0.0 0.0 0.0 0.0 0.0 0.0
0.0 0.0 0.0 0.0 0.0 0.0 0.0 0.0
0.0 0.0 0.0 0.0 0.0 0.0 0.0 0.0
0.0 0.0 0.0 0.0 0.0 0.0 0.0 0.0
0.0 0.0 0.0 0.0 0.0 0.0 0.0 0.0
0.0 0.0 0.0 0.0 0.0 0.0 0.0 0.0
0.0 0.0 0.0 0.0 0.0 0.0 0.0 0.0
0.0 0.0 0.0 0.0 0.0 0.0 0.0 0.0
0.0 0.0 0.0 0.0 0.0 0.0 0.0 0.0
0.0 0.0 0.0 0.0 0.0 0.0 0.0 0.0
0.0 0.0 0.0 0.0 0.0 0.0 0.0 0.0
0.0 0.0 0.0 0.0 0.0 0.0 0.0 0.0
0.0 0.0 0.0 0.0 0.0 0.0 0.0 0.0
0.0 0.0 0.0 0.0 0.0 0.0 0.0 0.0
0.0 0.0 0.0 0.0 0.0 0.0 0.0 0.0
0.0 0.0 0.0 0.0 0.0 0.0 0.0 0.0
0.0 0.0 0.0 0.0 0.0 0.0 0.0 0.0

b_linear1.b_prior f4 [1, 256]
00000000: 637b 1c31 bfd1 09b2 7246 72b2 56cd e931
00000010: 3110 ce31 fdf8 c6b1 395d b731 37cb 312f
00000020: 81a2 afaf 07e0 e530 6a43 4631 fa4d e9b1
00000030: 369a f5b1 e667 8131 4046 94af d67c e32e
00000040: 9963 fc31 94a3 3cb1 0122 e5b0 ed1e fa30
00000050: 5ce0 6b32 abaa 7cb2 1339 dd31 dfe8 3231
00000060: 5838 fab1 fb55 44b2 a740 1f31 39f8 1032
00000070: cde6 86b2 7e59 13b2 76e0 f131 88fa 2db2
00000080: c12a f531 17e0 45b2 2c3f 05b2 98de 62b0
00000090: 90b4 c4b1 4fb1 8db1 a3f6 efb1 579a 64b1
000000a0: 3b37 9fb1 8505 f0b0 48a3 bfb1 d64f 2532
000000b0: cb19 adb0 a5af f731 1fa3 cfb1 7e66 4cb2
000000c0: ccdd 4ab1 490f 5b31 9ac6 9031 cec2 26b2
000000d0: eec4 8fb1 b79d e3b1 d988 a8b0 d23f 04b1
000000e0: a7c1 99b2 f977 2b31 f0a4 44b2 441d ceb1
000000f0: 9a35 9931 94a7 2032 1828 06b2 7fa9 4732
00000100: 449f d231 5376 0d31 0113 9a32 fdf1 48b2
00000110: f0b7 f3b1 3845 1db1 117e 4c31 09ba d731
00000120: a609 d72f 1307 e731 9cda ddb1 86af 1231
00000130: 8680 10b2 5480 f6b1 9e01 c031 681a 8eb2
00000140: 4400 eaaf 2431 9e32 884b c630 50ce a032
00000150: 88a0 40b1 31bc 62b2 941a 0231 002b 9e30
00000160: df49 4c31 e104 5e31 070a 7031 9b14 a9b1
00000170: 4e93 bf31 696d 4931 3a31 07b2 c2e7 a8b1
00000180: 47e7 fab0 69d4 1b32 f15b 0531 8233 00b2
00000190: 59be eb30 d5bf 65b0 e1fa cf31 03bf 2db2
000001a0: bd7f 5032 5783 f0b1 caf9 45b0 3071 f3b1
000001b0: 751e 2832 f245 e230 fcf1 8db1 6952 b6b1
000001c0: 61cf 9130 fc63 8930 90fd 69b1 b536 64b1
000001d0: 870c 4a31 2fa3 8431 3466 4fb2 f463 1d32
000001e0: 7525 3032 0875 55b2 06af a2b0 d502 fb30
000001f0: 5feb 83b2 de99 8eb2 a758 afaf cf0a 81b1
00000200: e4d4 3c32 f6e4 5cb1 9779 18b2 fa6d ce31
00000210: d1db d031 51c3 ccb2 5720 dbb1 0603 7e31
00000220: 337a 2eb2 2fed ebb1 d10e 3132 f2ff b631
00000230: 0f2c 2832 ea6f 20b2 3aef c2b1 bddf 84b1
00000240: b168 99b1 fd02 fd31 09a5 88b0 46fa b831
00000250: fe32 20b1 1289 3eb2 70e4 4a32 1bec b632
00000260: da39 5431 4cfe 4bb0 2c2f 7831 fe34 dfb1
00000270: 2ad1 30b1 f7b2 2332 4688 3bb2 6b7c 8b31
00000280: e75b b0b1 efda 0432 85f8 4f31 80e4 7f31
00000290: 7371 7331 985c 93b1 6983 de31 63d9 f931
000002a0: cbcd 0332 ebff 67b2 94ac 1332 5dab 86b1
000002b0: 6b41 83b1 7f14 c3b0 fe24 39b2 3c71 6f31
000002c0: 5b4f 20b1 57a6 dcaf 7373 9231 0442 3730
000002d0: 5909 5330 22e8 2c31 8e71 9c2e 74c2 4432
000002e0: b74b 8232 76cc cbb1 3d27 52b2 2591 d531
000002f0: a499 4432 ec60 ceb1 a819 08b1 26c8 beb1
00000300: aaa2 7d2f c833 a2b1 1b0d 3aaf fc01 8031
00000310: 4f0a 0231 9186 56b1 46b3 ee31 ed1f e2af
00000320: 7c2f 8132 a855 daae 572c 42b1 3b5a 2ab2
00000330: a922 19b1 6422 2b2f 4ecb 7bb2 877c f030
00000340: 9aec 8232 138b 09b2 526e 4e2f 42db ba31
00000350: 1435 1e31 5726 20b1 0578 aeb1 78cd f3b0
00000360: 03d7 12b1 44f0 6eb2 a8d5 4432 c59f f331
00000370: 9a79 a331 f098 3631 ca61 9931 e857 5630
00000380: 69cb cfb1 45ab 4832 cec8 6b31 49fe b2b1
00000390: 3447 86b1 765e 23b2 e435 0231 416a 87b0
000003a0: 7c32 fa30 fb51 3c30 b13c 96b2 2648 6e32
000003b0: 7bd6 e531 9e5e a82d 8187 6732 bea3 49b1
000003c0: 6bb4 9931 8880 1eb0 9709 11b1 fbbc a7b1
000003d0: cb9c aab1 9412 1cb1 653e beb1 ea22 28b2
000003e0: 49a7 cdb1 9d52 e931 ec81 4f32 2c6e 4532
000003f0: 475d e731 e694 f131 944c 8c31 4391 8030
2.2771125e-09 -8.02214e-09 -1.4102271e-08 6.8045365e-09 5.99723e-09 -5.790865e-09 5.336599e-09 1.6170253e-10
-3.194778e-10 1.6725615e-09 2.8851113e-09 -6.7900574e-09 -7.14797e-09 3.766206e-09 -2.697096e-10 1.034494e-10
7.345488e-09 -2.7450584e-09 -1.6671607e-09 1.8198684e-09 1.3729814e-08 -1.4707136e-08 6.438435e-09 2.603478e-09
-7.282363e-09 -1.1428251e-08 2.3174296e-09 8.4383425e-09 -1.570461e-08 -8.576874e-09 7.0395414e-09 -1.01268895e-08
7.135299e-09 -1.1517861e-08 -7.7559825e-09 -8.2534646e-10 -5.7248783e-09 -4.1237977e-09 -6.983855e-09 -3.3266099e-09
-4.633788e-09 -1.7463867e-09 -5.5773945e-09 9.622417e-09 -1.2594737e-09 7.2086146e-09 -6.0430376e-09 -1.1897667e-08
-2.9520946e-09 3.1877383e-09 4.21353e-09 -9.706765e-09 -4.184236e-09 -6.6244996e-09 -1.2262503e-09 -1.9244806e-09
-1.7899607e-08 2.4951972e-09 -1.1446204e-08 -5.998716e-09 4.45898e-09 9.351329e-09 -7.808943e-09 1.16218635e-08
6.129911e-09 2.058546e-09 1.7936602e-08 -1.1696554e-08 -7.093142e-09 -2.2885853e-09 2.9757568e-09 6.2784733e-09
3.9115128e-10 6.723789e-09 -6.4567995e-09 2.134557e-09 -8.411126e-09 -7.1741315e-09 5.5881193e-09 -1.6542984e-08
-4.256454e-10 1.8415967e-08 1.4427863e-09 1.8720272e-08 -2.8030929e-09 -1.3197721e-08 1.8932598e-09 1.1508234e-09
2.9727898e-09 3.2308025e-09 3.4930296e-09 -4.92089e-09 5.575578e-09 2.9311542e-09 -7.869227e-09 -4.9157913e-09
-1.8255627e-09 9.070484e-09 1.940631e-09 -7.462292e-09 1.71526e-09 -8.3582324e-10 6.0530145e-09 -1.0113356e-08
1.2136238e-08 -6.999851e-09 -7.2023154e-10 -7.0850987e-09 9.785812e-09 1.6463544e-09 -4.1311505e-09 -5.306266e-09
1.0609079e-09 9.996479e-10 -3.4050096e-09 -3.3209464e-09 2.940199e-09 3.8602574e-09 -1.2072224e-08 9.1613295e-09
1.0253065e-08 -1.2424842e-08 -1.1836796e-09 1.8263459e-09 -1.5357442e-08 -1.6600946e-08 -3.1895306e-10 -3.755623e-09
1.0991446e-08 -3.2144363e-09 -8.875211e-09 6.007892e-09 6.078587e-09 -2.3837545e-08 -6.3774155e-09 3.6963583e-09
-1.0155918e-08 -6.866365e-09 1.0306125e-08 5.3259948e-09 9.788905e-09 -9.338672e-09 -5.67334e-09 -3.8671417e-09
-4.464788e-09 7.363609e-09 -9.942208e-10 5.3835576e-09 -2.331205e-09 -1.1090622e-08 1.1809888e-08 2.1294957e-08
3.0882945e-09 -7.421235e-10 3.6115564e-09 -6.4961787e-09 -2.5730267e-09 9.528541e-09 -1.0915818e-08 4.059577e-09
-5.1327222e-09 7.733191e-09 3.0263732e-09 3.723727e-09 3.5425642e-09 -4.2887898e-09 6.47599e-09 7.271568e-09
7.6719955e-09 -1.3504159e-08 8.595766e-09 -3.919395e-09 -3.820039e-09 -1.4193943e-09 -1.0776828e-08 3.4843444e-09
-2.3328173e-09 -4.0135958e-10 4.2622843e-09 6.6668826e-10 7.6774637e-10 2.5161246e-09 7.11423e-11 1.1452915e-08
1.5168423e-08 -5.931322e-09 -1.22325305e-08 6.215617e-09 1.1443635e-08 -6.006408e-09 -1.9805189e-09 -5.552482e-09
2.3068006e-10 -4.7207074e-09 -1.6921257e-10 3.725516e-09 1.892335e-09 -3.121759e-09 6.9470927e-09 -4.1131845e-10
1.503917e-08 -9.928708e-11 -2.825592e-09 -9.915818e-09 -2.2284132e-09 1.5564577e-10 -1.4656349e-08 1.7497691e-09
1.5241586e-08 -8.006071e-09 1.8774785e-10 5.438239e-09 2.3022197e-09 -2.3304858e-09 -5.077711e-09 -1.7738975e-09
-2.1368016e-09 -1.3908053e-08 1.1457281e-08 7.0903945e-09 4.757749e-09 2.657142e-09 4.4640034e-09 7.797767e-10
-6.047618e-09 1.1680474e-08 3.4311145e-09 -5.2093907e-09 -3.908008e-09 -9.509327e-09 1.8948123e-09 -9.852742e-10
1.8204243e-09 6.8510503e-10 -1.7489898e-08 1.3869828e-08 6.689161e-09 1.9141407e-11 1.347678e-08 -2.9342426e-09
4.473397e-09 -5.766272e-10 -2.1105728e-09 -4.8818243e-09 -4.9654765e-09 -2.2711548e-09 -5.5368212e-09 -9.786826e-09
-5.9853034e-09 6.7905845e-09 1.2078527e-08 1.1491959e-08 6.7335892e-09 7.030951e-09 4.083242e-09 9.354512e-10

b_linear2.w f4 [256, 256]
00000000: fa1e 05b8 be9f 91b7 ae7c ba37 3156 3d38
00000010: 1ae2 1cb8 9f9e 6fb8 f191 f737 eb4d 1fb8
00000020: c561 9e38 6f2b fab7 d7ef f6b8 5847 0a36
00000030: 13d8 5eb8 52e0 8b37 c75e 39b8 8513 c038
00000040: 58d5 47b6 948f 9f38 57d7 9837 da31 e437
00000050: e659 6838 01ca 5c37 add0 6c38 d4eb fa37
00000060: afd3 5038 989a 0f38 42d4 e0b8 3fc3 6538
00000070: 4b2c 4d37 ec40 5eb6 b417 d638 0024 50b9
00000080: c447 6638 905b b238 d2ad 1339 d989 cb37
00000090: 4f32 9437 6928 c9b5 ebe2 80b8 a930 14b8
000000a0: dd98 83b8 88d8 8438 9dba 69b8 a97c 9236
000000b0: 9e1f d4b8 41c8 ffb7 5095 3138 3740 0cb8
000000c0: efdd 16b8 78e4 eab7 c397 fdb7 6851 5438
000000d0: bcf5 0bb9 457d 0938 ce4a 16b8 f529 46b8
000000e0: 7d56 85b8 0cfc 5eb8 3016 60b8 d080 bab8
000000f0: 9c69 1036 a2f7 cbb6 96b4 8a38 bf3e 2b36
00000100: ce28 0cb9 b575 c7b8 6c50 c237 9fcc 80b7
00000110: 2a9d 5037 ee0f a438 e893 0cb8 427c 4e38
00000120: e50c 63b7 c717 8d38 5804 dcb7 57ae 1737
00000130: aeb3 41b8 0408 62b7 f55e 2337 6f4a 19b9
00000140: faaf 06b8 9b0a e6b8 e814 3939 95c6 2eb9
00000150: 6643 8ab8 8f14 8d37 2891 bf38 2ba0 10b8
00000160: 3021 c138 f544 0e39 eb9a 55b8 e75b d9b8
00000170: aeae 8837 e644 edb5 3d81 7d37 caf1 0db8
00000180: aece b137 5333 ba37 01a1 9838 04ce 7538
00000190: 4c50 0a37 20b5 4837 9ff9 f037 0077 f1b7
000001a0: 7271 6fb7 0324 be39 039a 8338 2e83 81b7
000001b0: 659f 8338 a89a d5b8 e03a e6b6 7be3 01b8
000001c0: 9002 1db8 c0f2 0fb9 51b3 0fb8 45fc 1339
000001d0: b6dd 99b7 f99c 78b7 88b0 f738 44c8 09b7
000001e0: 6519 c738 6af1 4db6 9d83 8738 279e 62b6
000001f0: d93b 9638 2291 08b7 e6e9 a937 8a75 0439
00000200: a0b0 cc38 f8e8 09b9 9507 c3b7 33ad f6b8
00000210: 9e90 25b9 2979 33b8 342e 2ab9 3963 f137
00000220: 27aa 09b7 d989 fe37 26ff deb8 ca93 d337
00000230: 93ec 0038 a29a ce37 aef2 e538 3be2 c9b8
00000240: 25e0 24b8 5ffc 3cb7 0141 73b8 9f18 0c39
00000250: 415a ccb7 8683 eab7 3a1f c036 9881 eab7
00000260: 88f9 a235 58f5 6d38 5a85 cfb7 7081 4039
00000270: 1ebd 4538 3992 03b8 ec29 6f38 cb0e 7e38
00000280: 01ab 1a38 fb07 82b8 cfd6 0938 1547 ae37
00000290: 64e0 1e39 81e4 e638 6f8a a037 6870 cb37
000002a0: dade f237 10ce 24b9 2906 dc37 d014 1bb8
000002b0: 01e5 f4b7 9333 55b8 98b1 b8b8 06fb 0b37
000002c0: 604e 7337 b3de 8eb8 4b70 80b7 78ac 05b8
000002d0: 3817 a738 5233 f237 19f1 9038 08e3 04b9
000002e0: 705e c738 9286 04b9 f736 8537 7b38 80b8
000002f0: ff52 0637 74d3 9c38 72a6 81b8 a6bf 8b37
00000300: d2f6 8038 a1c6 3838 1a54 8db8 2590 9938
00000310: 8745 70b7 b058 9238 e07c 79b9 7c08 dbb7
00000320: b8f0 f238 cfdf db37 615d 1538 3571 2838
00000330: 541e 80b8 aa67 6436 d045 c036 341e 3b38
00000340: 00d7 b9b8 b585 4ab8 75ca 79b7 3ee0 0838
00000350: 465f 98b6 ba29 04b9 f1f0 6638 d3df b438
00000360: e37b f1b8 32bb 00b8 4287 8db7 84c3 9638
00000370: 8d1b 3c39 694d 3438 9f0a a6b8 4884 07b8
00000380: c702 d037 50bf 4e38 7a58 5538 aeb1 cdb8
00000390: 3aa7 7937 b429 b038 159c ad38 186c 2439
000003a0: ec27 a8b8 4ad1 7838 b947 7038 e42b 2238
000003b0: 9ef0 9337 b6e8 6f38 3080 7f38 c7eb 5838
000003c0: 510c a738 a5a7 fd35 3032 3f37 87cf 3838
000003d0: 2e1d 3639 1f3c dc37 7b33 2bb8 aa9a 9838
000003e0: b7dc 7838 33f3 b637 3bbe cd37 dfcd 7337
000003f0: a87b 97b6 7e8e 1ab6 16fd 2437 93d6 a7b8
-3.173852e-05 -1.7359733e-05 2.2230986e-05 4.5141383e-05 -3.7403872e-05 -5.7129768e-05 2.9512654e-05 -3.798112e-05
7.552238e-05 -2.9822548e-05 -0.00011774868 2.060513e-06 -5.313016e-05 1.6674549e-05 -4.4195705e-05 9.158909e-05
-2.9777493e-06 7.608454e-05 1.8220087e-05 2.7202932e-05 5.5396835e-05 1.3160055e-05 5.646113e-05 2.9912138e-05
4.978821e-05 3.4237833e-05 -0.000107206884 5.477969e-05 1.2229265e-05 -3.3118367e-06 0.0001020873 -0.00019849837
5.490311e-05 8.504756e-05 0.00014083766 2.4263676e-05 1.7666402e-05 -1.4987428e-06 -6.1457824e-05 -3.5331268e-05
-6.27504e-05 6.3345826e-05 -5.5725326e-05 4.3656514e-06 -0.00010114837 -3.049162e-05 4.2339147e-05 -3.3438406e-05
-3.596948e-05 -2.8001363e-05 -3.023062e-05 5.0620554e-05 -0.00013347616 3.278001e-05 -3.5832454e-05 -4.7245954e-05
-6.358044e-05 -5.316366e-05 -5.3426425e-05 -8.893164e-05 2.1519145e-06 -6.0786997e-06 6.6139895e-05 2.5517509e-06
-0.00013366641 -9.510984e-05 2.3164052e-05 -1.5354073e-05 1.2434359e-05 7.8230965e-05 -3.351635e-05 4.922995e-05
-1.3533257e-05 6.727833e-05 -2.6228066e-05 9.040893e-06 -4.6182126e-05 -1.3472516e-05 9.737666e-06 -0.00014618946
-3.211198e-05 -0.0001096923 0.00017650763 -0.0001666791 -6.592907e-05 1.6818083e-05 9.134627e-05 -3.4481443e-05
9.209139e-05 0.00013567864 -5.0927436e-05 -0.000103644845 1.6293805e-05 -1.7677928e-06 1.5110066e-05 -3.3842203e-05
2.1196287e-05 2.2196828e-05 7.277914e-05 5.860442e-05 8.244137e-06 1.19631e-05 2.8726468e-05 -2.8784852e-05
-1.4271924e-05 0.00036266455 6.275254e-05 -1.5439084e-05 6.276256e-05 -0.000101854384 -6.861388e-06 -3.0967854e-05
-3.7434103e-05 -0.00013727974 -3.426086e-05 0.0001411299 -1.8342264e-05 -1.48185e-05 0.00011810759 -8.212464e-06
9.4937895e-05 -3.0687902e-06 6.4618165e-05 -3.376868e-06 7.163705e-05 -8.140023e-06 2.0255287e-05 0.00012632288
9.760377e-05 -0.00013152126 -2.3249342e-05 -0.00011762455 -0.000157895 -4.2789765e-05 -0.00016229675 2.8775643e-05
-8.205453e-06 3.034335e-05 -0.0001063331 2.522198e-05 3.0737905e-05 2.462912e-05 0.000109647735 -9.6265656e-05
-3.9309398e-05 -1.1264433e-05 -5.7996254e-05 0.00013360613 -2.4360723e-05 -2.795622e-05 5.725681e-06 -2.795532e-05
1.2142564e-06 5.6733697e-05 -2.473842e-05 0.00018358766 4.714459e-05 -3.1369014e-05 5.7021083e-05 6.0572096e-05
3.687572e-05 -6.2003695e-05 3.28634e-05 2.0775517e-05 0.00015151646 0.00011009817 1.913795e-05 2.4251829e-05
2.8952421e-05 -0.00015717023 2.6228912e-05 -3.6974263e-05 -2.9193705e-05 -5.083119e-05 -8.806883e-05 8.343492e-06
1.4502177e-05 -6.8125686e-05 -1.531108e-05 -3.1870295e-05 7.9675054e-05 2.8872546e-05 6.911363e-05 -0.00012673077
9.50665e-05 -0.00012638632 1.588043e-05 -6.114036e-05 8.006346e-06 7.478046e-05 -6.182202e-05 1.6659335e-05
6.1494895e-05 4.4054006e-05 -6.739069e-05 7.3224575e-05 -1.4321303e-05 6.978342e-05 -0.0002379301 -2.6110785e-05
0.000115842966 2.6211053e-05 3.5611334e-05 4.0159754e-05 -6.109165e-05 3.4034988e-06 5.730173e-06 4.4612403e-05
-8.861534e-05 -4.8285077e-05 -1.4888695e-05 3.263377e-05 -4.5410443e-06 -0.00012604045 5.5060667e-05 8.624759e-05
-0.00011514851 -3.0691917e-05 -1.6871494e-05 7.188975e-05 0.0001793934 4.2987438e-05 -7.917475e-05 -3.2309705e-05
2.4796826e-05 4.92924e-05 5.0865558e-05 -9.808257e-05 1.4880492e-05 8.400102e-05 8.2783554e-05 0.00015680527
-8.0183e-05 5.9322723e-05 5.7287256e-05 3.8664686e-05 1.7635812e-05 5.719877e-05 6.091612e-05 5.1717998e-05
7.965475e-05 1.889876e-06 1.1396172e-05 4.4062293e-05 0.00017367743 2.625404e-05 -4.0817522e-05 7.276733e-05
5.9333364e-05 2.180934e-05 2.4526487e-05 1.4531862e-05 -4.514546e-06 -2.303073e-06 9.834088e-06 -8.003148e-05

b_linear2.b f4 [1, 256]
00000000: 7975 7636 b03b c3b4 9a4a 7eb8 648f b438
00000010: a444 32b8 2a42 eeb8 33c5 7838 2550 6f38
00000020: 9cab 1bb9 2c4a 8937 70a1 28b8 e270 9f38
00000030: 5e0e 17b5 8a7f afb7 f9f3 a7b7 8a12 1737
00000040: d0d7 f4b7 8778 0ab8 f5b2 4038 365f 5ab7
00000050: 475b 9b38 bcf2 1bb9 63bd 2037 b8fe da38
00000060: 0579 0635 3722 4e37 27f0 c9b8 78a8 6437
00000070: 7736 8438 ee73 eab8 39b3 8f38 0385 0ab9
00000080: 98ed 8337 be62 f038 59ee 7eb7 3a75 3db8
00000090: a426 9838 1aa2 bab7 9863 44b8 2b62 04b8
000000a0: ccf7 83b5 1065 acb8 9b3a 7137 00dc 8c37
000000b0: 549e d5b8 853e 8b37 3772 49b8 93bd ca36
000000c0: 96e7 05b7 845c 63b8 805f 88b8 5513 2d37
000000d0: b730 45b9 3963 5238 9540 8e37 1aed 9638
000000e0: aa88 c037 e62c d438 5ff5 99b7 7266 0138
000000f0: a220 1bb8 1be4 90b7 c2da 5cb8 2460 6b37
00000100: 6314 9eb8 e479 a8b8 cae2 a538 694c 6ab7
00000110: f61c 4638 7062 ca38 19e4 d1b7 b9d5 2039
00000120: ee25 68b7 8ee2 a0b7 7e36 0bb7 867d db37
00000130: 65ea cbb7 cf5c 6b37 f612 2cb8 9967 1637
00000140: a502 6338 2f5b 23b7 f426 fe38 ccd6 c2b7
00000150: 1831 14b8 4e4b 0bb7 0f47 3537 89d5 9338
00000160: 1e47 53b7 f962 8338 b3e2 5438 9a19 22b8
00000170: a00b 68b8 8434 9038 3af9 8f38 ce23 5638
00000180: cfbf 8338 1e27 53b8 0115 fe38 18fc 6eb8
00000190: f8f6 a138 95ca 01b7 7a20 bc38 d96b 62b8
000001a0: 3a71 1138 530c fd38 4f38 42b8 ed6f 74b7
000001b0: de3a 8337 dc3b 0138 e86a 01b9 9c6b 3038
000001c0: b87d 94b7 b53a cfb7 44fa 9bb6 489f 48b7
000001d0: 5896 aab8 ebb1 a4b8 4193 5738 2c1d 0a38
000001e0: 861f 0738 c460 c437 483f 3036 3bd9 99b6
000001f0: ffe4 9d38 30ee 6338 b50e 7e37 379a 1c39
00000200: 4def 5338 b20a 3637 9d48 0e36 5fd8 8538
00000210: d1ea cfb8 09e2 6c36 8806 edb8 fe95 05b8
00000220: 58a8 8fb8 a573 e837 5aad ebb6 a7b6 adb8
00000230: 7f4d 07b8 466d acb7 f659 a037 8f04 a6b8
00000240: 88ca f935 fc61 a138 b2fd 6e38 d178 6638
00000250: bd8a b3b7 f0a3 4038 1975 a6b7 ca40 6538
00000260: 15e5 27b8 2be7 cc37 3012 0137 5c6a 5e38
00000270: 3871 2a38 9d12 1a37 c3f7 9d38 c62c 49b7
00000280: 8d6c ddb4 2473 0d38 e4f5 12b8 b545 bfb8
00000290: 4c20 ea38 0f4b 3139 ddf7 7337 bd27 b938
000002a0: 8d04 7db8 6163 b5b8 b44c 9d37 1e09 a038
000002b0: d362 5038 b6cb 17b8 8b04 9f38 de1c 27b8
000002c0: 63d6 6738 5388 43b8 5daf ebb7 a9f6 4e38
000002d0: e114 98b7 bf29 0eb7 4e5a 9838 11d7 74b6
000002e0: 3c26 5b35 8121 acb7 bfd4 3a38 90dc ebb8
000002f0: be11 f537 8bf1 1c38 999c cdb7 ae0b 4437
00000300: bd27 4436 2d9d b4b7 9f22 0c37 bfa6 1d36
00000310: 76e5 8c38 1daa 02b7 2132 b9b8 edca d3b7
00000320: fbe0 8237 3f59 38b8 3c0c cd37 ac9c f038
00000330: 4307 ee37 e96e 8938 7d83 d637 5a70 59b8
00000340: 4ff1 28b8 be11 25b5 bbe7 32b7 6eab 3e38
00000350: 21d6 abb7 1074 1cb9 5006 4438 6b97 ff37
00000360: 09ea adb8 f403 71b8 c26b 1e38 c38c 06b8
00000370: 3ebd ea37 179d 8738 a944 9cb5 fc18 ac37
00000380: dc6b f137 f025 1e37 80fc 2a38 f6cd 41b8
00000390: 2c49 6fb8 69b2 f737 9658 e338 084f 2b38
000003a0: 7fcc b3b7 970b 71b7 4089 f437 3767 8837
000003b0: 4af4 17b8 a669 1738 dbe6 f1b7 bfa7 a437
000003c0: 57c7 9538 5c68 a7b8 d8e3 13b7 c968 a738
000003d0: 10cf 9238 f962 aeb8 5281 5c37 67c1 57b8
000003e0: 4a1d 88b7 ae8b b838 3e15 dd37 1b5f 37b7
000003f0: 83cf bdb7 bba3 a0b7 1279 8d38 e926 6537
3.6725235e-06 -3.636501e-07 -6.0627797e-05 8.6097774e-05 -4.2502434e-05 -0.000113610484 5.9311464e-05 5.705668e-05
-0.00014845881 1.6366212e-05 -4.020467e-05 7.602737e-05 -5.627279e-07 -2.0921016e-05 -2.002156e-05 9.004618e-06
-2.9187562e-05 -3.3014014e-05 4.5943034e-05 -1.3015981e-05 7.407978e-05 -0.00014872378 9.580838e-06 0.00010442495
5.0094997e-07 1.2286523e-05 -9.629159e-05 1.3629084e-05 6.304395e-05 -0.00011179583 6.852154e-05 -0.00013210256
1.5727055e-05 0.00011462484 -1.5195074e-05 -4.5170287e-05 7.255122e-05 -2.2248412e-05 -4.6822795e-05 -3.156268e-05
-9.832379e-07 -8.2204235e-05 1.43783645e-05 1.6791746e-05 -0.000101861224 1.6599204e-05 -4.8028505e-05 6.0421385e-06
-7.981338e-06 -5.420718e-05 -6.5027736e-05 1.0316105e-05 -0.00018805532 5.016031e-05 1.6957792e-05 7.196721e-05
2.2951823e-05 0.00010117311 -1.8353281e-05 3.0851406e-05 -3.698527e-05 -1.7272358e-05 -5.265582e-05 1.4029476e-05
-7.5378244e-05 -8.033568e-05 7.910056e-05 -1.39652775e-05 4.723385e-05 9.650446e-05 -2.5020958e-05 0.00015338407
-1.3837109e-05 -1.9178984e-05 -8.297733e-06 2.6165286e-05 -2.4308634e-05 1.40287e-05 -4.1025654e-05 8.964817e-06
5.412348e-05 -9.736787e-06 0.000121189194 -2.3226625e-05 -3.5331672e-05 -8.302579e-06 1.0804985e-05 7.04928e-05
-1.2593138e-05 6.265002e-05 5.075587e-05 -3.8647653e-05 -5.5323937e-05 6.876237e-05 6.8651934e-05 5.105492e-05
6.282294e-05 -5.034275e-05 0.00012115576 -5.6978402e-05 7.72308e-05 -7.7361665e-06 8.970588e-05 -5.398304e-05
3.4676144e-05 0.00012066276 -4.6305646e-05 -1.4569593e-05 1.564383e-05 3.0811745e-05 -0.00012342224 4.206189e-05
-1.7701517e-05 -2.470366e-05 -4.6484947e-06 -1.19580145e-05 -8.1342354e-05 -7.853269e-05 5.1397135e-05 3.2928932e-05
3.2215867e-05 2.341008e-05 2.6262878e-06 -4.5850443e-06 7.528997e-05 5.4342847e-05 1.5143004e-05 0.00014934769
5.0529186e-05 1.0850536e-05 2.1201915e-06 6.3822365e-05 -9.914267e-05 3.529831e-06 -0.00011302257 -3.1849362e-05
-6.850128e-05 2.7710406e-05 -7.0237265e-06 -8.2833045e-05 -3.2258682e-05 -2.0554882e-05 1.9115378e-05 -7.916346e-05
1.861089e-06 7.695329e-05 5.6979894e-05 5.4948792e-05 -2.1403068e-05 4.5929046e-05 -1.984327e-05 5.4658194e-05
-4.0029252e-05 2.4426341e-05 7.693234e-06 5.302798e-05 4.06366e-05 9.183449e-06 7.5324926e-05 -1.1990958e-05
-4.124344e-07 3.3724253e-05 -3.5038116e-05 -9.120574e-05 0.00011164005 0.00016907997 1.4541639e-05 8.828889e-05
-6.032414e-05 -8.649263e-05 1.8751576e-05 7.631093e-05 4.96831e-05 -3.6190926e-05 7.582557e-05 -3.9842787e-05
5.5274355e-05 -4.6618585e-05 -2.8095843e-05 4.9343947e-05 -1.8129535e-05 -8.473579e-06 7.264745e-05 -3.6484018e-06
8.1639496e-07 -2.05196e-05 4.454399e-05 -0.00011246756 2.9214538e-05 3.7418253e-05 -2.4510826e-05 1.168523e-05
2.9229407e-06 -2.1530863e-05 8.352711e-06 2.3491882e-06 6.718461e-05 -7.788211e-06 -8.830825e-05 -2.5247655e-05
1.5601972e-05 -4.3952135e-05 2.4443601e-05 0.00011473274 2.8375192e-05 6.553328e-05 2.5572017e-05 -5.1841467e-05
-4.0279057e-05 -6.149311e-07 -1.0663581e-05 4.5459186e-05 -2.04845e-05 -0.00014920556 4.673592e-05 3.0468878e-05
-8.292875e-05 -5.746256e-05 3.7770493e-05 -3.2079184e-05 2.7983097e-05 6.466562e-05 -1.1642888e-06 2.0515632e-05
2.8779665e-05 9.426367e-06 4.0766317e-05 -4.6206602e-05 -5.7050187e-05 2.9527773e-05 0.00010840704 4.084318e-05
-2.1433689e-05 -1.4367418e-05 2.9150979e-05 1.6260527e-05 -3.6228717e-05 3.60996e-05 -2.883694e-05 1.9628436e-05
7.1420036e-05 -7.982619e-05 -8.814932e-06 7.982698e-05 7.000391e-05 -8.315402e-05 1.3143132e-05 -5.1440114e-05
-1.6226102e-05 8.799821e-05 2.6355145e-05 -1.09297935e-05 -2.2627186e-05 -1.914973e-05 6.745955e-05 1.3658523e-05

b_linear2.w_prior f4 [256, 256]
00000000: 99b0 1bb3 ddfd d3b2 8fbc eb32 25d4 9bb1
00000010: 2167 9eb2 4029 b3b3 3e37 9b32 cfd8 ecb3
00000020: 74f9 8a33 c001 7fb2 e67c 17b4 74de a6b3
00000030: 7c59 44b3 06fc dc32 e6bd dcb3 693c 0b34
00000040: 3f49 edb2 6b05 9132 04cb 8e31 7115 2333
00000050: d897 f833 6931 b633 97c9 d133 8dd8 e2b2
00000060: 08b6 3c33 af33 7cb2 100e 00b4 3ebf 9133
00000070: 3e3a ecb2 4ac1 2833 216c 1d34 c395 81b4
00000080: 8f9d bc33 8a87 ff33 57cb db33 cf5c 8d33
00000090: a530 8033 53a0 0433 564d 09b4 2216 aa32
000000a0: 6adb 35b3 f818 2134 62d8 7eb3 7de4 5333
000000b0: d129 b4b3 b593 1533 d6a5 3933 7c43 dcb3
000000c0: 2904 b0b3 bd37 59b3 02df 75b3 8259 8033
000000d0: 5e1a 08b4 7a5e ab33 ad59 8db3 aeb7 ecb3
000000e0: eb9a 97b3 8fa8 8fb3 1054 3d33 6ee0 0fb3
000000f0: 4317 3330 044e 1b32 96db 3333 96bf 6533
00000100: 8d7d eab3 46f9 03b4 70ee 8db2 fc7b 1a33
00000110: 0e05 a633 2b3f f933 73c8 2033 a441 cb33
00000120: f8cb e9b1 7fec 9633 1813 bdb2 3b50 49b3
00000130: d0c0 c0b3 5647 a9b2 1df2 85b3 5308 27b4
00000140: 1cae c7b2 b757 1db4 f6d3 1334 d049 8cb4
00000150: f4ec 1fb3 3326 13b2 d00b 1c33 4a1f d432
00000160: cecd e233 ca95 2234 adf9 74b3 f0b6 1cb4
00000170: 88be 7633 5f94 64b3 a194 15b2 bf83 feb3
00000180: fe67 0eb3 15df 3633 e44c 9333 84b9 d033
00000190: 2de0 ccb2 5b43 3433 36cf 67b3 899e 32b1
000001a0: 7f70 2732 e971 cd34 77c2 8733 5ee7 4eb3
000001b0: 5a0c 3b33 32dd 9cb3 e555 cbb2 cedf 06b3
000001c0: aba1 87b3 9ca8 11b4 3844 f5b2 6ef2 0734
000001d0: e549 e0b2 684c 3ab3 e249 2a34 a2c2 1733
000001e0: 6215 e933 8879 f632 09e7 4433 9a83 f3b2
000001f0: 1e65 b431 e6e9 0b33 4d2c 1232 68b6 0234
00000200: 59f7 b733 1439 51b4 b19c 9a33 32e4 20b4
00000210: c159 27b4 8513 2fb3 46e8 59b4 c2fc e332
00000220: 42e9 b831 3d8b 6933 4001 30b4 5f90 2033
00000230: dd6f 8033 1783 2333 231b 0734 a473 c7b1
00000240: 5333 beb3 2aba 6133 64fb a4b3 046b 4834
00000250: fdff 87b3 030b 37b3 b0ac 56b3 4438 3333
00000260: 73be cab2 3683 7433 4908 78b3 9a07 6c34
00000270: 6243 9a33 08f6 3932 bfef 6832 4c50 0b34
00000280: feb0 bb32 a691 85b3 2b73 8c32 30d4 0133
00000290: 8848 9134 533d ad33 3b08 69b3 afed 8f33
000002a0: f411 16b1 24ea 11b4 0a03 8db2 1828 4ab3
000002b0: 907d bd31 8259 9db3 8b89 a3b3 521d 3133
000002c0: 69b9 8db0 eb30 8ab3 d76f 84b1 0de3 db31
000002d0: ae8b 1933 80c7 8c33 5b56 9fb1 22db 18b4
000002e0: 175d 9a33 e91c c0b3 11f6 9633 1f72 eeb3
000002f0: 86ee 0fb2 7058 fb33 b93f 14b3 0d6b 3d32
00000300: aff5 9033 9914 a4b2 e404 4fb3 f88b ef32
00000310: 9f28 7cb2 7a0a 9732 623d 37b4 8cd1 52b2
00000320: 1105 4734 4ceb ad33 ee39 52b2 70a1 0e33
00000330: 4974 d3b3 6dcd 1c31 e331 b833 cc53 b932
00000340: e8da f4b3 a831 39b3 121c 0133 821f 8533
00000350: 5a54 1433 ccd5 ccb3 f688 0233 b0a7 b032
00000360: 88e6 dab3 5217 b9b1 124b 9531 b71c 9733
00000370: 3f19 3a34 60ba 2333 a8c5 22b3 861a deb3
00000380: ca32 e631 9939 d933 b7d7 0133 e6f7 eeb3
00000390: c8df 3e33 5ced 8b33 4672 c333 8a30 6e34
000003a0: 0762 abb3 340b 12b3 fcd4 f233 23d8 8333
000003b0: 54d3 aa2f fe05 b033 5b81 3833 89a3 9b33
000003c0: 60ec a333 3245 7e32 abdc 37b2 fb0d a633
000003d0: 6a15 5734 cab7 6db0 b79f 75b3 4edd 3034
000003e0: c23a 0c34 10a6 2b33 a3bb 8632 5fb4 c4b2
000003f0: 92c2 b8b3 5f46 9db3 7375 05b3 5864 0db4
-3.6249364e-08 -2.4679077e-08 2.7443347e-08 -4.5352118e-09 -1.8440518e-08 -8.3428404e-08 1.8069496e-08 -1.10290436e-07
6.471501e-08 -1.4843351e-08 -1.4108409e-07 -7.7704414e-08 -4.571619e-08 2.5725978e-08 -1.0279091e-07 1.2967361e-07
-2.762374e-08 1.6882685e-08 4.155824e-09 3.7970896e-08 1.157602e-07 8.484023e-08 9.76899e-08 -2.6408339e-08
4.3937717e-08 -1.4680082e-08 -1.1926045e-07 6.7868754e-08 -2.7500501e-08 3.9291344e-08 1.4661101e-07 -2.4137088e-07
8.783092e-08 1.1899017e-07 1.02349695e-07 6.582706e-08 5.969313e-08 3.087946e-08 -1.2787254e-07 1.980067e-08
-4.2341902e-08 1.5003377e-07 -5.9335783e-08 4.9335075e-08 -8.3895095e-08 3.4826105e-08 4.3224496e-08 -1.0256824e-07
-8.1963954e-08 -5.0574943e-08 -5.7246332e-08 5.976746e-08 -1.267558e-07 7.979993e-08 -6.582136e-08 -1.10230175e-07
-7.059665e-08 -6.689617e-08 4.4081446e-08 -3.34989e-08 6.515288e-10 9.039926e-09 4.1876397e-08 5.3492464e-08
-1.0919312e-07 -1.2291011e-07 -1.652299e-08 3.5968682e-08 7.730897e-08 1.1606456e-07 3.743521e-08 9.464864e-08
-6.804381e-09 7.027938e-08 -2.2011179e-08 -4.687193e-08 -8.975769e-08 -1.970663e-08 -6.237335e-08 -1.5556115e-07
-2.3245825e-08 -1.4653675e-07 1.3767553e-07 -2.6130738e-07 -3.723558e-08 -8.565212e-09 3.6332324e-08 2.4694277e-08
1.0561381e-07 1.5141919e-07 -5.7037756e-08 -1.4595184e-07 5.7449626e-08 -5.322033e-08 -8.706736e-09 -1.1851761e-07
-3.315653e-08 4.257807e-08 6.859207e-08 9.7195e-08 -2.3850669e-08 4.1970775e-08 -5.3972336e-08 -2.5992526e-09
9.746258e-09 3.8267106e-07 6.3218e-08 -4.817354e-08 4.3550564e-08 -7.304551e-08 -2.367137e-08 -3.1402855e-08
-6.3158346e-08 -1.3565517e-07 -2.8552776e-08 1.266105e-07 -2.6110635e-08 -4.337599e-08 1.5859362e-07 3.5334445e-08
1.08537975e-07 2.8693435e-08 4.584493e-08 -2.8348769e-08 5.250185e-09 3.257619e-08 8.508391e-09 1.2173552e-07
8.566594e-08 -1.9485407e-07 7.199686e-08 -1.4984178e-07 -1.5585739e-07 -4.0763116e-08 -2.02942e-07 2.6541219e-08
5.381623e-09 5.4376176e-08 -1.6391732e-07 3.7384208e-08 5.980812e-08 3.807062e-08 1.2582727e-07 -5.804809e-09
-8.8569e-08 5.255621e-08 -7.682573e-08 1.8665384e-07 -6.3329914e-08 -4.2618023e-08 -4.9982816e-08 4.172786e-08
-2.3602501e-08 5.6930013e-08 -5.7749535e-08 2.1981978e-07 7.183441e-08 1.0824358e-08 1.3558689e-08 1.2974596e-07
2.1850152e-08 -6.2197884e-08 1.6350517e-08 3.0228136e-08 2.7061128e-07 8.067095e-08 -5.4257026e-08 6.702191e-08
-2.1838078e-09 -1.3589357e-07 -1.6415942e-08 -4.7068255e-08 5.5148988e-09 -7.3271636e-08 -7.615298e-08 4.123769e-08
-1.0311797e-09 -6.435024e-08 -3.8544203e-09 6.3995516e-09 3.5750126e-08 6.555547e-08 -4.6373265e-09 -1.4235823e-07
7.188117e-08 -8.9459554e-08 7.0296785e-08 -1.1103497e-07 -8.3779295e-09 1.1704185e-07 -3.451689e-08 1.1025588e-08
6.750212e-08 -1.910148e-08 -4.820039e-08 2.7886912e-08 -1.4677567e-08 1.7583478e-08 -1.7065534e-07 -1.2271254e-08
1.8535162e-07 8.0987405e-08 -1.22367805e-08 3.3208778e-08 -9.846605e-08 2.2817759e-09 8.577242e-08 2.1574941e-08
-1.1401954e-07 -4.311883e-08 3.0060683e-08 6.1990264e-08 3.4535653e-08 -9.53838e-08 3.039255e-08 2.0565352e-08
-1.01933495e-07 -5.38686e-09 4.3450052e-09 7.0367086e-08 1.7331784e-07 3.8120902e-08 -3.789833e-08 -1.0342505e-07
6.699655e-09 1.0115327e-07 3.0231345e-08 -1.1127831e-07 4.444135e-08 6.515867e-08 9.101181e-08 2.2183136e-07
-7.980639e-08 -3.4003463e-08 1.1307745e-07 6.139478e-08 3.1072978e-10 8.1967286e-08 4.2958487e-08 7.247497e-08
7.633275e-08 1.4800479e-08 -1.0702176e-08 7.7325204e-08 2.0031226e-07 -8.648128e-10 -5.7188767e-08 1.6471787e-07
1.3059892e-07 3.9965073e-08 1.568498e-08 -2.2899426e-08 -8.60356e-08 -7.3236826e-08 -3.1073295e-08 -1.3168153e-07

b_linear2.b_prior f4 [1, 256]
00000000: 8760 ec32 9274 87b2 0ab7 1eb3 8e93 0533
00000010: 59a0 ebb2 0de7 1bb4 68dc a533 f435 c631
00000020: 7162 25b4 6b49 42b2 7676 98b2 0cbd 7d33
00000030: 2360 b631 c478 b1b3 a6fd 1bb3 a8c2 e932
00000040: 0ef0 49b3 45d3 24b3 5bb6 f933 831a 24b1
00000050: e4bf e133 c872 02b4 036f 1b33 fb9a cb33
00000060: ef10 bbb2 b59d d9b2 79f9 0db4 217c bd30
00000070: a68e 6833 2a1b 8db3 0884 ab33 9982 38b4
00000080: 8cb4 9f33 8688 2334 f8ae a2b1 c1a2 33b3
00000090: 4b4b 8233 7feb 5bb3 f6bb 9ab3 25fa c9b2
000000a0: ca70 bf32 986d 65b3 13df d832 80b8 2632
000000b0: 495d c3b3 7aa5 b432 2a58 87b3 0913 41b2
000000c0: 51f6 7b32 722e 88b3 f1d7 c4b3 29d9 54b2
000000d0: 7667 07b4 8227 9833 bdac cf32 0fff 6a33
000000e0: dda8 93b2 f605 3134 f46e 5031 75a9 772f
000000f0: e917 63b3 2c28 81b2 c95b 4fb1 5211 d132
00000100: a313 23b3 58dd abb3 bf98 b0b1 520e f332
00000110: dde7 4e33 e665 da33 e04f 22b3 0547 4134
00000120: 24ce 55b3 68ac 07b3 ffe3 82b3 0ac7 3f32
00000130: 0cb6 86b3 b9fc a2b1 b735 6fb3 2f5c 7033
00000140: df2e bb33 6a85 b0b2 fbea 1a34 2b30 96b2
00000150: 87c4 94b3 a769 06b3 810f 6cb3 66e3 0434
00000160: c614 58b1 b78e db33 2d02 8733 6c1c d3b3
00000170: 6516 10b3 5742 c133 899f 3633 b3c3 3b32
00000180: da8b 8132 fde9 afb3 463a 3a34 6d9d bfb2
00000190: 92f0 0334 e335 9032 53cb 6533 5ff3 b6b3
000001a0: 2b25 6433 dfeb 9e33 6218 9cb3 85dc 3931
000001b0: 460d e132 c906 0533 f416 0ab4 06f0 cf33
000001c0: 1d75 de32 ada3 d5b3 a479 a131 ef65 abb1
000001d0: 7003 69b3 f0a6 c3b3 d3ec c432 9cc0 a133
000001e0: 9f68 cf32 c83d bab1 71a5 2a32 55a4 2333
000001f0: 08d6 8d33 e346 b533 bf0f 2d33 e111 3434
00000200: f81a 8833 1b39 1733 95ad 6033 a628 6a33
00000210: 368b f2b3 b42a 8b33 3e08 9fb3 2710 97b2
00000220: 8822 47b2 a4d0 7b33 17e4 08b3 a057 b4b3
00000230: 9c15 48b2 3a41 41b3 5874 1232 ae81 51b3
00000240: 95f2 cb31 6a92 c433 31e2 ae33 13cf d432
00000250: d658 8732 3bb2 b232 617b a4b2 aba0 fb33
00000260: 5c8e 52b3 2195 2432 40cd c632 0711 c233
00000270: 9578 6d33 7db9 882f d4b1 0333 3c28 5431
00000280: 8297 36b3 398c 7833 fae5 11b3 59bb 3fb3
00000290: fab5 1534 e262 3634 38d8 2e33 fac4 a233
000002a0: cf8a 23b3 4bbe afb3 fd45 6d32 f45a d333
000002b0: d963 ab31 40fa c3b2 d358 2034 6b5a 1232
000002c0: d139 08b2 4810 69b3 3b46 47b3 2b61 bd33
000002d0: 50e6 34b3 1a75 85b1 e204 ba33 5785 71b3
000002e0: eafb 34b3 c85c 0fb3 7487 0133 bfaf 26b4
000002f0: 8bdc 5632 2b2f b932 01d7 90b3 0ca7 abb2
00000300: a6b5 3932 19a5 60b3 be25 f932 5511 66b2
00000310: 7b01 5b33 5ddf f7b0 59da aeb3 7e15 90b2
00000320: 4b1b e9b2 ecf8 abb2 9d0f 9333 99b0 e433
00000330: fb2b 5433 6caa 8b33 3a4b ee33 c918 d3b2
00000340: d30e 1633 2867 3f32 2151 dab2 135f 5b33
00000350: b920 2133 de85 29b4 d166 9833 0bb8 1731
00000360: f58e 82b3 85d7 00b3 d0e4 9e33 8fda 69b3
00000370: 1064 80b1 b016 d633 0b33 b330 70a4 8c32
00000380: 204e 5931 f747 8f31 7d84 2433 35d1 d6b3
00000390: ddf4 92b3 ded4 25b2 7af7 f133 2c17 8633
000003a0: f4fd d731 7a4c 8eb2 bea4 5c33 38e7 48b1
000003b0: ce51 36b3 7e30 0e33 2b31 26b3 db70 7f32
000003c0: e7c1 8f33 2878 cab3 5d63 a6b3 89fd 9233
000003d0: 9cf9 6633 4e15 bcb3 08f9 efb2 53aa c1b2
000003e0: 9ec5 5cb2 8731 0434 fbb2 9033 e04e 0832
000003f0: ca13 9eb3 87aa 08b3 b4d7 aa33 fa8f 8432
2.7517912e-08 -1.5769078e-08 -3.6953715e-08 3.1100676e-08 -2.7430518e-08 -1.4519556e-07 7.723503e-08 5.768692e-09
-1.5402635e-07 -1.13089795e-08 -1.7748999e-08 5.907809e-08 5.3078266e-09 -8.264172e-08 -3.631944e-08 2.721329e-08
-4.7017288e-08 -3.8376374e-08 1.1628136e-07 -2.3880211e-09 1.0512284e-07 -1.214895e-07 3.6189714e-08 9.481115e-08
-2.1777366e-08 -2.5333842e-08 -1.3222406e-07 1.378684e-09 5.4146447e-08 -6.570765e-08 7.9868244e-08 -1.7183847e-07
7.436856e-08 1.5230225e-07 -4.734712e-09 -4.182471e-08 6.0672924e-08 -5.1204093e-08 -7.205374e-08 -2.3513232e-08
2.2286617e-08 -5.3417892e-08 2.5247152e-08 9.704422e-09 -9.0973636e-08 2.1030008e-08 -6.302464e-08 -1.1238407e-08
1.4666129e-08 -6.341442e-08 -9.166241e-08 -1.2389401e-08 -1.2610494e-07 7.085238e-08 2.4176524e-08 5.4714345e-08
-1.7189842e-08 1.6486578e-07 3.0331053e-09 2.2524722e-10 -5.2874302e-08 -1.5035845e-08 -3.0174638e-09 2.4338679e-08
-3.7969254e-08 -8.00307e-08 -5.1396394e-09 2.8295435e-08 4.817399e-08 1.0169951e-07 -3.779121e-08 1.8000362e-07
-4.978041e-08 -3.158894e-08 -6.095069e-08 1.11629195e-08 -6.2729754e-08 -4.7435518e-09 -5.5695377e-08 5.5963195e-08
8.716392e-08 -2.0549766e-08 1.4427853e-07 -1.7484203e-08 -6.927535e-08 -3.1295396e-08 -5.4962133e-08 1.2376185e-07
-3.1443945e-09 1.0223942e-07 6.286823e-08 -9.830623e-08 -3.354798e-08 8.99933e-08 4.2520274e-08 1.0929329e-08
1.5081174e-08 -8.191635e-08 1.73438e-07 -2.2306915e-08 1.2287845e-07 1.6788311e-08 5.350314e-08 -8.5193044e-08
5.311919e-08 7.400353e-08 -7.268751e-08 2.7046394e-09 2.6199483e-08 3.0972647e-08 -1.2860602e-07 9.682849e-08
2.5897458e-08 -9.948358e-08 4.6995456e-09 -4.9883435e-09 -5.4252666e-08 -9.110761e-08 2.2925098e-08 7.532182e-08
2.4145548e-08 -5.420336e-09 9.932919e-09 3.8100854e-08 6.604756e-08 8.4413635e-08 4.0294022e-08 1.677031e-07
6.337899e-08 3.5209364e-08 5.2311936e-08 5.451934e-08 -1.12943255e-07 6.4804595e-08 -7.405514e-08 -1.7586059e-08
-1.1591176e-08 5.863025e-08 -3.1872414e-08 -8.397842e-08 -1.1646446e-08 -4.4995637e-08 8.524772e-09 -4.8779548e-08
5.935656e-09 9.153594e-08 8.1436504e-08 2.4774215e-08 1.5756466e-08 2.0802977e-08 -1.9148219e-08 1.17173236e-07
-4.902391e-08 9.579964e-09 2.314357e-08 9.036926e-08 5.529053e-08 2.4870053e-10 3.0662548e-08 3.087293e-09
-4.2512973e-08 5.786953e-08 -3.3969606e-08 -4.4641045e-08 1.3942909e-07 1.6986044e-07 4.0709182e-08 7.579543e-08
-3.807764e-08 -8.1836866e-08 1.3811129e-08 9.8419974e-08 4.9881064e-09 -2.2814788e-08 1.4933475e-07 8.518877e-09
-7.929388e-09 -5.4264348e-08 -4.6397172e-08 8.818673e-08 -4.2118984e-08 -3.8841224e-09 8.662188e-08 -5.6233457e-08
-4.213863e-08 -3.3379166e-08 3.0158347e-08 -1.5523891e-07 1.2506585e-08 2.1558284e-08 -6.7446315e-08 -1.9982984e-08
1.0809719e-08 -5.230422e-08 2.9004578e-08 -1.3391703e-08 5.0991257e-08 -1.8035099e-09 -8.1422236e-08 -1.677358e-08
-2.7137181e-08 -2.0020217e-08 6.848061e-08 1.06492e-07 4.9400096e-08 6.5036915e-08 1.1096422e-07 -2.4574904e-08
3.493808e-08 1.1141118e-08 -2.5415433e-08 5.107638e-08 3.7515495e-08 -1.5788052e-07 7.096754e-08 2.2078008e-09
-6.0796005e-08 -2.9998336e-08 7.399069e-08 -5.4448318e-08 -3.736666e-09 9.9692784e-08 1.3038471e-09 1.6372923e-08
3.1622065e-09 4.170029e-09 3.8304723e-08 -1.0003206e-07 -6.843195e-08 -9.6526644e-09 1.1267453e-07 6.244076e-08
6.2861947e-09 -1.6565753e-08 5.1372574e-08 -2.9235263e-09 -4.2449578e-08 3.3106055e-08 -3.8694605e-08 1.4868614e-08
6.694227e-08 -9.428214e-08 -7.7480514e-08 6.8447726e-08 5.3778066e-08 -8.7583075e-08 -2.7936508e-08 -2.2545612e-08
-1.2850618e-08 1.2311476e-07 6.738079e-08 7.934176e-09 -7.361048e-08 -3.182006e-08 7.955478e-08 1.5432295e-08
