Parameter/wallplaneTEST/312.pth (torch, 545217 bytes, 24 tensors)

b_linear1.w f4 [4, 256]
0	0x00000000	0.0
1	0x00000000	0.0
2	0x00000000	0.0
3	0x00000000	0.0
4	0x00000000	0.0
5	0x00000000	0.0
6	0x00000000	0.0
7	0x00000000	0.0
8	0x00000000	0.0
9	0x00000000	0.0
10	0x00000000	0.0
11	0x00000000	0.0
12	0x00000000	0.0
13	0x00000000	0.0
14	0x00000000	0.0
15	0x00000000	0.0
16	0x00000000	0.0
17	0x00000000	0.0
18	0x00000000	0.0
19	0x00000000	0.0
20	0x00000000	0.0
21	0x00000000	0.0
22	0x00000000	0.0
23	0x00000000	0.0
24	0x00000000	0.0
25	0x00000000	0.0
26	0x00000000	0.0
27	0x00000000	0.0
28	0x00000000	0.0
29	0x00000000	0.0
30	0x00000000	0.0
31	0x00000000	0.0
32	0x00000000	0.0
33	0x00000000	0.0
34	0x00000000	0.0
35	0x00000000	0.0
36	0x00000000	0.0
37	0x00000000	0.0
38	0x00000000	0.0
39	0x00000000	0.0
40	0x00000000	0.0
41	0x00000000	0.0
42	0x00000000	0.0
43	0x00000000	0.0
44	0x00000000	0.0
45	0x00000000	0.0
46	0x00000000	0.0
47	0x00000000	0.0
48	0x00000000	0.0
49	0x00000000	0.0
50	0x00000000	0.0
51	0x00000000	0.0
52	0x00000000	0.0
53	0x00000000	0.0
54	0x00000000	0.0
55	0x00000000	0.0
56	0x00000000	0.0
57	0x00000000	0.0
58	0x00000000	0.0
59	0x00000000	0.0
60	0x00000000	0.0
61	0x00000000	0.0
62	0x00000000	0.0
63	0x00000000	0.0
64	0x00000000	0.0
65	0x00000000	0.0
66	0x00000000	0.0
67	0x00000000	0.0
68	0x00000000	0.0
69	0x00000000	0.0
70	0x00000000	0.0
71	0x00000000	0.0
72	0x00000000	0.0
73	0x00000000	0.0
74	0x00000000	0.0
75	0x00000000	0.0
76	0x00000000	0.0
77	0x00000000	0.0
78	0x00000000	0.0
79	0x00000000	0.0
80	0x00000000	0.0
81	0x00000000	0.0
82	0x00000000	0.0
83	0x00000000	0.0
84	0x00000000	0.0
85	0x00000000	0.0
86	0x00000000	0.0
87	0x00000000	0.0
88	0x00000000	0.0
89	0x00000000	0.0
90	0x00000000	0.0
91	0x00000000	0.0
92	0x00000000	0.0
93	0x00000000	0.0
94	0x00000000	0.0
95	0x00000000	0.0
96	0x00000000	0.0
97	0x00000000	0.0
98	0x00000000	0.0
99	0x00000000	0.0
100	0x00000000	0.0
101	0x00000000	0.0
102	0x00000000	0.0
103	0x00000000	0.0
104	0x00000000	0.0
105	0x00000000	0.0
106	0x00000000	0.0
107	0x00000000	0.0
108	0x00000000	0.0
109	0x00000000	0.0
110	0x00000000	0.0
111	0x00000000	0.0
112	0x00000000	0.0
113	0x00000000	0.0
114	0x00000000	0.0
115	0x00000000	0.0
116	0x00000000	0.0
117	0x00000000	0.0
118	0x00000000	0.0
119	0x00000000	0.0
120	0x00000000	0.0
121	0x00000000	0.0
122	0x00000000	0.0
123	0x00000000	0.0
124	0x00000000	0.0
125	0x00000000	0.0
126	0x00000000	0.0
127	0x00000000	0.0
128	0x00000000	0.0
129	0x00000000	0.0
130	0x00000000	0.0
131	0x00000000	0.0
132	0x00000000	0.0
133	0x00000000	0.0
134	0x00000000	0.0
135	0x00000000	0.0
136	0x00000000	0.0
137	0x00000000	0.0
138	0x00000000	0.0
139	0x00000000	0.0
140	0x00000000	0.0
141	0x00000000	0.0
142	0x00000000	0.0
143	0x00000000	0.0
144	0x00000000	0.0
145	0x00000000	0.0
146	0x00000000	0.0
147	0x00000000	0.0
148	0x00000000	0.0
149	0x00000000	0.0
150	0x00000000	0.0
151	0x00000000	0.0
152	0x00000000	0.0
153	0x00000000	0.0
154	0x00000000	0.0
155	0x00000000	0.0
156	0x00000000	0.0
157	0x00000000	0.0
158	0x00000000	0.0
159	0x00000000	0.0
160	0x00000000	0.0
161	0x00000000	0.0
162	0x00000000	0.0
163	0x00000000	0.0
164	0x00000000	0.0
165	0x00000000	0.0
166	0x00000000	0.0
167	0x00000000	0.0
168	0x00000000	0.0
169	0x00000000	0.0
170	0x00000000	0.0
171	0x00000000	0.0
172	0x00000000	0.0
173	0x00000000	0.0
174	0x00000000	0.0
175	0x00000000	0.0
176	0x00000000	0.0
177	0x00000000	0.0
178	0x00000000	0.0
179	0x00000000	0.0
180	0x00000000	0.0
181	0x00000000	0.0
182	0x00000000	0.0
183	0x00000000	0.0
184	0x00000000	0.0
185	0x00000000	0.0
186	0x00000000	0.0
187	0x00000000	0.0
188	0x00000000	0.0
189	0x00000000	0.0
190	0x00000000	0.0
191	0x00000000	0.0
192	0x00000000	0.0
193	0x00000000	0.0
194	0x00000000	0.0
195	0x00000000	0.0
196	0x00000000	0.0
197	0x00000000	0.0
198	0x00000000	0.0
199	0x00000000	0.0
200	0x00000000	0.0
201	0x00000000	0.0
202	0x00000000	0.0
203	0x00000000	0.0
204	0x00000000	0.0
205	0x00000000	0.0
206	0x00000000	0.0
207	0x00000000	0.0
208	0x00000000	0.0
209	0x00000000	0.0
210	0x00000000	0.0
211	0x00000000	0.0
212	0x00000000	0.0
213	0x00000000	0.0
214	0x00000000	0.0
215	0x00000000	0.0
216	0x00000000	0.0
217	0x00000000	0.0
218	0x00000000	0.0
219	0x00000000	0.0
220	0x00000000	0.0
221	0x00000000	0.0
222	0x00000000	0.0
223	0x00000000	0.0
224	0x00000000	0.0
225	0x00000000	0.0
226	0x00000000	0.0
227	0x00000000	0.0
228	0x00000000	0.0
229	0x00000000	0.0
230	0x00000000	0.0
231	0x00000000	0.0
232	0x00000000	0.0
233	0x00000000	0.0
234	0x00000000	0.0
235	0x00000000	0.0
236	0x00000000	0.0
237	0x00000000	0.0
238	0x00000000	0.0
239	0x00000000	0.0
240	0x00000000	0.0
241	0x00000000	0.0
242	0x00000000	0.0
243	0x00000000	0.0
244	0x00000000	0.0
245	0x00000000	0.0
246	0x00000000	0.0
247	0x00000000	0.0
248	0x00000000	0.0
249	0x00000000	0.0
250	0x00000000	0.0
251	0x00000000	0.0
252	0x00000000	0.0
253	0x00000000	0.0
254	0x00000000	0.0
255	0x00000000	0.0

b_linear1.b f4 [1, 256]
0	0x35cd141f	1.5279546e-06
1	0xb6ade5fa	-5.1825746e-06
2	0xb7180fe3	-9.063605e-06
3	0x365f7055	3.3294975e-06
4	0x37001310	7.633833e-06
5	0xb5ba6fc2	-1.3890606e-06
6	0xb65e1cf5	-3.3097433e-06
7	0x3559b4b1	8.110174e-07
8	0xb5ed3651	-1.7673684e-06
9	0xb5568197	-7.990979e-07
10	0x36ca0fc9	6.0219068e-06
11	0xb5e88f4a	-1.732705e-06
12	0x345571d1	1.9878577e-07
13	0xb559754c	-8.100949e-07
14	0xb61c9748	-2.3333869e-06
15	0x36af9266	5.2324494e-06
16	0x36f9f6e4	7.44952e-06
17	0xb62baac2	-2.558038e-06
18	0xb56a44d6	-8.727196e-07
19	0xb60d2134	-2.1029964e-06
20	0x371c2d54	9.308878e-06
21	0xb75d206b	-1.3180174e-05
22	0x35e3dd03	1.6977141e-06
23	0x35ff3ce2	1.90167e-06
24	0xb6f8a300	-7.4099516e-06
25	0xb6fcbda1	-7.532261e-06
26	0xb54c54cf	-7.6119335e-07
27	0x3707de1e	8.098343e-06
28	0xb710d643	-8.6329555e-06
29	0xb70c1421	-8.349337e-06
30	0xb53ae049	-6.961678e-07
31	0xb6facaef	-7.474205e-06
32	0x36ddcc50	6.6100984e-06
33	0xb7108205	-8.613341e-06
34	0xb6852e1b	-3.9690763e-06
35	0x35a99e01	1.2637466e-06
36	0xb70d344a	-8.416429e-06
37	0xb6c1a7cc	-5.7713823e-06
38	0xb6895d9d	-4.093816e-06
39	0xb616dc76	-2.2480067e-06
40	0xb6d76737	-6.419515e-06
41	0xb618c0da	-2.276202e-06
42	0xb604ca6e	-1.9787362e-06
43	0x3703184a	7.813864e-06
44	0x34b433e9	3.3565382e-07
45	0x366baca6	3.5118223e-06
46	0x36220af2	2.4146252e-06
47	0xb705c15e	-7.97244e-06
48	0xb64e2647	-3.0718672e-06
49	0xb630e10f	-2.6357045e-06
50	0x372b3156	1.0203881e-05
51	0xb747bbce	-1.1905051e-05
52	0xb6ef9bdf	-7.140901e-06
53	0xb6d8b0c4	-6.45788e-06
54	0xb6002737	-1.9096312e-06
55	0x3682a21b	3.8931735e-06
56	0xb738658e	-1.09909e-05
57	0x36129704	2.1843598e-06
58	0xb62efff6	-2.607701e-06
59	0xb409b267	-1.2824022e-07
60	0x35277d53	6.239472e-07
61	0x3727c739	1.0000361e-05
62	0xb68573c8	-3.9771876e-06
63	0x36daf985	6.525954e-06
64	0x3697f2db	4.528423e-06
65	0xb5fd858a	-1.8888834e-06
66	0x373edbf4	1.1376094e-05
67	0xb626c710	-2.4851797e-06
68	0xb6967a04	-4.484553e-06
69	0x35335414	6.6805046e-07
70	0xb689761c	-4.096668e-06
71	0x35f546fe	1.8274584e-06
72	0xb6764280	-3.6695565e-06
73	0x366bc726	3.5133648e-06
74	0xb68388e4	-3.9200404e-06
75	0xb612f4a3	-2.1898093e-06
76	0xb69904da	-4.56032e-06
77	0xb701f3dd	-7.745778e-06
78	0x36ff3964	7.6062734e-06
79	0xb71fd009	-9.5255755e-06
80	0xb5b089af	-1.3153093e-06
81	0x378d8dd2	1.687455e-05
82	0x367d9038	3.7783884e-06
83	0x372afc9b	1.0191604e-05
84	0xb610e5df	-2.1591475e-06
85	0xb702a21f	-7.786351e-06
86	0xb5136822	-5.49133e-07
87	0x3611af48	2.170871e-06
88	0xb66df9c3	-3.5461132e-06
89	0x3687533c	4.0330033e-06
90	0x35aeba35	1.3018204e-06
91	0xb4f9fa3b	-4.656193e-07
92	0x35e95c52	1.7386722e-06
93	0x3504cd23	4.9472345e-07
94	0xb6ebca0e	-7.027068e-06
95	0x35ccfddf	1.5273071e-06
96	0x366fc98b	3.5731089e-06
97	0x36b56092	5.4054626e-06
98	0x36fcba1c	7.531851e-06
99	0x357d935b	9.4464275e-07
100	0x35794897	9.286536e-07
101	0x3689a74a	4.102393e-06
102	0x3701baca	7.732489e-06
103	0xb6b30459	-5.335122e-06
104	0x36c1b91c	5.773398e-06
105	0xb6e31594	-6.767639e-06
106	0x36d3c7a3	6.311531e-06
107	0xb62d2735	-2.580183e-06
108	0x368ec670	4.255031e-06
109	0x37081451	8.110962e-06
110	0xb57f68cf	-9.514742e-07
111	0xb6fcd239	-7.5346584e-06
112	0x35fabf3d	1.8682109e-06
113	0xb60b70c5	-2.0778255e-06
114	0x35241345	6.11228e-07
115	0xb5dcf7ce	-1.6463398e-06
116	0x35d7164a	1.6025235e-06
117	0x36e36628	6.7770197e-06
118	0xb69e9a79	-4.72675e-06
119	0x36fa4352	7.4584177e-06
120	0x3637f4f1	2.74117e-06
121	0xb722784e	-9.683963e-06
122	0xb6cd468c	-6.117689e-06
123	0xb686b39b	-4.01442e-06
124	0xb74b33d0	-1.2111806e-05
125	0xb76d0991	-1.4128528e-05
126	0xb4e5710b	-4.2736824e-07
127	0x348fc8d9	2.6781962e-07
128	0x37476e7a	1.1887047e-05
129	0x362a019d	2.5332913e-06
130	0xb61299d4	-2.1845235e-06
131	0x36a52f90	4.92292e-06
132	0x375cb283	1.3154585e-05
133	0xb742cd64	-1.1611122e-05
134	0xb68f42b8	-4.269499e-06
135	0xb507e1f4	-5.0620224e-07
136	0xb6dad508	-6.5217064e-06
137	0xb5c1219d	-1.4389403e-06
138	0x36f9ef11	7.4486093e-06
139	0x36d84ebc	6.4464675e-06
140	0x36a32c65	4.8629468e-06
141	0xb6f95ed0	-7.431816e-06
142	0xb61f0d2c	-2.3700513e-06
143	0xb6510dda	-3.115149e-06
144	0xb6776846	-3.6866563e-06
145	0x35a3c55a	1.2201883e-06
146	0x3680e9de	3.841923e-06
147	0x36ac67d8	5.1380885e-06
148	0xb6cc88a7	-6.095582e-06
149	0xb70977e9	-8.193755e-06
150	0x36de640a	6.6277616e-06
151	0x37ade205	2.0728456e-05
152	0xb623b467	-2.43939e-06
153	0xb5c49b20	-1.4648285e-06
154	0x36b84e83	5.4927673e-06
155	0xb70d058a	-8.405545e-06
156	0xb64e0835	-3.070117e-06
157	0x374c7153	1.2185733e-05
158	0xb7792d93	-1.4852168e-05
159	0x3662b502	3.3781985e-06
160	0xb5a1cbff	-1.2054805e-06
161	0x364aaee9	3.0202157e-06
162	0x361d4bff	2.3439059e-06
163	0xb61e7407	-2.3611371e-06
164	0x370170c9	7.715259e-06
165	0xb67ab687	-3.7359148e-06
166	0x36b738ba	5.460429e-06
167	0x3619c4a8	2.2913246e-06
168	0x3734b4c0	1.077092e-05
169	0xb7144710	-8.838033e-06
170	0x36c69f4f	5.919406e-06
171	0xb6d1090c	-6.2297386e-06
172	0xb68453b1	-3.9436495e-06
173	0xb56fffa1	-8.9406427e-07
174	0xb6ae7e72	-5.2003243e-06
175	0x34bb2b54	3.486299e-07
176	0x36dc3f95	6.563913e-06
177	0x34baf3ef	3.4822685e-07
178	0x3619e07f	2.292945e-06
179	0xb5306343	-6.5709554e-07
180	0x36596529	3.2394403e-06
181	0x36e7bed3	6.9065513e-06
182	0x36acf12f	5.154077e-06
183	0x36fd808c	7.5549524e-06
184	0x36ff19dd	7.602603e-06
185	0xb7236d1e	-9.740963e-06
186	0xb69d11c3	-4.6810324e-06
187	0x3694c76f	4.433961e-06
188	0x36eed5f1	7.117859e-06
189	0xb6674764	-3.4463237e-06
190	0x347f5ff4	2.3783633e-07
191	0xb6a480db	-4.9025816e-06
192	0xb48abc66	-2.584158e-07
193	0xb6269001	-2.481975e-06
194	0x36b29094	5.3216445e-06
195	0x359c8357	1.1661131e-06
196	0xb5963cfa	-1.1193617e-06
197	0xb69094a6	-4.3088394e-06
198	0x364b9190	3.0334086e-06
199	0x36ae4544	5.1936677e-06
200	0x371721f2	9.008205e-06
201	0x36cab83b	6.0415164e-06
202	0xb68978fe	-4.0970035e-06
203	0xb72cbae4	-1.0295513e-05
204	0xb6318148	-2.6450307e-06
205	0x36701454	3.577462e-06
206	0xb711d0a7	-8.691254e-06
207	0xb5896d4e	-1.0239107e-06
208	0x371d1cec	9.364663e-06
209	0xb64d4795	-3.0589047e-06
210	0xb65c670a	-3.2842531e-06
211	0x36ec9ee8	7.051847e-06
212	0xb2b6e6ae	-2.129249e-08
213	0xb6163bb4	-2.2386494e-06
214	0xb69d776a	-4.6928662e-06
215	0xb6c8e3ac	-5.986969e-06
216	0xb57eb2fe	-9.488284e-07
217	0xb6848e6f	-3.950488e-06
218	0x36b1207d	5.278793e-06
219	0x34d6d39f	4.001458e-07
220	0x36c4a9e0	5.8610312e-06
221	0x34394ed8	1.7258151e-07
222	0x3693171a	4.3836308e-06
223	0xb574ff78	-9.126884e-07
224	0xb657c756	-3.2153525e-06
225	0x36f66f37	7.3443184e-06
226	0x36881fe9	4.0568307e-06
227	0xb6c509b1	-5.8721857e-06
228	0xb51b65bb	-5.7890037e-07
229	0xb6d01a80	-6.201968e-06
230	0x365dca3a	3.3049278e-06
231	0xb6751dac	-3.6525116e-06
232	0xb4cc6044	-3.8068004e-07
233	0x34a3320c	3.039753e-07
234	0xb75718fa	-1.2820814e-05
235	0x3760824a	1.3381776e-05
236	0x364324ec	2.9078756e-06
237	0x35210968	5.999086e-07
238	0x372d82fe	1.03421025e-05
239	0xb66cc0f9	-3.5279065e-06
240	0x362381e4	2.43645e-06
241	0x34f885bd	4.6290907e-07
242	0xb710ba44	-8.626437e-06
243	0xb6e62783	-6.859134e-06
244	0xb5309688	-6.578416e-07
245	0x34f8f035	4.6368373e-07
246	0xb62e86e9	-2.6006549e-06
247	0xb70195cd	-7.723877e-06
248	0xb717cf05	-9.048502e-06
249	0x36712f9d	3.5939513e-06
250	0x372c0366	1.025279e-05
251	0x36c36532	5.8232336e-06
252	0x3694285d	4.4154426e-06
253	0x369ec4c8	4.7316753e-06
254	0x3678d4cc	3.7078744e-06
255	0xb6278ba4	-2.496622e-06

b_linear1.w_prior f4 [4, 256]
0	0x00000000	0.0
1	0x00000000	0.0
2	0x00000000	0.0
3	0x00000000	0.0
4	0x00000000	0.0
5	0x00000000	0.0
6	0x00000000	0.0
7	0x00000000	0.0
8	0x00000000	0.0
9	0x00000000	0.0
10	0x00000000	0.0
11	0x00000000	0.0
12	0x00000000	0.0
13	0x00000000	0.0
14	0x00000000	0.0
15	0x00000000	0.0
16	0x00000000	0.0
17	0x00000000	0.0
18	0x00000000	0.0
19	0x00000000	0.0
20	0x00000000	0.0
21	0x00000000	0.0
22	0x00000000	0.0
23	0x00000000	0.0
24	0x00000000	0.0
25	0x00000000	0.0
26	0x00000000	0.0
27	0x00000000	0.0
28	0x00000000	0.0
29	0x00000000	0.0
30	0x00000000	0.0
31	0x00000000	0.0
32	0x00000000	0.0
33	0x00000000	0.0
34	0x00000000	0.0
35	0x00000000	0.0
36	0x00000000	0.0
37	0x00000000	0.0
38	0x00000000	0.0
39	0x00000000	0.0
40	0x00000000	0.0
41	0x00000000	0.0
42	0x00000000	0.0
43	0x00000000	0.0
44	0x00000000	0.0
45	0x00000000	0.0
46	0x00000000	0.0
47	0x00000000	0.0
48	0x00000000	0.0
49	0x00000000	0.0
50	0x00000000	0.0
51	0x00000000	0.0
52	0x00000000	0.0
53	0x00000000	0.0
54	0x00000000	0.0
55	0x00000000	0.0
56	0x00000000	0.0
57	0x00000000	0.0
58	0x00000000	0.0
59	0x00000000	0.0
60	0x00000000	0.0
61	0x00000000	0.0
62	0x00000000	0.0
63	0x00000000	0.0
64	0x00000000	0.0
65	0x00000000	0.0
66	0x00000000	0.0
67	0x00000000	0.0
68	0x00000000	0.0
69	0x00000000	0.0
70	0x00000000	0.0
71	0x00000000	0.0
72	0x00000000	0.0
73	0x00000000	0.0
74	0x00000000	0.0
75	0x00000000	0.0
76	0x00000000	0.0
77	0x00000000	0.0
78	0x00000000	0.0
79	0x00000000	0.0
80	0x00000000	0.0
81	0x00000000	0.0
82	0x00000000	0.0
83	0x00000000	0.0
84	0x00000000	0.0
85	0x00000000	0.0
86	0x00000000	0.0
87	0x00000000	0.0
88	0x00000000	0.0
89	0x00000000	0.0
90	0x00000000	0.0
91	0x00000000	0.0
92	0x00000000	0.0
93	0x00000000	0.0
94	0x00000000	0.0
95	0x00000000	0.0
96	0x00000000	0.0
97	0x00000000	0.0
98	0x00000000	0.0
99	0x00000000	0.0
100	0x00000000	0.0
101	0x00000000	0.0
102	0x00000000	0.0
103	0x00000000	0.0
104	0x00000000	0.0
105	0x00000000	0.0
106	0x00000000	0.0
107	0x00000000	0.0
108	0x00000000	0.0
109	0x00000000	0.0
110	0x00000000	0.0
111	0x00000000	0.0
112	0x00000000	0.0
113	0x00000000	0.0
114	0x00000000	0.0
115	0x00000000	0.0
116	0x00000000	0.0
117	0x00000000	0.0
118	0x00000000	0.0
119	0x00000000	0.0
120	0x00000000	0.0
121	0x00000000	0.0
122	0x00000000	0.0
123	0x00000000	0.0
124	0x00000000	0.0
125	0x00000000	0.0
126	0x00000000	0.0
127	0x00000000	0.0
128	0x00000000	0.0
129	0x00000000	0.0
130	0x00000000	0.0
131	0x00000000	0.0
132	0x00000000	0.0
133	0x00000000	0.0
134	0x00000000	0.0
135	0x00000000	0.0
136	0x00000000	0.0
137	0x00000000	0.0
138	0x00000000	0.0
139	0x00000000	0.0
140	0x00000000	0.0
141	0x00000000	0.0
142	0x00000000	0.0
143	0x00000000	0.0
144	0x00000000	0.0
145	0x00000000	0.0
146	0x00000000	0.0
147	0x00000000	0.0
148	0x00000000	0.0
149	0x00000000	0.0
150	0x00000000	0.0
151	0x00000000	0.0
152	0x00000000	0.0
153	0x00000000	0.0
154	0x00000000	0.0
155	0x00000000	0.0
156	0x00000000	0.0
157	0x00000000	0.0
158	0x00000000	0.0
159	0x00000000	0.0
160	0x00000000	0.0
161	0x00000000	0.0
162	0x00000000	0.0
163	0x00000000	0.0
164	0x00000000	0.0
165	0x00000000	0.0
166	0x00000000	0.0
167	0x00000000	0.0
168	0x00000000	0.0
169	0x00000000	0.0
170	0x00000000	0.0
171	0x00000000	0.0
172	0x00000000	0.0
173	0x00000000	0.0
174	0x00000000	0.0
175	0x00000000	0.0
176	0x00000000	0.0
177	0x00000000	0.0
178	0x00000000	0.0
179	0x00000000	0.0
180	0x00000000	0.0
181	0x00000000	0.0
182	0x00000000	0.0
183	0x00000000	0.0
184	0x00000000	0.0
185	0x00000000	0.0
186	0x00000000	0.0
187	0x00000000	0.0
188	0x00000000	0.0
189	0x00000000	0.0
190	0x00000000	0.0
191	0x00000000	0.0
192	0x00000000	0.0
193	0x00000000	0.0
194	0x00000000	0.0
195	0x00000000	0.0
196	0x00000000	0.0
197	0x00000000	0.0
198	0x00000000	0.0
199	0x00000000	0.0
200	0x00000000	0.0
201	0x00000000	0.0
202	0x00000000	0.0
203	0x00000000	0.0
204	0x00000000	0.0
205	0x00000000	0.0
206	0x00000000	0.0
207	0x00000000	0.0
208	0x00000000	0.0
209	0x00000000	0.0
210	0x00000000	0.0
211	0x00000000	0.0
212	0x00000000	0.0
213	0x00000000	0.0
214	0x00000000	0.0
215	0x00000000	0.0
216	0x00000000	0.0
217	0x00000000	0.0
218	0x00000000	0.0
219	0x00000000	0.0
220	0x00000000	0.0
221	0x00000000	0.0
222	0x00000000	0.0
223	0x00000000	0.0
224	0x00000000	0.0
225	0x00000000	0.0
226	0x00000000	0.0
227	0x00000000	0.0
228	0x00000000	0.0
229	0x00000000	0.0
230	0x00000000	0.0
231	0x00000000	0.0
232	0x00000000	0.0
233	0x00000000	0.0
234	0x00000000	0.0
235	0x00000000	0.0
236	0x00000000	0.0
237	0x00000000	0.0
238	0x00000000	0.0
239	0x00000000	0.0
240	0x00000000	0.0
241	0x00000000	0.0
242	0x00000000	0.0
243	0x00000000	0.0
244	0x00000000	0.0
245	0x00000000	0.0
246	0x00000000	0.0
247	0x00000000	0.0
248	0x00000000	0.0
249	0x00000000	0.0
250	0x00000000	0.0
251	0x00000000	0.0
252	0x00000000	0.0
253	0x00000000	0.0
254	0x00000000	0.0
255	0x00000000	0.0

b_linear1.b_prior f4 [1, 256]
0	0x3139dda2	2.7047027e-09
1	0xb2179191	-8.822455e-09
2	0xb289a8d7	-1.6025679e-08
3	0x31f89799	7.2349846e-09
4	0x31fe6467	7.4037874e-09
5	0xb1d05cfc	-6.064168e-09
6	0x31a854bf	4.899078e-09
7	0x2fcb0773	3.6930778e-10
8	0xb025119c	-6.0051675e-10
9	0x30e59918	1.6705455e-09
10	0x318d3eeb	4.110793e-09
11	0xb1f99c02	-7.26459e-09
12	0xb1fb106d	-7.306929e-09
13	0x317c1f46	3.6688603e-09
14	0xb02c11b1	-6.2598376e-10
15	0x304e4ded	7.50531e-10
16	0x3217af44	8.829208e-09
17	0xb15e353b	-3.233551e-09
18	0xb10736b4	-1.967618e-09
19	0x30d39319	1.5394078e-09
20	0x32883076	1.5854521e-08
21	0xb2964a62	-1.7496124e-08
22	0x31e806ae	6.752848e-09
23	0x31572131	3.1305485e-09
24	0xb20fe5cf	-8.375948e-09
25	0xb2604a99	-1.3055478e-08
26	0x311b6ffb	2.2619122e-09
27	0x3229db6c	9.8869855e-09
28	0xb29654e9	-1.7500911e-08
29	0xb23340d0	-1.0433908e-08
30	0x31f9ceb5	7.2703537e-09
31	0xb24992bd	-1.1733104e-08
32	0x320f6a38	8.347847e-09
33	0xb2640a15	-1.3273639e-08
34	0xb2125aa0	-8.518924e-09
35	0xafcc2a8b	-3.7137612e-10
36	0xb2012c99	-7.518929e-09
37	0xb1ab535a	-4.986231e-09
38	0xb2051865	-7.747166e-09
39	0xb18530de	-3.876365e-09
40	0xb1c77339	-5.8047616e-09
41	0xb111ea6d	-2.1233533e-09
42	0xb1cbd0b4	-5.9318044e-09
43	0x323eda9b	1.1109161e-08
44	0xb0aa7dd1	-1.2404887e-09
45	0x32095cff	7.995594e-09
46	0xb1cb3973	-5.914609e-09
47	0xb266d5cd	-1.3436375e-08
48	0xb16f2729	-3.4801337e-09
49	0x3133dec8	2.6174565e-09
50	0x31c94f67	5.858897e-09
51	0xb24ea556	-1.2028371e-08
52	0xb1bad82e	-5.4378893e-09
53	0xb2078493	-7.888178e-09
54	0xb0d827d2	-1.5727386e-09
55	0xb0a77acd	-1.2185751e-09
56	0xb2ae0620	-2.0259051e-08
57	0x314a505a	2.9440543e-09
58	0xb24ab546	-1.1799164e-08
59	0xb1d72372	-6.261353e-09
60	0x3199ee5d	4.479985e-09
61	0x323df095	1.105595e-08
62	0xb212fe65	-8.556161e-09
63	0x325e6597	1.29452e-08
64	0x31ea93d5	6.827103e-09
65	0x3113bee2	2.149982e-09
66	0x32b04016	2.051824e-08
67	0xb257dcf3	-1.2564885e-08
68	0xb2085539	-7.935619e-09
69	0xb1088bbb	-1.9870032e-09
70	0x312e29b7	2.5344045e-09
71	0x31dff68e	6.518184e-09
72	0xafe41acf	-4.1492007e-10
73	0x31f8f9a1	7.2461295e-09
74	0xb203b7e4	-7.6670155e-09
75	0x31070102	1.9645658e-09
76	0xb222a57f	-9.4672705e-09
77	0xb2112cda	-8.450309e-09
78	0x31f64ded	7.1684014e-09
79	0xb29f21c4	-1.8525391e-08
80	0xb088a6c3	-9.942699e-10
81	0x32ba197b	2.1664837e-08
82	0x3118bb80	2.2225493e-09
83	0x32b0c245	2.057744e-08
84	0xb17b3392	-3.6554622e-09
85	0xb2807bdf	-1.4957491e-08
86	0x30eace8c	1.7084445e-09
87	0x30b6bf11	1.3296547e-09
88	0x3129cc19	2.4708753e-09
89	0x31811284	3.756499e-09
90	0x3154a954	3.0946312e-09
91	0xb1b221c9	-5.1843227e-09
92	0x31dbb926	6.394788e-09
93	0x315e4731	3.234572e-09
94	0xb21a9eec	-9.000114e-09
95	0xb1a5ee81	-4.829247e-09
96	0xb093688e	-1.0725374e-09
97	0x322a3cec	9.909154e-09
98	0x3155b6e7	3.1099547e-09
99	0xb2047ea8	-7.7122095e-09
100	0x30f07bcd	1.7497485e-09
101	0x2da704b4	1.898779e-11
102	0x32016908	7.53267e-09
103	0xb2414e9d	-1.1251953e-08
104	0x32667a61	1.3415588e-08
105	0xb20d4f99	-8.225379e-09
106	0x2fefd1f8	4.3623039e-10
107	0xb1fce212	-7.3598665e-09
108	0x323a3cd0	1.0840452e-08
109	0x315900c5	3.1578093e-09
110	0xb19d715f	-4.58219e-09
111	0xb1e7c9e9	-6.7459394e-09
112	0x30e0cd07	1.6356417e-09
113	0x302371e9	5.946093e-10
114	0xb179dc23	-3.6359402e-09
115	0xb16acabb	-3.416672e-09
116	0x316b3c24	3.4231187e-09
117	0x31aef7eb	5.0922515e-09
118	0xb25dc500	-1.2908686e-08
119	0x32353dbf	1.0549626e-08
120	0x32400bc9	1.11785505e-08
121	0xb270537b	-1.398882e-08
122	0xb1157b54	-2.1752458e-09
123	0x309403bd	1.076948e-09
124	0xb298370d	-1.7720163e-08
125	0xb2a6a7bb	-1.9401218e-08
126	0xb02a258e	-6.189901e-10
127	0xb18007a7	-3.7261603e-09
128	0x3262b1f3	1.3195392e-08
129	0xb142a950	-2.8326959e-09
130	0xb2239c2c	-9.523358e-09
131	0x31fac036	7.2978095e-09
132	0x3210e421	8.433774e-09
133	0xb2e1f8ce	-2.630659e-08
134	0xb1fcb026	-7.354191e-09
135	0x3183cdc7	3.835996e-09
136	0xb2466a24	-1.15492504e-08
137	0xb1fd7970	-7.377075e-09
138	0x3246c644	1.1570197e-08
139	0x31e54e4d	6.673679e-09
140	0x323c8f85	1.0975673e-08
141	0xb2395403	-1.0787519e-08
142	0xb1ceff5a	-6.024419e-09
143	0xb19df4f6	-4.59715e-09
144	0xb1b0ce98	-5.145761e-09
145	0x3203663f	7.648452e-09
146	0xafbb2f36	-3.4048647e-10
147	0x31d9adea	6.335303e-09
148	0xb16835dc	-3.3791059e-09
149	0xb25d1497	-1.2868575e-08
150	0x32644c4d	1.32886955e-08
151	0x32d8498c	2.5179155e-08
152	0x31349ad0	2.6281448e-09
153	0xb03dc018	-6.903078e-10
154	0x31993b5e	4.4596353e-09
155	0xb20b7a48	-8.118668e-09
156	0xb151208a	-3.0432e-09
157	0x324f7a2d	1.2076765e-08
158	0xb266398c	-1.3400847e-08
159	0x319f4e95	4.636443e-09
160	0xb1bb8d98	-5.4585136e-09
161	0x320dab1c	8.246186e-09
162	0x31716395	3.5126722e-09
163	0x3161fad1	3.2884382e-09
164	0x31b05b84	5.1326783e-09
165	0xb1abab5f	-4.9962376e-09
166	0x3205d8cb	7.790912e-09
167	0x320b56c6	8.110595e-09
168	0x322ab0c4	9.935494e-09
169	0xb28101cf	-1.5018399e-08
170	0x322b9461	9.9872475e-09
171	0xb1b2f22f	-5.208015e-09
172	0xb19b7e71	-4.5254684e-09
173	0xb0df19dc	-1.6232735e-09
174	0xb24bce66	-1.1863085e-08
175	0x31656c22	3.3385352e-09
176	0xb0b2445b	-1.2970632e-09
177	0xaff090b2	-4.3758558e-10
178	0x3199a98f	4.4721626e-09
179	0x3049a773	7.3361334e-10
180	0x30be9ff7	1.3869784e-09
181	0x315e6c8f	3.236696e-09
182	0x30aba6b5	1.2489269e-09
183	0x3257640f	1.2537398e-08
184	0x328ef66f	1.664304e-08
185	0xb2068447	-7.829903e-09
186	0xb25faf04	-1.3020102e-08
187	0x31eb0d3b	6.8409043e-09
188	0x32642fb5	1.3282194e-08
189	0xb1e424fa	-6.639877e-09
190	0xb10664bc	-1.9556827e-09
191	0xb1e121cd	-6.5522046e-09
192	0x2fea9b44	4.2674675e-10
193	0xb1b32f67	-5.2149747e-09
194	0x307b5bbc	9.144363e-10
195	0x31795642	3.62833e-09
196	0x30e8dce3	1.6943001e-09
197	0xb1860ae4	-3.9011514e-09
198	0x32033170	7.636444e-09
199	0x2fcb9fe8	3.7039105e-10
200	0x3291783d	1.69349e-08
201	0x30b4460f	1.3116636e-09
202	0xb171eebd	-3.5205823e-09
203	0xb24643b6	-1.15405125e-08
204	0xb125a555	-2.410464e-09
205	0x30283e9c	6.120702e-10
206	0xb28f2718	-1.6665169e-08
207	0x30d08188	1.5170807e-09
208	0x32927465	1.7049567e-08
209	0xb21067d0	-8.405507e-09
210	0xaf8809e8	-2.4745295e-10
211	0x31e4d50b	6.6598935e-09
212	0x312a8b62	2.4817486e-09
213	0xb14e6605	-3.0034937e-09
214	0xb1c9b9b5	-5.8709824e-09
215	0xb1407150	-2.8004088e-09
216	0xb1244a9f	-2.3907558e-09
217	0xb27c5223	-1.4687006e-08
218	0x3257ebcd	1.2568262e-08
219	0x31fd97d9	7.380532e-09
220	0x31cba324	5.9266245e-09
221	0x3137e6dc	2.6761233e-09
222	0x31b90abe	5.38543e-09
223	0x303ae2c5	6.7988665e-10
224	0xb1e6394f	-6.7003962e-09
225	0x3262bb0b	1.319746e-08
226	0x318d79ae	4.1174735e-09
227	0xb1d4a468	-6.188703e-09
228	0xb18ce821	-4.1009263e-09
229	0xb237f26a	-1.07071205e-08
230	0x312d3fd3	2.5211093e-09
231	0xb0e5b7f5	-1.6714227e-09
232	0x30e98315	1.6990237e-09
233	0x305d80db	8.0582446e-10
234	0xb2aba72a	-1.9983037e-08
235	0x328e2d06	1.655145e-08
236	0x31fde6e5	7.3895188e-09
237	0x2e04987b	3.0148755e-11
238	0x328889ee	1.5895207e-08
239	0xb1643bde	-3.3212397e-09
240	0x31a3a53e	4.7627102e-09
241	0xb00e776e	-5.182902e-10
242	0xb1821158	-3.7854697e-09
243	0xb1cbb332	-5.9284497e-09
244	0xb1ae9948	-5.0814926e-09
245	0xb106d23d	-1.9619073e-09
246	0xb1cc9926	-5.9545924e-09
247	0xb24374c1	-1.1377041e-08
248	0xb200b6eb	-7.492171e-09
249	0x31f74fd0	7.1977198e-09
250	0x327503cf	1.4261743e-08
251	0x32595bb9	1.2651918e-08
252	0x32005c86	7.471618e-09
253	0x320ccecb	8.196092e-09
254	0x31a78a90	4.8760924e-09
255	0x3027da96	6.1064875e-10

b_linear2.w f4 [256, 256]
0	0xb7ab2cd4	-2.0405663e-05
1	0xb7cf99b5	-2.4747898e-05
2	0x3829e36b	4.050454e-05
3	0x38244156	3.9161496e-05
4	0xb852eb9b	-5.0287326e-05
5	0xb891f755	-6.960208e-05
6	0x375fe962	1.33461745e-05
7	0xb85eca9c	-5.311762e-05
8	0x386cdb77	5.6471177e-05
9	0xb830cf63	-4.2154814e-05
10	0xb8ea5db1	-0.00011175441
11	0xb71138fb	-8.65594e-06
12	0xb88c26b1	-6.682927e-05
13	0x379794fa	1.8069975e-05
14	0xb85cc07f	-5.2631363e-05
15	0x38a7b5a0	7.997011e-05
16	0xb7068caa	-8.019773e-06
17	0x38d9cbd2	0.00010385331
18	0x38251499	3.935825e-05
19	0x37deb307	2.6547828e-05
20	0x385dfabd	5.2924024e-05
21	0xb70bee4b	-8.3405275e-06
22	0x384bd8b2	4.8600785e-05
23	0x387a9ef9	5.97527e-05
24	0x38904881	6.87996e-05
25	0x37d90adf	2.5873478e-05
26	0xb8cc238f	-9.734101e-05
27	0x3896e957	7.19602e-05
28	0x362ca614	2.5726667e-06
29	0xb804b858	-3.1642936e-05
30	0x38e39a0d	0.00010852898
31	0xb9686dc2	-0.00022166132
32	0x38563647	5.1072126e-05
33	0x38c21364	9.254253e-05
34	0x39021735	0.00012406411
35	0xb5368701	-6.799674e-07
36	0x37442190	1.1690325e-05
37	0x3639d159	2.7689005e-06
38	0xb81989f0	-3.6606507e-05
39	0xb8385e8d	-4.3957076e-05
40	0xb8815904	-6.16778e-05
41	0x38766007	5.8740403e-05
42	0xb88db7fc	-6.757674e-05
43	0x37cc281f	2.4337378e-05
44	0xb8a7297f	-7.97091e-05
45	0xb7d73796	-2.5655881e-05
46	0x38528647	5.0192957e-05
47	0xb83e1931	-4.532299e-05
48	0xb82207ec	-3.8631188e-05
49	0xb76dd7c9	-1.4176542e-05
50	0xb8384fcf	-4.3943346e-05
51	0x38981e82	7.253607e-05
52	0xb8d46adb	-0.00010128851
53	0x381ea843	3.782684e-05
54	0xb85ab3d9	-5.2142746e-05
55	0xb8525466	-5.0146504e-05
56	0xb838705d	-4.3973665e-05
57	0xb7c6ddae	-2.3706667e-05
58	0xb8926343	-6.9803114e-05
59	0xb88bed75	-6.672266e-05
60	0x37430b3b	1.16255205e-05
61	0xb7918e11	-1.7351502e-05
62	0x3883ab50	6.278476e-05
63	0x3764b344	1.36315975e-05
64	0xb91e3cb0	-0.00015090662
65	0xb90a50f0	-0.00013190857
66	0x37f9548e	2.9722487e-05
67	0xb801ab4b	-3.0915526e-05
68	0x3791ef97	1.7396915e-05
69	0x38f66d6e	0.00011750577
70	0xb85ff73b	-5.3397594e-05
71	0x38273b4f	3.9871138e-05
72	0xb7b32f6c	-2.1360545e-05
73	0x383890ae	4.4003762e-05
74	0xb74cbae2	-1.220286e-05
75	0x3613feda	2.205305e-06
76	0xb7f639af	-2.9352346e-05
77	0xb83ce0b7	-4.5031975e-05
78	0x37d53a3a	2.5418693e-05
79	0xb9254c73	-0.00015764106
80	0xb80ca63b	-3.3533415e-05
81	0xb8d87ac8	-0.000103225524
82	0x3917c8d2	0.00014475294
83	0xb944a299	-0.00018752589
84	0xb89829c8	-7.255707e-05
85	0x372eab70	1.0411124e-05
86	0x3885e4d0	6.384554e-05
87	0xb80f05c7	-3.4099237e-05
88	0x38a4b0b7	7.853045e-05
89	0x39385c3e	0.0001758197
90	0xb85fbbac	-5.3342126e-05
91	0xb905cf46	-0.00012761084
92	0x38042080	3.150152e-05
93	0x37253032	9.845988e-06
94	0x38104775	3.4398825e-05
95	0xb8291675	-4.0313655e-05
96	0x37b8b108	2.2016946e-05
97	0x35890659	1.0209143e-06
98	0x38bf751c	9.129403e-05
99	0x3884eecb	6.338729e-05
100	0x3603f3a2	1.9662334e-06
101	0x369db338	4.6998284e-06
102	0x379a4ee0	1.839496e-05
103	0xb7e9d2db	-2.7873952e-05
104	0xb604a6b3	-1.9766564e-06
105	0x39c4fa33	0.00037570446
106	0x3873c622	5.812024e-05
107	0xb72c63d5	-1.0275243e-05
108	0x38882fd9	6.493898e-05
109	0xb9008421	-0.00012256253
110	0xb8099d2c	-3.2809723e-05
111	0xb6f2bd09	-7.2341686e-06
112	0xb7f9265b	-2.9700974e-05
113	0xb9171419	-0.00014407969
114	0xb886f7ac	-6.4357504e-05
115	0x38ea5651	0.00011174067
116	0xb8307203	-4.206785e-05
117	0xb79df279	-1.8828769e-05
118	0x39066211	0.00012815768
119	0xb7fd1958	-3.0171752e-05
120	0x38b9e7b8	8.8646484e-05
121	0xb7c5c69d	-2.3576717e-05
122	0x3896e0f5	7.194459e-05
123	0x37e55dd0	2.7342612e-05
124	0x38866173	6.407769e-05
125	0x37489eb3	1.1957879e-05
126	0x380625be	3.198324e-05
127	0x38cc7df6	9.75094e-05
128	0x38fbc13a	0.00012004604
129	0xb90ed245	-0.00013620507
130	0xb7860d21	-1.5980158e-05
131	0xb9058ebb	-0.0001273704
132	0xb915c667	-0.00014283658
133	0xb84a84e8	-4.828433e-05
134	0xb912db31	-0.000140053
135	0xb649dae5	-3.0078747e-06
136	0x358b7c38	1.039246e-06
137	0xb6920702	-4.351955e-06
138	0xb8c228b0	-9.2582195e-05
139	0x384ae13a	4.837031e-05
140	0x38020f44	3.1008633e-05
141	0x38197735	3.6589063e-05
142	0x38629297	5.401912e-05
143	0xb8d5519d	-0.00010171833
144	0xb894b0f9	-7.090154e-05
145	0xb7e0f110	-2.6815134e-05
146	0xb8a3ca7a	-7.81016e-05
147	0x38cd4e68	9.789766e-05
148	0xb71a8838	-9.210831e-06
149	0xb623c71d	-2.4404792e-06
150	0xb6446fd5	-2.927137e-06
151	0xb844ea17	-4.6948055e-05
152	0x36ada350	5.174814e-06
153	0x38881b2b	6.490046e-05
154	0xb7b5493f	-2.161099e-05
155	0x394aaabc	0.00019327825
156	0x3859f79c	5.1967436e-05
157	0xb81e7085	-3.7774927e-05
158	0x38500ea3	4.9604696e-05
159	0x38b4e0c3	8.624934e-05
160	0x381ed7a9	3.7870985e-05
161	0xb88405a2	-6.2953e-05
162	0x385dd593	5.2889412e-05
163	0x37564d94	1.2773457e-05
164	0x393d87b1	0.00018074994
165	0x390e804b	0.00013589968
166	0x3817ba11	3.6174493e-05
167	0xb72e9f2d	-1.0408269e-05
168	0x37963009	1.7903762e-05
169	0xb91b28be	-0.0001479713
170	0x37842e4a	1.5757181e-05
171	0xb8118ca3	-3.4701672e-05
172	0xb7ed6252	-2.8298386e-05
173	0xb7c45f5c	-2.3409426e-05
174	0xb8e88fa2	-0.00011089376
175	0xb485faea	-2.4955744e-07
176	0xb7773bba	-1.4736253e-05
177	0xb81c542e	-3.7271697e-05
178	0xb84a6d95	-4.826261e-05
179	0xb83bac42	-4.4744702e-05
180	0x38ba34d5	8.879012e-05
181	0x373bae8e	1.118671e-05
182	0x386dc094	5.6684556e-05
183	0xb8e9b420	-0.00011143857
184	0x38f6b2ae	0.00011763476
185	0xb8c817d3	-9.541181e-05
186	0x38093ecf	3.272184e-05
187	0xb8e67c1d	-0.000109903725
188	0x372f3699	1.0443525e-05
189	0x385d0c6e	5.2702082e-05
190	0xb8259916	-3.9481638e-05
191	0x37b4f8ba	2.1573494e-05
192	0x386ffbbf	5.7216497e-05
193	0x38847611	6.316242e-05
194	0xb8a2894b	-7.750335e-05
195	0x388bf500	6.673671e-05
196	0xb73f8de7	-1.1417526e-05
197	0x38991c46	7.300875e-05
198	0xb9841119	-0.0002518974
199	0xb8289e76	-4.02019e-05
200	0x38c93f43	9.59621e-05
201	0x38292b5e	4.033313e-05
202	0x3789a608	1.6408987e-05
203	0x38713d7b	5.7516136e-05
204	0xb890ccfd	-6.904637e-05
205	0x359ce633	1.1689903e-06
206	0x373aff7f	1.1145951e-05
207	0x38695719	5.5632645e-05
208	0xb883f537	-6.2922416e-05
209	0xb815d599	-3.5723297e-05
210	0xb7ea8bca	-2.7960068e-05
211	0x37ffc837	3.0491601e-05
212	0x37625802	1.3491141e-05
213	0xb8dceb6e	-0.0001053427
214	0x38a6f244	7.960622e-05
215	0x38b43633	8.593164e-05
216	0xb8c97041	-9.605336e-05
217	0xb81c89bc	-3.7321573e-05
218	0xb7edbeb1	-2.83414e-05
219	0x3892188a	6.966393e-05
220	0x3944813e	0.00018740163
221	0x37e430d1	2.720245e-05
222	0xb8cdeae1	-9.818911e-05
223	0xb8134ec1	-3.5120876e-05
224	0x380d4a24	3.368607e-05
225	0x38274ea2	3.9889135e-05
226	0x389ea009	7.563836e-05
227	0xb8d6ffb2	-0.00010251942
228	0x382c299b	4.1046744e-05
229	0x38dac05c	0.0001043088
230	0x38af2ff1	8.35358e-05
231	0x39197d70	0.00014637946
232	0xb894e5a5	-7.0999646e-05
233	0x38829f63	6.228571e-05
234	0x3885edcd	6.386228e-05
235	0x37c66ef2	2.3655102e-05
236	0xb6921020	-4.3530163e-06
237	0x386de9d7	5.6722984e-05
238	0x382ad543	4.0729774e-05
239	0x38272d49	3.9858078e-05
240	0x38ce779e	9.845126e-05
241	0x36ca416b	6.027685e-06
242	0x374d2598	1.2227705e-05
243	0x37c31885	2.325723e-05
244	0x391b8b89	0.00014833933
245	0x382369ff	3.8960945e-05
246	0xb8886d4f	-6.505346e-05
247	0x38aef130	8.341891e-05
248	0x3887d9a6	6.477842e-05
249	0x379e0612	1.8837894e-05
250	0xb52d89da	-6.464812e-07
251	0x37d7cef5	2.572637e-05
252	0xb6ea65b5	-6.9855837e-06
253	0xb6667833	-3.4342636e-06
254	0xb812523a	-3.4885692e-05
255	0xb8a00255	-7.629829e-05

b_linear2.b f4 [1, 256]
0	0xb7395888	-1.1047472e-05
1	0xb784cba5	-1.5830456e-05
2	0xb7f804ce	-2.9566141e-05
3	0x38eb9722	0.00011233824
4	0xb8416e72	-4.6117646e-05
5	0xb9045a12	-0.00012622055
6	0x383c7e0e	4.494009e-05
7	0x3866efb0	5.50595e-05
8	0xb93d01a3	-0.00018025054
9	0x37f330ca	2.8990577e-05
10	0xb7e5e65f	-2.7406202e-05
11	0x38b5ac5b	8.662856e-05
12	0xb6c1a7be	-5.771376e-06
13	0xb80c9f90	-3.3527205e-05
14	0xb7b84581	-2.1966875e-05
15	0x36e3c241	6.7877413e-06
16	0xb80a0593	-3.2906955e-05
17	0xb8842b6b	-6.302338e-05
18	0x37cf79ec	2.4733097e-05
19	0xb7239093	-9.749218e-06
20	0x38d25b07	0.000100305355
21	0xb9110eaf	-0.00013833748
22	0x3706a489	8.025331e-06
23	0x38e46fb2	0.00010892692
24	0xb70032dc	-7.641236e-06
25	0x37a07a98	1.9130573e-05
26	0xb8a679a1	-7.938152e-05
27	0x37fd2fd1	3.0182217e-05
28	0x3888aeb9	6.51753e-05
29	0xb8f62b50	-0.00011738262
30	0x38812896	6.158759e-05
31	0xb92da4a2	-0.00016559896
32	0x37acbd7b	2.0592232e-05
33	0x39109a04	0.00013790285
34	0xb7e538df	-2.732541e-05
35	0xb85995c1	-5.18763e-05
36	0x38b4634d	8.601565e-05
37	0xb81651c9	-3.5838955e-05
38	0xb819c92f	-3.666541e-05
39	0xb8661640	-5.4856995e-05
40	0xb72703e3	-9.954881e-06
41	0xb8cad81b	-9.6723634e-05
42	0x383aba0f	4.4519136e-05
43	0x372e82a1	1.0401623e-05
44	0xb8af28e1	-8.3522646e-05
45	0x37482ed5	1.1931833e-05
46	0xb889cc63	-6.570739e-05
47	0x372eb296	1.04127885e-05
48	0xb7bf9b51	-2.28413e-05
49	0xb81b1ffe	-3.6984675e-05
50	0xb8ab628c	-8.172271e-05
51	0x380d0d39	3.3629334e-05
52	0xb92e8138	-0.00016642071
53	0x3873a1e2	5.808648e-05
54	0x37a1c1ec	1.9282998e-05
55	0x38860275	6.3900756e-05
56	0x382af578	4.075977e-05
57	0x38bf4204	9.119886e-05
58	0xb795855e	-1.7824288e-05
59	0x37c103d1	2.300917e-05
60	0xb806210f	-3.1978878e-05
61	0xb76bb298	-1.4048674e-05
62	0xb8475141	-4.752097e-05
63	0x3812f041	3.5032866e-05
64	0xb8b164a5	-8.458764e-05
65	0xb8c80a69	-9.538682e-05
66	0x38b0a9cc	8.423961e-05
67	0xb8082314	-3.2457596e-05
68	0x386a1648	5.58107e-05
69	0x390ffc0b	0.00013731436
70	0xb84e7a45	-4.92281e-05
71	0x391f04f2	0.00015165264
72	0xb75142c4	-1.2472916e-05
73	0xb829f1f4	-4.0518076e-05
74	0x36f9bf66	7.44306e-06
75	0x382cfc24	4.124282e-05
76	0xb808188d	-3.244779e-05
77	0xb785892c	-1.5918711e-05
78	0xb725ae8f	-9.875409e-06
79	0xb762f42e	-1.3527502e-05
80	0x38253254	3.9385937e-05
81	0xb80959fc	-3.274715e-05
82	0x3902f753	0.00012489902
83	0xb814b70b	-3.545642e-05
84	0xb8864da5	-6.40408e-05
85	0x3780f9dc	1.5375139e-05
86	0xb6d71009	-6.409366e-06
87	0x3898035e	7.248552e-05
88	0xb7a0aba0	-1.9153405e-05
89	0x38820841	6.2004205e-05
90	0x3801f2c5	3.0982093e-05
91	0xb8034a81	-3.130222e-05
92	0xb886f999	-6.436109e-05
93	0x3890c4af	6.90309e-05
94	0x38b62231	8.684805e-05
95	0x3889338d	6.542271e-05
96	0x38648395	5.448198e-05
97	0xb859afb4	-5.1900468e-05
98	0x38fd643f	0.000120826524
99	0xb847b563	-4.7614227e-05
100	0x38a8d7a9	8.051034e-05
101	0xb5a40678	-1.2220835e-06
102	0x38c7e813	9.532287e-05
103	0xb8af5ad4	-8.361568e-05
104	0x3790d785	1.7266497e-05
105	0x39071403	0.00012882058
106	0xb7fac870	-2.9895658e-05
107	0x350df5ee	5.288447e-07
108	0x3787b2bf	1.617649e-05
109	0x37f3a9f7	2.9047003e-05
110	0xb8eae0a1	-0.0001119983
111	0x381d855a	3.755591e-05
112	0xb815764f	-3.563455e-05
113	0xb6a3a8e0	-4.877438e-06
114	0x36fc83ff	7.5255516e-06
115	0xb797b8a3	-1.808658e-05
116	0xb8d8d136	-0.00010338651
117	0xb89c9b5f	-7.4676e-05
118	0x38a25b6d	7.741791e-05
119	0x37cb6c62	2.4249955e-05
120	0x37b00d1f	2.0986945e-05
121	0x38078215	3.2307657e-05
122	0xb76243a7	-1.3486401e-05
123	0x37736c95	1.450921e-05
124	0x388caa50	6.7074434e-05
125	0x3854a38b	5.069705e-05
126	0x36c017de	5.7248244e-06
127	0x390325f5	0.00012507274
128	0x38464eea	4.7280373e-05
129	0xb72bc88b	-1.0239087e-05
130	0xb82af608	-4.0760293e-05
131	0x3898b747	7.282063e-05
132	0xb8e976aa	-0.00011132409
133	0xb6f10809	-7.183295e-06
134	0xb8f905f6	-0.000118743556
135	0xb8434c8f	-4.6562924e-05
136	0xb872d23a	-5.7893085e-05
137	0x38255d46	3.9425933e-05
138	0xb61619f0	-2.236684e-06
139	0xb88e025d	-6.771528e-05
140	0xb809eb35	-3.28824e-05
141	0xb7e703a0	-2.7539034e-05
142	0x383c1691	4.484371e-05
143	0xb891729d	-6.935487e-05
144	0xb70e5d62	-8.485602e-06
145	0x3897a2d9	7.230574e-05
146	0x3849527e	4.799896e-05
147	0x385e9759	5.3069878e-05
148	0xb825dab4	-3.954275e-05
149	0x384e9118	4.9249356e-05
150	0xb7b0f929	-2.109686e-05
151	0x384631a8	4.7253125e-05
152	0xb82224ac	-3.8657963e-05
153	0x37f3d139	2.9065284e-05
154	0x37c67f47	2.3662707e-05
155	0x38969085	7.179476e-05
156	0x3876b874	5.8822756e-05
157	0x36b2b879	5.326289e-06
158	0x38ae20d1	8.303079e-05
159	0x37729419	1.4458806e-05
160	0xb6ae6000	-5.19678e-06
161	0x3860e470	5.361851e-05
162	0xb786052f	-1.5976459e-05
163	0xb8c1429b	-9.2153634e-05
164	0x3901e998	0.00012389419
165	0x3943d118	0.00018674543
166	0x37a5cf7f	1.9766156e-05
167	0x38ab9fb4	8.1836624e-05
168	0xb895087e	-7.1064555e-05
169	0xb8aae8ea	-8.149615e-05
170	0x3790c4a8	1.7257713e-05
171	0x38ca77fa	9.654458e-05
172	0x384d9c0d	4.9021142e-05
173	0xb83b520f	-4.4660697e-05
174	0x3841b4f1	4.61833e-05
175	0xb85e5b21	-5.3013795e-05
176	0x3827ca47	4.0004288e-05
177	0xb843b1a8	-4.665708e-05
178	0xb75bff16	-1.3112809e-05
179	0x38354b3b	4.3223827e-05
180	0xb6e7d23c	-6.908811e-06
181	0x35c9e308	1.5041742e-06
182	0x3880125c	6.106935e-05
183	0x37affb7d	2.0978734e-05
184	0x37757bc3	1.46319535e-05
185	0x364d1120	3.0557349e-06
186	0x38794fee	5.9440667e-05
187	0xb9102ada	-0.00013748874
188	0x37d81aac	2.5761627e-05
189	0x38456e0d	4.7070953e-05
190	0xb66eb3d7	-3.5569444e-06
191	0xb7196e19	-9.145145e-06
192	0x370f3de7	8.537877e-06
193	0xb7159f42	-8.918172e-06
194	0xb63f175a	-2.847481e-06
195	0x3748456b	1.1937092e-05
196	0x38855698	6.3580635e-05
197	0x363df0ce	2.8303361e-06
198	0xb8d3ccef	-0.00010099436
199	0xb847ae7a	-4.760779e-05
200	0x37707267	1.4331751e-05
201	0xb84c6c72	-4.8738388e-05
202	0x372f1b90	1.043723e-05
203	0x390d2a22	0.00013462504
204	0x37acb42a	2.0587893e-05
205	0x386c1bee	5.6292796e-05
206	0x38033861	3.128534e-05
207	0xb888f3ec	-6.530419e-05
208	0xb867cfea	-5.5268327e-05
209	0xb78cc717	-1.6782009e-05
210	0x36899b5d	4.101005e-06
211	0x3824a76c	3.925657e-05
212	0xb7117a45	-8.671142e-06
213	0xb9266358	-0.00015868002
214	0x3883608e	6.2645515e-05
215	0x37b01e56	2.0994961e-05
216	0xb8bef1fd	-9.10498e-05
217	0xb8828379	-6.223372e-05
218	0x382442a0	3.9162696e-05
219	0xb78b0f20	-1.6577134e-05
220	0x37d3c44b	2.5244566e-05
221	0x38348b75	4.3045224e-05
222	0xb7b9d97d	-2.2154994e-05
223	0x3817b595	3.6170317e-05
224	0xb6849564	-3.951298e-06
225	0x37679f44	1.3805755e-05
226	0x3809b78a	3.283428e-05
227	0xb890f59e	-6.912205e-05
228	0xb85c10be	-5.246768e-05
229	0x3808c19b	3.2605236e-05
230	0x38fad970	0.0001196143
231	0x38249707	3.9241302e-05
232	0xb7589a07	-1.2910466e-05
233	0xb7359602	-1.0823367e-05
234	0x382a8a03	4.0659692e-05
235	0x35447725	7.318907e-07
236	0xb82353d9	-3.8940318e-05
237	0x38854d72	6.3563595e-05
238	0xb7b7b600	-2.190005e-05
239	0x37ec83ce	2.8194769e-05
240	0x38c5bda5	9.429016e-05
241	0xb8e3e816	-0.00010867433
242	0xb70ea71d	-8.502769e-06
243	0x3889cf83	6.571321e-05
244	0x3845dcd5	4.7174126e-05
245	0xb8a4b445	-7.853707e-05
246	0x37bb04e8	2.2294422e-05
247	0xb892eb6b	-7.0056725e-05
248	0xb705a008	-7.964678e-06
249	0x3894d35e	7.09656e-05
250	0x37548d08	1.2669021e-05
251	0xb7838e71	-1.5682746e-05
252	0xb7b99a53	-2.2125581e-05
253	0xb725ea0c	-9.88926e-06
254	0x38521178	5.008417e-05
255	0xb67d5cb3	-3.7753896e-06

b_linear2.w_prior f4 [256, 256]
0	0xb32d10cf	-4.029499e-08
1	0xb2f9e572	-2.9091755e-08
2	0x330fc465	3.3473402e-08
3	0x319006ad	4.1917105e-09
4	0xb2ee59da	-2.7747706e-08
5	0xb3cd8fb7	-9.572198e-08
6	0x32c4b239	2.289845e-08
7	0xb4006cd6	-1.1960523e-07
8	0x33a75006	7.7911e-08
9	0xb2b96f3d	-2.158742e-08
10	0xb42fa398	-1.635766e-07
11	0xb3a548df	-7.6966664e-08
12	0xb3738225	-5.6696212e-08
13	0x33058972	3.109148e-08
14	0xb3f0cfb2	-1.12136505e-07
15	0x341c7238	1.4570185e-07
16	0xb2fa03d2	-2.9105568e-08
17	0x330f94c2	3.3430076e-08
18	0x3234f901	1.0533996e-08
19	0x333b5215	4.3613984e-08
20	0x34085ed5	1.2700487e-07
21	0x33b7e5cc	8.5634014e-08
22	0x33ecc485	1.1025353e-07
23	0xb293bacd	-1.7198e-08
24	0x3376d7e0	5.7472676e-08
25	0xb208b334	-7.956988e-09
26	0xb4170cfc	-1.4067695e-07
27	0x33ad5f06	8.073225e-08
28	0xb2e11a25	-2.6205337e-08
29	0x331c8692	3.644397e-08
30	0x3434fa72	1.6854918e-07
31	0xb496bbd1	-2.8076332e-07
32	0x33d36aed	9.844903e-08
33	0x3412791d	1.364137e-07
34	0x340a0bc9	1.2856539e-07
35	0x33940397	6.89244e-08
36	0x338990c2	6.405891e-08
37	0x33005fa1	2.9889296e-08
38	0xb41256d8	-1.3628903e-07
39	0x32536f5d	1.23071375e-08
40	0xb36c3b24	-5.500182e-08
41	0x342e0329	1.6206162e-07
42	0xb39d41af	-7.32283e-08
43	0x335e0445	5.1692286e-08
44	0xb3de4a0f	-1.0351152e-07
45	0x33012017	3.006434e-08
46	0x33654ceb	5.3388174e-08
47	0xb3edfa7e	-1.1081737e-07
48	0xb3ba4733	-8.674251e-08
49	0xb36c539c	-5.5024074e-08
50	0xb3897619	-6.4010415e-08
51	0x33998a2a	7.1497496e-08
52	0xb4234b11	-1.5207867e-07
53	0x33b96a44	8.6340634e-08
54	0xb3a10833	-7.498638e-08
55	0xb3ffd74a	-1.1913524e-07
56	0xb3b0dfff	-8.236383e-08
57	0xb3a16870	-7.516144e-08
58	0x330e0c50	3.307315e-08
59	0xb34ee033	-4.816702e-08
60	0x30c6beaf	1.4460592e-09
61	0x320414ab	7.688111e-09
62	0x33657165	5.342135e-08
63	0x3368f4c5	5.4239326e-08
64	0xb413f50b	-1.3779588e-07
65	0xb41bead5	-1.4520931e-07
66	0xb2329c47	-1.0396497e-08
67	0x33120648	3.3998987e-08
68	0x33a73d5d	7.7877054e-08
69	0x3410c355	1.3482106e-07
70	0x32f8bff2	2.8958286e-08
71	0x33e0da39	1.0470507e-07
72	0xb241eafd	-1.1287509e-08
73	0x33af876f	8.173708e-08
74	0xb2da41c5	-2.5408449e-08
75	0xb33bf96a	-4.376617e-08
76	0xb3ced646	-9.6315986e-08
77	0xb2da211c	-2.5393597e-08
78	0xb37eea90	-5.9352317e-08
79	0xb448600f	-1.8661397e-07
80	0xb2f39497	-2.8356494e-08
81	0xb432f209	-1.6665594e-07
82	0x3434fcc2	1.6855759e-07
83	0xb49e66d6	-2.9504616e-07
84	0xb35c6109	-5.1310995e-08
85	0xb1f285e6	-7.0583495e-09
86	0x3359e540	5.073275e-08
87	0x32946fa5	1.7280238e-08
88	0x3404635d	1.2329606e-07
89	0x34447c36	1.829911e-07
90	0xb38e4c8d	-6.626315e-08
91	0xb437667c	-1.7080487e-07
92	0x33859c05	6.221675e-08
93	0xb3641fe2	-5.3114384e-08
94	0xb1866947	-3.911882e-09
95	0xb4095857	-1.2791257e-07
96	0xb2dd6054	-2.5771591e-08
97	0x3344536d	4.571068e-08
98	0x33b76392	8.539713e-08
99	0x33ea2c1f	1.09045e-07
100	0xb2dc945e	-2.567884e-08
101	0x3338b259	4.3003045e-08
102	0xb3581f25	-5.0319745e-08
103	0xb20d0027	-8.207315e-09
104	0x31f5e6d3	7.15668e-09
105	0x34f53a89	4.5677396e-07
106	0x339f06e6	7.405269e-08
107	0xb3597953	-5.0634593e-08
108	0x3365daa3	5.3517066e-08
109	0xb3ce766b	-9.6141626e-08
110	0xb2f72001	-2.8769138e-08
111	0xb317909c	-3.528895e-08
112	0xb396e629	-7.026785e-08
113	0xb42e2904	-1.6219934e-07
114	0xb32352b6	-3.802662e-08
115	0x3425bc54	1.5435336e-07
116	0xb3030663	-3.0506623e-08
117	0xb346a020	-4.62461e-08
118	0x34432804	1.8175348e-07
119	0x33080c7e	3.167633e-08
120	0x34076617	1.2609995e-07
121	0x32deb096	2.5924503e-08
122	0x337725b3	5.7543456e-08
123	0xb2dc285e	-2.5629728e-08
124	0x32a2575b	1.8899007e-08
125	0x3315294a	3.4729318e-08
126	0x326ac63b	1.3665665e-08
127	0x341bcae2	1.4509308e-07
128	0x33e49e14	1.06458316e-07
129	0xb46d75eb	-2.2115243e-07
130	0x3390c484	6.7412685e-08
131	0xb43a7e67	-1.7368585e-07
132	0xb44780be	-1.8580155e-07
133	0xb3589464	-5.042638e-08
134	0xb47b3a3b	-2.3397381e-07
135	0x32fec2ad	2.965802e-08
136	0x31affdd5	5.1220277e-09
137	0x33763671	5.7325853e-08
138	0xb444b6e0	-1.8320452e-07
139	0x333a2c08	4.3346546e-08
140	0x3390883f	6.7303056e-08
141	0x33492545	4.6832856e-08
142	0x34190de4	1.4254289e-07
143	0xb2dd5cce	-2.5769989e-08
144	0xb3d3576d	-9.841356e-08
145	0x33597901	5.0634302e-08
146	0xb3c0b0aa	-8.972832e-08
147	0x3460f03f	2.0949027e-07
148	0xb38b7d60	-6.4954975e-08
149	0xb34cc508	-4.767665e-08
150	0xb357772d	-5.0166978e-08
151	0x33178036	3.5274034e-08
152	0xb2cb3f63	-2.3661135e-08
153	0x3392fd07	6.84468e-08
154	0xb385a622	-6.2235145e-08
155	0x34899a5b	2.5630547e-07
156	0x33af09ec	8.150877e-08
157	0x31a3bf36	4.7656625e-09
158	0x32e196e5	2.6262066e-08
159	0x341a11b6	1.4348811e-07
160	0x32fb6252	2.9264957e-08
161	0xb3a28f96	-7.569831e-08
162	0x32cf1f5b	2.411223e-08
163	0x331973ac	3.572829e-08
164	0x34a34156	3.0408654e-07
165	0x33e3c25c	1.0605865e-07
166	0xb350c6a4	-4.8609436e-08
167	0x33913589	6.761827e-08
168	0x313d2b1f	2.7527631e-09
169	0xb4325478	-1.6608271e-07
170	0xb25755b8	-1.2534137e-08
171	0xb36d4f38	-5.525291e-08
172	0xb03f4057	-6.957683e-10
173	0xb3acbc6c	-8.043648e-08
174	0xb3cc1d86	-9.5048605e-08
175	0x33301cf3	4.1004522e-08
176	0x30b74b80	1.3336461e-09
177	0xb3a2db9d	-7.58366e-08
178	0xb2403af8	-1.1189279e-08
179	0xb12ab9b9	-2.4843827e-09
180	0x335e552c	5.1765866e-08
181	0x3397bcbc	7.065816e-08
182	0x3204bc47	7.7262206e-09
183	0xb4324202	-1.6601555e-07
184	0x33c2e832	9.076065e-08
185	0xb3effb13	-1.1174975e-07
186	0x33a27597	7.565102e-08
187	0xb40893f9	-1.2719819e-07
188	0xb1fd415d	-7.3707e-09
189	0x340a1c11	1.2862462e-07
190	0xb344e4b7	-4.584282e-08
191	0x3269fe32	1.3620182e-08
192	0x33ac4cbe	8.0233335e-08
193	0xb1e38cc9	-6.622575e-09
194	0xb3836d87	-6.120086e-08
195	0x332dce2d	4.0467217e-08
196	0xb2980abb	-1.7700009e-08
197	0x3306d030	3.138865e-08
198	0xb469e092	-2.1781514e-07
199	0xb2a67c2a	-1.9381407e-08
200	0x345c1c29	2.0499341e-07
201	0x33bce584	8.796181e-08
202	0xb1b06e15	-5.134789e-09
203	0x333ebf21	4.4411653e-08
204	0xb3eb72a4	-1.0963893e-07
205	0x3181772b	3.767942e-09
206	0x33b9fa12	8.660221e-08
207	0x33019980	3.017476e-08
208	0xb40c9cc7	-1.3095551e-07
209	0xb3564754	-4.989063e-08
210	0x32e1b4fa	2.6275746e-08
211	0x33913385	6.76146e-08
212	0x33190d4d	3.5635185e-08
213	0xb3fb19df	-1.1692804e-07
214	0x3338eed8	4.3058066e-08
215	0x332306bd	3.7957523e-08
216	0xb404e541	-1.237686e-07
217	0xb248b5e1	-1.1682887e-08
218	0x303bf041	6.8371625e-10
219	0x33b2fb82	8.33452e-08
220	0x34611fa5	2.096627e-07
221	0x33421fab	4.5197947e-08
222	0xb372674e	-5.643897e-08
223	0xb3f0e272	-1.1217061e-07
224	0x32495f9e	1.1721481e-08
225	0x33ed628b	1.10540974e-07
226	0x333759fc	4.2689848e-08
227	0xb40c4a82	-1.3065622e-07
228	0x335134a0	4.8709467e-08
229	0x33b4cd46	8.419242e-08
230	0x33e67bab	1.0732705e-07
231	0x348728c3	2.5175368e-07
232	0xb3c624ee	-9.226811e-08
233	0xb2acdaf4	-2.0123004e-08
234	0x34072223	1.2585274e-07
235	0x33913b47	6.762871e-08
236	0x30035103	4.7772647e-10
237	0x33cb6a3d	9.472249e-08
238	0x335b9711	5.1127305e-08
239	0x33af1218	8.152364e-08
240	0x33c6f11d	9.263952e-08
241	0x325b36f6	1.2759974e-08
242	0xb1f47f22	-7.115788e-09
243	0x33b8abe3	8.599434e-08
244	0x34779b43	2.3060151e-07
245	0x31abe3a3	5.0026343e-09
246	0xb391e7cc	-6.794252e-08
247	0x344067db	1.7919176e-07
248	0x3418cc1d	1.4230359e-07
249	0x333e8004	4.4354252e-08
250	0x329dfd69	1.8392443e-08
251	0xb299c62e	-1.7901666e-08
252	0xb3b79260	-8.548227e-08
253	0xb39c7783	-7.286055e-08
254	0xb31397d5	-3.4364195e-08
255	0xb41e37a2	-1.4735136e-07
