Parameter/wallplaneTEST/313.pth (torch, 545217 bytes, 24 tensors)

b_linear1.w f4 [4, 256]
00000000: 0000 0000 0000 0000 0000 0000 0000 0000
00000010: 0000 0000 0000 0000 0000 0000 0000 0000
00000020: 0000 0000 0000 0000 0000 0000 0000 0000
00000030: 0000 0000 0000 0000 0000 0000 0000 0000
00000040: 0000 0000 0000 0000 0000 0000 0000 0000
00000050: 0000 0000 0000 0000 0000 0000 0000 0000
00000060: 0000 0000 0000 0000 0000 0000 0000 0000
00000070: 0000 0000 0000 0000 0000 0000 0000 0000
00000080: 0000 0000 0000 0000 0000 0000 0000 0000
00000090: 0000 0000 0000 0000 0000 0000 0000 0000
000000a0: 0000 0000 0000 0000 0000 0000 0000 0000
000000b0: 0000 0000 0000 0000 0000 0000 0000 0000
000000c0: 0000 0000 0000 0000 0000 0000 0000 0000
000000d0: 0000 0000 0000 0000 0000 0000 0000 0000
000000e0: 0000 0000 0000 0000 0000 0000 0000 0000
000000f0: 0000 0000 0000 0000 0000 0000 0000 0000
00000100: 0000 0000 0000 0000 0000 0000 0000 0000
00000110: 0000 0000 0000 0000 0000 0000 0000 0000
00000120: 0000 0000 0000 0000 0000 0000 0000 0000
00000130: 0000 0000 0000 0000 0000 0000 0000 0000
00000140: 0000 0000 0000 0000 0000 0000 0000 0000
00000150: 0000 0000 0000 0000 0000 0000 0000 0000
00000160: 0000 0000 0000 0000 0000 0000 0000 0000
00000170: 0000 0000 0000 0000 0000 0000 0000 0000
00000180: 0000 0000 0000 0000 0000 0000 0000 0000
00000190: 0000 0000 0000 0000 0000 0000 0000 0000
000001a0: 0000 0000 0000 0000 0000 0000 0000 0000
000001b0: 0000 0000 0000 0000 0000 0000 0000 0000
000001c0: 0000 0000 0000 0000 0000 0000 0000 0000
000001d0: 0000 0000 0000 0000 0000 0000 0000 0000
000001e0: 0000 0000 0000 0000 0000 0000 0000 0000
000001f0: 0000 0000 0000 0000 0000 0000 0000 0000
00000200: 0000 0000 0000 0000 0000 0000 0000 0000
00000210: 0000 0000 0000 0000 0000 0000 0000 0000
00000220: 0000 0000 0000 0000 0000 0000 0000 0000
00000230: 0000 0000 0000 0000 0000 0000 0000 0000
00000240: 0000 0000 0000 0000 0000 0000 0000 0000
00000250: 0000 0000 0000 0000 0000 0000 0000 0000
00000260: 0000 0000 0000 0000 0000 0000 0000 0000
00000270: 0000 0000 0000 0000 0000 0000 0000 0000
00000280: 0000 0000 0000 0000 0000 0000 0000 0000
00000290: 0000 0000 0000 0000 0000 0000 0000 0000
000002a0: 0000 0000 0000 0000 0000 0000 0000 0000
000002b0: 0000 0000 0000 0000 0000 0000 0000 0000
000002c0: 0000 0000 0000 0000 0000 0000 0000 0000
000002d0: 0000 0000 0000 0000 0000 0000 0000 0000
000002e0: 0000 0000 0000 0000 0000 0000 0000 0000
000002f0: 0000 0000 0000 0000 0000 0000 0000 0000
00000300: 0000 0000 0000 0000 0000 0000 0000 0000
00000310: 0000 0000 0000 0000 0000 0000 0000 0000
00000320: 0000 0000 0000 0000 0000 0000 0000 0000
00000330: 0000 0000 0000 0000 0000 0000 0000 0000
00000340: 0000 0000 0000 0000 0000 0000 0000 0000
00000350: 0000 0000 0000 0000 0000 0000 0000 0000
00000360: 0000 0000 0000 0000 0000 0000 0000 0000
00000370: 0000 0000 0000 0000 0000 0000 0000 0000
00000380: 0000 0000 0000 0000 0000 0000 0000 0000
00000390: 0000 0000 0000 0000 0000 0000 0000 0000
000003a0: 0000 0000 0000 0000 0000 0000 0000 0000
000003b0: 0000 0000 0000 0000 0000 0000 0000 0000
000003c0: 0000 0000 0000 0000 0000 0000 0000 0000
000003d0: 0000 0000 0000 0000 0000 0000 0000 0000
000003e0: 0000 0000 0000 0000 0000 0000 0000 0000
000003f0: 0000 0000 0000 0000 0000 0000 0000 0000
0.0 0.0 0.0 0.0 0.0 0.0 0.0 0.0
0.0 0.0 0.0 0.0 0.0 0.0 0.0 0.0
0.0 0.0 0.0 0.0 0.0 0.0 0.0 0.0
0.0 0.0 0.0 0.0 0.0 0.0 0.0 0.0
0.0 0.0 0.0 0.0 0.0 0.0 0.0 0.0
0.0 0.0 0.0 0.0 0.0 0.0 0.0 0.0
0.0 0.0 0.0 0.0 0.0 0.0 0.0 0.0
0.0 0.0 0.0 0.0 0.0 0.0 0.0 0.0
0.0 0.0 0.0 0.0 0.0 0.0 0.0 0.0
0.0 0.0 0.0 0.0 0.0 0.0 0.0 0.0
0.0 0.0 0.0 0.0 0.0 0.0 0.0 0.0
0.0 0.0 0.0 0.0 0.0 0.0 0.0 0.0
0.0 0.0 0.0 0.0 0.0 0.0 0.0 0.0
0.0 0.0 0.0 0.0 0.0 0.0 0.0 0.0
0.0 0.0 0.0 0.0 0.0 0.0 0.0 0.0
0.0 0.0 0.0 0.0 0.0 0.0 0.0 0.0
0.0 0.0 0.0 0.0 0.0 0.0 0.0 0.0
0.0 0.0 0.0 0.0 0.0 0.0 0.0 0.0
0.0 0.0 0.0 0.0 0.0 0.0 0.0 0.0
0.0 0.0 0.0 0.0 0.0 0.0 0.0 0.0
0.0 0.0 0.0 0.0 0.0 0.0 0.0 0.0
0.0 0.0 0.0 0.0 0.0 0.0 0.0 0.0
0.0 0.0 0.0 0.0 0.0 0.0 0.0 0.0
0.0 0.0 0.0 0.0 0.0 0.0 0.0 0.0
0.0 0.0 0.0 0.0 0.0 0.0 0.0 0.0
0.0 0.0 0.0 0.0 0.0 0.0 0.0 0.0
0.0 0.0 0.0 0.0 0.0 0.0 0.0 0.0
0.0 0.0 0.0 0.0 0.0 0.0 0.0 0.0
0.0 0.0 0.0 0.0 0.0 0.0 0.0 0.0
0.0 0.0 0.0 0.0 0.0 0.0 0.0 0.0
0.0 0.0 0.0 0.0 0.0 0.0 0.0 0.0
0.0 0.0 0.0 0.0 0.0 0.0 0.0 0.0

b_linear1.b f4 [1, 256]
00000000: 5039 a333 0d5d 49b6 c516 c7b6 e416 d536
00000010: 7114 f136 4b92 43b6 e120 0ab6 6330 4db3
00000020: c7ea afb5 029d 2ab5 d82e f336 6d66 0bb6
00000030: ea99 8f35 01ce 20b5 7e2e c6b6 d87f c236
00000040: a82f fe36 c686 adb5 8f39 64b6 dc7a 8ab6
00000050: 3a40 1f37 409e 5db7 076d f135 c3b8 1eb5
00000060: 2bab a9b6 b052 e6b6 ea3d dfb5 39f1 fb36
00000070: 42f8 16b7 2e73 28b7 f42b b2b5 548c 02b7
00000080: b988 6436 e44a e5b6 2f54 8cb6 f5dc 3e36
00000090: 89cf 09b7 0aa3 d0b6 983d 3fb6 3c6e 2bb6
000000a0: 357d bdb6 ee95 27b6 c57e cab6 46e6 2137
000000b0: 358d 32b6 35be 9635 9f6d 4a36 6f41 00b7
000000c0: 410f 8bb6 e375 c5b6 9ec5 0c37 1203 38b7
000000d0: 5114 dfb6 2c53 d7b6 fd6f cbb5 6153 f036
000000e0: 2379 3fb7 b9b5 cf36 d09e 46b6 3be0 e135
000000f0: b52c 7d35 0a2c 1437 febe 15b6 a567 c136
00000100: a9d3 9336 ef34 f3b3 2992 3a37 a7e4 56b6
00000110: 1901 b4b6 6377 1c31 f42c 19b6 82d6 e5b4
00000120: 4242 8fb5 f057 9d36 f98d 77b6 7a75 34b6
00000130: 0a2b 66b6 269c bcb6 9a23 1937 677a 3eb7
00000140: 715a 4db6 998e 9037 85c5 ba36 6fd1 3737
00000150: 67e3 8cb6 83dd f5b6 61a3 ba35 a7f8 7834
00000160: 4bf8 cfb6 15d7 5236 23ff 9536 c608 b5b5
00000170: dd55 3235 7c50 0636 90ac cab6 67cc 0a36
00000180: 874e a436 3355 ac36 f5e0 2437 56c0 7536
00000190: c490 1a36 7bf1 5c36 4289 d636 52aa feb6
000001a0: 7728 a636 a2d6 11b7 571a 9f36 026f 8ab6
000001b0: bfaf ca36 b49c 2637 8473 c8b4 1c5c 1fb7
000001c0: 42ad 7836 90d1 c8b6 5a5b cb35 6f2e 2cb5
000001d0: 0ab3 c934 3d2d 1537 7db4 44b6 1b11 0537
000001e0: b553 0236 418e f4b6 4ab5 a4b5 af62 34b6
000001f0: c3ef 62b7 612c 84b7 5fde 56b4 0e97 ec34
00000200: 77d7 6037 79c6 8836 459f 30b3 7446 9c36
00000210: ddb8 3937 dd6d 41b7 e19d c5b6 a6dc 80b5
00000220: 0270 ffb6 703d fcb5 248c 1b37 d4c2 c436
00000230: f976 5436 90ff d9b6 d10b 6bb6 4ced 41b6
00000240: 9cb6 10b6 176a 1136 9389 9936 305f df36
00000250: 29fe f0b6 c277 fbb6 2e58 ee36 e236 ac37
00000260: 0ac5 b4b6 4670 b9b5 b612 1d37 495f 1bb7
00000270: da85 8ab6 a9c3 4b37 d1df 72b7 3c85 9a36
00000280: c578 17b6 51b1 8e36 edda c935 e67f 44b5
00000290: 0277 0137 4ed3 57b6 7ce0 9c36 f892 4536
000002a0: f96d 2737 3f7b f5b6 f3f1 c836 399c c0b6
000002b0: f7ce d6b5 f1f9 a934 9a14 95b6 5716 1834
000002c0: 62dd d636 0f55 d135 deb3 6a36 9187 11b6
000002d0: aa10 0c36 fce2 b336 2b77 9236 a7db 1737
000002e0: 6852 c436 b13a 41b7 c976 d3b6 5877 3535
000002f0: 2a67 f636 a75a 5eb6 e3a0 7535 b972 aeb6
00000300: 34a0 6cb5 3a48 67b6 71e2 d436 7009 c633
00000310: fce1 1936 a443 aab6 cef5 9736 e48b b536
00000320: e8a8 1837 24b9 f036 7d6a edb6 5f3d f1b6
00000330: e9e6 3bb6 8f48 e236 1750 50b7 8606 6734
00000340: af5f 1c37 fa48 fab5 c563 81b6 703e 0a37
00000350: 81b8 2435 3e92 23b6 b23e 5db1 dee6 a5b6
00000360: 8e5b 99b5 05ef cb34 8628 8f36 4ba2 e534
00000370: 272c 9f36 c218 9734 b1ad 1437 3d39 3db6
00000380: 76d4 2fb6 01bc 6236 f15d 9f36 0e03 bcb6
00000390: c064 9435 7f6e 9cb6 6b96 2b36 4590 31b5
000003a0: fcac b034 06bf 0a36 359b 78b7 824b 5537
000003b0: 66c1 2336 8a36 a7b4 84f4 2a37 96a4 acb5
000003c0: 871b 9a36 1b44 5ab5 b1b5 2cb7 65d3 04b7
000003d0: 2a06 60b6 6ba1 3fb6 1b06 20b6 f8a7 fcb6
000003e0: 8412 1bb7 b7f0 1f36 e51d e536 c2d8 1437
000003f0: c16a e136 9729 4936 d30c f336 1469 5eb5
7.600704e-08 -3.0005497e-06 -5.933313e-06 6.3505595e-06 7.1847394e-06 -2.9142418e-06 -2.058274e-06 -4.777429e-08
-1.3106845e-06 -6.355841e-07 7.2474177e-06 -2.0772234e-06 1.0699125e-06 -5.990442e-07 -5.9062722e-06 5.7965335e-06
7.575338e-06 -1.2928729e-06 -3.400815e-06 -4.127023e-06 9.492092e-06 -1.3209472e-05 1.798763e-06 -5.912845e-07
-5.056519e-06 -6.8641602e-06 -1.6632814e-06 7.508465e-06 -8.998499e-06 -1.0040398e-05 -1.3274826e-06 -7.7812765e-06
3.405423e-06 -6.8334502e-06 -4.1821254e-06 2.844082e-06 -8.214157e-06 -6.2178633e-06 -2.849707e-06 -2.554515e-06
-5.647215e-06 -2.497221e-06 -6.034827e-06 9.6499625e-06 -2.660626e-06 1.1231228e-06 3.0164153e-06 -7.6446295e-06
-4.1442986e-06 -5.8847813e-06 8.390662e-06 -1.09679695e-05 -6.648283e-06 -6.417182e-06 -1.5157271e-06 7.162264e-06
-1.14126915e-05 6.190236e-06 -2.959674e-06 1.6829066e-06 9.43149e-07 8.831741e-06 -2.2313902e-06 5.763914e-06
4.405582e-06 -1.1325198e-07 1.11204945e-05 -3.2021578e-06 -5.364546e-06 2.2768851e-09 -2.2824943e-06 -4.281065e-07
-1.0673614e-06 4.689202e-06 -3.6888507e-06 -2.689047e-06 -3.4297723e-06 -5.6210147e-06 9.1278e-06 -1.13533815e-05
-3.0600024e-06 1.723254e-05 5.5662263e-06 1.0956413e-05 -4.1987983e-06 -7.3273563e-06 1.3905629e-06 2.3187259e-07
-6.197986e-06 3.1417633e-06 4.470248e-06 -1.3488104e-06 6.6435115e-07 2.0014404e-06 -6.040158e-06 2.068258e-06
4.8967227e-06 5.135918e-06 9.827539e-06 3.66198e-06 2.3032053e-06 3.2923115e-06 6.393676e-06 -7.589618e-06
4.9518962e-06 -8.692647e-06 4.7416356e-06 -4.1256435e-06 6.0405287e-06 9.930856e-06 -3.7336952e-07 -9.498584e-06
3.705573e-06 -5.9848608e-06 1.5151265e-06 -6.4142563e-07 3.7569436e-07 8.891625e-06 -2.9311334e-06 7.9314e-06
1.9420233e-06 -7.288327e-06 -1.2271714e-06 -2.6879532e-06 -1.3526474e-05 -1.5756292e-05 -2.0011201e-07 4.4068332e-07
1.3401607e-05 4.076221e-06 -4.1123048e-08 4.657364e-06 1.1069901e-05 -1.1529276e-05 -5.889437e-06 -9.60096e-07
-7.6126316e-06 -1.8793344e-06 9.271349e-06 5.863936e-06 3.1659713e-06 -6.4968553e-06 -3.5024607e-06 -2.8897366e-06
-2.1563965e-06 2.1668436e-06 4.575771e-06 6.656999e-06 -7.1821455e-06 -7.4943246e-06 7.103218e-06 2.0529555e-05
-5.3873564e-06 -1.381625e-06 9.362286e-06 -9.260905e-06 -4.128303e-06 1.2145299e-05 -1.4476435e-05 4.605068e-06
-2.257105e-06 4.252572e-06 1.5039383e-06 -7.3201807e-07 7.716708e-06 -3.2160492e-06 4.6752957e-06 2.9440835e-06
9.979581e-06 -7.3159167e-06 5.988631e-06 -5.7402326e-06 -1.6004477e-06 3.166056e-07 -4.4429444e-06 1.416423e-07
6.4034693e-06 1.5596469e-06 3.4973414e-06 -2.1685594e-06 2.0871325e-06 5.36104e-06 4.365012e-06 9.051443e-06
5.8508485e-06 -1.1517362e-05 -6.3021184e-06 6.760142e-07 7.343381e-06 -3.3133344e-06 9.1503733e-07 -5.1989596e-06
-8.814998e-07 -3.4463724e-06 6.3444536e-06 9.22181e-08 2.2930317e-06 -5.074269e-06 4.528766e-06 5.4105058e-06
9.099233e-06 7.1741106e-06 -7.0755473e-06 -7.1895042e-06 -2.7999579e-06 6.743772e-06 -1.24164135e-05 2.1515925e-07
9.320603e-06 -1.864769e-06 -3.8561143e-06 8.239978e-06 6.136325e-07 -2.4374017e-06 -3.219537e-09 -4.9442597e-06
-1.1426034e-06 3.7985606e-07 4.2664497e-06 4.2772658e-07 4.7437093e-06 2.8143955e-07 8.861928e-06 -2.8196512e-06
-2.62007e-06 3.3786057e-06 4.7495055e-06 -5.603192e-06 1.1056181e-06 -4.6620257e-06 2.556854e-06 -6.614758e-07
3.2908417e-07 2.0674793e-06 -1.4818089e-05 1.271337e-05 2.4401465e-06 -3.1145856e-07 1.018972e-05 -1.28629e-06
4.5927623e-06 -8.1310435e-07 -1.0294302e-05 -7.917032e-06 -3.338219e-06 -2.8555176e-06 -2.3845412e-06 -7.5297394e-06
-9.243031e-06 2.383296e-06 6.828212e-06 8.871955e-06 6.7179503e-06 2.9975542e-06 7.2434573e-06 -8.2854353e-07

b_linear1.w_prior f4 [4, 256]
00000000: 0000 0000 0000 0000 0000 0000 0000 0000
00000010: 0000 0000 0000 0000 0000 0000 0000 0000
00000020: 0000 0000 0000 0000 0000 0000 0000 0000
00000030: 0000 0000 0000 0000 0000 0000 0000 0000
00000040: 0000 0000 0000 0000 0000 0000 0000 0000
00000050: 0000 0000 0000 0000 0000 0000 0000 0000
00000060: 0000 0000 0000 0000 0000 0000 0000 0000
00000070: 0000 0000 0000 0000 0000 0000 0000 0000
00000080: 0000 0000 0000 0000 0000 0000 0000 0000
00000090: 0000 0000 0000 0000 0000 0000 0000 0000
000000a0: 0000 0000 0000 0000 0000 0000 0000 0000
000000b0: 0000 0000 0000 0000 0000 0000 0000 0000
000000c0: 0000 0000 0000 0000 0000 0000 0000 0000
000000d0: 0000 0000 0000 0000 0000 0000 0000 0000
000000e0: 0000 0000 0000 0000 0000 0000 0000 0000
000000f0: 0000 0000 0000 0000 0000 0000 0000 0000
00000100: 0000 0000 0000 0000 0000 0000 0000 0000
00000110: 0000 0000 0000 0000 0000 0000 0000 0000
00000120: 0000 0000 0000 0000 0000 0000 0000 0000
00000130: 0000 0000 0000 0000 0000 0000 0000 0000
00000140: 0000 0000 0000 0000 0000 0000 0000 0000
00000150: 0000 0000 0000 0000 0000 0000 0000 0000
00000160: 0000 0000 0000 0000 0000 0000 0000 0000
00000170: 0000 0000 0000 0000 0000 0000 0000 0000
00000180: 0000 0000 0000 0000 0000 0000 0000 0000
00000190: 0000 0000 0000 0000 0000 0000 0000 0000
000001a0: 0000 0000 0000 0000 0000 0000 0000 0000
000001b0: 0000 0000 0000 0000 0000 0000 0000 0000
000001c0: 0000 0000 0000 0000 0000 0000 0000 0000
000001d0: 0000 0000 0000 0000 0000 0000 0000 0000
000001e0: 0000 0000 0000 0000 0000 0000 0000 0000
000001f0: 0000 0000 0000 0000 0000 0000 0000 0000
00000200: 0000 0000 0000 0000 0000 0000 0000 0000
00000210: 0000 0000 0000 0000 0000 0000 0000 0000
00000220: 0000 0000 0000 0000 0000 0000 0000 0000
00000230: 0000 0000 0000 0000 0000 0000 0000 0000
00000240: 0000 0000 0000 0000 0000 0000 0000 0000
00000250: 0000 0000 0000 0000 0000 0000 0000 0000
00000260: 0000 0000 0000 0000 0000 0000 0000 0000
00000270: 0000 0000 0000 0000 0000 0000 0000 0000
00000280: 0000 0000 0000 0000 0000 0000 0000 0000
00000290: 0000 0000 0000 0000 0000 0000 0000 0000
000002a0: 0000 0000 0000 0000 0000 0000 0000 0000
000002b0: 0000 0000 0000 0000 0000 0000 0000 0000
000002c0: 0000 0000 0000 0000 0000 0000 0000 0000
000002d0: 0000 0000 0000 0000 0000 0000 0000 0000
000002e0: 0000 0000 0000 0000 0000 0000 0000 0000
000002f0: 0000 0000 0000 0000 0000 0000 0000 0000
00000300: 0000 0000 0000 0000 0000 0000 0000 0000
00000310: 0000 0000 0000 0000 0000 0000 0000 0000
00000320: 0000 0000 0000 0000 0000 0000 0000 0000
00000330: 0000 0000 0000 0000 0000 0000 0000 0000
00000340: 0000 0000 0000 0000 0000 0000 0000 0000
00000350: 0000 0000 0000 0000 0000 0000 0000 0000
00000360: 0000 0000 0000 0000 0000 0000 0000 0000
00000370: 0000 0000 0000 0000 0000 0000 0000 0000
00000380: 0000 0000 0000 0000 0000 0000 0000 0000
00000390: 0000 0000 0000 0000 0000 0000 0000 0000
000003a0: 0000 0000 0000 0000 0000 0000 0000 0000
000003b0: 0000 0000 0000 0000 0000 0000 0000 0000
000003c0: 0000 0000 0000 0000 0000 0000 0000 0000
000003d0: 0000 0000 0000 0000 0000 0000 0000 0000
000003e0: 0000 0000 0000 0000 0000 0000 0000 0000
000003f0: 0000 0000 0000 0000 0000 0000 0000 0000
0.0 0.0 0.0 0.0 0.0 0.0 0.0 0.0
0.0 0.0 0.0 0.0 0.0 0.0 0.0 0.0
0.0 0.0 0.0 0.0 0.0 0.0 0.0 0.0
0.0 0.0 0.0 0.0 0.0 0.0 0.0 0.0
0.0 0.0 0.0 0.0 0.0 0.0 0.0 0.0
0.0 0.0 0.0 0.0 0.0 0.0 0.0 0.0
0.0 0.0 0.0 0.0 0.0 0.0 0.0 0.0
0.0 0.0 0.0 0.0 0.0 0.0 0.0 0.0
0.0 0.0 0.0 0.0 0.0 0.0 0.0 0.0
0.0 0.0 0.0 0.0 0.0 0.0 0.0 0.0
0.0 0.0 0.0 0.0 0.0 0.0 0.0 0.0
0.0 0.0 0.0 0.0 0.0 0.0 0.0 0.0
0.0 0.0 0.0 0.0 0.0 0.0 0.0 0.0
0.0 0.0 0.0 0.0 0.0 0.0 0.0 0.0
0.0 0.0 0.0 0.0 0.0 0.0 0.0 0.0
0.0 0.0 0.0 0.0 0.0 0.0 0.0 0.0
0.0 0.0 0.0 0.0 0.0 0.0 0.0 0.0
0.0 0.0 0.0 0.0 0.0 0.0 0.0 0.0
0.0 0.0 0.0 0.0 0.0 0.0 0.0 0.0
0.0 0.0 0.0 0.0 0.0 0.0 0.0 0.0
0.0 0.0 0.0 0.0 0.0 0.0 0.0 0.0
0.0 0.0 0.0 0.0 0.0 0.0 0.0 0.0
0.0 0.0 0.0 0.0 0.0 0.0 0.0 0.0
0.0 0.0 0.0 0.0 0.0 0.0 0.0 0.0
0.0 0.0 0.0 0.0 0.0 0.0 0.0 0.0
0.0 0.0 0.0 0.0 0.0 0.0 0.0 0.0
0.0 0.0 0.0 0.0 0.0 0.0 0.0 0.0
0.0 0.0 0.0 0.0 0.0 0.0 0.0 0.0
0.0 0.0 0.0 0.0 0.0 0.0 0.0 0.0
0.0 0.0 0.0 0.0 0.0 0.0 0.0 0.0
0.0 0.0 0.0 0.0 0.0 0.0 0.0 0.0
0.0 0.0 0.0 0.0 0.0 0.0 0.0 0.0

b_linear1.b_prior f4 [1, 256]
00000000: d1ef 3331 61a7 26b2 8534 96b2 f2b4 0a32
00000010: 3214 1b32 e80d dcb1 d08d 9631 7d1c d72f
00000020: ff90 62b0 312e d630 00dc b931 886b 05b2
00000030: 38cb f2b1 5c05 7431 40e3 c5b0 4a8d fe30
00000040: b8dd 3132 c2c6 78b1 4d52 2eb1 d19f 5330
00000050: cf94 9832 039a acb2 3c8b f331 947f 6431
00000060: b288 22b2 42aa 7ab2 43a0 1231 25e2 4332
00000070: af01 a6b2 1ffe 50b2 7427 f631 ea3d 64b2
00000080: 60d1 1f32 700f 7eb2 1778 22b2 276c 652f
00000090: 60e9 21b2 3001 d6b1 6562 10b2 6d56 97b1
000000a0: 1b0b ecb1 25e5 32b1 e61b e3b1 2d46 5d32
000000b0: c418 e1b0 8335 0f32 cb9e b3b1 a2c0 80b2
000000c0: 3c03 91b1 c64a ef30 c200 0232 20d8 76b2
000000d0: 6b79 f0b1 5546 1eb2 1e31 efb0 b2c6 3daf
000000e0: 57f5 c0b2 104f 8231 fc05 52b2 0433 cdb1
000000f0: d3ca a431 6b68 5d32 e811 1bb2 b7cc 7532
00000100: ed03 0432 7c0c 0931 d86b c332 d7c3 63b2
00000110: 07dd 1ab2 dbc9 01b1 9297 f830 cc02 e831
00000120: f4be 78b0 9b59 0932 f573 10b2 5f7d c330
00000130: c052 31b2 b565 27b2 87aa 1832 7735 b2b2
00000140: 52af c6b0 0f7f d532 ca10 5d31 b518 c232
00000150: a1dd 93b1 5f5d 8cb2 e2c0 f330 eb2b db30
00000160: fd75 c930 eb59 9b31 9282 6f31 a162 b6b1
00000170: 8422 e931 8e53 6d31 51f5 30b2 8408 9eb1
00000180: 1e51 1eaf 1a7d 3a32 bd73 a631 2de9 f4b1
00000190: 6764 1431 399c 3f30 78ce 1632 da75 56b2
000001a0: 9470 7a32 83ad 28b2 b68d cd30 8ac3 0bb2
000001b0: c96d 4b32 c9c3 a731 5278 a2b1 7bfb 10b2
000001c0: 3b33 2331 66a3 8baf 2ea1 68b1 6be5 82b1
000001d0: 24de 8331 2b12 ea31 d79d 6bb2 099e 4c32
000001e0: 1b92 4932 f7b2 87b2 ffe9 48b1 93a5 ad2f
000001f0: 8e80 b0b2 7637 bfb2 6d59 1eb0 ac8b 80b1
00000200: e5ed 8532 088e 1eb1 0e8f 28b2 796e 0e32
00000210: deb4 3832 a72c f6b2 20ae 10b2 8853 7d31
00000220: 7422 5eb2 ac65 04b2 464c 6232 eec6 0832
00000230: 30a3 4a32 ad13 55b2 a406 e0b1 37aa adb1
00000240: 3ec8 c2b1 de8f 0a32 6f6f fe2f bd17 0132
00000250: 529b a5b1 7293 77b2 4f36 7d32 34c8 fa32
00000260: 0cfe 0731 e7a0 96b0 ac8b ca31 7f51 29b2
00000270: 917f 83b1 364f 7b32 93bb 8bb2 f6f6 be31
00000280: c6d7 cdb1 1a38 1b32 72e3 8831 3dcf 4631
00000290: e4fc e331 2823 c2b1 5505 1632 faf3 1232
000002a0: 626e 4c32 b0e0 8db2 0da7 3f32 25a9 deb1
000002b0: 487e a4b1 318c e2b0 4488 5cb2 6cd7 6631
000002c0: 6fd2 bb2d 0800 5faf a42f b031 83e2 0830
000002d0: 5412 0031 33ab 9731 f5c5 0d31 8eda 7532
000002e0: f903 9b32 5e5d 2db2 560c 70b2 02e8 fb31
000002f0: 4a4a 7d32 22ac feb1 28fc f2b0 a251 01b2
00000300: e220 c12f cc48 c8b1 7973 1c31 0ded 7e31
00000310: 157e f430 65d8 a6b1 b15d 0d32 a64b c030
00000320: 1e99 9f32 de8f 4131 7c13 9eb1 c21a 66b2
00000330: 27a5 46b1 89bc d730 4925 a1b2 0840 c230
00000340: 680d a132 a0ce 1ab2 9502 9eb0 de9d 0b32
00000350: 85f6 2331 e966 5fb1 013f dab1 3411 8bb1
00000360: 05b1 26b1 0246 81b2 c140 6832 b1f6 f931
00000370: c90b f031 bc83 4131 7555 e631 2279 f82f
00000380: c3ff f9b1 b38d 7432 4ed8 ad31 f0b3 fdb1
00000390: 78a7 85b1 98da 4cb2 d81f 5231 5429 05b1
000003a0: 3e91 f930 0f99 9b30 27e0 c4b2 17eb a532
000003b0: a139 0a32 b605 952e 0d95 9a32 c9c7 80b1
000003c0: 073c b631 f106 f1af d36d bfb1 5ff0 fbb1
000003d0: 8d4d b4b1 2f97 16b1 64c4 e5b1 3fac 5db2
000003e0: 69c1 21b2 0ab9 0632 ecbd 8832 1ca0 7132
000003f0: 0560 1232 3c5e 1b32 b629 ce31 4a54 882f
2.6184248e-09 -9.700529e-09 -1.7486181e-08 8.073799e-09 9.026779e-09 -6.4044237e-09 4.381697e-09 3.9128514e-10
-8.2424373e-10 1.5583678e-09 5.4092197e-09 -7.766069e-09 -7.0662303e-09 3.550972e-09 -1.4398225e-09 1.8521089e-09
1.0353169e-08 -3.620173e-09 -2.5367115e-09 7.6988466e-10 1.77628e-08 -2.0093472e-08 7.08806e-09 3.3250886e-09
-9.460722e-09 -1.4590627e-08 2.1336894e-09 1.1401913e-08 -1.9325709e-08 -1.2164974e-08 7.1640276e-09 -1.3285424e-08
9.3026244e-09 -1.4788256e-08 -9.456946e-09 2.0865852e-10 -9.424497e-09 -6.2283547e-09 -8.4042755e-09 -4.404504e-09
-6.8697665e-09 -2.6032663e-09 -6.609741e-09 1.2879849e-08 -1.6377943e-09 8.335863e-09 -5.2276383e-09 -1.498876e-08
-4.220423e-09 1.7410791e-09 7.567168e-09 -1.4368226e-08 -6.998723e-09 -9.212802e-09 -1.7403499e-09 -1.726004e-10
-2.246331e-08 3.7924863e-09 -1.22249695e-08 -5.972085e-09 4.7960866e-09 1.2887635e-08 -9.026259e-09 1.4307424e-08
7.684304e-09 1.994322e-09 2.275003e-08 -1.3257668e-08 -9.014236e-09 -1.8886712e-09 1.8087454e-09 6.7524066e-09
-9.0493235e-10 7.9948235e-09 -8.408269e-09 1.422375e-09 -1.0321571e-08 -9.743805e-09 8.886338e-09 -2.074624e-08
-1.4456225e-09 2.4854243e-08 3.2169276e-09 2.2595808e-08 -4.3034594e-09 -1.6340605e-08 1.7735398e-09 1.5946829e-09
1.4658209e-09 4.521316e-09 3.4853298e-09 -5.30811e-09 6.7851165e-09 3.4535534e-09 -1.0300327e-08 -4.5993733e-09
-1.4398835e-10 1.085507e-08 4.8443938e-09 -7.1278436e-09 2.1593907e-09 6.97074e-10 8.778095e-09 -1.2483236e-08
1.45775125e-08 -9.818339e-09 1.495599e-09 -8.135325e-09 1.1841117e-08 4.882598e-09 -4.7284994e-09 -8.439083e-09
2.3748743e-09 -2.5400054e-10 -3.3852063e-09 -3.8095798e-09 3.8378563e-09 6.812362e-09 -1.3714689e-08 1.1910296e-08
1.173296e-08 -1.5797452e-08 -2.9236842e-09 3.1586164e-10 -2.0547557e-08 -2.2260547e-08 -5.7607147e-10 -3.741169e-09
1.559142e-08 -2.3072761e-09 -9.811414e-09 8.290606e-09 1.0751334e-08 -2.8658475e-08 -8.421495e-09 3.6863828e-09
-1.29299345e-08 -7.706529e-09 1.3172274e-08 7.961473e-09 1.1795052e-08 -1.24027055e-08 -6.520013e-09 -5.054314e-09
-5.668908e-09 8.065369e-09 4.628151e-10 7.514186e-09 -4.81979e-09 -1.4410817e-08 1.47388866e-08 2.9194872e-08
1.9789494e-09 -1.0959668e-09 5.8948526e-09 -9.855625e-09 -3.8271044e-09 1.4628133e-08 -1.6267029e-08 5.557804e-09
-5.990816e-09 9.0349435e-09 3.9839785e-09 2.8930593e-09 6.63532e-09 -5.65014e-09 8.7323615e-09 8.553792e-09
1.1899461e-08 -1.6516736e-08 1.1155646e-08 -6.48028e-09 -4.7873847e-09 -1.6483509e-09 -1.2836669e-08 3.3591858e-09
2.135289e-11 -2.0281743e-10 5.1276903e-09 4.9798404e-10 1.863687e-09 4.4141415e-09 2.0630726e-09 1.43105705e-08
1.8046181e-08 -1.0091155e-08 -1.39726435e-08 7.3314377e-09 1.474343e-08 -7.411942e-09 -1.7679485e-09 -7.527349e-09
3.512986e-10 -5.829042e-09 2.2766626e-09 3.7096612e-09 1.7789171e-09 -4.855837e-09 8.228583e-09 1.3991339e-09
1.8579666e-08 2.8166975e-09 -4.6006203e-09 -1.3393846e-08 -2.890667e-09 1.5696894e-09 -1.8759822e-08 1.4133557e-09
1.8748963e-08 -9.010961e-09 -1.1496747e-09 8.12676e-09 2.3859752e-09 -3.2509269e-09 -6.3517978e-09 -4.047388e-09
-2.4256803e-09 -1.5049412e-08 1.3518901e-08 7.2748993e-09 6.986259e-09 2.8160079e-09 6.7035963e-09 4.5197007e-10
-7.2759305e-09 1.4234888e-08 5.0595537e-09 -7.3837256e-09 -3.8898484e-09 -1.1924065e-08 3.0577123e-09 -1.937754e-09
1.8158415e-09 1.1321236e-09 -2.2919336e-08 1.9315435e-08 8.0457605e-09 6.77675e-11 1.799574e-08 -3.7480032e-09
5.3037215e-09 -4.3842577e-10 -5.571317e-09 -7.3323885e-09 -5.247506e-09 -2.191381e-09 -6.687104e-09 -1.2903057e-08
-9.41541e-09 7.8419e-09 1.591885e-08 1.4064451e-08 8.520151e-09 9.043614e-09 6.000131e-09 2.4798147e-10

b_linear2.w f4 [256, 256]
00000000: 6f14 b3b7 7e03 d5b7 21a7 8238 e7f5 a438
00000010: fc69 4ab8 fa62 a6b8 171d 1738 8ede 61b8
00000020: 8ece a337 f015 50b8 654a 00b9 372c a2b5
00000030: 0b46 53b8 9233 ec37 1b3e 40b8 ca83 ba38
00000040: 8923 08b8 a462 db38 86e9 7138 8fc7 9038
00000050: 3f12 9738 968a d136 74ba db37 805c e938
00000060: fb10 7a38 431d fbb5 ac89 00b9 ca71 7a38
00000070: 8cf2 ea37 4890 b7b7 866f b338 fffe 68b9
00000080: 710e b938 92b9 cc38 4cde 0b39 c0a9 50b7
00000090: 2caa 7f37 c516 2838 a3f2 2db8 f151 39b8
000000a0: 7b1f a0b8 b676 6838 e763 88b8 4f0a 1938
000000b0: 798f 07b9 e476 47b7 8d3d fdb7 d7be 4bb8
000000c0: c9c1 95b8 ed55 76b7 774e 01b8 72e8 ef38
000000d0: 3748 deb8 e2fc 1b38 4ec8 9fb8 973f 72b8
000000e0: fcd9 0fb6 8da1 b4b6 2bc7 b1b8 0e6e 5cb8
000000f0: 7586 0f38 24fd b337 b366 1f38 79b4 f137
00000100: ec97 23b9 b304 00b9 2e05 4538 d450 9db8
00000110: 2684 8e38 6e5a 0239 54a6 99b8 28f3 0f38
00000120: 7640 2fb8 1983 ff37 21b5 05b8 88da 41b7
00000130: bd93 8db7 7bfa cdb7 da68 0038 7c07 2eb9
00000140: aea7 20b7 d827 fab8 f135 0239 06e0 3bb9
00000150: fd47 c2b8 7f5b b637 8575 8d38 bce7 2eb8
00000160: 5419 a638 2187 6139 2f92 8eb7 fbe8 14b9
00000170: 0b7d 7c38 2245 9e37 d53b 7b37 66d5 fbb7
00000180: f045 b137 344a 2936 7e88 c938 5307 7138
00000190: 1c69 cb36 cccb 8e37 3c9e bb37 138a 0ab8
000001a0: f1a6 a937 a42e d339 e99f 7738 7f39 b5b7
000001b0: b9ab 8138 4989 08b9 dc11 3db8 17ba 35b7
000001c0: 223b 0eb8 6b95 f5b8 0bc9 7cb8 8f89 e838
000001d0: 08f9 62b8 924c c437 b686 1f39 a396 1cb8
000001e0: b3ed ad38 f81c dcb7 b976 5e38 ce10 7f37
000001f0: 1cf3 3b38 1508 a7b7 2798 9db6 92a8 0439
00000200: b030 cb38 03f9 f3b8 f8e0 18b8 1b09 eab8
00000210: 9366 35b9 38f9 4ab8 dbbc 24b9 ba41 f437
00000220: 39c3 cab7 ea8e 2bb8 0d1d b9b8 34cb 1d38
00000230: 0704 1938 b9a1 b637 a329 8538 df55 13b9
00000240: 34fd d7b8 3fd5 e6b7 23e0 92b8 a090 8c38
00000250: 2f0b 2db8 1983 40b7 b7dd 16b7 d623 42b8
00000260: 54f5 1fb7 4193 b138 9759 06b8 d2a1 4339
00000270: d3bd 1c38 0d6b e0b7 db62 4438 6a21 a838
00000280: dae5 ef37 eba1 6bb8 a282 8a38 956b 0338
00000290: d886 2139 2a65 1939 4915 b237 69c9 5fb7
000002a0: a47e 8f37 e613 1bb9 2a20 8438 7496 5136
000002b0: fbc5 06b8 5e0d 65b8 a275 0cb9 8a6d 45b4
000002c0: 5a90 d4b7 ce8b 29b8 ff0c c9b7 4f5d 17b8
000002d0: 9852 b738 76ea 2837 5c54 8638 56b2 d5b8
000002e0: 212c dd38 5da1 12b9 e540 1038 f9a2 feb8
000002f0: 5a8d cb36 a1d6 bf38 f5bb 98b7 52ce bcb7
00000300: 42cd 9b37 af70 d238 6eb2 a3b8 663c 9238
00000310: f255 3737 d86c 4738 2bf4 94b9 bd50 47b8
00000320: 3ffc 8b38 77f9 af37 e95f bf38 60ae 7738
00000330: c2da a4b8 261f 59b6 b062 5b37 e3a6 8338
00000340: 0f6b f0b8 60d8 6fb8 2d11 34b8 53d8 1238
00000350: c60d f537 fcac 91b8 dbba b438 05cb ce38
00000360: 5cd2 c6b8 e39e 3db8 fe6a 5bb8 d41d 6338
00000370: dd55 4d39 d38d e437 baff 07b9 eea3 61b8
00000380: 1b6a 9837 858f 2638 1da4 9138 7c94 bbb8
00000390: 02b8 1e38 c7cb eb38 4c87 a438 ae66 3539
000003a0: 70c2 c9b8 58fe 2b38 f531 6a38 28ac 1b38
000003b0: 92df b937 5315 a838 4d8a a838 6f1b 2838
000003c0: 0df0 ed38 6e0a 10b8 bfa6 5e38 c357 8437
000003d0: 6855 0839 bd27 9137 d78d 8bb8 da8c 9e38
000003e0: 8b29 7f38 bfb0 3c38 a3b6 ff36 a3e2 0e38
000003f0: 871d 3635 c4f5 2b35 2b9d 2db8 e520 70b8
-2.1347978e-05 -2.5393205e-05 6.230013e-05 7.865932e-05 -4.825926e-05 -7.933933e-05 3.6028297e-05 -5.385145e-05
1.9527299e-05 -4.9611495e-05 -0.00012234745 -1.2082809e-06 -5.0371553e-05 2.8157407e-05 -4.5834207e-05 8.893719e-05
-3.245802e-05 0.00010461107 5.7676363e-05 6.903626e-05 7.20364e-05 6.244819e-06 2.6193658e-05 0.00011127535
5.962046e-05 -1.8709474e-06 -0.00012258318 5.971062e-05 2.8007918e-05 -2.1882486e-05 8.556158e-05 -0.00022220238
8.824177e-05 9.762043e-05 0.00013338885 -1.2437289e-05 1.5238806e-05 4.0075527e-05 -4.1472387e-05 -4.418375e-05
-7.635258e-05 5.542367e-05 -6.5035936e-05 3.6487643e-05 -0.00012928051 -1.1889006e-05 -3.0188612e-05 -4.8576705e-05
-7.140969e-05 -1.4682749e-05 -3.0829073e-05 0.000114397044 -0.00010599236 3.7190395e-05 -7.6190205e-05 -5.775652e-05
-2.1435544e-06 -5.383225e-06 -8.4771156e-05 -5.2554584e-05 3.421908e-05 2.145634e-05 3.80042e-05 2.8813478e-05
-0.00015601487 -0.00012208782 4.6973284e-05 -7.501399e-05 6.795702e-05 0.00012431454 -7.3265895e-05 3.4320314e-05
-4.1783285e-05 3.0459416e-05 -3.187836e-05 -1.1554577e-05 -1.6877306e-05 -2.4554543e-05 3.061523e-05 -0.00016596721
-9.575784e-06 -0.000119283504 0.00012417861 -0.00017917165 -9.26405e-05 2.1738697e-05 6.745294e-05 -4.1700652e-05
7.9202146e-05 0.00021508012 -1.6995791e-05 -0.00014201172 6.0197937e-05 1.886726e-05 1.4974697e-05 -3.0020903e-05
2.1132611e-05 2.5226154e-06 9.6098505e-05 5.74657e-05 6.062108e-06 1.702262e-05 2.236582e-05 -3.3030356e-05
2.0224108e-05 0.00040279806 5.9038317e-05 -2.1603655e-05 6.183185e-05 -0.00013021113 -4.5077744e-05 -1.0831768e-05
-3.391051e-05 -0.00011710342 -6.0268718e-05 0.00011088244 -5.4114527e-05 2.3400677e-05 0.00015213605 -3.733359e-05
8.293558e-05 -2.6239533e-05 5.3039494e-05 1.5203097e-05 4.4810688e-05 -1.9911715e-05 -4.6966775e-06 0.00012651298
9.688863e-05 -0.00011633525 -3.6449142e-05 -0.000111596855 -0.00017299717 -4.8392656e-05 -0.00015710613 2.9117673e-05
-2.4171184e-05 -4.0902676e-05 -8.8268986e-05 3.7620965e-05 3.6481793e-05 2.1771399e-05 6.34969e-05 -0.00014051002
-0.00010299162 -2.7517437e-05 -7.003571e-05 6.702659e-05 -4.125683e-05 -1.1474615e-05 -8.992319e-06 -4.628658e-05
-9.534258e-06 8.467446e-05 -3.2031527e-05 0.00018656932 3.7370086e-05 -2.675273e-05 4.6822108e-05 8.017088e-05
2.8598053e-05 -5.6179164e-05 6.604685e-05 3.1333027e-05 0.0001540439 0.00014628904 2.1229165e-05 -1.333873e-05
1.71059e-05 -0.00014789365 6.3002415e-05 3.1231002e-06 -3.2132473e-05 -5.4610304e-05 -0.00013395262 -1.8386905e-07
-2.5339588e-05 -4.0422943e-05 -2.3967119e-05 -3.6088106e-05 8.741504e-05 1.006817e-05 6.405331e-05 -0.00010189849
0.00010546321 -0.00013983758 3.4392713e-05 -0.0001214202 6.066327e-06 9.1475675e-05 -1.8207336e-05 -2.2507422e-05
1.857302e-05 0.00010034569 -7.805681e-05 6.9730726e-05 1.0927661e-05 4.7546666e-05 -0.0002841068 -4.752049e-05
6.675021e-05 2.0977792e-05 9.1254544e-05 5.905179e-05 -7.860876e-05 -3.235365e-06 1.3076395e-05 6.277652e-05
-0.00011464033 -5.7183555e-05 -4.293134e-05 3.501058e-05 2.921269e-05 -6.94636e-05 8.6178734e-05 9.860661e-05
-9.480558e-05 -4.5209086e-05 -5.2313313e-05 5.4148797e-05 0.0001958231 2.724576e-05 -0.00012969869 -5.379685e-05
1.8169221e-05 3.9711147e-05 6.944707e-05 -8.944512e-05 3.7841506e-05 0.0001124363 7.8453304e-05 0.00017299756
-9.620644e-05 4.1006453e-05 5.5836474e-05 3.7115213e-05 2.2157827e-05 8.014836e-05 8.036625e-05 4.007987e-05
0.000113457536 -3.434199e-05 5.308422e-05 1.5776493e-05 0.00013001787 1.7303852e-05 -6.654456e-05 7.560263e-05
6.0835428e-05 4.49873e-05 7.620854e-06 3.406651e-05 6.784325e-07 6.40601e-07 -4.139279e-05 -5.7251094e-05

b_linear2.b f4 [1, 256]
00000000: faf8 22b8 96cf ccb7 e899 f5b7 d3fe d238
00000010: 0e4f 28b8 9aab 0db9 8f7d 5b38 69cd 8138
00000020: bea5 44b9 79a1 0f38 0a9b 5ab8 5e8d c538
00000030: ee94 67b6 ea0b bbb7 3483 8db7 6f53 aa35
00000040: 855f 66b8 039e 93b8 0ed0 2138 831b 5837
00000050: 08f7 f938 c287 20b9 33ba d6b6 1e4a 2039
00000060: 1e95 e5b7 7ad0 00b7 8055 cbb8 cd3f 2838
00000070: e142 a538 57dd f1b8 1f4e 7c38 d554 34b9
00000080: cdf5 3b38 545a 3239 2546 c0b7 0a05 82b8
00000090: 48e0 9e38 ca4e f1b6 8c2e 4fb8 b474 5cb8
000000a0: b6b7 76b6 517a b1b8 66d2 6c38 68e2 adb6
000000b0: df11 deb8 1313 ad37 b1fe fbb8 02d4 1f37
000000c0: 3d15 00b8 b932 61b8 853c 8eb8 35d9 6a38
000000d0: 531a 33b9 77fe 4e38 abbb a636 adfb 5638
000000e0: 84cd ad38 74d5 d738 d676 dfb7 a915 0d38
000000f0: 9f2a 43b8 2ee5 3137 9d49 aeb8 37c3 ee37
00000100: f3bb 9ab8 4806 b5b8 0c89 dc38 69b6 69b8
00000110: 0f73 c738 51c2 0e39 e578 71b8 510d 0b39
00000120: e23f 9eb7 04dc 22b8 c30b 83b5 7e18 5a38
00000130: 7710 b6b7 3d53 0ab8 4499 9bb6 58ac 7cb7
00000140: c578 4438 1dbe 37b8 059b 0639 ccea 59b8
00000150: 8736 99b8 fae1 1238 b800 28b6 d5b9 ae38
00000160: 3d24 a1b7 fa43 9138 790f 4238 d832 65b8
00000170: e06c 4ab8 4f88 5f38 c8c3 9138 0bb6 b838
00000180: f04e 7d38 a824 88b8 676f f638 c14b 1eb8
00000190: 861d bc38 e454 c136 3dbd d938 e17a c1b8
000001a0: eda3 b537 d241 1d39 d9f8 52b8 8aed c534
000001b0: 1f54 cd37 a297 3438 bdb0 ceb8 6557 0938
000001c0: 0042 3ab8 e9ae 9037 3bba 2537 e54d 6bb7
000001d0: e0d8 e5b8 1578 43b8 bcd7 c338 d1d0 d137
000001e0: 8baf 9137 8b64 c737 f0f6 beb7 3e29 d736
000001f0: 72f4 9838 d538 5f38 f7af a3b7 5f32 0c39
00000200: 6cf9 2838 f7f2 8237 b8a4 56b8 c3ce a538
00000210: afd1 18b9 1d97 8eb7 7b55 07b9 67ee 27b8
00000220: c0ab 79b8 0e7c bc37 ecc5 8637 6819 8bb8
00000230: a44c 14b8 e035 f0b7 ae87 6338 85a0 afb8
00000240: 975c 02b8 bc30 9838 66df 2338 42ad 9338
00000250: 4411 27b8 51b7 9d38 7fda c3b7 19cf 8437
00000260: 44bf 61b8 b589 4038 2b0d 3f37 7f4c aa38
00000270: 1136 5c38 fbb3 0f37 242c b738 eb53 ca37
00000280: 1851 65b3 32a5 2838 e121 86b7 97fe 85b8
00000290: 81f7 0a39 04d8 5b39 ac36 a0b5 4d9a b338
000002a0: 361f 93b8 f9dc b7b8 9181 c937 1c84 d838
000002b0: 19c8 2738 8dd9 3cb8 ea06 5338 da8e 90b8
000002c0: fd49 3738 5c33 59b8 be9a 72b6 5fa9 8f38
000002d0: b90c 6d37 e167 46b6 015a 8438 04f7 0738
000002e0: a71d 3736 ea81 d8b7 b97d 8538 1dd9 17b9
000002f0: d15e 2738 dfd6 9838 19fe 3535 9c5f 8cb7
00000300: 48ef b6b6 af13 70b6 db85 5037 edaf 7237
00000310: 4685 b638 ed9b a234 2a1d e1b8 36ef 43b8
00000320: e7e1 0137 49ac 56b8 6e48 ac37 64cb 1339
00000330: 37bd ba36 d642 3e38 221e 4738 41ba 94b8
00000340: b921 b1b8 6591 43b8 3bb8 23b7 fee6 5338
00000350: f138 19b8 9555 f9b8 a6f5 8e38 3336 4138
00000360: eb76 c3b8 7ecd a7b8 5f45 2738 18bf 85b7
00000370: 8651 1938 b5fc 1f38 be07 bab7 4c33 b937
00000380: 8807 8cb6 6392 dc37 71c3 2038 da96 b0b8
00000390: 57fe 9fb8 b4ae 1138 02c8 0039 681b 4738
000003a0: 83e0 6ab5 3cf7 5fb7 2ffb 2d38 5e59 bd36
000003b0: d440 dfb7 2ef3 9738 7ed0 6f36 75f3 4f38
000003c0: 534d d738 b4ef 0db9 a915 b0b5 1aab aa38
000003d0: 6e91 5e38 7254 a0b8 ad4e 2a38 22f6 88b8
000003e0: b699 65b5 c3d9 a338 46e3 4637 b94e 9fb7
000003f0: da50 e2b7 218e 24b7 678f e737 e569 3db6
-3.8855687e-05 -2.441536e-05 -2.9277944e-05 0.00010061045 -4.0127947e-05 -0.00013510734 5.2330604e-05 6.18946e-05
-0.0001875376 3.424424e-05 -5.211964e-05 9.420024e-05 -3.450837e-06 -2.2297685e-05 -1.6869606e-05 1.2690269e-06
-5.4925233e-05 -7.038938e-05 3.8579157e-05 1.2881009e-05 0.000119192584 -0.00015309363 -6.3993734e-06 0.000152864
-2.7368365e-05 -7.677934e-06 -9.69572e-05 4.011374e-05 7.88027e-05 -0.00011533003 6.0154238e-05 -0.0001719774
4.4813194e-05 0.00017009053 -2.2920847e-05 -6.199822e-05 7.575803e-05 -7.191532e-06 -4.9395996e-05 -5.2560776e-05
-3.676379e-06 -8.462801e-05 5.6462733e-05 -5.182159e-06 -0.00010589114 2.063209e-05 -0.00012016053 9.5265e-06
-3.0537358e-05 -5.369142e-05 -6.78236e-05 5.5992237e-05 -0.00017080577 4.9351216e-05 4.969033e-06 5.1255967e-05
8.287563e-05 0.00010291758 -2.6639009e-05 3.3637192e-05 -4.6531317e-05 1.0603382e-05 -8.310678e-05 2.8462715e-05
-7.3783005e-05 -8.6319225e-05 0.000105159445 -5.572141e-05 9.510491e-05 0.00013614564 -5.757147e-05 0.00013261034
-1.8864816e-05 -3.8828715e-05 -9.763684e-07 5.199806e-05 -2.1703758e-05 -3.2979286e-05 -4.6372024e-06 -1.5060497e-05
4.6842517e-05 -4.3807657e-05 0.00012836985 -5.1955503e-05 -7.305765e-05 3.501957e-05 -2.503437e-06 8.3315805e-05
-1.920957e-05 6.9268004e-05 4.6267614e-05 -5.4645207e-05 -4.826195e-05 5.329429e-05 6.950606e-05 8.807712e-05
6.0393417e-05 -6.491813e-05 0.000117509444 -3.7740687e-05 8.970038e-05 5.761731e-06 0.00010382615 -9.225845e-05
2.1653215e-05 0.00014997207 -5.029966e-05 3.6866942e-07 2.4477076e-05 4.3056563e-05 -9.8557655e-05 3.2744738e-05
-4.4407323e-05 1.7247587e-05 9.878127e-06 -1.4025228e-05 -0.00010959967 -4.6603458e-05 9.338508e-05 2.501198e-05
1.736709e-05 2.3769468e-05 -2.2764754e-05 6.4123005e-06 7.293456e-05 5.3220272e-05 -1.9513054e-05 0.00013370205
4.0286614e-05 1.5610347e-05 -5.1174982e-05 7.9063255e-05 -0.00014573963 -1.6998087e-05 -0.00012906447 -4.0037932e-05
-5.952618e-05 2.2469114e-05 1.606621e-05 -6.632769e-05 -3.5357327e-05 -2.8635317e-05 5.424738e-05 -8.374549e-05
-3.1080646e-05 7.257002e-05 3.9070284e-05 7.041778e-05 -3.9831983e-05 7.520489e-05 -2.3347557e-05 1.5832064e-05
-5.382231e-05 4.5904617e-05 1.1387553e-05 8.12048e-05 5.250244e-05 8.565369e-06 8.734342e-05 2.4119354e-05
-5.339197e-08 4.020817e-05 -1.598982e-05 -6.389355e-05 0.00013252908 0.0002096594 -1.193684e-06 8.564126e-05
-7.01532e-05 -8.767279e-05 2.4021401e-05 0.0001032429 4.0002258e-05 -4.5025303e-05 5.031276e-05 -6.893063e-05
4.3699507e-05 -5.1784664e-05 -3.6150882e-06 6.850319e-05 1.4129263e-05 -2.9564765e-06 6.311015e-05 3.241656e-05
2.7286385e-06 -2.5809702e-05 6.365352e-05 -0.00014481363 3.9904207e-05 7.287948e-05 6.7797515e-07 -1.6733822e-05
-5.4518787e-06 -3.5774244e-06 1.2428932e-05 1.4465285e-05 8.7032604e-05 3.0288302e-07 -0.00010734268 -4.6714405e-05
7.741596e-06 -5.118203e-05 2.0537726e-05 0.00014094781 5.5652595e-06 4.5361776e-05 4.747336e-05 -7.0918824e-05
-8.446299e-05 -4.6627032e-05 -9.758452e-06 5.052145e-05 -3.6531073e-05 -0.00011889186 6.816843e-05 4.6065263e-05
-9.320475e-05 -8.0014564e-05 3.988051e-05 -1.594382e-05 3.6553967e-05 3.8143906e-05 -2.2176533e-05 2.2077606e-05
-4.173202e-06 2.629421e-05 3.832899e-05 -8.420432e-05 -7.629085e-05 3.47334e-05 0.0001228154 4.747082e-05
-8.74985e-07 -1.33493995e-05 4.1480347e-05 5.6430426e-06 -2.661386e-05 7.245537e-05 3.5735134e-06 4.9579383e-05
0.00010266402 -0.00013536104 -1.3119326e-06 8.138102e-05 5.3064367e-05 -7.645124e-05 4.060443e-05 -6.530831e-05
-8.5532827e-07 7.813007e-05 1.1854636e-05 -1.8990935e-05 -2.6978949e-05 -9.808254e-06 2.7604123e-05 -2.8224833e-06

b_linear2.w_prior f4 [256, 256]
00000000: 043c 37b3 5fb5 0db3 e601 3533 a434 8832
00000010: 0cb4 28b3 1c86 edb3 7ac2 e832 fbf6 0db4
00000020: 20e7 ba33 d8bd 04b3 4d75 47b4 83aa a6b3
00000030: d7f0 8fb3 85dd 1e33 bd23 03b4 4711 2f34
00000040: da8d 0eb3 bc71 6833 ade0 ae32 3b22 5f33
00000050: 7812 1634 e2cb bc33 cfa3 0034 cffd d8b0
00000060: 1832 9c33 39e5 deb1 daf8 2db4 6606 c933
00000070: abfa b5b2 65bb 0833 7a96 4834 e9fb adb4
00000080: 4f76 f133 92bf 2534 0198 2634 fa4f 9133
00000090: 4c57 9133 295d 0d33 e853 1cb4 65f0 8c31
000000a0: aa54 97b3 4f27 3834 c127 bfb3 ba72 7633
000000b0: 6763 06b4 e7bb e632 44cf 7333 b2fe ffb3
000000c0: 0cb3 cdb3 0598 79b3 74a8 98b3 35fe c333
000000d0: cd51 37b4 7e4c cb33 905d bcb3 d738 0cb4
000000e0: 44bc c0b3 45c8 aab3 cd74 9e32 20e1 85b3
000000f0: a904 1632 c19f f731 ab81 8633 1e8b 7833
00000100: 17ee 32b4 0fe6 35b4 b99e 49b1 fe58 c532
00000110: d4f4 bd33 0197 2b34 0ce6 8d32 2241 f333
00000120: 8751 8cb2 a96e bd33 cd38 05b3 49ac 3db3
00000130: f837 dbb3 b732 0ab3 6f11 65b3 140c 6cb4
00000140: dd32 0db3 3084 49b4 97cd 5134 8b9c b2b4
00000150: 0988 91b3 a334 acb1 dcd1 8433 331f 3832
00000160: 1fb5 1234 818a 6d34 9490 9db3 26c5 53b4
00000170: b831 9733 65b5 55b3 2f3c 7baf 369a 11b4
00000180: 97b4 adb2 3f22 4933 6a21 e033 88ff 0234
00000190: b16f cfb2 002e 4733 4497 48b3 7d00 53b2
000001a0: cab6 0632 7436 0f35 0b86 b333 ce0f 6cb3
000001b0: f1f5 8c33 7955 05b4 0249 21b3 fda0 15b3
000001c0: fd6c a4b3 849c 48b4 ed2d 60b3 3f87 3d34
000001d0: c0c4 2cb3 b9a2 48b3 9bee 6134 83b1 db32
000001e0: 1be9 1b34 800e ac32 8277 9533 c6c0 bdb2
000001f0: a4ea 0433 58ed 0933 0a5a 8732 5018 3434
00000200: 80a4 0a34 d2f8 83b4 b29c 8233 9c31 57b4
00000210: 2144 68b4 87be 82b3 a72a 8db4 df84 1233
00000220: f2a5 f730 df9f 5d33 2080 5ab4 50c2 5633
00000230: c0e1 9e33 9b0c 5c33 ca7e 2534 2433 57b3
00000240: efac f4b3 16a3 4733 0a22 deb3 2daa 7334
00000250: a061 98b3 a755 55b3 1abd 5bb3 66dc d032
00000260: 83c9 cfb2 5524 b233 831e 90b3 1949 9d34
00000270: a376 bb33 9638 85b0 ee47 2033 e1b2 2b34
00000280: 76da 1c33 4728 b9b3 0f05 1b33 3412 2633
00000290: 0875 b534 83b7 0f34 46b2 31b3 e53d 8d33
000002a0: f82b c831 324b 52b4 ad0a 67b1 bf3b 75b3
000002b0: 5bd7 deb1 114f b8b3 1c96 00b4 48bf 2f33
000002c0: 21d7 abb0 446d b3b3 66d0 a0b2 c9af 28b2
000002d0: e3c1 9333 57fe 9a33 f3d8 a632 8d56 49b4
000002e0: 0b3f ef33 3fb0 0fb4 a4ae b433 6c2d 23b4
000002f0: 92ca f2b1 c98b 1934 6bca 57b3 0c13 4b32
00000300: 37eb bd33 2206 1032 8bea a8b3 f55d 6d33
00000310: e5ed 8fb2 67b3 3b33 cbe4 90b4 0a18 f5b2
00000320: e165 6f34 f065 c633 1de6 a731 42a5 7e33
00000330: 0746 06b4 eee1 2131 06f6 bc33 2c5a 3933
00000340: 5f03 1eb4 9894 81b3 e655 9b32 1564 9e33
00000350: a266 2333 694e 11b4 0647 8233 f6d1 7133
00000360: 5abe 19b4 303d b4b2 f412 02b2 2f68 cb33
00000370: fbf5 8434 c045 5c33 c58c adb3 e61a 02b4
00000380: 2979 9632 6a4c fb33 d049 7c33 4411 22b4
00000390: cb3a 7533 92e2 df33 734d 0834 f0d4 9734
000003a0: 82d5 e8b3 507d 56b2 9448 1634 d2e6 9c33
000003b0: c191 5331 5392 e833 e27b 8633 571b be33
000003c0: 73ec f233 c727 4332 61ee c8b0 1dc0 c133
000003d0: fd08 8b34 b892 4f32 8634 adb3 47c4 5134
000003e0: 6ac0 2834 e14f 5833 4438 9732 57d2 55b2
000003f0: 804a b8b3 1974 9cb3 5677 35b3 14e6 2bb4
-4.266259e-08 -3.2994077e-08 4.2144073e-08 1.5856422e-08 -3.92793e-08 -1.1060567e-07 2.7096792e-08 -1.3221499e-07
8.703341e-08 -3.0906307e-08 -1.8575993e-07 -7.760993e-08 -6.702765e-08 3.6988713e-08 -1.2213327e-07 1.630443e-07
-3.3190965e-08 5.412015e-08 2.0358437e-08 5.1952366e-08 1.3976558e-07 8.791518e-08 1.1980522e-07 -1.5788205e-09
7.273428e-08 -6.48711e-09 -1.6202412e-07 9.360956e-08 -2.1185164e-08 3.1835402e-08 1.8681195e-07 -3.240705e-07
1.1243957e-07 1.5436515e-07 1.5515253e-07 6.766636e-08 6.767968e-08 3.291385e-08 -1.4559157e-07 4.101866e-09
-7.046886e-08 1.7150636e-07 -8.901362e-08 5.738068e-08 -1.2515885e-07 2.6860972e-08 5.6766353e-08 -1.19206916e-07
-9.578625e-08 -5.811309e-08 -7.108693e-08 9.126635e-08 -1.7072962e-07 9.466838e-08 -8.771451e-08 -1.3059194e-07
-8.974942e-08 -7.952671e-08 1.8446736e-08 -6.234245e-08 8.732209e-09 7.206808e-09 6.263448e-08 5.7868526e-08
-1.6664158e-07 -1.6940633e-07 -2.9339573e-09 2.2974287e-08 8.845532e-08 1.5980551e-07 1.6519174e-08 1.1327417e-07
-1.633522e-08 8.821127e-08 -3.1018136e-08 -4.4161684e-08 -1.0208163e-07 -3.2176754e-08 -5.3334073e-08 -2.1983607e-07
-3.287538e-08 -1.8767673e-07 1.9539435e-07 -3.3268984e-07 -6.776833e-08 -5.011843e-09 6.184902e-08 1.07173035e-08
1.3663201e-07 2.2122732e-07 -7.337181e-08 -1.9722629e-07 7.040529e-08 -4.9757904e-08 -2.2849699e-10 -1.3560279e-07
-2.0221973e-08 4.6830106e-08 1.0436891e-07 1.2200155e-07 -2.4148763e-08 4.6375135e-08 -4.6703704e-08 -1.22819275e-08
7.841388e-09 5.335089e-07 8.359719e-08 -5.4962406e-08 6.5639945e-08 -1.2417685e-07 -3.7552134e-08 -3.4838184e-08
-7.65667e-08 -1.8683392e-07 -5.2195833e-08 1.7651199e-07 -4.0225814e-08 -4.6714124e-08 2.1041562e-07 2.5575678e-08
1.4520303e-07 2.003003e-08 6.9600915e-08 -2.2090159e-08 3.094705e-08 3.211366e-08 1.5757013e-08 1.6772651e-07
1.2912096e-07 -2.4581692e-07 6.0820994e-08 -2.0041483e-07 -2.1631469e-07 -6.0882535e-08 -2.629433e-07 3.411412e-08
1.801878e-09 5.1600974e-08 -2.0349444e-07 5.0002484e-08 7.398512e-08 5.1234206e-08 1.5412948e-07 -5.01051e-08
-1.1393592e-07 4.6481624e-08 -1.0343872e-07 2.2693048e-07 -7.0958095e-08 -4.9670827e-08 -5.1161898e-08 2.4314613e-08
-2.4189609e-08 8.29538e-08 -6.7110726e-08 2.9296714e-07 8.729446e-08 -9.693106e-10 3.7318323e-08 1.5990692e-07
3.652027e-08 -8.62206e-08 3.609335e-08 3.8666442e-08 3.379903e-07 1.3384674e-07 -4.1373163e-08 6.577083e-08
5.8257648e-09 -1.958513e-07 -3.3620993e-09 -5.7097846e-08 -6.4855334e-09 -8.58255e-08 -1.1975538e-07 4.0919332e-08
-1.2503031e-09 -8.355212e-08 -1.872122e-08 -9.818856e-09 6.880489e-08 7.217448e-08 1.94236e-08 -1.8751071e-07
1.1140772e-07 -1.3382031e-07 8.41367e-08 -1.5197082e-07 -7.0661565e-09 1.4300089e-07 -5.0242686e-08 1.1820486e-08
8.843784e-08 8.383298e-09 -7.865773e-08 5.5266316e-08 -1.6755573e-08 4.3702496e-08 -2.698856e-07 -2.8532686e-08
2.2295673e-07 9.238636e-08 4.8865005e-09 5.9289285e-08 -1.2505198e-07 2.355701e-09 8.7991836e-08 4.315568e-08
-1.4716123e-07 -6.03406e-08 1.8083437e-08 7.375653e-08 3.804474e-08 -1.3532703e-07 6.066516e-08 5.6303143e-08
-1.4318485e-07 -2.0982583e-08 -7.571305e-09 9.471875e-08 2.476589e-07 5.128618e-08 -8.081546e-08 -1.2116979e-07
1.7517396e-08 1.1701998e-07 5.8740454e-08 -1.5093707e-07 5.709698e-08 1.04254596e-07 1.2694163e-07 2.8280874e-07
-1.0842179e-07 -1.2484932e-08 1.3996242e-07 7.306302e-08 3.0787393e-09 1.0829958e-07 6.2623954e-08 8.8525375e-08
1.1312013e-07 1.1359538e-08 -1.4619667e-09 9.022208e-08 2.5897307e-07 1.2082346e-08 -8.065494e-08 1.9536047e-07
1.5716219e-07 5.036407e-08 1.76043e-08 -1.24460575e-08 -8.581719e-08 -7.285434e-08 -4.2250882e-08 -1.6009318e-07

b_linear2.b_prior f4 [1, 256]
00000000: cff7 c532 52e9 b7b2 8e03 65b3 30f3 9b33
00000010: f123 48b3 882d 50b4 38bd d233 d3c1 f332
00000020: 5b36 6eb4 a90b 4bb0 7693 06b3 337a ca33
00000030: 24ba a531 3ab9 c8b3 bb2b 41b3 ff8f 0333
00000040: 1dd7 81b3 5b76 87b3 53e5 0934 b231 92b1
00000050: 9674 1b34 574f 40b4 b1e9 2433 082d 1634
00000060: 37d3 e2b2 9a72 b2b2 5e8c 33b4 4486 5232
00000070: 511b ad33 e980 f2b3 9bae dd33 45c9 7cb4
00000080: ca4c b533 7f8c 5f34 32c2 5fb2 01ae 87b3
00000090: f842 c933 1799 85b3 5313 c2b3 c575 30b3
000000a0: 085b a332 e884 beb3 9734 2633 eea1 5c32
000000b0: 170c 0bb4 4016 e332 8807 c5b3 0f20 25b2
000000c0: b555 0032 c9a3 b0b3 f6ce 01b4 8989 8a2f
000000d0: dc2a 50b4 4364 c633 54aa 0333 8494 ab33
000000e0: 4222 45af a581 5934 0fcc 11b1 f5e4 4e32
000000f0: a54b 8ab3 489b a0b2 15f6 e2b2 cabc 1a33
00000100: 1e41 94b3 2a28 f6b3 b90c 0433 2eeb 8632
00000110: f48c 9d33 eaf1 2334 c1c0 6bb3 bfbf 8034
00000120: aa5e 6cb3 9793 3db3 a823 85b3 d21a eb32
00000130: 31ec 9ab3 18c5 1fb2 428a 81b3 eca5 6233
00000140: e602 e033 d8a1 0fb3 6dfd 4f34 6a07 04b3
00000150: 4974 c5b3 849e d5b2 145f 72b3 934b 2534
00000160: 81ff 38b2 0945 0934 d352 a633 87b5 f4b3
00000170: 1eaa 6fb3 3337 f833 eb4e 9d33 4835 2133
00000180: e556 2a33 d12c e2b3 618a 6d34 4f4a 30b3
00000190: ad8e 2634 79fa 8f32 033f c533 b93d f7b3
000001a0: 0ee7 8233 8207 0834 9d8e c1b3 5b83 1831
000001b0: 54f1 0b33 5b2b 3d33 b762 3ab4 4be4 ef33
000001c0: 5a2a 1a32 6b15 d9b3 7749 0632 f30d 4ab2
000001d0: 6d70 c3b3 9c11 ffb3 f3b4 5933 4f7f b733
000001e0: 1ba3 1033 518d b231 5709 bd31 8540 2a33
000001f0: 5813 cc33 ab0b e433 8c44 2933 2a52 6c34
00000200: 3237 b033 1293 1c33 ac2e 2c33 f1dc af33
00000210: ee51 2bb4 c619 8533 3102 03b4 859c 10b3
00000220: 6a2d 21b3 7de6 9a33 fbdb 0bb3 49b2 f7b3
00000230: ea74 cdb2 c5a8 68b3 4e74 e832 dbaa aab3
00000240: ee0d 6331 cc33 0234 2b37 d833 14cf 5033
00000250: 959f 7330 049c 3633 271a fab2 465b 0f34
00000260: 3615 8eb3 0c46 c332 08e8 fe32 2ba6 fa33
00000270: 2009 a633 0b4f 8731 64ef 8c33 c99d cf31
00000280: 3740 3db3 4c4f a533 c913 3ab3 f376 a9b3
00000290: 735f 4c34 814b 8334 28f2 4733 e339 ed33
000002a0: 955c 8ab3 9b3d f7b3 3f68 af32 2285 1134
000002b0: 8d92 d032 cf80 24b3 798e 3734 c84d 82b2
000002c0: 53aa 4c32 071d 9eb3 f7e3 61b3 bdcf eb33
000002d0: 490c 3eb3 e9db aeb1 5143 f033 175e 55b3
000002e0: 7e10 26b3 1fab 1db3 1de9 6633 e35e 61b4
000002f0: 4995 b932 ce42 3033 a47c 96b3 5559 bcb2
00000300: c6cf 7432 d953 75b3 6199 0733 539c 34b2
00000310: 6f11 ab33 0d2b 96b0 e440 02b4 06ce 11b3
00000320: 3e99 a8b2 b1a0 2bb3 a65d a033 bf40 2b34
00000330: 3caf 7433 3917 b833 5e6c 0334 e67a 56b3
00000340: db62 4032 bb4e 4031 ec6c d7b2 df90 8e33
00000350: c186 0033 e179 68b4 8a14 ca33 b6ca 7f32
00000360: e1dc c9b3 30bf 75b3 ebb9 c533 45f3 89b3
00000370: 3779 0f32 7f2c f933 29a9 efb1 a8f9 ef32
00000380: 4f0a 9131 cf82 3c32 345b 6833 657e 08b4
00000390: e0da c4b3 1665 3b31 b9c9 2d34 d815 aa33
000003a0: 3c29 0b31 a202 cbb2 f4c0 9033 4324 c32e
000003b0: e3d0 6eb3 36b1 7333 b370 4ab3 a2be db32
000003c0: 0e50 de33 9c3f 13b4 c399 a9b3 75f8 d233
000003d0: 077b a433 ec17 00b4 45c9 99b2 adc6 4eb3
000003e0: 9369 8bb2 f03e 2434 5e94 a033 a830 0b31
000003f0: d749 b3b3 e17a 1cb3 e76f d333 193f 7132
2.3046509e-08 -2.1410106e-08 -5.332145e-08 7.2619855e-08 -4.6598817e-08 -1.9388074e-07 9.813306e-08 2.8377064e-08
-2.2185252e-07 -7.386754e-10 -3.133342e-08 9.428586e-08 4.8232938e-09 -9.346918e-08 -4.4976087e-08 3.0631778e-08
-6.0461595e-08 -6.307956e-08 1.2842547e-07 -4.254809e-09 1.4477914e-07 -1.7910257e-07 3.8396767e-08 1.3986221e-07
-2.6405912e-08 -2.0774042e-08 -1.672174e-07 1.2254137e-08 8.060909e-08 -1.1292452e-07 1.0322875e-07 -2.354255e-07
8.442437e-08 2.0819606e-07 -1.3024463e-08 -6.3180785e-08 9.3719734e-08 -6.221142e-08 -9.037344e-08 -4.1085304e-08
1.9017094e-08 -8.87174e-08 3.8697717e-08 1.2842504e-08 -1.2949782e-07 2.6436396e-08 -9.174897e-08 -9.611553e-09
7.470068e-09 -8.225431e-08 -1.2089353e-07 2.5199778e-10 -1.9387102e-07 9.238331e-08 3.0655727e-08 7.989823e-08
-1.7929216e-10 2.0256864e-07 -2.121627e-09 1.2042837e-08 -6.4398854e-08 -1.8697065e-08 -2.6421768e-08 3.602762e-08
-6.903632e-08 -1.14625735e-07 3.0745216e-08 1.57066e-08 7.3365214e-08 1.5268566e-07 -5.489051e-08 2.3981372e-07
-5.503413e-08 -4.4139224e-08 -6.199781e-08 2.7369797e-08 -7.214147e-08 -9.299832e-09 -6.0321796e-08 5.277063e-08
1.043134e-07 -3.3441978e-08 1.9370573e-07 -3.0740388e-08 -9.1946795e-08 -2.4868548e-08 -5.643149e-08 1.5394316e-07
-1.07683045e-08 1.2784234e-07 7.745043e-08 -1.1395155e-07 -5.5801245e-08 1.15584406e-07 7.325237e-08 3.7534193e-08
3.966024e-08 -1.0532097e-07 2.2122687e-07 -4.1045777e-08 1.551186e-07 1.6761293e-08 9.184989e-08 -1.1513061e-07
6.095625e-08 1.2668718e-07 -9.013204e-08 2.2193578e-09 3.2582946e-08 4.4044423e-08 -1.7358512e-07 1.1170831e-07
8.973609e-09 -1.0108746e-07 7.8165305e-09 -1.1761119e-08 -9.100845e-08 -1.1877566e-07 5.0688822e-08 8.544759e-08
3.3675956e-08 5.1965476e-09 5.5016858e-09 3.963989e-08 9.503009e-08 1.06192e-07 3.9410722e-08 2.2009104e-07
8.2056786e-08 3.645534e-08 4.008932e-08 8.1892615e-08 -1.5955422e-07 6.197983e-08 -1.2201123e-07 -3.3669966e-08
-3.7527037e-08 7.2131094e-08 -3.256353e-08 -1.1534264e-07 -2.3918307e-08 -5.4170204e-08 2.7061244e-08 -7.94732e-08
3.3040766e-09 1.2126037e-07 1.0068319e-07 4.861711e-08 8.8629665e-10 4.2517073e-08 -2.9115723e-08 1.3351118e-07
-6.6162485e-08 2.2732841e-08 2.9675007e-08 1.1671758e-07 7.731637e-08 3.9380033e-09 6.562803e-08 6.042431e-09
-4.4063395e-08 7.697835e-08 -4.3324494e-08 -7.8913125e-08 1.9033705e-07 2.4455588e-07 4.6553538e-08 1.1046702e-07
-6.442966e-08 -1.151304e-07 2.0420087e-08 1.3552611e-07 2.428103e-08 -3.8301376e-08 1.7095034e-07 -1.5169363e-08
1.191309e-08 -7.3627284e-08 -5.2594228e-08 1.09808276e-07 -4.4248996e-08 -5.0890674e-09 1.1188116e-07 -4.96785e-08
-3.8664886e-08 -3.6710045e-08 5.3763063e-08 -2.0989278e-07 2.1604722e-08 4.1038952e-08 -7.007591e-08 -2.1926704e-08
1.42499115e-08 -5.7119767e-08 3.1571634e-08 -1.0512923e-08 7.965979e-08 -1.0926172e-09 -1.21308e-07 -3.394782e-08
-1.962746e-08 -3.9960188e-08 7.467615e-08 1.594917e-07 5.6970052e-08 8.572392e-08 1.223975e-07 -4.9937533e-08
1.1198348e-08 2.798443e-09 -2.5078826e-08 6.638742e-08 2.992488e-08 -2.1651023e-07 9.410094e-08 1.4889045e-08
-9.3999695e-08 -5.721739e-08 9.2073456e-08 -6.42381e-08 8.351257e-09 1.160306e-07 -6.9750468e-09 2.7936792e-08
4.2212274e-09 1.0972783e-08 5.4099658e-08 -1.2711969e-07 -9.1667744e-08 2.7269542e-09 1.6185267e-07 7.920215e-08
2.0250601e-09 -2.3633508e-08 6.7406205e-08 8.874015e-11 -5.5603675e-08 5.673902e-08 -4.713429e-08 2.5581645e-08
1.03522424e-07 -1.3713583e-07 -7.897645e-08 9.824081e-08 7.659224e-08 -1.1929632e-07 -1.7903071e-08 -4.8143807e-08
-1.622974e-08 1.5296587e-07 7.4775684e-08 2.025482e-09 -8.3487684e-08 -3.6433338e-08 9.845808e-08 1.4042393e-08
