Parameter/wallplaneTEST/315.pth (torch, 545217 bytes, 24 tensors)

b_linear1.w f4 [4, 256]
00000000: 0000 0000 0000 0000 0000 0000 0000 0000
00000010: 0000 0000 0000 0000 0000 0000 0000 0000
00000020: 0000 0000 0000 0000 0000 0000 0000 0000
00000030: 0000 0000 0000 0000 0000 0000 0000 0000
00000040: 0000 0000 0000 0000 0000 0000 0000 0000
00000050: 0000 0000 0000 0000 0000 0000 0000 0000
00000060: 0000 0000 0000 0000 0000 0000 0000 0000
00000070: 0000 0000 0000 0000 0000 0000 0000 0000
00000080: 0000 0000 0000 0000 0000 0000 0000 0000
00000090: 0000 0000 0000 0000 0000 0000 0000 0000
000000a0: 0000 0000 0000 0000 0000 0000 0000 0000
000000b0: 0000 0000 0000 0000 0000 0000 0000 0000
000000c0: 0000 0000 0000 0000 0000 0000 0000 0000
000000d0: 0000 0000 0000 0000 0000 0000 0000 0000
000000e0: 0000 0000 0000 0000 0000 0000 0000 0000
000000f0: 0000 0000 0000 0000 0000 0000 0000 0000
00000100: 0000 0000 0000 0000 0000 0000 0000 0000
00000110: 0000 0000 0000 0000 0000 0000 0000 0000
00000120: 0000 0000 0000 0000 0000 0000 0000 0000
00000130: 0000 0000 0000 0000 0000 0000 0000 0000
00000140: 0000 0000 0000 0000 0000 0000 0000 0000
00000150: 0000 0000 0000 0000 0000 0000 0000 0000
00000160: 0000 0000 0000 0000 0000 0000 0000 0000
00000170: 0000 0000 0000 0000 0000 0000 0000 0000
00000180: 0000 0000 0000 0000 0000 0000 0000 0000
00000190: 0000 0000 0000 0000 0000 0000 0000 0000
000001a0: 0000 0000 0000 0000 0000 0000 0000 0000
000001b0: 0000 0000 0000 0000 0000 0000 0000 0000
000001c0: 0000 0000 0000 0000 0000 0000 0000 0000
000001d0: 0000 0000 0000 0000 0000 0000 0000 0000
000001e0: 0000 0000 0000 0000 0000 0000 0000 0000
000001f0: 0000 0000 0000 0000 0000 0000 0000 0000
00000200: 0000 0000 0000 0000 0000 0000 0000 0000
00000210: 0000 0000 0000 0000 0000 0000 0000 0000
00000220: 0000 0000 0000 0000 0000 0000 0000 0000
00000230: 0000 0000 0000 0000 0000 0000 0000 0000
00000240: 0000 0000 0000 0000 0000 0000 0000 0000
00000250: 0000 0000 0000 0000 0000 0000 0000 0000
00000260: 0000 0000 0000 0000 0000 0000 0000 0000
00000270: 0000 0000 0000 0000 0000 0000 0000 0000
00000280: 0000 0000 0000 0000 0000 0000 0000 0000
00000290: 0000 0000 0000 0000 0000 0000 0000 0000
000002a0: 0000 0000 0000 0000 0000 0000 0000 0000
000002b0: 0000 0000 0000 0000 0000 0000 0000 0000
000002c0: 0000 0000 0000 0000 0000 0000 0000 0000
000002d0: 0000 0000 0000 0000 0000 0000 0000 0000
000002e0: 0000 0000 0000 0000 0000 0000 0000 0000
000002f0: 0000 0000 0000 0000 0000 0000 0000 0000
00000300: 0000 0000 0000 0000 0000 0000 0000 0000
00000310: 0000 0000 0000 0000 0000 0000 0000 0000
00000320: 0000 0000 0000 0000 0000 0000 0000 0000
00000330: 0000 0000 0000 0000 0000 0000 0000 0000
00000340: 0000 0000 0000 0000 0000 0000 0000 0000
00000350: 0000 0000 0000 0000 0000 0000 0000 0000
00000360: 0000 0000 0000 0000 0000 0000 0000 0000
00000370: 0000 0000 0000 0000 0000 0000 0000 0000
00000380: 0000 0000 0000 0000 0000 0000 0000 0000
00000390: 0000 0000 0000 0000 0000 0000 0000 0000
000003a0: 0000 0000 0000 0000 0000 0000 0000 0000
000003b0: 0000 0000 0000 0000 0000 0000 0000 0000
000003c0: 0000 0000 0000 0000 0000 0000 0000 0000
000003d0: 0000 0000 0000 0000 0000 0000 0000 0000
000003e0: 0000 0000 0000 0000 0000 0000 0000 0000
000003f0: 0000 0000 0000 0000 0000 0000 0000 0000
0.0 0.0 0.0 0.0 0.0 0.0 0.0 0.0
0.0 0.0 0.0 0.0 0.0 0.0 0.0 0.0
0.0 0.0 0.0 0.0 0.0 0.0 0.0 0.0
0.0 0.0 0.0 0.0 0.0 0.0 0.0 0.0
0.0 0.0 0.0 0.0 0.0 0.0 0.0 0.0
0.0 0.0 0.0 0.0 0.0 0.0 0.0 0.0
0.0 0.0 0.0 0.0 0.0 0.0 0.0 0.0
0.0 0.0 0.0 0.0 0.0 0.0 0.0 0.0
0.0 0.0 0.0 0.0 0.0 0.0 0.0 0.0
0.0 0.0 0.0 0.0 0.0 0.0 0.0 0.0
0.0 0.0 0.0 0.0 0.0 0.0 0.0 0.0
0.0 0.0 0.0 0.0 0.0 0.0 0.0 0.0
0.0 0.0 0.0 0.0 0.0 0.0 0.0 0.0
0.0 0.0 0.0 0.0 0.0 0.0 0.0 0.0
0.0 0.0 0.0 0.0 0.0 0.0 0.0 0.0
0.0 0.0 0.0 0.0 0.0 0.0 0.0 0.0
0.0 0.0 0.0 0.0 0.0 0.0 0.0 0.0
0.0 0.0 0.0 0.0 0.0 0.0 0.0 0.0
0.0 0.0 0.0 0.0 0.0 0.0 0.0 0.0
0.0 0.0 0.0 0.0 0.0 0.0 0.0 0.0
0.0 0.0 0.0 0.0 0.0 0.0 0.0 0.0
0.0 0.0 0.0 0.0 0.0 0.0 0.0 0.0
0.0 0.0 0.0 0.0 0.0 0.0 0.0 0.0
0.0 0.0 0.0 0.0 0.0 0.0 0.0 0.0
0.0 0.0 0.0 0.0 0.0 0.0 0.0 0.0
0.0 0.0 0.0 0.0 0.0 0.0 0.0 0.0
0.0 0.0 0.0 0.0 0.0 0.0 0.0 0.0
0.0 0.0 0.0 0.0 0.0 0.0 0.0 0.0
0.0 0.0 0.0 0.0 0.0 0.0 0.0 0.0
0.0 0.0 0.0 0.0 0.0 0.0 0.0 0.0
0.0 0.0 0.0 0.0 0.0 0.0 0.0 0.0
0.0 0.0 0.0 0.0 0.0 0.0 0.0 0.0

b_linear1.b f4 [1, 256]
00000000: 9c9c 5cb6 8580 05b6 ec21 d8b6 5332 b836
00000010: 8da0 1736 f4b1 cab6 c32c 86b6 2f5f 88b5
00000020: 0459 0833 e9ed 8336 5831 db36 9609 92b5
00000030: a1bc d835 56f7 b835 3c08 c7b6 8bbd c336
00000040: 181a 0a37 3670 bd35 f63d 52b6 c3cf f0b6
00000050: e031 3737 24fa 46b7 e8d2 a1b4 d24e 2db6
00000060: 4885 9ab6 14ee dab6 100b fe32 7405 1e37
00000070: 8a76 25b7 b584 feb6 070e de35 d696 ebb6
00000080: 38fc feb4 b3dc 63b6 20ac d8b6 47ca 4536
00000090: 0df9 24b7 9f24 dab6 62b4 80b6 f5c0 9bb6
000000a0: 2933 97b6 cbd2 6cb6 808c ddb6 3066 1037
000000b0: 67cb e5b6 ad8b 0836 0b14 c1b5 ee8d fdb6
000000c0: 51c2 83b6 f523 08b7 a559 f036 78b4 45b7
000000d0: 8c4f 26b7 3767 1bb7 9fc0 96b5 f5eb 0237
000000e0: 051d 63b7 4daf a536 74f8 c1b6 a0c2 8036
000000f0: b500 1336 3e16 fb36 1c12 ddb6 4f60 1c37
00000100: c12f 6536 d805 d535 370e 1137 7206 13b6
00000110: 45ea 21b7 f75e e135 f87f f0b5 17a9 71b5
00000120: 2545 53b6 0d57 d536 891b 47b6 e97b 86b6
00000130: 6624 4db6 3edd 20b7 b67d c636 68c1 27b7
00000140: 32e1 c635 a2ca 8237 2d70 bd36 edcb 4a37
00000150: abf5 22b6 8afb 06b7 bb9e cc33 91f5 c136
00000160: 8d37 98b6 a15a 8636 a281 2536 53d0 a6b5
00000170: 5c02 e5b5 e736 6134 7614 23b7 7a7e 7c36
00000180: 5a5b f636 78c0 2e36 9f81 1137 bb2d e135
00000190: 8960 5136 81e7 7d36 0247 d336 d84b f1b6
000001a0: 0dc7 ae36 e40b 0bb7 6a37 1037 fd22 14b7
000001b0: 46cb 5c36 6f5e 1137 762b f235 3ab9 2db7
000001c0: 6485 6136 4f33 f6b6 203a de34 da8c 7ab5
000001d0: ffb0 ffb5 32c5 d036 c20c a0b6 4b80 1537
000001e0: 948c 7b36 4c11 11b7 6419 2034 cb1a 74b6
000001f0: f422 68b7 f450 80b7 6c04 6ab5 5fd3 04b6
00000200: 6854 4a37 4ed1 9436 293c bd35 5f2d d136
00000210: e4b9 3437 efa8 3eb7 ed12 81b6 3599 a0b5
00000220: 0d2c f9b6 3bac a4b3 c421 5b36 0b8d b936
00000230: 9b06 6036 45c7 bab6 8910 c9b6 ceb0 b0b6
00000240: b65c 7a36 b8ca 6eb6 5be7 e336 71dd 1637
00000250: 2013 afb6 3b9c 49b7 d5da 0c37 3ab8 bd37
00000260: eef2 d1b6 8cd7 12b6 61bf 2437 93b6 8eb6
00000270: d2b6 9ab6 98e6 2637 573f 57b7 cb44 7b36
00000280: 04ce 56b3 6b3e 2236 4189 66b5 2399 13b5
00000290: ac52 1837 6778 10b6 e0ef 8e36 f77e aa35
000002a0: 7dab 8237 4e94 e7b6 5386 e136 699d 96b6
000002b0: 9458 d8b5 5015 3db6 7279 4db6 110a 9136
000002c0: b42a 0e37 7593 b735 b769 c636 f075 d3b6
000002d0: febb 4136 abe4 fd35 bfd8 a636 90a5 4137
000002e0: 06c3 7b36 9b02 50b7 b087 90b6 9f07 78b6
000002f0: cfcb ef36 d7fc ad35 aeea dc35 aefb 27b6
00000300: 5692 3db6 1eb8 62b6 5c11 1b37 e122 3735
00000310: ea94 a335 8781 acb6 8205 8036 e2cf 2f37
00000320: b3d0 1037 cdab cd36 b18a fcb6 cafd 26b7
00000330: 3a6e d7b5 81b7 2437 36ab 85b7 7bba c435
00000340: 989b 1e37 b7ce 36b6 a7e2 bab6 a0ff 0337
00000350: 4a54 1e36 89be 9cb6 2215 3835 89d5 fdb6
00000360: 7bb6 21b5 86ea a8b6 840b e036 2fbc ff35
00000370: a2b6 ad34 fad1 2936 86b2 1937 a4bc 2ab6
00000380: 6754 60b5 a8be 6532 4615 ed36 f26e 97b5
00000390: 3074 b1b5 8df7 cab5 7afb 9d36 adad e0b5
000003a0: 6f9c 8cb5 4a15 0237 06d4 94b7 2988 9237
000003b0: b8ee a136 ecfd a6b6 168f 4337 9bb1 68b6
000003c0: f3a4 c135 ae8c 39b6 fc82 10b7 aa88 41b7
000003d0: 07fe 1c35 fe18 e0b6 0ba3 40b6 a0b7 0db7
000003e0: 201f 13b7 c6c0 3736 940a cd36 ac27 0637
000003f0: 24ec f636 1a56 4c36 18db 8736 e791 1eb6
-3.2873713e-06 -1.9893353e-06 -6.4412507e-06 5.489486e-06 2.2594206e-06 -6.0407856e-06 -3.998722e-06 -1.0160492e-06
3.1745927e-08 3.9318006e-06 6.532453e-06 -1.0880638e-06 1.6148152e-06 1.3781053e-06 -5.9316208e-06 5.8335186e-06
8.231516e-06 1.4114255e-06 -3.1328505e-06 -7.176744e-06 1.0919262e-05 -1.185996e-05 -3.014204e-07 -2.5824888e-06
-4.6050736e-06 -6.524622e-06 2.9574522e-08 9.4188035e-06 -9.862366e-06 -7.585239e-06 1.6544371e-06 -7.0211054e-06
-4.74947e-07 -3.39541e-06 -6.4573396e-06 2.9473028e-06 -9.833148e-06 -6.5011695e-06 -3.8356966e-06 -4.641823e-06
-4.5061065e-06 -3.5289438e-06 -6.6026696e-06 8.606861e-06 -6.848411e-06 2.0346881e-06 -1.4385454e-06 -7.5565104e-06
-3.9267256e-06 -8.114604e-06 7.1629934e-06 -1.1784134e-05 -9.912892e-06 -9.2627515e-06 -1.1231931e-06 7.803542e-06
-1.3537011e-05 4.937791e-06 -5.780772e-06 3.8373546e-06 2.1905119e-06 7.4829723e-06 -6.5884215e-06 9.320748e-06
3.4151456e-06 1.5871437e-06 8.645983e-06 -2.1908459e-06 -9.650893e-06 1.6791445e-06 -1.7918637e-06 -9.0025554e-07
-3.1481698e-06 6.3580287e-06 -2.9669338e-06 -4.0079362e-06 -3.0568567e-06 -9.588255e-06 5.9154945e-06 -9.999007e-06
1.481769e-06 1.5591566e-05 5.645698e-06 1.2087618e-05 -2.4282879e-06 -8.045588e-06 9.528363e-08 5.780436e-06
-4.53642e-06 4.004062e-06 2.4662372e-06 -1.2428594e-06 -1.7062516e-06 2.0974731e-07 -9.720321e-06 3.7624545e-06
7.342006e-06 2.6040052e-06 8.672853e-06 1.6777116e-06 3.1199618e-06 3.783469e-06 6.2965564e-06 -7.191189e-06
5.2087767e-06 -8.287814e-06 8.595971e-06 -8.829634e-06 3.2900875e-06 8.6646605e-06 1.8043054e-06 -1.035473e-05
3.3605256e-06 -7.3373444e-06 4.1393014e-07 -9.3337223e-07 -1.9050493e-06 6.2218396e-06 -4.769857e-06 8.910963e-06
3.7483742e-06 -8.646701e-06 1.4910398e-07 -3.637443e-06 -1.3836416e-05 -1.5296486e-05 -8.717823e-07 -1.9792567e-06
1.2059791e-05 4.43511e-06 1.4099106e-06 6.2339673e-06 1.0772117e-05 -1.1364215e-05 -3.846703e-06 -1.1965518e-06
-7.4259065e-06 -7.668174e-08 3.2653197e-06 5.529849e-06 3.3382446e-06 -5.56643e-06 -5.9921917e-06 -5.2657915e-06
3.7306868e-06 -3.5582761e-06 6.7920605e-06 8.992255e-06 -5.217633e-06 -1.2016909e-05 8.395601e-06 2.2616343e-05
-6.256966e-06 -2.188116e-06 9.819721e-06 -4.253184e-06 -4.6108407e-06 9.94806e-06 -1.2829746e-05 3.7441957e-06
-5.0013128e-08 2.4176213e-06 -8.588141e-07 -5.498461e-07 9.079155e-06 -2.1527756e-06 4.259855e-06 1.2702939e-06
1.5577063e-05 -6.9016014e-06 6.72116e-06 -4.4886733e-06 -1.6119034e-06 -2.81756e-06 -3.061807e-06 4.3225086e-06
8.473802e-06 1.3677478e-06 5.9131667e-06 -6.3020198e-06 2.8868667e-06 1.891652e-06 4.972418e-06 1.15422445e-05
3.7515433e-06 -1.2398373e-05 -4.3073305e-06 -3.6959316e-06 7.1464815e-06 1.296309e-06 1.6459578e-06 -2.5031436e-06
-2.8248373e-06 -3.3783795e-06 9.242762e-06 6.822357e-07 1.2187786e-06 -5.1410784e-06 3.8153385e-06 1.0479214e-05
8.63166e-06 6.1294763e-06 -7.526331e-06 -9.953461e-06 -1.6050828e-06 9.817887e-06 -1.5934562e-05 1.4657411e-06
9.453761e-06 -2.7240437e-06 -5.5696178e-06 7.867726e-06 2.3592897e-06 -4.6713435e-06 6.8576094e-07 -7.5648463e-06
-6.024272e-07 -5.0340923e-06 6.677061e-06 1.9053749e-06 3.2356644e-07 2.5305185e-06 9.161076e-06 -2.5441777e-06
-8.3569324e-07 1.3372905e-08 7.065627e-06 -1.1282666e-06 -1.3221343e-06 -1.512222e-06 4.7082403e-06 -1.6739847e-06
-1.0476341e-06 7.753561e-06 -1.7741706e-05 1.746796e-05 4.8259644e-06 -4.976746e-06 1.16562205e-05 -3.4674074e-06
1.4427627e-06 -2.7649035e-06 -8.613566e-06 -1.1535516e-05 5.8484187e-07 -6.6786297e-06 -2.8705133e-06 -8.447008e-06
-8.76913e-06 2.7381334e-06 6.1107075e-06 7.996259e-06 7.3588617e-06 3.0448487e-06 4.0488194e-06 -2.362876e-06

b_linear1.w_prior f4 [4, 256]
00000000: 0000 0000 0000 0000 0000 0000 0000 0000
00000010: 0000 0000 0000 0000 0000 0000 0000 0000
00000020: 0000 0000 0000 0000 0000 0000 0000 0000
00000030: 0000 0000 0000 0000 0000 0000 0000 0000
00000040: 0000 0000 0000 0000 0000 0000 0000 0000
00000050: 0000 0000 0000 0000 0000 0000 0000 0000
00000060: 0000 0000 0000 0000 0000 0000 0000 0000
00000070: 0000 0000 0000 0000 0000 0000 0000 0000
00000080: 0000 0000 0000 0000 0000 0000 0000 0000
00000090: 0000 0000 0000 0000 0000 0000 0000 0000
000000a0: 0000 0000 0000 0000 0000 0000 0000 0000
000000b0: 0000 0000 0000 0000 0000 0000 0000 0000
000000c0: 0000 0000 0000 0000 0000 0000 0000 0000
000000d0: 0000 0000 0000 0000 0000 0000 0000 0000
000000e0: 0000 0000 0000 0000 0000 0000 0000 0000
000000f0: 0000 0000 0000 0000 0000 0000 0000 0000
00000100: 0000 0000 0000 0000 0000 0000 0000 0000
00000110: 0000 0000 0000 0000 0000 0000 0000 0000
00000120: 0000 0000 0000 0000 0000 0000 0000 0000
00000130: 0000 0000 0000 0000 0000 0000 0000 0000
00000140: 0000 0000 0000 0000 0000 0000 0000 0000
00000150: 0000 0000 0000 0000 0000 0000 0000 0000
00000160: 0000 0000 0000 0000 0000 0000 0000 0000
00000170: 0000 0000 0000 0000 0000 0000 0000 0000
00000180: 0000 0000 0000 0000 0000 0000 0000 0000
00000190: 0000 0000 0000 0000 0000 0000 0000 0000
000001a0: 0000 0000 0000 0000 0000 0000 0000 0000
000001b0: 0000 0000 0000 0000 0000 0000 0000 0000
000001c0: 0000 0000 0000 0000 0000 0000 0000 0000
000001d0: 0000 0000 0000 0000 0000 0000 0000 0000
000001e0: 0000 0000 0000 0000 0000 0000 0000 0000
000001f0: 0000 0000 0000 0000 0000 0000 0000 0000
00000200: 0000 0000 0000 0000 0000 0000 0000 0000
00000210: 0000 0000 0000 0000 0000 0000 0000 0000
00000220: 0000 0000 0000 0000 0000 0000 0000 0000
00000230: 0000 0000 0000 0000 0000 0000 0000 0000
00000240: 0000 0000 0000 0000 0000 0000 0000 0000
00000250: 0000 0000 0000 0000 0000 0000 0000 0000
00000260: 0000 0000 0000 0000 0000 0000 0000 0000
00000270: 0000 0000 0000 0000 0000 0000 0000 0000
00000280: 0000 0000 0000 0000 0000 0000 0000 0000
00000290: 0000 0000 0000 0000 0000 0000 0000 0000
000002a0: 0000 0000 0000 0000 0000 0000 0000 0000
000002b0: 0000 0000 0000 0000 0000 0000 0000 0000
000002c0: 0000 0000 0000 0000 0000 0000 0000 0000
000002d0: 0000 0000 0000 0000 0000 0000 0000 0000
000002e0: 0000 0000 0000 0000 0000 0000 0000 0000
000002f0: 0000 0000 0000 0000 0000 0000 0000 0000
00000300: 0000 0000 0000 0000 0000 0000 0000 0000
00000310: 0000 0000 0000 0000 0000 0000 0000 0000
00000320: 0000 0000 0000 0000 0000 0000 0000 0000
00000330: 0000 0000 0000 0000 0000 0000 0000 0000
00000340: 0000 0000 0000 0000 0000 0000 0000 0000
00000350: 0000 0000 0000 0000 0000 0000 0000 0000
00000360: 0000 0000 0000 0000 0000 0000 0000 0000
00000370: 0000 0000 0000 0000 0000 0000 0000 0000
00000380: 0000 0000 0000 0000 0000 0000 0000 0000
00000390: 0000 0000 0000 0000 0000 0000 0000 0000
000003a0: 0000 0000 0000 0000 0000 0000 0000 0000
000003b0: 0000 0000 0000 0000 0000 0000 0000 0000
000003c0: 0000 0000 0000 0000 0000 0000 0000 0000
000003d0: 0000 0000 0000 0000 0000 0000 0000 0000
000003e0: 0000 0000 0000 0000 0000 0000 0000 0000
000003f0: 0000 0000 0000 0000 0000 0000 0000 0000
0.0 0.0 0.0 0.0 0.0 0.0 0.0 0.0
0.0 0.0 0.0 0.0 0.0 0.0 0.0 0.0
0.0 0.0 0.0 0.0 0.0 0.0 0.0 0.0
0.0 0.0 0.0 0.0 0.0 0.0 0.0 0.0
0.0 0.0 0.0 0.0 0.0 0.0 0.0 0.0
0.0 0.0 0.0 0.0 0.0 0.0 0.0 0.0
0.0 0.0 0.0 0.0 0.0 0.0 0.0 0.0
0.0 0.0 0.0 0.0 0.0 0.0 0.0 0.0
0.0 0.0 0.0 0.0 0.0 0.0 0.0 0.0
0.0 0.0 0.0 0.0 0.0 0.0 0.0 0.0
0.0 0.0 0.0 0.0 0.0 0.0 0.0 0.0
0.0 0.0 0.0 0.0 0.0 0.0 0.0 0.0
0.0 0.0 0.0 0.0 0.0 0.0 0.0 0.0
0.0 0.0 0.0 0.0 0.0 0.0 0.0 0.0
0.0 0.0 0.0 0.0 0.0 0.0 0.0 0.0
0.0 0.0 0.0 0.0 0.0 0.0 0.0 0.0
0.0 0.0 0.0 0.0 0.0 0.0 0.0 0.0
0.0 0.0 0.0 0.0 0.0 0.0 0.0 0.0
0.0 0.0 0.0 0.0 0.0 0.0 0.0 0.0
0.0 0.0 0.0 0.0 0.0 0.0 0.0 0.0
0.0 0.0 0.0 0.0 0.0 0.0 0.0 0.0
0.0 0.0 0.0 0.0 0.0 0.0 0.0 0.0
0.0 0.0 0.0 0.0 0.0 0.0 0.0 0.0
0.0 0.0 0.0 0.0 0.0 0.0 0.0 0.0
0.0 0.0 0.0 0.0 0.0 0.0 0.0 0.0
0.0 0.0 0.0 0.0 0.0 0.0 0.0 0.0
0.0 0.0 0.0 0.0 0.0 0.0 0.0 0.0
0.0 0.0 0.0 0.0 0.0 0.0 0.0 0.0
0.0 0.0 0.0 0.0 0.0 0.0 0.0 0.0
0.0 0.0 0.0 0.0 0.0 0.0 0.0 0.0
0.0 0.0 0.0 0.0 0.0 0.0 0.0 0.0
0.0 0.0 0.0 0.0 0.0 0.0 0.0 0.0

b_linear1.b_prior f4 [1, 256]
00000000: e9a3 ce30 b7a9 33b2 aa60 adb2 11f3 3532
00000010: 705b 3532 f18c 12b2 c017 5631 1009 de2e
00000020: 1b38 ddb0 d6bb 0e31 68a3 0932 a8a6 09b2
00000030: 5d80 eab1 d756 8a31 6408 73b1 790d 9631
00000040: 054c 6e32 7322 8cb1 c3d5 80b1 caff 07b1
00000050: bc3f bf32 cf7c d5b2 ed35 f331 7db2 4831
00000060: 7002 42b2 c3d5 95b2 7b5c d530 e410 8132
00000070: cda7 c7b2 54a2 87b2 2d5c fb31 4a08 8bb2
00000080: 1f10 2632 ece2 8db2 f6b0 48b2 f714 a630
00000090: 321d 5db2 e7ef 15b2 967f 25b2 3de6 c2b1
000000a0: 524e 24b2 ee8a 84b1 d0ab 20b2 3195 9032
000000b0: 9bff 80b1 ca60 1132 f465 a0b1 e1b8 99b2
000000c0: 8a84 bab1 b882 58b0 00bc 3532 1a79 a2b2
000000d0: add5 39b2 5030 55b2 ac2e 2db1 0276 2331
000000e0: ab1d eab2 5998 da31 7cb9 69b2 213b bbb1
000000f0: d2fd c631 9f6e 8d32 55c6 3ab2 ef26 9732
00000100: 7870 1832 1dbe 2331 36ac e632 34d8 71b2
00000110: 620f 56b2 2bf8 b5b0 6fe8 4130 7e83 e831
00000120: e769 a3b0 4b99 2632 d28e 24b2 8fff 3d2f
00000130: c444 4fb2 9cd1 59b2 8e2c 4f32 4014 d6b2
00000140: aacd 11b1 46c6 0433 dee8 ca31 b169 ea32
00000150: 4d97 d0b1 a8d0 9fb2 c06a f730 c54c 5331
00000160: a82a 62b0 c430 c431 7cbf a331 a3d6 b9b1
00000170: 95c4 d931 6c3f 8231 a33f 69b2 135b 81b1
00000180: d297 3931 735a 5732 4ce1 1a32 678a d0b1
00000190: 1dc3 7531 b67f d830 43e3 4332 be26 88b2
000001a0: 0d9b 8f32 77b5 5cb2 59c1 7a31 48e3 3db2
000001b0: d786 6b32 e1da 1832 4450 96b1 2f42 53b2
000001c0: a841 6e31 39f9 6fb1 5887 46b1 cc5b 8fb1
000001d0: 89f7 6a31 942b 2332 c6a8 86b2 f08a 8132
000001e0: df6a 6132 9c96 a5b2 c5d5 6bb1 bedf 77b0
000001f0: 916c ddb2 0ce1 f6b2 7666 3cb0 f966 7bb1
00000200: f1e1 b032 a618 67b0 66c9 19b2 dc3f 2b32
00000210: 09c2 8432 82b4 0eb3 9731 39b2 6b0c 5431
00000220: f7c7 84b2 4f7b 0eb2 ec9c 8632 4a0e 2932
00000230: a3d8 5d32 b504 7eb2 9569 12b2 85e6 e3b1
00000240: 8e3a bdb1 017f 0732 b899 2931 ea27 2d32
00000250: 7005 e9b1 a632 9bb2 374a 9632 e47f 2133
00000260: 5ebd c9af 51e0 12b1 ece6 2232 5def 58b2
00000270: b5a5 beb1 8be0 a732 71ec b7b2 1c42 e231
00000280: 2cb0 e2b1 6b95 3932 2325 9131 cca5 5d31
00000290: ddd6 2c32 0f2d e9b1 da2f 2f32 0e93 2532
000002a0: 97ad 8c32 25c1 a9b2 d17a 6832 8ae3 1ab2
000002b0: 66c0 c6b1 d5aa 14b1 67bf 6db2 322b 9131
000002c0: ddb9 6731 de8b 2d30 d4b6 e431 0630 c9b0
000002d0: 2bf4 5a31 8b06 be31 f156 8d31 1898 9b32
000002e0: bfa9 ad32 b0bf 80b2 15ff 8ab2 1fc6 d631
000002f0: a340 9832 c483 03b2 5a7e 96b0 2496 19b2
00000300: d169 4eae 029a f7b1 f9e6 c031 0d11 9131
00000310: b096 1a31 d0b9 e8b1 2d9d 2632 6dbf a631
00000320: 53f9 bc32 7478 b831 6084 02b2 e824 90b2
00000330: 5fa4 87b1 a471 9e31 b2b2 d3b2 c933 0531
00000340: 17a2 c132 536f 34b2 ed0b 65b1 980c 4332
00000350: 8490 3031 229a a2b1 4652 c5b1 6a68 e2b1
00000360: c5e6 09b1 2691 86b2 f5fc 8a32 8ab2 0232
00000370: b806 0b32 3477 5c31 f536 3332 8fc6 23b0
00000380: 94bf 01b2 d2b9 8132 52e9 f831 afa5 0bb2
00000390: eed9 79b1 7bec 66b2 b8e1 9d31 53c8 1cb1
000003a0: e55d 9630 bca0 3531 e599 fab2 dc1c db32
000003b0: cbe9 1c32 549b adb0 6a11 c032 25e2 a1b1
000003c0: 0536 e531 dca3 d5b0 79a8 1cb2 abdf 48b2
000003d0: 46c2 b4b1 9f49 8db1 b267 0eb2 26cd 88b2
000003e0: b446 63b2 34bd 1732 fb48 a332 1cb7 9b32
000003f0: d6d5 4332 e6aa 2b32 8bc4 1132 6de1 1ab0
1.5035059e-09 -1.045776e-08 -2.0183808e-08 1.05908535e-08 1.0556377e-08 -8.530365e-09 3.11546e-09 1.0097001e-10
-1.6095812e-09 2.0770492e-09 8.011604e-09 -8.012343e-09 -6.8248895e-09 4.026201e-09 -3.5365924e-09 4.3671062e-09
1.3870708e-08 -4.0784527e-09 -3.749592e-09 -1.9790485e-09 2.226431e-08 -2.485322e-08 7.0783615e-09 2.920529e-09
-1.129284e-08 -1.744309e-08 1.5524074e-09 1.5025257e-08 -2.3242956e-08 -1.5789887e-08 7.3155406e-09 -1.61855e-08
9.666137e-09 -1.6517752e-08 -1.1681768e-08 1.2084048e-09 -1.2870531e-08 -8.727489e-09 -9.633274e-09 -5.672318e-09
-9.563864e-09 -3.8575e-09 -9.352291e-09 1.683165e-08 -3.7543493e-09 8.462118e-09 -4.6682036e-09 -1.7895617e-08
-5.4283804e-09 -7.8766105e-10 1.0578333e-08 -1.8914353e-08 -1.08170015e-08 -1.2409217e-08 -2.5201343e-09 2.3786701e-09
-2.7254677e-08 6.361955e-09 -1.3604559e-08 -5.4491385e-09 5.7914145e-09 1.6464865e-08 -1.087172e-08 1.7596419e-08
8.873137e-09 2.3827689e-09 2.6853836e-08 -1.4077205e-08 -1.2459937e-08 -1.3240017e-09 7.05433e-10 6.7670376e-09
-1.188991e-09 9.6973265e-09 -9.57853e-09 1.7280243e-10 -1.2064621e-08 -1.2678722e-08 1.2059116e-08 -2.4922088e-08
-2.1217184e-09 3.0913974e-08 5.9054477e-09 2.7289248e-08 -6.0707976e-09 -1.8604922e-08 1.8001955e-09 3.074818e-09
-8.227894e-10 5.709895e-09 4.7656936e-09 -5.40861e-09 6.33788e-09 3.790708e-09 -1.3576854e-08 -3.764748e-09
2.7007343e-09 1.2535213e-08 9.015206e-09 -6.0693313e-09 3.5763101e-09 1.5752366e-09 1.1402167e-08 -1.5850102e-08
1.67179e-08 -1.2846946e-08 3.6489693e-09 -1.1052926e-08 1.3709459e-08 8.897332e-09 -4.3746997e-09 -1.2296865e-08
3.467088e-09 -3.4920744e-09 -2.8889726e-09 -4.172284e-09 3.419219e-09 9.497757e-09 -1.5676402e-08 1.5080758e-08
1.3121023e-08 -1.9277017e-08 -3.4318515e-09 -9.0176033e-10 -2.5777156e-08 -2.8740509e-08 -6.853961e-10 -3.658384e-09
2.0591843e-08 -8.407234e-10 -8.951565e-09 9.96803e-09 1.545506e-08 -3.3226122e-08 -1.0779693e-08 3.085712e-09
-1.5457756e-08 -8.293525e-09 1.5671013e-08 9.840344e-09 1.29131505e-08 -1.4785816e-08 -8.522325e-09 -6.6327766e-09
-5.507281e-09 7.886912e-09 2.4680116e-09 1.0079001e-08 -6.7818107e-09 -1.8067407e-08 1.7496047e-08 3.760205e-08
-3.669624e-10 -2.1373305e-09 9.482147e-09 -1.262728e-08 -5.5485665e-09 1.9543469e-08 -2.1411525e-08 6.5849814e-09
-6.597494e-09 1.0802391e-08 4.2242774e-09 3.2253977e-09 1.0060572e-08 -6.786315e-09 1.0197221e-08 9.6377e-09
1.6377085e-08 -1.9762021e-08 1.35321025e-08 -9.015716e-09 -5.7844316e-09 -2.1633941e-09 -1.38387355e-08 4.224966e-09
3.3720575e-09 6.3135797e-10 6.6564585e-09 -1.4638324e-09 3.1861969e-09 5.5304716e-09 4.113524e-09 1.811354e-08
2.0217042e-08 -1.498833e-08 -1.6181312e-08 6.2507435e-09 1.7724522e-08 -7.655164e-09 -1.0949848e-09 -8.93991e-09
-4.693296e-11 -7.206155e-09 5.614194e-09 4.221994e-09 2.2495605e-09 -6.773213e-09 9.698209e-09 4.8529984e-09
2.199946e-08 5.3687987e-09 -7.5970945e-09 -1.678059e-08 -3.947704e-09 4.6113247e-09 -2.4644894e-08 1.9383484e-09
2.2541867e-08 -1.0502691e-08 -3.3330665e-09 1.1353357e-08 2.5693518e-09 -4.7323434e-09 -5.742808e-09 -6.589336e-09
-2.0067301e-09 -1.5665659e-08 1.6180346e-08 7.607591e-09 8.0923925e-09 3.2081973e-09 1.0431667e-08 -5.9581223e-10
-7.552348e-09 1.5102078e-08 7.2442754e-09 -8.128537e-09 -3.6358148e-09 -1.3441531e-08 4.5949626e-09 -2.281486e-09
1.0940623e-09 2.6430333e-09 -2.9173814e-08 2.550808e-08 9.1335535e-09 -1.2631554e-09 2.235966e-08 -4.7114264e-09
6.6709185e-09 -1.5544361e-09 -9.118701e-09 -1.1692388e-08 -5.260776e-09 -4.11201e-09 -8.289065e-09 -1.5925774e-08
-1.3229215e-08 8.832377e-09 1.9008885e-08 1.8127643e-08 1.13991145e-08 9.992368e-09 8.4847995e-09 -5.6345223e-10

b_linear2.w f4 [256, 256]
00000000: e1f0 0fb8 8230 d6b7 7488 2838 3ab8 c238
00000010: cc26 75b8 2da0 b3b8 4697 3538 f4ac 5fb8
00000020: 726d 7eb6 6abd d1b8 fc15 16b9 f31d 1d35
00000030: e096 8cb7 e9d1 8f38 9000 81b8 6967 9c38
00000040: 92c7 ff36 2fbd ba38 15c2 4d38 7481 7c38
00000050: e59d f038 8940 dbb7 9fc8 6437 ada3 da38
00000060: eb36 ad38 7a3a afb7 f206 28b9 8694 9538
00000070: f9f4 6b38 2d3d 88b7 cb41 8838 f1ec 69b9
00000080: 0821 a338 6c8c e638 9c9c 1439 c8ed fb37
00000090: b0db 5638 51b7 ad37 af84 4b36 079e 67b8
000000a0: 1e0b 6db8 488e 8438 b430 93b8 0f3d e837
000000b0: c461 0cb9 10da 8d37 2ce2 51b8 c5d2 00b8
000000c0: 4d1d 1eb8 dd3f a2b6 d5cb b6b6 2bcc 0f39
000000d0: 352c 05b9 4872 0938 b45d 69b8 bc73 d7b7
000000e0: 171f 44b8 0e07 5338 be83 be36 8142 11b8
000000f0: 2324 ce37 647b e937 087e 8438 6583 64b5
00000100: 5790 2eb9 2701 ffb8 f446 bb38 7238 bdb8
00000110: 70da a638 011f fb38 ed36 97b8 3197 d237
00000120: daee e4b7 7b13 9737 5062 22b8 304c 3bb7
00000130: 78f6 0cb8 6070 50b8 f142 ee35 27d9 36b9
00000140: 809e b4b7 0057 02b9 ae23 2339 b494 0ab9
00000150: b1e5 8bb8 3513 f7b6 4694 9b38 7e36 2fb8
00000160: 68ec 9938 1fd2 9239 054f a1b6 cdf9 59b9
00000170: 6991 a137 9995 3db7 f564 6f37 2462 0436
00000180: 0bd5 8338 a28d e037 512b cb38 58d8 3138
00000190: 84af 9fb7 3e01 1138 7efb bb38 812b 43b8
000001a0: 4aa4 8135 baae de39 bfdf 5738 46d5 73b6
000001b0: 59c6 1f38 b004 0eb9 2342 06b8 6ebf 93b5
000001c0: d540 07b8 50a2 d4b8 e0c1 66b8 24dc 9238
000001d0: 958e 77b8 af68 4237 656b ef38 d2d2 8cb7
000001e0: 446f 5038 0150 4c37 fbb8 cd38 ac33 2cb8
000001f0: 85da a437 906c 4cb8 5425 65b6 82f8 1a39
00000200: f170 b938 8fea 31b9 f7f3 64b8 608f c3b8
00000210: 8051 66b9 0104 f8b7 7948 04b9 b1b5 9738
00000220: fe3e d9b7 96cc 9bb8 3246 deb8 26e8 d137
00000230: cb1f 5e38 3c59 a637 c663 3f38 4a4d 1db9
00000240: 5f37 1ab9 98e7 aeb7 95b3 37b8 f9bd 1038
00000250: 6dda 41b8 0572 4fb6 ac64 62b7 cd75 46b8
00000260: bb94 0938 8a41 2638 4abe 2ab8 5077 6639
00000270: 4a23 ab37 acd8 f7b6 e7f9 5737 4f53 b038
00000280: 1ce2 5937 9c9b bbb7 ebee 1738 4010 43b8
00000290: df8c 2739 bf8c 4539 282a 0d38 8405 4cb8
000002a0: 2367 7b38 ba11 21b9 51de 8838 9aad 3237
000002b0: 46a7 eeb7 56d5 c2b8 3900 cdb8 8a01 adb7
000002c0: 5c54 53b6 cfa8 b2b6 0f55 1eb8 f045 ecb6
000002d0: a610 cc38 6691 1e36 f58f 6538 b5cf 03b9
000002e0: 204d ba38 c086 1eb9 1862 70b7 0e2d 15b9
000002f0: 1f33 98b7 2677 6638 6304 f9b6 da27 dbb8
00000300: 887e 46b8 6de7 bd38 95fb 4cb8 0865 a138
00000310: de50 e1b6 7c56 c438 e1b4 9fb9 7063 42b8
00000320: d17d c038 fdc6 8338 1f00 eb38 ec64 ab38
00000330: fee8 8cb8 48e3 d2b7 cf52 9438 07e3 7538
00000340: 662e e8b8 4b54 3ab8 a4eb 9ab8 8d21 1437
00000350: ec38 3738 289e 9bb8 8315 f038 435f a238
00000360: eee3 afb8 6b34 e1b8 42c5 1ab7 b47f 9f38
00000370: ac75 6339 4331 1e38 c43b 25b9 9545 61b8
00000380: b4b5 cab7 7779 9a37 3c3c 9638 1d07 b1b8
00000390: 3915 b237 079c 8538 3e45 9e38 45ea 3239
000003a0: 5cc1 eab8 08f9 b736 1171 9738 d500 8f38
000003b0: 12b9 fc35 466f 1a38 ebde 2538 c195 4b38
000003c0: 9ef7 0739 70aa c9b7 3bc6 9938 0b25 1e38
000003d0: 660e 0339 a960 b5b5 a068 d4b8 1a02 1238
000003e0: 5903 e038 98f3 e537 2c97 de35 7b85 0138
000003f0: 0922 a7b6 0f1b de37 0968 82b8 d558 5eb8
-3.4318193e-05 -2.5533376e-05 4.0181403e-05 9.284956e-05 -5.8448684e-05 -8.56522e-05 4.3294647e-05 -5.332842e-05
-3.7912655e-06 -0.00010001178 -0.00014313305 5.853064e-07 -1.6759557e-05 6.85787e-05 -6.151304e-05 7.457921e-05
7.6228253e-06 8.904409e-05 4.905656e-05 6.0202045e-05 0.00011473502 -2.6136886e-05 1.363657e-05 0.00010425537
8.259512e-05 -2.0888856e-05 -0.00016024316 7.132538e-05 5.6256515e-05 -1.624095e-05 6.49724e-05 -0.00022308879
7.778598e-05 0.0001099341 0.00014172721 3.0032257e-05 5.1226176e-05 2.070857e-05 3.032659e-06 -5.5221866e-05
-5.6515557e-05 6.3207524e-05 -7.018578e-05 2.7684988e-05 -0.00013387861 1.6910053e-05 -5.0040122e-05 -3.0713873e-05
-3.7697424e-05 -4.835411e-06 -5.447752e-06 0.00013713601 -0.00012700337 3.2769778e-05 -5.5638797e-05 -2.568389e-05
-4.6758996e-05 5.031289e-05 5.677778e-06 -3.463263e-05 2.4573941e-05 2.7833223e-05 6.317726e-05 -8.5127823e-07
-0.00016647704 -0.00012159562 8.930071e-05 -9.022736e-05 7.956184e-05 0.000119743876 -7.210472e-05 2.5104355e-05
-2.7290942e-05 1.8009674e-05 -3.871537e-05 -1.1163807e-05 -3.3608143e-05 -4.9695722e-05 1.7751864e-06 -0.00017437768
-2.153148e-05 -0.00012430176 0.00015558183 -0.00013216102 -6.67082e-05 -7.3634096e-06 7.418594e-05 -4.1774e-05
7.3396426e-05 0.00028003842 -4.807373e-06 -0.0002078779 1.9260407e-05 -1.1300109e-05 1.4269016e-05 1.9726658e-06
6.286249e-05 2.6768834e-05 9.6878626e-05 4.2401574e-05 -1.9036008e-05 3.457185e-05 8.963699e-05 -4.653214e-05
9.659063e-07 0.0004247332 5.1468374e-05 -3.6333963e-06 3.809328e-05 -0.00013543922 -3.2009684e-05 -1.1008067e-06
-3.2246888e-05 -0.00010139181 -5.5016833e-05 7.002827e-05 -5.902218e-05 1.1587675e-05 0.00011416412 -1.6787471e-05
4.969469e-05 1.2177975e-05 9.809617e-05 -4.105612e-05 1.965208e-05 -4.8738497e-05 -3.4145387e-06 0.00014779161
8.8425244e-05 -0.00016967415 -5.4586646e-05 -9.32503e-05 -0.0002196487 -2.9565768e-05 -0.00012615499 7.234084e-05
-2.5897749e-05 -7.429083e-05 -0.0001059886 2.5022844e-05 5.2958534e-05 1.9830295e-05 4.563087e-05 -0.00015001479
-0.00014707212 -2.085026e-05 -4.379785e-05 3.45092e-05 -4.621821e-05 -3.0911772e-06 -1.3494089e-05 -4.731659e-05
3.280186e-05 3.9638522e-05 -4.070838e-05 0.00021978957 2.0401221e-05 -7.3863976e-06 1.2873184e-05 8.4078514e-05
1.2986853e-05 -2.2364598e-05 3.6223715e-05 -4.6506757e-05 0.0001597884 0.00018839816 3.365628e-05 -4.8642527e-05
5.9939117e-05 -0.0001536076 6.526395e-05 1.06500465e-05 -2.8449704e-05 -9.290378e-05 -9.775203e-05 -2.0623924e-05
-3.1490554e-06 -5.3244653e-06 -3.7749352e-05 -7.04149e-06 9.730579e-05 2.3628468e-06 5.4731925e-05 -0.0001257051
8.883537e-05 -0.00015118252 -1.4327954e-05 -0.00014226531 -1.8143617e-05 5.494724e-05 -7.421289e-06 -0.00010450157
-4.732472e-05 9.055329e-05 -4.8871694e-05 7.695897e-05 -6.7149367e-06 9.362117e-05 -0.0003046161 -4.6345813e-05
9.1787086e-05 6.283631e-05 0.00011205696 8.1727136e-05 -6.7191184e-05 -2.5139787e-05 7.072614e-05 5.8623988e-05
-0.000110712645 -4.442436e-05 -7.387184e-05 8.829299e-06 4.3683613e-05 -7.420435e-05 0.00011448099 7.742506e-05
-8.3871055e-05 -0.000107386 -9.225043e-06 7.6054974e-05 0.00021692243 3.7716014e-05 -0.0001575789 -5.3708984e-05
-2.4164889e-05 1.8414792e-05 7.163777e-05 -8.441343e-05 2.1229136e-05 6.3709966e-05 7.5469245e-05 0.00017062675
-0.000111940055 5.482816e-06 7.221301e-05 6.818926e-05 1.8829326e-06 3.6820093e-05 3.9546674e-05 4.853844e-05
0.00012966848 -2.4040433e-05 7.332532e-05 3.7704634e-05 0.00012498497 -1.3513683e-06 -0.00010128436 3.481107e-05
0.00010681776 2.741236e-05 1.6584286e-06 3.088031e-05 -4.98095e-06 2.6477062e-05 -6.218261e-05 -5.3011656e-05

b_linear2.b f4 [1, 256]
00000000: 8add 03b8 edb9 24b8 daa3 02b8 09ad 0139
00000010: f5c4 e2b7 f2c6 1db9 38e7 8638 7599 9838
00000020: d318 50b9 215d f836 2dba 7bb8 0893 0339
00000030: a53a deb6 e25e 0ab7 5481 d537 a399 3038
00000040: 9fcf 4fb8 9b8f 5cb8 ce32 b537 6689 6fb7
00000050: 246a 0639 18dc 2db9 03db 5a37 0635 3839
00000060: 1e5f 1eb7 4f71 6f37 049d f7b8 2a64 9138
00000070: bbac d338 8460 0ab9 b763 7238 1523 61b9
00000080: 0a7c 6038 07d5 5e39 5d76 13b8 a8ec a9b8
00000090: 4483 bd38 9018 95b6 383b 71b8 6e36 5bb8
000000a0: 4185 9c37 6355 b9b8 3b74 a238 5e9b d0b5
000000b0: 828b f3b8 0d55 31b6 3fbc 05b9 f1aa 6c37
000000c0: 46b4 d8b7 d7fe 7fb8 1ca9 aeb8 f3eb 6638
000000d0: ab13 3db9 548d 1e38 2d32 d937 25c0 8438
000000e0: 8641 a338 fb03 f538 6491 c137 3eb5 0138
000000f0: a4de 11b8 bd5f 1138 4333 92b8 7cee 0e38
00000100: f4bd e1b8 f3a4 bbb8 eb9b de38 8278 0cb8
00000110: 973b 0539 21ce 1039 3980 a4b8 bfbf 2c39
00000120: 08d6 96b7 30c9 52b8 dde5 75b7 8ab3 b138
00000130: c155 09b8 6747 86b8 9a3c e5b7 c0c9 2536
00000140: d8ba aa37 7b72 9cb7 b5d1 0b39 2bb7 ceb8
00000150: aaca c4b7 936f 4038 e372 3837 201d b538
00000160: c52a d9b7 9cfa 1339 17c1 1838 58a8 e2b8
00000170: 8cdb 1cb8 02a1 3738 7782 9138 7da8 ee38
00000180: 876a ad38 3263 a1b8 3ac6 f438 7589 e9b7
00000190: aaf8 f138 421c 1838 5768 c138 96a6 02b9
000001a0: 47d9 e1b6 0065 3e39 4b75 97b8 0e82 c836
000001b0: fbfe 5737 42d0 6538 6e1f f0b8 e911 9d38
000001c0: dd9f 68b8 df9f 1e38 75ab 9cb6 8cfc 47b7
000001d0: 72fc 03b9 f8c9 50b8 e70f b838 d41c ee37
000001e0: 1be8 fcb7 5e5a 0f38 7135 6136 9c88 46b7
000001f0: df78 9138 25df 8a38 7c7b 01b8 4002 0339
00000200: 7067 a937 b904 0938 b240 82b8 b757 cf38
00000210: 620c 46b9 eef4 54b8 99f5 28b9 3654 08b8
00000220: b11a 10b8 eead f2b5 e84c c0b5 2ff2 85b8
00000230: fd2e a4b7 e396 0736 9a31 c438 2477 1eb9
00000240: 1484 85b8 5395 3d38 a3a6 5138 4b0f 9338
00000250: d5ff 8cb7 5b2a 8038 1b8b 2bb8 5e9a 8bb7
00000260: 80a6 93b8 3af5 2338 6b76 f736 e6bb d138
00000270: d60c 4338 5579 3738 03e7 9e38 3353 1cb5
00000280: 7529 e2b7 90c8 3c38 d3cd 31b8 df62 a9b8
00000290: c1a7 2239 0e8e 8a39 2ea2 39b8 4a92 9838
000002a0: 6d6c b2b8 d978 deb8 3840 b737 f085 de38
000002b0: 3690 3a38 dc92 75b8 7298 5b38 bc56 b7b8
000002c0: 3c51 1638 d297 cdb7 aa73 bcb6 a066 ea38
000002d0: 4514 8ab7 ad91 4fb7 aa24 9e38 17b6 2b38
000002e0: f586 4436 1394 66b7 b8e9 5838 7fbb 45b9
000002f0: 1338 6138 4022 ca38 d2c0 3638 d2a6 63b7
00000300: 6507 a0b7 f0ab 0fb7 f2dc f337 4282 9737
00000310: 7fa2 dc38 a132 eab7 17d3 cbb8 4da8 a7b8
00000320: e9fd 2938 b704 35b8 b1df 3538 1011 3139
00000330: 46e9 bb37 582e a737 4028 ba38 a5e0 dbb8
00000340: 12e3 c3b8 45c5 20b8 d6f9 11b7 f21e 5638
00000350: 03bb 41b8 8873 1eb9 d52f b538 6a6c 6f38
00000360: e9c7 fab8 68aa d0b8 2190 3138 00fa 4fb6
00000370: d38e 1b38 3c7f 4e38 2091 d5b7 fa72 4b38
00000380: 9978 31b7 d379 3238 ef70 8738 c329 abb8
00000390: 22ac 92b8 051c b2b7 1a6b 2939 a4bd 4a38
000003a0: d213 0cb8 364b 0cb8 b8d1 9237 86a5 a2b7
000003b0: de11 60b8 e4f3 a438 99f2 5537 2586 0d38
000003c0: c9bf 0c39 1c78 08b9 abd9 0eb7 652f a338
000003d0: afad 6538 c5fb 97b8 5d08 3a38 d2ae dab8
000003e0: 3bcb 9a37 df5a 7538 26f4 8cb7 d7d7 efb7
000003f0: aee1 cdb6 560e b836 7b2e ff37 5656 e5b7
-3.143916e-05 -3.9273804e-05 -3.1147014e-05 0.0001236686 -2.7033015e-05 -0.000150468 6.432686e-05 7.2765084e-05
-0.00019845674 7.4018176e-06 -6.0016453e-05 0.00012547907 -6.6229427e-06 -8.247533e-06 2.5451802e-05 4.2104755e-05
-4.9546008e-05 -5.258583e-05 2.160054e-05 -1.4277501e-05 0.00012818776 -0.00016580557 1.3044805e-05 0.0001756736
-9.43968e-06 1.4271892e-05 -0.00011807124 6.932796e-05 0.000100934376 -0.0001319666 5.7790163e-05 -0.00021470741
5.3521282e-05 0.00021250929 -3.5157766e-05 -8.1026286e-05 9.0366724e-05 -4.4434055e-06 -5.751403e-05 -5.226436e-05
1.86587e-05 -8.837392e-05 7.7464116e-05 -1.5542425e-06 -0.00011613128 -2.6424561e-06 -0.00012753996 1.4106497e-05
-2.5833153e-05 -6.1034076e-05 -8.3284656e-05 5.5056018e-05 -0.00018031771 3.7801758e-05 2.589178e-05 6.33004e-05
7.7846504e-05 0.00011683252 2.3075096e-05 3.092479e-05 -3.4778044e-05 3.4659857e-05 -6.971371e-05 3.4077544e-05
-0.000107642176 -8.947579e-05 0.00010614827 -3.3490833e-05 0.00012706067 0.00013809699 -7.844013e-05 0.00016474629
-1.798106e-05 -5.0255272e-05 -1.4656657e-05 8.4734595e-05 -3.274321e-05 -6.402918e-05 -2.7327147e-05 2.470435e-06
2.0352585e-05 -1.8649958e-05 0.00013334195 -9.856963e-05 -2.3459394e-05 4.588028e-05 1.0994004e-05 8.6361775e-05
-2.5888332e-05 0.00014112372 3.6419453e-05 -0.00010807876 -3.7397767e-05 4.378055e-05 6.93844e-05 0.00011380108
8.269125e-05 -7.695555e-05 0.00011671749 -2.7839773e-05 0.00011538093 3.626594e-05 9.222392e-05 -0.00012459824
-6.730817e-06 0.00018157437 -7.2220886e-05 5.975605e-06 1.2874366e-05 5.479181e-05 -0.00011449946 7.4896794e-05
-5.5461995e-05 3.7819027e-05 -4.6691225e-06 -1.1920125e-05 -0.00012587177 -4.9779163e-05 8.776766e-05 2.8385235e-05
-3.0148823e-05 3.4178018e-05 3.355872e-06 -1.18335265e-05 6.936653e-05 6.621917e-05 -3.0871e-05 0.00012493972
2.0194537e-05 3.2667744e-05 -6.2109335e-05 9.886867e-05 -0.00018887364 -5.0772847e-05 -0.00016113221 -3.2503354e-05
-3.4357134e-05 -1.8081025e-06 -1.4327497e-06 -6.3870444e-05 -1.9572204e-05 2.0204395e-06 9.355247e-05 -0.00015112438
-6.366536e-05 4.520018e-05 4.9984676e-05 7.012355e-05 -1.6808432e-05 6.111405e-05 -4.089913e-05 -1.6641974e-05
-7.040519e-05 3.9090613e-05 7.3749593e-06 0.000100008954 4.6503577e-05 4.37436e-05 7.5770564e-05 -5.82356e-07
-2.6960604e-05 4.500948e-05 -4.2391777e-05 -8.076964e-05 0.00015512017 0.0002642725 -4.425848e-05 7.275173e-05
-8.507897e-05 -0.000106082945 2.1845204e-05 0.00010610733 4.4480163e-05 -5.8549325e-05 5.2355645e-05 -8.7422755e-05
3.5838442e-05 -2.4508601e-05 -5.6163017e-06 0.00011177105 -1.646032e-05 -1.2372079e-05 7.540856e-05 4.093916e-05
2.9284831e-06 -1.37435445e-05 5.171608e-05 -0.00018857232 5.3696403e-05 9.63849e-05 4.357176e-05 -1.3569095e-05
-1.907693e-05 -8.5634965e-06 2.9070743e-05 1.8061259e-05 0.00010520685 -2.791855e-05 -9.719113e-05 -7.994529e-05
4.0529212e-05 -4.3158154e-05 4.336209e-05 0.00016886392 2.2400764e-05 1.9929532e-05 8.876668e-05 -0.00010484577
-9.34062e-05 -3.8330694e-05 -8.700843e-06 5.1050396e-05 -4.6188954e-05 -0.00015111093 8.639662e-05 5.708301e-05
-0.00011958165 -9.9499535e-05 4.233432e-05 -3.0990923e-06 3.7087895e-05 4.9232724e-05 -2.5459158e-05 4.8506052e-05
-1.0578101e-05 4.2551965e-05 6.458337e-05 -8.161694e-05 -6.993885e-05 -2.1232301e-05 0.00016156994 4.833717e-05
-3.339706e-05 -3.3448647e-05 1.7502214e-05 -1.9388983e-05 -5.3422402e-05 7.8655576e-05 1.27522735e-05 3.374195e-05
0.00013422886 -0.00013014715 -8.514539e-06 7.7812736e-05 5.475961e-05 -7.247137e-05 4.4353645e-05 -0.00010427613
1.8452867e-05 5.8497182e-05 -1.6802991e-05 -2.8591528e-05 -6.1357487e-06 5.4852962e-06 3.0420013e-05 -2.733913e-05

b_linear2.w_prior f4 [256, 256]
00000000: bedc 67b3 ced7 3db3 add9 8633 8b3c 3a33
00000010: 429f 85b3 7407 1db4 05d4 3133 d589 25b4
00000020: eb18 af33 99ad 88b3 5a51 80b4 b2c7 aeb3
00000030: b7e1 b9b3 191b 8733 bade 15b4 18d2 5734
00000040: 9e75 3ab3 4bc5 bc33 1e7d 3633 999e 9b33
00000050: 2bdb 3b34 712a b833 52fb 0734 6e19 2633
00000060: d25f cf33 4ac5 51b2 60ed 66b4 1aeb 0334
00000070: 8388 8bb1 820e c832 9499 6d34 b27b e0b4
00000080: 34ff 1c34 03cb 4d34 5832 6234 9a2c 9633
00000090: 0fc5 ad33 fa33 4933 abdd 22b4 9ef9 25b2
000000a0: bb5a d7b3 5ba7 4f34 0be5 efb3 5b53 8f33
000000b0: 201b 44b4 3e61 f432 c7f1 1d33 8c5c 0eb4
000000c0: 20fd ffb3 308a 7db3 8bcb acb3 60bf 1c34
000000d0: b6df 65b4 7cfe eb33 5a94 f7b3 5bc9 1bb4
000000e0: 7c6a ddb3 e656 8bb3 9ace af30 2ae3 b1b3
000000f0: 80fd f032 80dd 9932 4658 ae33 6179 8733
00000100: 9b8e 75b4 d3f6 67b4 97c0 bb32 5b33 9fb1
00000110: e919 0534 8d23 6334 e389 46b2 7e80 0e34
00000120: 7e0b 03b3 2ac7 cf33 3ff6 28b3 0129 47b3
00000130: 8f25 f3b3 c60e 4fb3 bc15 50b3 0a9f 9ab4
00000140: 351e 26b3 292b 78b4 1cf3 8634 b003 d8b4
00000150: 7be5 c8b3 f360 e5b1 ccf0 b933 5dce 37b1
00000160: 3c5f 3634 6656 ab34 32c8 9fb3 c712 8fb4
00000170: 71af b633 6c09 47b3 35f3 fc31 432b 19b4
00000180: 0723 10b1 f5ca 4e33 3c89 1d34 bd11 1534
00000190: 0993 d2b2 156c 7033 9140 cab2 84b0 0eb3
000001a0: e99e 3e32 b1c1 3b35 819a e233 e233 8bb3
000001b0: e775 b133 cf9f 41b4 b940 70b3 8be5 03b3
000001c0: f286 bcb3 3538 75b4 1b75 a4b3 861d 6434
000001d0: ddbd 8ab3 dd7e 31b3 75c8 8c34 e544 3b32
000001e0: 2868 3434 d2af 7732 5204 d333 9450 f1b2
000001f0: 4e24 2d33 6422 af32 5dcf 5632 5be5 6a34
00000200: 64d0 3634 6fc7 a2b4 d059 2d33 8bf8 82b4
00000210: 0420 9eb4 b052 b1b3 85f6 abb4 1c82 5e33
00000220: f964 17b2 6ca8 ee32 033f 81b4 253f 9433
00000230: 7380 cc33 bbf9 8033 0af2 3e34 0943 e0b3
00000240: 9bba 2db4 d84c 2533 5688 03b4 1ed4 8434
00000250: 7320 c2b3 41de 6ab3 1ef0 6eb3 eaff 7131
00000260: 4afa 96b2 5993 db33 0706 b2b3 ad06 c834
00000270: d472 d333 57b9 23b1 9bb8 4b33 5068 5034
00000280: adfc 2a33 a897 dab3 ca91 6533 6f07 2533
00000290: 6d16 d734 a764 5434 e688 0ab3 684c 6e33
000002a0: 6ace a532 dbed 88b4 99f4 9732 6c1d 62b3
000002b0: 0965 7ab2 62a6 f5b3 4840 32b4 2a6e 2e33
000002c0: 614f 23b2 3b9e c7b3 97f4 0ab3 ea64 4cb2
000002d0: 277c e233 098e a533 8d58 2b33 4b6e 79b4
000002e0: 2a99 1f34 69bb 50b4 5acd bd33 5c3b 61b4
000002f0: 4dd0 5db2 1634 3834 4191 65b3 fa8c 61b2
00000300: 93e6 ad33 77ad 4133 aaae d8b3 a9fe b633
00000310: d216 7fb2 9655 9133 a991 d0b4 ca75 51b3
00000320: 0eb0 8934 6ce2 f233 e62f 3f33 f7b9 c733
00000330: 0bf1 23b4 b9b3 f0b1 fde5 d733 158e a033
00000340: 323f 52b4 bf3f a4b3 5522 82b1 6830 ab33
00000350: 8b08 7133 379f 32b4 9790 c933 073d c333
00000360: f5b0 41b4 fb63 53b3 9e09 92b2 136a fe33
00000370: 618d b234 c1d5 8333 4e98 11b4 679a 16b4
00000380: bcc3 3832 0fd3 0734 bd19 b533 7aa5 3eb4
00000390: 6a4f 8a33 5a98 0e34 bde7 2b34 a822 bb34
000003a0: 31b0 24b4 a4b0 f0b1 8d69 3434 6a8e c133
000003b0: d7d4 5831 fc9e 1034 156d bd33 1aa6 f433
000003c0: 7bae 2a34 df4b 84b1 6f83 a932 09a3 cc33
000003d0: 8c8b a434 fbb5 6b32 4f83 eeb3 874d 6c34
000003e0: debf 4c34 9d4f 8233 0655 7d32 e75f f5b0
000003f0: 92cd abb3 e11e 97b3 fd5b 6bb3 3b4b 42b4
-5.3984643e-08 -4.4201265e-08 6.279456e-08 4.3361563e-08 -6.222264e-08 -1.4624476e-07 4.1403855e-08 -1.5416965e-07
8.153605e-08 -6.364571e-08 -2.390105e-07 -8.138831e-08 -8.655791e-08 6.2913564e-08 -1.3957734e-07 2.0099867e-07
-4.3413472e-08 8.7903196e-08 4.248897e-08 7.246599e-08 1.7495465e-07 8.575888e-08 1.2664285e-07 3.8673015e-08
9.656618e-08 -1.22102595e-08 -2.1506776e-07 1.2285855e-07 -4.060952e-09 2.3289662e-08 2.2128216e-07 -4.1813252e-07
1.4621475e-07 1.9165968e-07 2.1066205e-07 6.993032e-08 8.091785e-08 4.6846232e-08 -1.5168068e-07 -9.66102e-09
-1.00282215e-07 1.9339261e-07 -1.11709674e-07 6.674119e-08 -1.826379e-07 2.844956e-08 3.6774306e-08 -1.3258449e-07
-1.1920406e-07 -5.9031834e-08 -8.0463984e-08 1.4598254e-07 -2.1408673e-07 1.0989331e-07 -1.1528819e-07 -1.4508753e-07
-1.0310484e-07 -6.4884986e-08 1.2791646e-09 -8.283526e-08 2.8054956e-08 1.791227e-08 8.118563e-08 6.308506e-08
-2.2869283e-07 -2.1603346e-07 2.1857245e-08 -4.6333475e-09 1.2396016e-07 2.1153956e-07 -1.1556469e-08 1.3271526e-07
-3.0511266e-08 9.6754164e-08 -3.9339508e-08 -4.637059e-08 -1.1322401e-07 -4.820938e-08 -4.844854e-08 -2.8800451e-07
-3.867736e-08 -2.3112501e-07 2.513633e-07 -4.0235818e-07 -9.354968e-08 -6.675799e-09 8.6585345e-08 -2.6747309e-09
1.6984717e-07 3.1914095e-07 -7.44043e-08 -2.6649488e-07 8.506948e-08 -4.6341867e-08 7.3618147e-09 -1.4264974e-07
-2.0974669e-09 4.81477e-08 1.467169e-07 1.388316e-07 -2.4514081e-08 5.5977655e-08 -2.3545256e-08 -3.322249e-08
1.1095588e-08 6.9944787e-07 1.0552049e-07 -6.482129e-08 8.263651e-08 -1.8032664e-07 -5.593822e-08 -3.0709582e-08
-8.7789786e-08 -2.2837851e-07 -7.6581465e-08 2.1244895e-07 -6.460662e-08 -4.1326405e-08 2.6222884e-07 1.0900497e-08
1.6801698e-07 1.4417269e-08 9.826239e-08 -2.8092735e-08 4.031272e-08 2.038832e-08 1.2503588e-08 2.1876387e-07
1.7025883e-07 -3.0319958e-07 4.0361385e-08 -2.4395226e-07 -2.9453088e-07 -8.2572456e-08 -3.20306e-07 5.1806737e-08
-8.812315e-09 2.7783436e-08 -2.407397e-07 6.903273e-08 9.522855e-08 6.00589e-08 1.7783182e-07 -1.04430065e-07
-1.6179767e-07 3.8486945e-08 -1.2249924e-07 2.4741252e-07 -9.0397315e-08 -5.468451e-08 -5.563208e-08 3.5215586e-09
-1.7576117e-08 1.02247846e-07 -8.289867e-08 3.725776e-07 9.84634e-08 -2.3824975e-09 4.743252e-08 1.9409458e-07
3.9811017e-08 -1.0179002e-07 5.3450812e-08 3.8423817e-08 4.0063188e-07 1.9780656e-07 -3.2255137e-08 5.5483184e-08
1.9302394e-08 -2.5505037e-07 1.7689944e-08 -5.2646485e-08 -1.4574888e-08 -1.14389664e-07 -1.6600927e-07 4.0612726e-08
-9.505897e-09 -9.2954416e-08 -3.2353082e-08 -1.1897308e-08 1.0546528e-07 7.709247e-08 3.9894577e-08 -2.3230056e-07
1.486375e-07 -1.9439689e-07 8.8383516e-08 -2.0976353e-07 -1.2911255e-08 1.7155284e-07 -5.3450325e-08 -1.3128778e-08
8.0978815e-08 4.509408e-08 -1.0090055e-07 8.521358e-08 -1.4848142e-08 6.767657e-08 -3.8849e-07 -4.8768733e-08
2.5646335e-07 1.1310189e-07 4.4514216e-08 9.3004864e-08 -1.5268249e-07 -7.0053514e-09 1.0053552e-07 7.476425e-08
-1.9580764e-07 -7.6484405e-08 -3.787401e-09 7.971613e-08 5.6119955e-08 -1.6635464e-07 9.3860926e-08 9.091496e-08
-1.8038902e-07 -4.9218198e-08 -1.700101e-08 1.18470915e-07 3.325795e-07 6.1390445e-08 -1.3559585e-07 -1.402601e-07
1.07547145e-08 1.2649637e-07 8.433151e-08 -1.7755329e-07 6.440571e-08 1.3280206e-07 1.6009922e-07 3.485668e-07
-1.5337788e-07 -7.005001e-09 1.6802205e-07 9.013168e-08 3.1553122e-09 1.3468883e-07 8.82084e-08 1.1392349e-07
1.589596e-07 -3.850331e-09 1.9733958e-08 9.529146e-08 3.0648914e-07 1.3720178e-08 -1.11066235e-07 2.2007417e-07
1.9068781e-07 6.068078e-08 1.474587e-08 -1.7853353e-09 -8.000201e-08 -7.037102e-08 -5.4798864e-08 -1.8095027e-07

b_linear2.b_prior f4 [1, 256]
00000000: 2443 3e32 3259 13b3 69d9 8db3 6a31 f833
00000010: 5285 81b3 0171 89b4 d9fc fe33 3819 6b33
00000020: 8e37 a1b4 b4d0 f731 c2be 66b3 e1dd 1334
00000030: 4e67 bd31 d221 d3b3 766a 2cb3 aa9b 3133
00000040: 9249 b0b3 8991 bfb3 be0b 1634 2451 d9b1
00000050: c1c3 5234 8573 81b4 910a 2a33 b639 5b34
00000060: 96d9 15b3 0cb7 93b2 2061 62b4 d52a 1833
00000070: 3d92 ee33 e8fd 2eb4 36cc 0634 851e a8b4
00000080: 2313 e233 ff8c 9734 d009 deb2 e556 c6b3
00000090: 44c0 0734 d23e 90b3 9c4c f0b3 eaa9 7db3
000000a0: 03f1 c232 7305 09b4 b5ca 9133 9a68 7432
000000b0: b0a5 3ab4 50a1 0233 9281 1ab4 bd4f 6cb1
000000c0: ec0e e7b1 5dc6 e2b3 c094 20b4 641f 0333
000000d0: e428 8eb4 5812 eb33 2fba 2b33 9ad6 df33
000000e0: 335f 0833 2991 8634 dff4 5eb0 685f d032
000000f0: 279e a6b3 203e 23b2 c68e 74b3 9159 5133
00000100: 0419 dcb3 4cc7 21b4 d062 9a33 53ec 2f30
00000110: e95f 0034 2e7d 5e34 dadc a8b3 8280 a234
00000120: 33b6 86b3 48f2 80b3 a4c6 8eb3 7575 6533
00000130: 31bb aeb3 47aa f4b2 f9d3 93b3 5e31 5233
00000140: b2ee 0034 b03e 3bb3 3ec2 8534 86fc 86b3
00000150: 8728 f1b3 ee49 1cb2 d499 6eb3 ebf7 4934
00000160: 70a7 aab2 973e 3634 f642 d233 104a 1cb4
00000170: 8bc8 9bb3 3389 1134 b8fd dc33 562e a833
00000180: b399 8d33 2c83 0eb4 3ff4 9234 1242 76b3
00000190: e38e 5334 353f e132 de2e 0a34 56a0 27b4
000001a0: 28e9 8633 958e 4c34 51fa eeb3 5bcb bb2d
000001b0: 6627 1933 44de 8433 def2 67b4 67b4 1034
000001c0: f9aa 2bb2 cd48 c0b3 9dd7 e331 b21e 80b2
000001d0: 24e7 16b4 ed6c 16b4 d40b bc33 c7af c733
000001e0: fd13 0133 e39c a032 1162 fdb0 47fb 1b33
000001f0: 77a5 0234 8bf0 0a34 81c4 e832 7fde 9034
00000200: d051 d133 131c 4d33 ff89 4432 3726 f333
00000210: 6bc2 70b4 2ffa 5633 8069 3eb4 7d5d 45b3
00000220: 1d3e 77b3 d889 a733 54f7 eeb2 55ff 15b4
00000230: b29b 01b3 4a13 85b3 9944 7733 5191 09b4
00000240: 3b46 84b2 e77b 1a34 6789 fc33 82a6 a733
00000250: bffb 36b2 d32f 9733 c15d 41b3 4d42 1334
00000260: 43bc bfb3 9882 1533 d001 1a33 0aba 2134
00000270: be0f cb33 c81a a032 15e8 d333 05c7 0d32
00000280: 0e48 59b3 1622 c433 4d02 75b3 8639 e2b3
00000290: 8c70 8334 1ad9 b334 4028 1233 47ff 1a34
000002a0: 1b82 cdb3 b4ca 27b4 a021 fa32 60cc 3f34
000002b0: 0cc5 4133 f39b 78b3 67bb 5134 45b5 4cb3
000002c0: 69bc cd32 6e4d b6b3 5bf0 73b3 a316 1d34
000002d0: 990c 39b3 ce30 edb1 3887 1034 0766 1db3
000002e0: accc 17b3 04aa 48b3 e8d8 a433 0bcd 93b4
000002f0: a05c 2733 dd34 9b33 12be 81b3 5ea5 fcb2
00000300: dcfa 2632 df6c 83b3 9c74 3333 4541 a6b1
00000310: 2424 fb33 4110 21b2 48cc 2fb4 2039 81b3
00000320: 0b48 40b2 d1c2 71b3 c4d2 c033 3793 7134
00000330: 0352 8433 1d5a d133 e81f 2034 d5e0 b4b3
00000340: 6415 e7b2 35be 4bb2 7ced f7b2 ceeb b333
00000350: d8e9 8e32 b16f 91b4 16fa 0234 d0bc 0f33
00000360: 3850 15b4 acca c5b3 2864 ed33 1cb6 8ab3
00000370: cb3e d632 45d5 0d34 0333 8fb2 5b84 3633
00000380: 8897 00af 6c56 d332 9c74 9633 af05 2ab4
00000390: 3be6 01b4 1fbb a831 8729 6734 d2f6 cf33
000003a0: 591e 55b1 c006 09b3 dc5b b133 4253 9fb0
000003b0: f4a6 95b3 e06f be33 2070 49b3 e8ed 4c33
000003c0: 9075 2134 3d62 4cb4 f2ee abb3 5c5b 0b34
000003d0: e469 d033 d93e 22b4 8eef 16b1 1788 acb3
000003e0: 6f9f 5bb2 e980 4034 96f6 9933 e466 c7b1
000003f0: 9b6d bfb3 bb3b 29b3 a728 eb33 e3d3 0132
1.1074722e-08 -3.4307227e-08 -6.605371e-08 1.1557388e-07 -6.0312814e-08 -2.560046e-07 1.18737894e-07 5.4738138e-08
-3.0029008e-07 7.212373e-09 -5.372454e-08 1.3771161e-07 5.5123683e-09 -9.831605e-08 -4.0143696e-08 4.13526e-08
-8.209021e-08 -8.920603e-08 1.397411e-07 -6.324756e-09 1.9628989e-07 -2.4112174e-07 3.959082e-08 2.041696e-07
-3.488966e-08 -1.7196292e-08 -2.1083224e-07 3.5429213e-08 1.1109339e-07 -1.6297383e-07 1.2554014e-07 -3.1314644e-07
1.0527426e-07 2.822853e-07 -2.5848664e-08 -9.2358995e-08 1.26428e-07 -6.7169495e-08 -1.1189806e-07 -5.906069e-08
2.2694172e-08 -1.2761102e-07 6.788961e-08 1.4226453e-08 -1.7382877e-07 3.0414697e-08 -1.4389505e-07 -3.4387846e-09
-6.7246813e-09 -1.0560027e-07 -1.4955276e-07 3.0529364e-08 -2.6479313e-07 1.0946377e-07 3.9983373e-08 1.04232825e-07
3.175155e-08 2.5065063e-07 -8.111111e-10 2.4257773e-08 -7.758745e-08 -9.501974e-09 -5.694053e-08 4.8743065e-08
-1.02490986e-07 -1.5066797e-07 7.189158e-08 6.4000466e-10 1.1955821e-07 2.0720901e-07 -7.863282e-08 3.0268353e-07
-6.273003e-08 -6.004535e-08 -6.648523e-08 5.3425044e-08 -8.136556e-08 -2.8482772e-08 -6.8837785e-08 4.8939334e-08
1.2007766e-07 -4.3596344e-08 2.491451e-07 -6.285795e-08 -1.1229809e-07 -9.097205e-09 -5.55536e-08 1.8809776e-07
-1.9866746e-08 1.6972841e-07 9.791067e-08 -1.4555576e-07 -7.2542285e-08 1.355409e-07 1.02906995e-07 7.831538e-08
6.593782e-08 -1.32725e-07 2.7372332e-07 -5.733643e-08 1.9702888e-07 2.622219e-08 1.2869302e-07 -1.5611417e-07
6.282272e-08 1.9050852e-07 -1.1128271e-07 2.1349747e-11 3.565892e-08 6.187159e-08 -2.1601906e-07 1.3476675e-07
-9.992385e-09 -8.953939e-08 6.631082e-09 -1.491512e-08 -1.4053927e-07 -1.4009466e-07 8.756584e-08 9.298633e-08
3.0053332e-08 1.8697795e-08 -1.8436045e-09 3.6317285e-08 1.2167389e-07 1.293976e-07 2.7097714e-08 2.6983977e-07
9.7472025e-08 4.7755815e-08 1.1440078e-08 1.13225205e-07 -2.242247e-07 5.00533e-08 -1.773351e-07 -4.5952664e-08
-5.756566e-08 7.801617e-08 -2.7819318e-08 -1.3969596e-07 -3.0176757e-08 -6.196804e-08 5.7571558e-08 -1.2811985e-07
-1.539876e-08 1.4387443e-07 1.1759658e-07 7.806831e-08 -1.0651035e-08 7.0401846e-08 -4.5021583e-08 1.3714562e-07
-8.928375e-08 3.481054e-08 3.5857568e-08 1.5061974e-07 9.4557876e-08 1.863863e-08 9.8676686e-08 8.252532e-09
-5.0589783e-08 9.1331614e-08 -5.70456e-08 -1.05344085e-07 2.448254e-07 3.349931e-07 3.402988e-08 1.4435237e-07
-9.5697224e-08 -1.562683e-07 2.9119121e-08 1.7862612e-07 4.5115527e-08 -5.7883835e-08 1.9532818e-07 -4.7662315e-08
2.395082e-08 -8.48912e-08 -5.679645e-08 1.463e-07 -4.3085127e-08 -6.9031563e-09 1.3460237e-07 -3.6647204e-08
-3.5343575e-08 -4.6720757e-08 7.6763e-08 -2.7530072e-07 3.896696e-08 7.227366e-08 -6.041604e-08 -2.9411861e-08
9.7195105e-09 -6.1199664e-08 4.178274e-08 -4.838656e-09 1.1694672e-07 -9.375129e-09 -1.6372462e-07 -6.0174216e-08
-1.1192252e-08 -5.628937e-08 8.979035e-08 2.249843e-07 6.161647e-08 9.7487124e-08 1.4912769e-07 -8.4228e-08
-2.6901667e-08 -1.1859403e-08 -2.886258e-08 8.37823e-08 1.6637316e-08 -2.708962e-07 1.2198174e-07 3.3466506e-08
-1.390589e-07 -9.210393e-08 1.1054391e-07 -6.459251e-08 2.4941434e-08 1.3209235e-07 -1.6670588e-08 4.2495554e-08
-1.1695367e-10 2.4602933e-08 7.0061304e-08 -1.5834551e-07 -1.2097819e-07 4.9107167e-09 2.1528659e-07 9.684085e-08
-3.101283e-09 -3.1903937e-08 8.258914e-08 -1.1592436e-09 -6.968722e-08 8.8679144e-08 -4.6900936e-08 4.7713826e-08
1.5037062e-07 -1.903472e-07 -8.006272e-08 1.297862e-07 9.705016e-08 -1.511029e-07 -2.1964044e-09 -8.034129e-08
-1.2783729e-08 1.792829e-07 7.1694714e-08 -5.8033596e-09 -8.914068e-08 -3.9402703e-08 1.0950435e-07 7.556966e-09
