Parameter/wallplaneTEST/33.pth (torch, 545217 bytes, 24 tensors)

b_linear1.w f4 [4, 256]
00000000: 0000 0000 0000 0000 0000 0000 0000 0000
00000010: 0000 0000 0000 0000 0000 0000 0000 0000
00000020: 0000 0000 0000 0000 0000 0000 0000 0000
00000030: 0000 0000 0000 0000 0000 0000 0000 0000
00000040: 0000 0000 0000 0000 0000 0000 0000 0000
00000050: 0000 0000 0000 0000 0000 0000 0000 0000
00000060: 0000 0000 0000 0000 0000 0000 0000 0000
00000070: 0000 0000 0000 0000 0000 0000 0000 0000
00000080: 0000 0000 0000 0000 0000 0000 0000 0000
00000090: 0000 0000 0000 0000 0000 0000 0000 0000
000000a0: 0000 0000 0000 0000 0000 0000 0000 0000
000000b0: 0000 0000 0000 0000 0000 0000 0000 0000
000000c0: 0000 0000 0000 0000 0000 0000 0000 0000
000000d0: 0000 0000 0000 0000 0000 0000 0000 0000
000000e0: 0000 0000 0000 0000 0000 0000 0000 0000
000000f0: 0000 0000 0000 0000 0000 0000 0000 0000
00000100: 0000 0000 0000 0000 0000 0000 0000 0000
00000110: 0000 0000 0000 0000 0000 0000 0000 0000
00000120: 0000 0000 0000 0000 0000 0000 0000 0000
00000130: 0000 0000 0000 0000 0000 0000 0000 0000
00000140: 0000 0000 0000 0000 0000 0000 0000 0000
00000150: 0000 0000 0000 0000 0000 0000 0000 0000
00000160: 0000 0000 0000 0000 0000 0000 0000 0000
00000170: 0000 0000 0000 0000 0000 0000 0000 0000
00000180: 0000 0000 0000 0000 0000 0000 0000 0000
00000190: 0000 0000 0000 0000 0000 0000 0000 0000
000001a0: 0000 0000 0000 0000 0000 0000 0000 0000
000001b0: 0000 0000 0000 0000 0000 0000 0000 0000
000001c0: 0000 0000 0000 0000 0000 0000 0000 0000
000001d0: 0000 0000 0000 0000 0000 0000 0000 0000
000001e0: 0000 0000 0000 0000 0000 0000 0000 0000
000001f0: 0000 0000 0000 0000 0000 0000 0000 0000
00000200: 0000 0000 0000 0000 0000 0000 0000 0000
00000210: 0000 0000 0000 0000 0000 0000 0000 0000
00000220: 0000 0000 0000 0000 0000 0000 0000 0000
00000230: 0000 0000 0000 0000 0000 0000 0000 0000
00000240: 0000 0000 0000 0000 0000 0000 0000 0000
00000250: 0000 0000 0000 0000 0000 0000 0000 0000
00000260: 0000 0000 0000 0000 0000 0000 0000 0000
00000270: 0000 0000 0000 0000 0000 0000 0000 0000
00000280: 0000 0000 0000 0000 0000 0000 0000 0000
00000290: 0000 0000 0000 0000 0000 0000 0000 0000
000002a0: 0000 0000 0000 0000 0000 0000 0000 0000
000002b0: 0000 0000 0000 0000 0000 0000 0000 0000
000002c0: 0000 0000 0000 0000 0000 0000 0000 0000
000002d0: 0000 0000 0000 0000 0000 0000 0000 0000
000002e0: 0000 0000 0000 0000 0000 0000 0000 0000
000002f0: 0000 0000 0000 0000 0000 0000 0000 0000
00000300: 0000 0000 0000 0000 0000 0000 0000 0000
00000310: 0000 0000 0000 0000 0000 0000 0000 0000
00000320: 0000 0000 0000 0000 0000 0000 0000 0000
00000330: 0000 0000 0000 0000 0000 0000 0000 0000
00000340: 0000 0000 0000 0000 0000 0000 0000 0000
00000350: 0000 0000 0000 0000 0000 0000 0000 0000
00000360: 0000 0000 0000 0000 0000 0000 0000 0000
00000370: 0000 0000 0000 0000 0000 0000 0000 0000
00000380: 0000 0000 0000 0000 0000 0000 0000 0000
00000390: 0000 0000 0000 0000 0000 0000 0000 0000
000003a0: 0000 0000 0000 0000 0000 0000 0000 0000
000003b0: 0000 0000 0000 0000 0000 0000 0000 0000
000003c0: 0000 0000 0000 0000 0000 0000 0000 0000
000003d0: 0000 0000 0000 0000 0000 0000 0000 0000
000003e0: 0000 0000 0000 0000 0000 0000 0000 0000
000003f0: 0000 0000 0000 0000 0000 0000 0000 0000
0.0 0.0 0.0 0.0 0.0 0.0 0.0 0.0
0.0 0.0 0.0 0.0 0.0 0.0 0.0 0.0
0.0 0.0 0.0 0.0 0.0 0.0 0.0 0.0
0.0 0.0 0.0 0.0 0.0 0.0 0.0 0.0
0.0 0.0 0.0 0.0 0.0 0.0 0.0 0.0
0.0 0.0 0.0 0.0 0.0 0.0 0.0 0.0
0.0 0.0 0.0 0.0 0.0 0.0 0.0 0.0
0.0 0.0 0.0 0.0 0.0 0.0 0.0 0.0
0.0 0.0 0.0 0.0 0.0 0.0 0.0 0.0
0.0 0.0 0.0 0.0 0.0 0.0 0.0 0.0
0.0 0.0 0.0 0.0 0.0 0.0 0.0 0.0
0.0 0.0 0.0 0.0 0.0 0.0 0.0 0.0
0.0 0.0 0.0 0.0 0.0 0.0 0.0 0.0
0.0 0.0 0.0 0.0 0.0 0.0 0.0 0.0
0.0 0.0 0.0 0.0 0.0 0.0 0.0 0.0
0.0 0.0 0.0 0.0 0.0 0.0 0.0 0.0
0.0 0.0 0.0 0.0 0.0 0.0 0.0 0.0
0.0 0.0 0.0 0.0 0.0 0.0 0.0 0.0
0.0 0.0 0.0 0.0 0.0 0.0 0.0 0.0
0.0 0.0 0.0 0.0 0.0 0.0 0.0 0.0
0.0 0.0 0.0 0.0 0.0 0.0 0.0 0.0
0.0 0.0 0.0 0.0 0.0 0.0 0.0 0.0
0.0 0.0 0.0 0.0 0.0 0.0 0.0 0.0
0.0 0.0 0.0 0.0 0.0 0.0 0.0 0.0
0.0 0.0 0.0 0.0 0.0 0.0 0.0 0.0
0.0 0.0 0.0 0.0 0.0 0.0 0.0 0.0
0.0 0.0 0.0 0.0 0.0 0.0 0.0 0.0
0.0 0.0 0.0 0.0 0.0 0.0 0.0 0.0
0.0 0.0 0.0 0.0 0.0 0.0 0.0 0.0
0.0 0.0 0.0 0.0 0.0 0.0 0.0 0.0
0.0 0.0 0.0 0.0 0.0 0.0 0.0 0.0
0.0 0.0 0.0 0.0 0.0 0.0 0.0 0.0

b_linear1.b f4 [1, 256]
00000000: 9026 7434 e9fd 0fb6 ab2f 09b6 bcd3 fd35
00000010: 2165 4fb5 d28b c5b6 43ef 0137 4f68 a834
00000020: 3fd0 27b6 0a1b 5e33 b1a5 cd34 25e6 6fb6
00000030: ddc5 8db6 9889 3336 c872 13b6 22c0 2935
00000040: d3ba 8134 8ef7 2ab6 4926 a8b5 6d73 b536
00000050: 4d67 6836 2ada e5b5 ec77 7036 5d15 a734
00000060: 91e1 3c34 56a2 b0b6 f493 2236 a0b9 3336
00000070: 394f 90b6 7223 80b5 0061 2034 7eb2 05b6
00000080: e307 4fb4 8e9d 7cb6 98af 0cb5 9c08 8b35
00000090: 57f4 4835 2197 b6b5 c793 8bb6 d7ea af35
000000a0: f6ed 0eb6 4f23 b7b5 b3d1 2a35 7c49 a036
000000b0: 9ded b835 623f 9c36 695e 08b6 da17 cbb6
000000c0: 7768 7b36 6048 7036 7d90 e931 631b b134
000000d0: a654 dab5 52cc 45b6 bef1 1d36 b834 bdb3
000000e0: e13a 9bb6 bddc 34b5 5663 07b7 798f b0b6
000000f0: 2ea1 d735 7ba2 6834 24d1 40b6 b3c6 6b36
00000100: b7d8 32b3 dc8f 49b5 9b06 1337 abc9 bdb6
00000110: 0c68 15b6 865d 94b6 aa70 3eb5 bfb6 b635
00000120: bb48 1236 bec7 d6b4 b594 76b5 c515 b634
00000130: d5fc eab5 03cb 5cb6 2f55 b835 aa98 c6b6
00000140: cfc7 7136 921f b436 8802 9e32 5d9e f336
00000150: 7a90 dcb5 0512 c1b6 ec54 deb3 4fb0 25b5
00000160: a75f 9c36 d27f 0db6 3e2a 8e36 ea60 65b6
00000170: 00e2 4335 7519 8935 6597 29b6 400d d1b6
00000180: 81a9 ca35 7803 4636 9c18 62b4 6516 1eb5
00000190: 1359 bbb5 2a29 0f36 5bc8 1136 f8bf b7b6
000001a0: 4dd2 0636 b233 8cb5 5fa3 00b5 83f1 18b6
000001b0: dd17 1836 5910 91b5 8f4c 72b5 3f23 22b6
000001c0: 2741 4335 93fa 8d35 61fb 0db6 90b0 00b5
000001d0: ea7f 1b35 8665 95b5 c152 b9b6 fff7 9235
000001e0: efc3 8436 1dbe 4eb6 8d01 3435 2759 0d36
000001f0: 27d6 a0b6 8445 bab6 93d4 2836 f37a 35b6
00000200: eb1e c436 ae1c 35b6 790d 96b6 64d4 d2b5
00000210: 3629 a4b5 5754 13b7 f870 4eb5 88a6 23b5
00000220: b05e a9b6 6122 03b6 0985 9736 cd5c 2536
00000230: f0f8 b136 26b4 45b5 c2dc 6db6 1e4b 9eb5
00000240: ad25 ad35 22fd d835 adf6 86b5 e82f 9236
00000250: 1a3f 4435 74f8 e9b6 a825 9136 ffd1 9c36
00000260: f1f3 9435 637f 83b5 8c67 90b5 f64a 04b6
00000270: b106 2d36 d8df 1f36 9582 9cb6 f247 20b6
00000280: c3f6 75b6 3d4b 6d36 4237 f434 4da9 fc35
00000290: a2b2 97b5 92d5 afb6 22b0 1db5 855f bfb5
000002a0: b1d1 7d35 1775 bdb6 319f cd35 cc95 a934
000002b0: 7cd9 9435 434c f935 31d3 ceb6 dbd1 12b5
000002c0: 8cda 46b6 f46c 6536 0109 1136 c2b7 6335
000002d0: e40f e8b5 d1b2 0a36 7ac4 0cb6 b898 9836
000002e0: bb2f cc36 a545 3136 a4d1 4cb6 8a5a 9635
000002f0: 1488 be36 f556 2eb6 e786 1eb6 ba50 11b6
00000300: c544 c1b5 f41d cdb3 cfb7 5a31 9597 8d36
00000310: 567f 9236 3908 65b6 3136 8c35 a182 0ab6
00000320: d407 9136 be6a 85b6 091b e234 3e4b 41b6
00000330: a4b8 4bb6 cabe 98b3 1dee aab6 5e3c 1835
00000340: 02ed 6836 b53a acb6 43a1 99b5 ec9a 8036
00000350: 4358 ce35 6b20 bfb5 af42 23b6 9d6f 4334
00000360: a738 23b6 d0ba afb6 fec9 b036 16a9 fb35
00000370: a684 b236 fb1b 6235 1c9d cc35 f740 e6b4
00000380: 6dba 52b6 a2d5 9e36 ade6 31b4 7817 f334
00000390: 2db0 2fb5 0b2f e8b5 242d 22b6 2bd9 5936
000003a0: b18a df35 de3b bdb4 b226 07b7 da61 4136
000003b0: fc0d 7d36 36cc 9135 1b9d 6136 40db 8ab6
000003c0: a5a2 fd35 7a3e 1ab2 c0fa d535 211f 1fb5
000003d0: 5aac 13b6 0008 03b6 a807 e6b5 8203 61b6
000003e0: d8b5 97b5 7238 bb33 f4df 5c36 f485 7c36
000003f0: be2e 9136 9e6c 11b5 5f75 2c36 954c f435
2.27383e-07 -2.1456456e-06 -2.0442337e-06 1.8911592e-06 -7.726067e-07 -5.8873347e-06 7.744707e-06 3.1368333e-07
-2.5006154e-06 5.1712995e-08 3.8304782e-07 -3.5747737e-06 -4.225162e-06 2.6753169e-06 -2.1971518e-06 6.3236996e-07
2.4164055e-07 -2.547607e-06 -1.2528118e-06 5.4076577e-06 3.4630823e-06 -1.7125324e-06 3.583259e-06 3.1121718e-07
1.7590925e-07 -5.264107e-06 2.4226001e-06 2.6781127e-06 -4.300757e-06 -9.547059e-07 1.493645e-07 -1.992244e-06
-1.9281246e-07 -3.7642635e-06 -5.2409587e-07 1.0358813e-06 7.486137e-07 -1.3604041e-06 -4.1597264e-06 1.3106863e-06
-2.129816e-06 -1.3644839e-06 6.363509e-07 4.7769263e-06 1.3778223e-06 4.656541e-06 -2.0320533e-06 -6.052648e-06
3.7462721e-06 3.5804915e-06 6.797619e-09 3.2988746e-07 -1.6266902e-06 -2.9474218e-06 2.3535536e-06 -8.810588e-08
-4.6262144e-06 -6.737644e-07 -8.0697555e-06 -5.261911e-06 1.6065658e-06 2.1665794e-07 -2.8731965e-06 3.5133387e-06
-4.1640956e-08 -7.508768e-07 8.763421e-06 -5.656116e-06 -2.2263293e-06 -4.4216313e-06 -7.0944463e-07 1.3613243e-06
2.179803e-06 -4.0005938e-07 -9.185854e-07 3.391598e-07 -1.7507942e-06 -3.2900723e-06 1.373386e-06 -5.9186323e-06
3.6028102e-06 5.3680933e-06 1.8394772e-08 7.2604003e-06 -1.6433326e-06 -5.753946e-06 -1.0353128e-07 -6.172385e-07
4.6602977e-06 -2.1085038e-06 4.2368474e-06 -3.418007e-06 7.2972034e-07 1.0214704e-06 -2.5271086e-06 -6.230228e-06
1.5099505e-06 2.9506318e-06 -2.1056843e-07 -5.8892175e-07 -1.395851e-06 2.1332621e-06 2.1723306e-06 -5.476173e-06
2.0089967e-06 -1.0445858e-06 -4.792145e-07 -2.2790343e-06 2.2663655e-06 -1.08081e-06 -9.026343e-07 -2.4160397e-06
7.273797e-07 1.0578245e-06 -2.115696e-06 -4.794065e-07 5.792814e-07 -1.1130912e-06 -5.5230635e-06 1.0950024e-06
3.9567162e-06 -3.0807053e-06 6.705748e-07 2.106253e-06 -4.793302e-06 -5.5513246e-06 2.5157685e-06 -2.7042668e-06
5.8448545e-06 -2.6987796e-06 -4.471917e-06 -1.5708033e-06 -1.2230946e-06 -8.78152e-06 -7.690537e-07 -6.0964567e-07
-5.0476156e-06 -1.9540532e-06 4.515638e-06 2.4640933e-06 5.303991e-06 -7.365037e-07 -3.544425e-06 -1.1793779e-06
1.290047e-06 1.6166925e-06 -1.005557e-06 4.356716e-06 7.3107515e-07 -6.972865e-06 4.3257205e-06 4.673609e-06
1.1097856e-06 -9.797335e-07 -1.0758972e-06 -1.9713166e-06 2.5782904e-06 2.382314e-06 -4.664364e-06 -2.3883736e-06
-3.665148e-06 3.5359546e-06 4.5488747e-07 1.8824736e-06 -1.1302366e-06 -5.2402693e-06 -5.8743365e-07 -1.4258409e-06
9.4554986e-07 -5.64627e-06 1.5320021e-06 3.1587695e-07 1.1090156e-06 1.8574141e-06 -6.1638643e-06 -5.469462e-07
-2.963151e-06 3.4187078e-06 2.1611925e-06 8.483149e-07 -1.7289972e-06 2.0667687e-06 -2.097599e-06 4.547732e-06
6.0852303e-06 2.6415594e-06 -3.0520396e-06 1.1202221e-06 5.678283e-06 -2.5978636e-06 -2.3622358e-06 -2.1653673e-06
-1.4399635e-06 -9.551505e-08 3.1827658e-09 4.219774e-06 4.365963e-06 -3.4128445e-06 1.0446585e-06 -2.0639638e-06
4.322248e-06 -3.9761353e-06 4.211545e-07 -2.8803038e-06 -3.0356832e-06 -7.112756e-08 -5.094115e-06 5.671226e-07
3.470865e-06 -5.132834e-06 -1.1446322e-06 3.8327325e-06 1.5373884e-06 -1.4240044e-06 -2.4327708e-06 1.8201395e-07
-2.4321869e-06 -5.2371543e-06 5.2687237e-06 1.8750168e-06 5.3202557e-06 8.423228e-07 1.5244909e-06 -4.2888107e-07
-3.1400953e-06 4.733637e-06 -1.6568329e-07 4.5279353e-07 -6.544895e-07 -1.7299038e-06 -2.4166156e-06 3.2461928e-06
1.6655159e-06 -3.5247552e-07 -8.0556365e-06 2.8816198e-06 3.7708078e-06 1.0862775e-06 3.361906e-06 -4.1382445e-06
1.8897305e-06 -8.978185e-09 1.5942715e-06 -5.9277414e-07 -2.2005029e-06 -1.9525178e-06 -1.7138564e-06 -3.3529655e-06
-1.13033e-06 8.7181334e-08 3.2912913e-06 3.7628897e-06 4.3267783e-06 -5.417477e-07 2.5698316e-06 1.8201705e-06

b_linear1.w_prior f4 [4, 256]
00000000: 0000 0000 0000 0000 0000 0000 0000 0000
00000010: 0000 0000 0000 0000 0000 0000 0000 0000
00000020: 0000 0000 0000 0000 0000 0000 0000 0000
00000030: 0000 0000 0000 0000 0000 0000 0000 0000
00000040: 0000 0000 0000 0000 0000 0000 0000 0000
00000050: 0000 0000 0000 0000 0000 0000 0000 0000
00000060: 0000 0000 0000 0000 0000 0000 0000 0000
00000070: 0000 0000 0000 0000 0000 0000 0000 0000
00000080: 0000 0000 0000 0000 0000 0000 0000 0000
00000090: 0000 0000 0000 0000 0000 0000 0000 0000
000000a0: 0000 0000 0000 0000 0000 0000 0000 0000
000000b0: 0000 0000 0000 0000 0000 0000 0000 0000
000000c0: 0000 0000 0000 0000 0000 0000 0000 0000
000000d0: 0000 0000 0000 0000 0000 0000 0000 0000
000000e0: 0000 0000 0000 0000 0000 0000 0000 0000
000000f0: 0000 0000 0000 0000 0000 0000 0000 0000
00000100: 0000 0000 0000 0000 0000 0000 0000 0000
00000110: 0000 0000 0000 0000 0000 0000 0000 0000
00000120: 0000 0000 0000 0000 0000 0000 0000 0000
00000130: 0000 0000 0000 0000 0000 0000 0000 0000
00000140: 0000 0000 0000 0000 0000 0000 0000 0000
00000150: 0000 0000 0000 0000 0000 0000 0000 0000
00000160: 0000 0000 0000 0000 0000 0000 0000 0000
00000170: 0000 0000 0000 0000 0000 0000 0000 0000
00000180: 0000 0000 0000 0000 0000 0000 0000 0000
00000190: 0000 0000 0000 0000 0000 0000 0000 0000
000001a0: 0000 0000 0000 0000 0000 0000 0000 0000
000001b0: 0000 0000 0000 0000 0000 0000 0000 0000
000001c0: 0000 0000 0000 0000 0000 0000 0000 0000
000001d0: 0000 0000 0000 0000 0000 0000 0000 0000
000001e0: 0000 0000 0000 0000 0000 0000 0000 0000
000001f0: 0000 0000 0000 0000 0000 0000 0000 0000
00000200: 0000 0000 0000 0000 0000 0000 0000 0000
00000210: 0000 0000 0000 0000 0000 0000 0000 0000
00000220: 0000 0000 0000 0000 0000 0000 0000 0000
00000230: 0000 0000 0000 0000 0000 0000 0000 0000
00000240: 0000 0000 0000 0000 0000 0000 0000 0000
00000250: 0000 0000 0000 0000 0000 0000 0000 0000
00000260: 0000 0000 0000 0000 0000 0000 0000 0000
00000270: 0000 0000 0000 0000 0000 0000 0000 0000
00000280: 0000 0000 0000 0000 0000 0000 0000 0000
00000290: 0000 0000 0000 0000 0000 0000 0000 0000
000002a0: 0000 0000 0000 0000 0000 0000 0000 0000
000002b0: 0000 0000 0000 0000 0000 0000 0000 0000
000002c0: 0000 0000 0000 0000 0000 0000 0000 0000
000002d0: 0000 0000 0000 0000 0000 0000 0000 0000
000002e0: 0000 0000 0000 0000 0000 0000 0000 0000
000002f0: 0000 0000 0000 0000 0000 0000 0000 0000
00000300: 0000 0000 0000 0000 0000 0000 0000 0000
00000310: 0000 0000 0000 0000 0000 0000 0000 0000
00000320: 0000 0000 0000 0000 0000 0000 0000 0000
00000330: 0000 0000 0000 0000 0000 0000 0000 0000
00000340: 0000 0000 0000 0000 0000 0000 0000 0000
00000350: 0000 0000 0000 0000 0000 0000 0000 0000
00000360: 0000 0000 0000 0000 0000 0000 0000 0000
00000370: 0000 0000 0000 0000 0000 0000 0000 0000
00000380: 0000 0000 0000 0000 0000 0000 0000 0000
00000390: 0000 0000 0000 0000 0000 0000 0000 0000
000003a0: 0000 0000 0000 0000 0000 0000 0000 0000
000003b0: 0000 0000 0000 0000 0000 0000 0000 0000
000003c0: 0000 0000 0000 0000 0000 0000 0000 0000
000003d0: 0000 0000 0000 0000 0000 0000 0000 0000
000003e0: 0000 0000 0000 0000 0000 0000 0000 0000
000003f0: 0000 0000 0000 0000 0000 0000 0000 0000
0.0 0.0 0.0 0.0 0.0 0.0 0.0 0.0
0.0 0.0 0.0 0.0 0.0 0.0 0.0 0.0
0.0 0.0 0.0 0.0 0.0 0.0 0.0 0.0
0.0 0.0 0.0 0.0 0.0 0.0 0.0 0.0
0.0 0.0 0.0 0.0 0.0 0.0 0.0 0.0
0.0 0.0 0.0 0.0 0.0 0.0 0.0 0.0
0.0 0.0 0.0 0.0 0.0 0.0 0.0 0.0
0.0 0.0 0.0 0.0 0.0 0.0 0.0 0.0
0.0 0.0 0.0 0.0 0.0 0.0 0.0 0.0
0.0 0.0 0.0 0.0 0.0 0.0 0.0 0.0
0.0 0.0 0.0 0.0 0.0 0.0 0.0 0.0
0.0 0.0 0.0 0.0 0.0 0.0 0.0 0.0
0.0 0.0 0.0 0.0 0.0 0.0 0.0 0.0
0.0 0.0 0.0 0.0 0.0 0.0 0.0 0.0
0.0 0.0 0.0 0.0 0.0 0.0 0.0 0.0
0.0 0.0 0.0 0.0 0.0 0.0 0.0 0.0
0.0 0.0 0.0 0.0 0.0 0.0 0.0 0.0
0.0 0.0 0.0 0.0 0.0 0.0 0.0 0.0
0.0 0.0 0.0 0.0 0.0 0.0 0.0 0.0
0.0 0.0 0.0 0.0 0.0 0.0 0.0 0.0
0.0 0.0 0.0 0.0 0.0 0.0 0.0 0.0
0.0 0.0 0.0 0.0 0.0 0.0 0.0 0.0
0.0 0.0 0.0 0.0 0.0 0.0 0.0 0.0
0.0 0.0 0.0 0.0 0.0 0.0 0.0 0.0
0.0 0.0 0.0 0.0 0.0 0.0 0.0 0.0
0.0 0.0 0.0 0.0 0.0 0.0 0.0 0.0
0.0 0.0 0.0 0.0 0.0 0.0 0.0 0.0
0.0 0.0 0.0 0.0 0.0 0.0 0.0 0.0
0.0 0.0 0.0 0.0 0.0 0.0 0.0 0.0
0.0 0.0 0.0 0.0 0.0 0.0 0.0 0.0
0.0 0.0 0.0 0.0 0.0 0.0 0.0 0.0
0.0 0.0 0.0 0.0 0.0 0.0 0.0 0.0

b_linear1.b_prior f4 [1, 256]
00000000: 1000 94af a2d9 3630 9b72 90b0 beba 2f30
00000010: 9a98 49af 9613 d6b0 1a7f 2b31 9e54 40af
00000020: c1d4 0db0 0066 c82d 74f6 9530 c4f7 6db0
00000030: 2ab9 19b1 44a4 1930 bc40 28b0 7c44 f42f
00000040: f279 b62f 435b 30b0 0c71 61b0 0b41 0731
00000050: 6b58 7030 df53 a22e 18f4 ca30 3bfd 83af
00000060: 249e 1730 56c8 c6b0 6367 632f 7725 ae30
00000070: cdff aab0 a7b3 5d30 35d4 8fae 85d0 05b0
00000080: 1f25 8f30 8df5 02b1 66d1 7ab0 f086 892f
00000090: 8cc9 b830 606b f2af 0c55 9db0 5c04 4830
000000a0: 6ed3 9daf e99f 6db0 ddaa 4330 cd4c a430
000000b0: 5486 c82e 723e 2031 a469 a3af 4604 10b1
000000c0: 77c1 0131 c1c8 9b30 eda7 bb2f 5054 9eaf
000000d0: 44c8 cb2f 8504 68b0 b61c 4530 7257 852f
000000e0: 3ca0 6eb0 d229 21af 2185 36b1 3160 15b1
000000f0: 577a 1131 266c 48b0 a656 8ab0 b257 c530
00000100: f03b 1e2f 28b4 1eaf 0949 2831 4a78 a9b0
00000110: 0ea9 e6b0 e494 f2b0 0d8e 1b30 6860 ad2f
00000120: b35c 9e30 bbd6 e02f 968e cfaf ec46 6baf
00000130: 476f 52b0 94c5 c5b0 adcb 9d2e 7b8d 04b1
00000140: 49f4 0a30 8fe5 5730 9142 2eb0 6cdf 0c31
00000150: ffd3 0d2f 90c9 19b1 21fa 69b0 521b e2af
00000160: d703 0b31 1b97 63b0 fac0 cd30 a29f cbb0
00000170: 27b0 ccaf ea40 2930 5636 9cb0 7ae3 c8b0
00000180: e314 6bb0 95a8 6830 a164 b52e fe1b 652e
00000190: d933 b32f ade8 4aaf 1423 8130 18ef e9b0
000001a0: 54a2 472f dac4 c4af f105 0faf f6e8 80b0
000001b0: 6e77 2d30 1625 d7af 65c8 52ac c4d3 4ab0
000001c0: 56c8 602f 0047 1e30 4ee3 99b0 ee54 06af
000001d0: de85 86ae 38f5 efae fcd7 b7b0 be98 acaf
000001e0: 7cad b430 66b5 87b0 12b6 c52e 9d03 4730
000001f0: af17 e8b0 99b1 04b1 b51e 1f30 889f 58b0
00000200: ed87 3031 dc07 3faf 91a3 3eb1 bf09 59ae
00000210: 1707 25b0 0c11 3bb1 4f0e 5db0 683f 3eaf
00000220: 4c61 afb0 4444 acb0 cf57 c730 1ef8 c430
00000230: 8c8a 0231 edeb 1fb0 e15f 4fb0 382c e22f
00000240: acd7 b12f acbd 1b30 5408 d7b0 2897 3b2f
00000250: 0455 0830 9839 e7b0 2fa5 3930 4231 df30
00000260: f94c 0e30 3ba2 bfaf 9a61 8830 a6aa 45b0
00000270: 2df8 2330 c606 81ad 7cee d7b0 da19 4b2f
00000280: cda1 58b0 c5fa 882d f629 4b2f e570 1230
00000290: 0095 3a2f eed5 24b1 c663 b430 ec56 212f
000002a0: f7be 09b0 5e40 e8b0 5b9f cd2f b6ff 6a30
000002b0: b2cd 922f e354 f72f fb37 cab0 3397 a9af
000002c0: 634d abb0 d002 3330 1447 1930 0712 7030
000002d0: d815 bdaf 3b1b 992f 2a91 ebaf f946 a630
000002e0: 8afd e930 28de 7d30 7821 c5b0 128e 4c2f
000002f0: 9285 6830 4234 60b0 0bb7 5ab0 0b4a 11b0
00000300: ebba 22b0 f05a dd2e 2ff0 f8af 6f15 0d30
00000310: d007 a330 4931 26b0 7f37 a430 0a9c 99b0
00000320: c262 0231 3224 deb0 84eb 10b0 268e 66b0
00000330: 245a beb0 1a5c c4af c9f5 46b0 5f99 9a2e
00000340: 18c0 b530 53ad eab0 a08b 9e30 7bb7 1c30
00000350: 2cc7 b52f ab0a 67af a086 2db0 1d4c 32af
00000360: 991e cdaf 3759 16b1 850c 0131 4faa 4d30
00000370: 1688 d630 7ada fbae 8e92 752f d6bb 58b0
00000380: b4c7 35b0 b9c6 b430 0ca0 b0ae ade3 a22f
00000390: f9cd 3d30 0fe3 88af f892 d6af 21b4 e930
000003a0: 00ab 3930 3e22 f12f a754 2eb1 aad2 5830
000003b0: 10b1 3130 f8e3 3a30 f734 ea2f d26e 0aaf
000003c0: 1081 652e afe6 092d b9fa a42f 70c9 32b0
000003d0: 119d 49b0 9858 11b0 8141 60b0 9e2a 93af
000003e0: fdc5 24b0 522a 8b2f 5268 dc2f e51f 0d30
000003f0: d93a 4430 3c3e 0030 cb24 372e ff48 802f
-2.6921088e-10 6.652049e-10 -1.0509952e-09 6.3930006e-10 -1.8335058e-10 -1.5576116e-09 2.4956024e-09 -1.749236e-10
-5.159784e-10 2.2782665e-11 1.0911223e-09 -8.6572194e-10 -2.2369684e-09 5.589451e-10 -6.1210037e-10 4.4432003e-10
3.3192255e-10 -6.415812e-10 -8.201517e-10 1.9682058e-09 8.743714e-10 7.3818056e-11 1.476681e-09 -2.4008692e-10
5.515821e-10 -1.4463335e-09 2.068226e-10 1.2670814e-09 -1.2441831e-09 8.0654633e-10 -6.540583e-11 -4.868144e-10
1.041517e-09 -1.905707e-09 -9.1247043e-10 2.5016034e-10 1.3445045e-09 -4.4095838e-10 -1.1447425e-09 7.276577e-10
-2.8708363e-10 -8.6447344e-10 7.11834e-10 1.1954399e-09 9.1188085e-11 2.331856e-09 -2.972459e-10 -2.0957187e-09
1.8881943e-09 1.1334792e-09 3.413442e-10 -2.879994e-10 3.7067782e-10 -8.440753e-10 7.1708983e-10 2.4254693e-10
-8.68116e-10 -1.4657722e-10 -2.656016e-09 -2.1737032e-09 2.116982e-09 -7.2913264e-10 -1.0065448e-09 1.4358561e-09
1.439131e-10 -1.443402e-10 2.4488733e-09 -1.2330557e-09 -1.6782751e-09 -1.7650135e-09 5.659054e-10 3.1537017e-10
1.152236e-09 4.0897938e-10 -3.7754394e-10 -2.1398322e-10 -7.655569e-10 -1.4389792e-09 7.1757135e-11 -1.928895e-09
5.055126e-10 7.8542767e-10 -6.339543e-10 2.0499682e-09 1.2899191e-10 -2.2379005e-09 -8.512036e-10 -4.1128573e-10
2.0229345e-09 -8.279685e-10 1.497056e-09 -1.4815564e-09 -3.7232548e-10 6.157409e-10 -1.1365937e-09 -1.4616568e-09
-8.5522184e-10 8.464068e-10 8.248802e-11 5.2093434e-11 3.259675e-10 -1.8454456e-10 9.395955e-10 -1.7020936e-09
1.8156615e-10 -3.5792064e-10 -1.3007885e-10 -9.379437e-10 6.3106753e-10 -3.9134623e-10 -2.9954036e-12 -7.378811e-10
2.0443855e-10 5.758096e-10 -1.1196819e-09 -1.2217402e-10 -6.117394e-11 -1.0912021e-10 -1.3376389e-09 -3.1395148e-10
1.3146031e-09 -9.874099e-10 8.990865e-11 7.2400913e-10 -1.6886953e-09 -1.930948e-09 5.78875e-10 -7.880705e-10
2.5688636e-09 -1.7374141e-10 -2.7741616e-09 -4.9348744e-11 -6.0036726e-10 -2.7221772e-09 -8.0419665e-10 -1.7302926e-10
-1.2760579e-09 -1.2534049e-09 1.4504112e-09 1.4331396e-09 1.8996245e-09 -5.8179134e-10 -7.5442413e-10 4.114058e-10
3.2349357e-10 5.665821e-10 -1.5645676e-09 1.7061252e-10 4.9597326e-10 -1.6823831e-09 6.753735e-10 1.6239385e-09
5.1768684e-10 -3.485797e-10 9.923042e-10 -7.191069e-10 5.9651734e-10 -1.466861e-11 -1.571109e-09 1.8471927e-10
-7.8810275e-10 1.5572774e-11 1.847765e-10 5.3274923e-10 1.6969537e-10 -2.3986746e-09 1.3125081e-09 1.4673746e-10
-5.0111687e-10 -1.6898516e-09 3.7402512e-10 8.549209e-10 2.67034e-10 4.4989354e-10 -1.4713345e-09 -3.0848354e-10
-1.2463882e-09 6.512382e-10 5.5762084e-10 8.733711e-10 -3.439442e-10 2.7849886e-10 -4.2849396e-10 1.2098261e-09
1.7025041e-09 9.2356567e-10 -1.4343149e-09 1.8604165e-10 8.4590923e-10 -8.156499e-10 -7.956806e-10 -5.2855914e-10
-5.9200883e-10 1.006607e-10 -4.5281598e-10 5.132596e-10 1.1862031e-09 -6.0460487e-10 1.1948343e-09 -1.1176564e-09
1.8973627e-09 -1.6162913e-09 -5.272158e-10 -8.387552e-10 -1.3849939e-09 -3.5717634e-10 -7.238126e-10 7.0303534e-11
1.322408e-09 -1.7075003e-09 1.1535697e-09 5.701321e-10 3.3065228e-10 -2.1013118e-10 -6.3128347e-10 -1.6216047e-10
-3.7311024e-10 -2.1878586e-09 1.8779087e-09 7.482059e-10 1.5609227e-09 -1.1452968e-10 2.2334687e-10 -7.8847273e-10
-6.613121e-10 1.3153204e-09 -8.0319834e-11 2.9629402e-10 6.9050504e-10 -2.489959e-10 -3.90308e-10 1.7004177e-09
6.7545614e-10 4.3861975e-10 -2.5368452e-09 7.8879714e-10 6.4643846e-10 6.799037e-10 4.2601986e-10 -1.2590398e-10
5.2183202e-11 7.83877e-12 3.0009575e-10 -6.504228e-10 -7.334658e-10 -5.287659e-10 -8.158381e-10 -2.6769426e-10
-5.994421e-10 2.5314023e-10 4.009189e-10 5.1340826e-10 7.138801e-10 4.665457e-10 4.164206e-11 2.333493e-10

b_linear2.w f4 [256, 256]
00000000: 4b2a c2b7 fbc7 fcb7 3ad2 1f37 b6d6 eeb7
00000010: 8535 4d36 43e6 1237 6cc9 12b6 83f7 47b6
00000020: fd68 0c37 e19e ce37 3635 58b8 bb7d 48b8
00000030: 7e8b 1fb7 8663 e2b6 361e 63b8 58d1 ad37
00000040: 03d3 98b7 7b62 d5b7 0c41 3437 d548 4e38
00000050: 4aef 1238 6c3c 6238 8dfc 3738 516c 0cb8
00000060: bb64 92b6 eaa1 08b8 d3be 92b7 556c 1237
00000070: 830f 14b8 93cb 0738 1613 6838 7a61 8fb8
00000080: e34c 3f38 47f1 3c37 4843 1038 df6a 1f38
00000090: d3a1 c037 7056 6737 db65 28b8 257f 5f37
000000a0: 2c20 b936 88fa 1b38 a979 11b8 8809 4c38
000000b0: 4516 6236 5904 5938 3ffe 2538 1e4d 49b8
000000c0: 0a2e 2eb8 a424 9ab7 ed6d 4fb8 96e2 b5b4
000000d0: aa09 b7b7 9c54 ff36 6ca0 22b8 9a5d dcb7
000000e0: 1e22 74b7 5ca2 d9b7 e033 1338 a253 b737
000000f0: 1239 a8b6 30d4 a037 b677 9a37 1018 1b38
00000100: b60f 1ab8 75e9 6fb8 4db0 3fb8 1f2e e3b5
00000110: c08d 4938 d0d8 1638 d8a7 5f34 36a2 1838
00000120: 1ab3 a6b5 8363 6a37 77ea b6b6 6d12 08b8
00000130: 0aa7 63b8 15df 3f35 6910 9fb7 c961 85b8
00000140: 87b4 4537 94cc 10b8 d1fe e537 f4cb 75b8
00000150: 690d 61b6 8636 e836 ae56 37b7 11c5 2a38
00000160: 799b 2038 ea88 5e38 4578 7c37 aaa9 dbb7
00000170: bae4 cc37 ff19 9db7 f97c eb36 db56 94b8
00000180: 21e8 15b7 3137 7637 4d6b 4536 a1e6 2438
00000190: ea92 14b7 acd6 3d37 b49e eab7 d154 7835
000001a0: 8e4f 57b7 adc0 ee38 38ae e937 d965 a537
000001b0: c2bb 2db7 5069 6637 a80c 9637 ba5d f836
000001c0: 0d88 26b7 9709 bfb7 46ee 7cb6 8995 3a38
000001d0: 542a 99b7 a3cd f4b7 ea41 3238 3b65 a1b6
000001e0: 220e f237 fea4 3737 8b77 bbb7 1e07 fcb7
000001f0: 070c ddb7 18be 8937 568b 4db7 a64f ce37
00000200: d838 3f37 308f 77b8 21d7 6938 33ad 81b8
00000210: 53a8 81b7 ba4b f836 b075 88b8 4e9e 6734
00000220: bd04 e737 c94d b837 e4a9 51b8 817b 2337
00000230: f090 5b35 7fc5 ab37 0145 cb37 3cb7 6638
00000240: 54a8 cbb7 0eeb 2138 793d b2b7 805c 3b38
00000250: 36b8 17b8 91aa 47b7 ab36 23b7 af82 4b36
00000260: f677 85b7 be51 7c37 2b71 15b8 ccd8 7b38
00000270: 74e2 a237 0b99 a337 4592 96b7 1a9d 6838
00000280: 63fa 0cb7 4c8d b2b7 6540 37b6 f766 9db5
00000290: 010a d338 b5a0 f337 1051 0eb8 df51 ce37
000002a0: 2472 02b8 f8c9 67b7 0251 24b8 ee63 1db7
000002b0: 1b0a 2438 a12b 8337 1079 d1b6 943f 9636
000002c0: c1b3 24b7 6fe1 c937 4e66 0638 c44f a637
000002d0: d384 eeb7 b225 a037 0814 57b8 003d 37b8
000002e0: 140f 2e38 4710 89b7 101e c637 cf05 c8b7
000002f0: 7bd3 ed37 d2a2 f537 8eb5 c637 7107 1037
00000300: 5480 0338 5c18 2936 0064 5737 3f11 d936
00000310: 3b02 a5b7 73a3 0db8 7254 9cb6 1325 8fb7
00000320: 0299 b538 cf74 4d38 e8ee c1b7 e8b2 83b7
00000330: f162 fdb7 b625 4437 7513 3738 fbc8 ebb7
00000340: 8778 e6b7 07a4 80b7 b29a af37 c804 4438
00000350: 946b 0338 c8ae d2b7 8738 b6b7 bfd1 a6b7
00000360: 341d 26b8 98f3 63b7 c972 0138 769f fa37
00000370: b1dd 8b36 443a c437 5b02 90b7 3d7e 69b8
00000380: 5d36 cd36 95b7 a537 fe6a 10b7 e353 28b8
00000390: 3dc0 2f38 6b20 bb36 e83e 9837 3f5f c638
000003a0: d5bb 7c36 8a7d 86b8 9fea 5e38 e8dd 8337
000003b0: 695c 1536 8505 1438 6776 26b6 de47 ae37
000003c0: 22c7 8337 566e 3b38 01ff f5b7 50eb c737
000003d0: d586 8038 a573 c0b7 3233 beb7 7efd 7238
000003e0: 7cac 0d38 9a13 e936 26c4 ed37 b8c9 01b7
000003f0: e090 41b8 2216 2ab8 dbff afb4 683b 70b8
-2.3146296e-05 -3.0133864e-05 9.526086e-06 -2.8471793e-05 3.0578533e-06 8.75589e-06 -2.1872938e-06 -2.9797382e-06
8.369095e-06 2.4631097e-05 -5.154797e-05 -4.780081e-05 -9.509617e-06 -6.746911e-06 -5.4149154e-05 2.072069e-05
-1.8218072e-05 -2.5437437e-05 1.0743981e-05 4.9182057e-05 3.5031968e-05 5.393887e-05 4.3865806e-05 -3.347948e-05
-4.3628656e-06 -3.257572e-05 -1.7493416e-05 8.727501e-06 -3.5300396e-05 3.23761e-05 5.5330886e-05 -6.836928e-05
4.5609555e-05 1.126185e-05 3.4394936e-05 3.8008086e-05 2.2963539e-05 1.3788798e-05 -4.014918e-05 1.3321439e-05
5.517175e-06 3.7188205e-05 -3.4684e-05 4.8646267e-05 3.3689587e-06 5.174088e-05 3.957585e-05 -4.7993955e-05
-4.152771e-05 -1.8375293e-05 -4.9455022e-05 -3.387874e-07 -2.18198e-05 7.609442e-06 -3.8773214e-05 -2.626963e-05
-1.4551477e-05 -2.594402e-05 3.5095843e-05 2.1854245e-05 -5.013434e-06 1.9172294e-05 1.8413975e-05 3.697729e-05
-3.6731093e-05 -5.7199464e-05 -4.570214e-05 -1.6926241e-06 4.805415e-05 3.596471e-05 2.0829555e-07 3.6390695e-05
-1.2420089e-06 1.3970656e-05 -5.451318e-06 -3.2442087e-05 -5.4276585e-05 7.147767e-07 -1.8961919e-05 -6.360148e-05
1.1784147e-05 -3.4522804e-05 2.7417585e-05 -5.8602498e-05 -3.3535418e-06 6.920486e-06 -1.0927832e-05 4.071469e-05
3.8291768e-05 5.3056436e-05 1.5048373e-05 -2.618584e-05 2.4425204e-05 -1.8727964e-05 7.0180945e-06 -7.073368e-05
-8.935139e-06 1.4675593e-05 2.9417745e-06 3.9315437e-05 -8.8556935e-06 1.131526e-05 -2.7968876e-05 9.2510624e-07
-1.2833521e-05 0.00011384613 2.7856891e-05 1.971696e-05 -1.0355319e-05 1.3733588e-05 1.7887287e-05 7.401887e-06
-9.926048e-06 -2.277344e-05 -3.768962e-06 4.448512e-05 -1.8258732e-05 -2.9182824e-05 4.2499894e-05 -4.8099587e-06
2.885523e-05 1.0946065e-05 -2.2347804e-05 -3.0044055e-05 -2.6350854e-05 1.6420192e-05 -1.2251394e-05 2.4594203e-05
1.1397722e-05 -5.9022743e-05 5.5751883e-05 -6.18346e-05 -1.545638e-05 7.3997917e-06 -6.506906e-05 2.1571142e-07
2.7539552e-05 2.197073e-05 -4.9987706e-05 9.744313e-06 8.179477e-07 2.0476755e-05 2.4231618e-05 5.5006924e-05
-2.427787e-05 3.8604303e-05 -2.1247879e-05 4.467042e-05 -3.6172765e-05 -1.1901037e-05 -9.7282855e-06 3.0325425e-06
-1.5910697e-05 1.5039403e-05 -3.5629764e-05 6.004497e-05 1.9417355e-05 1.950238e-05 -1.7949505e-05 5.5459423e-05
-8.402948e-06 -2.128505e-05 -2.7306608e-06 -1.1727378e-06 0.000100631274 2.9042692e-05 -3.3930934e-05 2.4595238e-05
-3.1100717e-05 -1.38156975e-05 -3.917609e-05 -9.381196e-06 3.911006e-05 1.5636733e-05 -6.242779e-06 4.47775e-06
-9.817014e-06 2.4066043e-05 3.204337e-05 1.9825886e-05 -2.8433662e-05 1.909104e-05 -5.127865e-05 -4.368741e-05
4.1498875e-05 -1.6339252e-05 2.3617438e-05 -2.3844563e-05 2.835108e-05 2.9282095e-05 2.3687982e-05 8.584801e-06
3.135235e-05 2.5197141e-06 1.2838282e-05 6.4691117e-06 -1.9670571e-05 -3.3769244e-05 -4.658993e-06 -1.7064192e-05
8.6592525e-05 4.8984595e-05 -2.3118642e-05 -1.5699727e-05 -3.0206023e-05 1.1691291e-05 4.364872e-05 -2.8107772e-05
-2.7474262e-05 -1.533517e-05 2.0933661e-05 4.6734494e-05 3.1333024e-05 -2.511534e-05 -2.1722413e-05 -1.9886413e-05
-3.960468e-05 -1.358697e-05 3.08629e-05 2.9876577e-05 4.168331e-06 2.3392153e-05 -1.7167235e-05 -5.5669097e-05
6.115805e-06 1.975502e-05 -8.60798e-06 -4.0132447e-05 4.1902287e-05 5.5768082e-06 1.8149105e-05 9.459117e-05
3.7660259e-06 -6.4130014e-05 5.3147432e-05 1.571975e-05 2.225652e-06 3.529109e-05 -2.4804847e-06 2.0775882e-05
1.5709145e-05 4.4687033e-05 -2.9325021e-05 2.3832225e-05 6.12863e-05 -2.2942035e-05 -2.2673605e-05 5.793338e-05
3.377766e-05 6.946223e-06 2.834394e-05 -7.7359655e-06 -4.614971e-05 -4.055177e-05 -3.278245e-07 -5.7275785e-05

b_linear2.b f4 [1, 256]
00000000: 971d 9e37 b980 e1b7 6c4d 6d36 def1 15b7
00000010: 5eac bcb6 8315 11b8 57e8 7237 4f4d 6636
00000020: d0a0 10b8 029a 9eb6 45a7 9737 2aa0 3e37
00000030: 2cad a8b7 eb05 0ab8 48fa 85b7 f431 59b5
00000040: 721e d2b6 db8e 3237 cdbd 4838 eea3 b637
00000050: e2d7 1638 a9f4 0cb8 bae1 3438 e716 f737
00000060: 2546 c0b7 35eb 85b7 2671 24b8 584d 11b8
00000070: c7f2 06b7 572c bc37 61a3 8837 1c77 62b8
00000080: e9d9 2938 8429 4038 6db8 bf37 39c3 9bb6
00000090: ea41 2736 6ce9 7eb7 d7a9 0db8 87e2 5f36
000000a0: 0941 3a37 99aa 57b5 86f1 9b36 b003 9cb7
000000b0: 27a7 fbb6 229a 1638 d4c4 45b6 b266 efb6
000000c0: 7421 8037 804e a0b7 74ea e5b7 2414 56b7
000000d0: a6b4 2eb7 f660 d735 9970 0a37 757f 0336
000000e0: 8c39 5db7 80f3 7638 c785 59b6 5cfa d3b6
000000f0: a83a 8bb6 42af cc35 fb8d f037 1c78 c237
00000100: ef9a b936 88cc a6b7 7f08 1ab8 569b 3e37
00000110: c646 e837 20c6 e536 0928 81b7 0216 4838
00000120: b39c f6b7 acaf 31b8 9809 feb6 45fa 6eb7
00000130: 4ad6 11b8 cf34 5837 1ebc 1836 a5d1 d236
00000140: 5450 2d38 8d09 bdb7 0d79 0338 9976 9636
00000150: afd7 b3b7 99f9 6837 2fa9 9fb7 2dd7 2c38
00000160: 2976 b636 dc20 2738 a22d 9237 fe7f 0cb8
00000170: 61d7 f734 406a 2737 6763 43b6 7057 17b7
00000180: cf6b 37b7 9224 0db8 a754 6a38 f040 7937
00000190: 3450 7838 f939 9237 71db c9b7 f370 07b8
000001a0: ce22 3837 4c52 a437 be2d 8db5 b1a2 1b37
000001b0: e6d4 ad36 56e6 7637 7b8b a7b7 65a7 5238
000001c0: 3264 ad37 95e4 4ab8 2fd7 1838 acf6 9036
000001d0: 339a 51b6 5bda c4b7 7e9c 3937 8018 b737
000001e0: 82a9 22b7 8bce 9fb7 b110 f1b6 05ad c737
000001f0: 0090 c337 dac3 c737 cfe1 9c37 f84a 7138
00000200: 1dbf 1337 2632 f237 259b 8937 8e78 d536
00000210: 2870 b5b7 0176 6638 0770 a4b7 a705 c536
00000220: 8282 a037 f7d5 fc36 584b 0637 e903 b8b7
00000230: ae3a 48b7 5dcd b2b7 a933 6637 9384 7f37
00000240: 1777 39b7 e025 4637 61ae 0238 aa43 a9b7
00000250: b8aa 1236 6142 cb37 372a 55b7 ae41 8138
00000260: ff1c 0cb7 9233 12b8 00ac 1db5 f4cb 8237
00000270: fe0b 9937 5cd4 c836 22fc 5a37 bc42 83b5
00000280: dfa3 d9b7 8403 1638 ea40 0bb8 3e22 af37
00000290: 425a 4538 b57a 1538 aef6 0f38 8fa5 c937
000002a0: 6522 fe36 cb4b 16b8 922b 06b7 7d93 fa37
000002b0: ccd0 0c37 1451 67b7 78ea 6a38 c1bf 0437
000002c0: be67 d7b7 4d03 acb7 56e8 0eb7 44e1 2f38
000002d0: ac21 43b7 3602 5a35 c9eb af37 eddf dcb7
000002e0: 4148 e0b7 d988 90b7 ac71 e136 9b68 16b8
000002f0: be2c e0b7 d872 97b7 1690 97b7 9a07 ceb7
00000300: ea9a 2238 c5b3 9cb7 8eda 0037 f8b9 3037
00000310: 1537 a5b6 0e2d 5337 e846 1bb7 7316 a4b6
00000320: b4aa adb7 bafb d137 f82a 0138 f846 0238
00000330: 220b b3b6 5abb 9437 0465 3738 0b70 65b7
00000340: d687 fc37 cc2e d236 65e2 dcb6 0a53 7437
00000350: 9a64 8e37 6d53 f1b7 79a9 88b6 76dc 0d37
00000360: b8f5 09b8 6a95 ed37 7197 b337 326e a0b7
00000370: 3b6f 98b7 35ba 3238 9ffe c134 c4e0 71b7
00000380: 2bf4 8cb7 8cf9 1536 4e91 9937 f7d5 a2b7
00000390: 599b 8eb6 4f3e 21b7 61ae 3637 392e 7337
000003a0: 74ba 0c34 ece1 26b7 49f9 2f38 686f 2cb7
000003b0: 5cc5 4eb7 aad9 d0b5 d57b c636 c49c 3136
000003c0: 1a74 7736 a0a1 7e34 7970 11b8 c2c1 3a37
000003d0: b4a6 85b6 4380 dfb7 01d6 a7b7 0c89 8d36
000003e0: 66f3 4bb7 8006 3938 7a38 0338 08d8 2b37
000003f0: 424a d9b7 90e9 d2b7 aa4a 9e37 8707 b137
1.8848847e-05 -2.6882031e-05 3.5360817e-06 -8.937406e-06 -5.622903e-06 -3.459073e-05 1.447842e-05 3.431767e-06
-3.4482044e-05 -4.726696e-06 1.8078494e-05 1.1362174e-05 -2.01078e-05 -3.2907275e-05 -1.5971382e-05 -8.091149e-07
-6.262032e-06 1.0642888e-05 4.786048e-05 2.1772426e-05 3.5963843e-05 -3.360646e-05 4.312557e-05 2.945536e-05
-2.2920847e-05 -1.5964362e-05 -3.9206025e-05 -3.4642726e-05 -8.043548e-06 2.2431994e-05 1.6288543e-05 -5.3993528e-05
4.0495685e-05 4.581503e-05 2.2854854e-05 -4.642087e-06 2.4923306e-06 -1.51939275e-05 -3.3775195e-05 3.3361446e-06
1.1101606e-05 -8.0341994e-07 4.647477e-06 -1.8598366e-05 -7.499842e-06 3.5906334e-05 -2.9469857e-06 -7.1347104e-06
1.5274367e-05 -1.911004e-05 -2.7408103e-05 -1.2760083e-05 -1.0413269e-05 1.6046968e-06 8.251657e-06 1.959471e-06
-1.3186025e-05 5.8877748e-05 -3.2413388e-06 -6.3174357e-06 -4.1493513e-06 1.5250191e-06 2.8676344e-05 2.3182532e-05
5.5314663e-06 -1.9883984e-05 -3.6724374e-05 1.13610495e-05 2.7689512e-05 6.8477966e-06 -1.5396641e-05 4.7704212e-05
-2.9398454e-05 -4.2363696e-05 -7.5709067e-06 -1.4244176e-05 -3.4770266e-05 1.2886899e-05 2.2759264e-06 6.2828935e-06
4.1321226e-05 -2.2535003e-05 3.134557e-05 4.484155e-06 -2.1438898e-05 1.3886392e-05 -1.903306e-05 4.1208394e-05
5.4377783e-06 3.9846505e-05 1.7425806e-05 -3.3497803e-05 4.6164044e-07 9.978714e-06 -2.9115124e-06 -9.0206595e-06
-1.0932751e-05 -3.365108e-05 5.5868786e-05 1.4856676e-05 5.9202503e-05 1.7431552e-05 -2.4063253e-05 -3.22917e-05
1.0975358e-05 1.9588646e-05 -1.0518631e-06 9.2765995e-06 5.1805864e-06 1.4716372e-05 -1.9972902e-05 5.02238e-05
2.0669864e-05 -4.8373437e-05 3.644003e-05 4.320251e-06 -3.1233183e-06 -2.34667e-05 1.10632955e-05 2.1826709e-05
-9.695419e-06 -1.9050456e-05 -7.184303e-06 2.3803217e-05 2.3312867e-05 2.381385e-05 1.87018e-05 5.7528698e-05
8.80638e-06 2.8872e-05 1.6403917e-05 6.361929e-06 -2.1629108e-05 5.4946173e-05 -1.960249e-05 5.8717155e-06
1.9134259e-05 7.535094e-06 8.004565e-06 -2.193633e-05 -1.1934591e-05 -2.1314883e-05 1.3721096e-05 1.5230052e-05
-1.1054587e-05 1.1810538e-05 3.115682e-05 -2.0177878e-05 2.1855067e-06 2.4230396e-05 -1.2705618e-05 6.163433e-05
-8.351401e-06 -3.485714e-05 -5.873735e-07 1.559218e-05 1.8244606e-05 5.9851864e-06 1.3052517e-05 -9.779683e-07
-2.5944724e-05 3.576606e-05 -3.320064e-05 2.0877571e-05 4.705252e-05 3.5638648e-05 3.4323595e-05 2.4038161e-05
7.573794e-06 -3.5833375e-05 -7.997167e-06 2.9871002e-05 8.393265e-06 -1.378755e-05 5.6008314e-05 7.912459e-06
-2.5678306e-05 -2.0505535e-05 -8.5179545e-06 4.1933046e-05 -1.1630746e-05 8.1214546e-07 2.0971422e-05 -2.6330317e-05
-2.6736527e-05 -1.7229862e-05 6.7187557e-06 -3.586021e-05 -2.6723716e-05 -1.8054081e-05 -1.8067698e-05 -2.4560653e-05
3.8768085e-05 -1.868036e-05 7.680281e-06 1.0533717e-05 -4.9237956e-06 1.258707e-05 -9.255229e-06 -4.8901943e-06
-2.0702697e-05 2.503196e-05 3.0796014e-05 3.106051e-05 -5.3359117e-06 1.7730217e-05 4.3724678e-05 -1.3675551e-05
3.0103995e-05 6.2639356e-06 -6.5828667e-06 1.4562867e-05 1.6974565e-05 -2.8768287e-05 -4.072845e-06 8.455585e-06
-3.289219e-05 2.8322178e-05 2.1408983e-05 -1.91248e-05 -1.8171608e-05 4.2611926e-05 3.6134313e-07 -1.4417052e-05
-1.6803e-05 2.2347986e-06 1.8306684e-05 -1.941154e-05 -4.2500146e-06 -9.610855e-06 1.0888646e-05 1.4494691e-05
1.3106347e-07 -9.946973e-06 4.1955416e-05 -1.0277938e-05 -1.2324508e-05 -1.5560556e-06 5.915276e-06 2.6466305e-06
3.6873448e-06 2.3714392e-07 -3.4675442e-05 1.1131577e-05 -3.9831157e-06 -2.6643398e-05 -2.0007605e-05 4.218082e-06
-1.21564135e-05 4.411349e-05 3.128543e-05 1.0242693e-05 -2.5902995e-05 -2.5142712e-05 1.8869836e-05 2.110355e-05

b_linear2.w_prior f4 [256, 256]
00000000: 0b61 cdaf 17de 58b1 01c4 5331 1236 9ab2
00000010: 128f 8132 37c3 b931 5231 8431 0145 54b1
00000020: 9de4 e631 522d 2eb1 26a3 cab1 986b 54b2
00000030: c1f7 84b1 7c12 0832 1cc9 49b2 6193 a231
00000040: 3f56 07b2 3be2 7ab2 f232 0432 786a 6632
00000050: bef0 8132 9618 6a32 34e5 f431 aaca 2fb2
00000060: 2771 74b1 3c92 04b2 e8e3 b6b0 368c e7b0
00000070: 0512 30b2 92c4 3e32 6c28 4432 f14b a2b2
00000080: 105c d631 19c6 b531 69f2 ae31 50db a732
00000090: aa3a 8231 f780 4c30 1ce0 14b2 268c cb31
000000a0: fa92 2231 1d16 af32 5727 afb2 f9ba 7c32
000000b0: dc6b f830 cf1a b832 1c59 8132 4668 b2b2
000000c0: f299 1fb2 be8d 1ab2 c977 7bb2 2e2b 40b1
000000d0: 3e8e a8b1 ff26 2032 072e 95b2 25f4 63b2
000000e0: 6393 efb1 97de bab1 aa30 9032 66e9 5a32
000000f0: 3840 7b31 8be9 0831 fcad bfae a54e 2332
00000100: 6e5a 10b2 356f 7fb2 d95f 4db2 1b72 f731
00000110: e3ba 9032 b78c 1f31 1af2 33b0 5fbe 0f32
00000120: 3bca 4531 f67e 2fb1 3428 ef31 fbb0 83b2
00000130: c8ec 9ab2 a11a 6531 a139 24b2 e781 a3b2
00000140: 1d9d d2b0 1bc5 e5b1 28aa f731 3432 97b2
00000150: c8c6 1ab1 e71f 0f32 4957 c5b1 b187 7f32
00000160: 743f e031 82e2 9732 c8ad 1931 a8fe 5fb2
00000170: 9d12 a432 1e7f 86b1 f7ba da31 b4c5 7db2
00000180: 23a3 91b1 be1d d931 0696 c7af 6e97 8e31
00000190: 60d9 4e30 f35b 8e31 099e 24b2 88be 5eb1
000001a0: a622 ed30 8dfb 0a33 192a d631 2b20 2931
000001b0: 29a5 d631 a463 9431 66ba 8cb0 e74a a4af
000001c0: 53d0 8131 31a9 d5b1 7cfc d1b0 e981 0932
000001d0: 1043 9db1 1c69 21b2 d27f 6332 332c 0ab1
000001e0: 605d 2132 c99d 0430 ac12 f2b0 2a27 e8b1
000001f0: 50ae 8fb1 478c c5b0 3b22 9cb1 7834 7c31
00000200: a082 55b1 1007 a2b2 bda6 c432 aeeb a7b2
00000210: bd3c b9b1 439f 40b1 bf26 d6b2 6aaf 7fb1
00000220: 164a 5632 07d4 3b31 26bb 7fb2 cfff a330
00000230: 1e58 7e31 e63b 7a32 cec2 1f32 a087 8e32
00000240: c55c 01b2 0236 6d32 0e68 dab1 326a b032
00000250: dc60 4bb2 3c82 10b2 cec9 9bb1 fc80 4331
00000260: 1def a9b1 c0b1 2d32 2f59 84b2 20b5 ae32
00000270: 718f 1632 acba d931 968b 0fb0 bc7b 3532
00000280: a980 ff31 def5 3cb1 d70b 3bb2 adf2 4fb1
00000290: 41f3 0f33 c0ee 2132 275c c1b2 f4ba 8f30
000002a0: 9499 47b2 4dbb 5ab0 665b a9b1 5946 61b1
000002b0: a01f 8931 5b7d 6d31 6e99 e531 6f06 dd31
000002c0: 4a2c 8cb1 7caa 8e31 2f96 3232 85cb 8331
000002d0: 17c8 9cb2 8450 98b0 3297 8cb2 b9cc ceb1
000002e0: 9b27 0532 1d98 0a31 adc0 8b2f 59ae 67b2
000002f0: cd26 2432 a1bb 6231 5c0d c331 c688 1bb1
00000300: 201e 0332 1adb eab1 0242 b331 5411 64b1
00000310: 6d8c 3ab2 3366 6530 ef11 8430 6a03 98b1
00000320: a654 de32 41c7 4232 9717 7331 c795 6cb1
00000330: 2169 c631 bcf7 6d31 cc49 8032 ecf8 91b1
00000340: 4e3f 39b1 fe9b 8ab1 074e 9531 edcd 5f32
00000350: afac e231 75aa 0fb2 313b b2b1 9e09 ceb0
00000360: 0ccb a4b1 0bd8 0fb1 ca7d 4a32 09a7 2832
00000370: 1ab9 0eb2 2afd 6130 d215 7b30 9044 8cb2
00000380: 968f 1db2 043f ea31 85f9 7b31 12af c1ae
00000390: b946 1832 ceb6 0332 769e 1732 9cd6 c832
000003a0: 4f70 9631 b4ee 73b2 0168 9232 91cb 4f32
000003b0: c712 75b1 8b6d 7332 9b90 8db2 cf46 cb31
000003c0: a486 f931 104e 3732 863e 0eb2 d6fc 4932
000003d0: 7459 aa32 908b 35b2 7e90 1db1 69d8 d032
000003e0: add5 9432 45dd a332 b058 f031 510d 01b1
000003f0: 7386 c4b1 856d 3db2 6d49 b0b1 4fd8 32b2
-3.7358236e-10 -3.155838e-09 3.0815956e-09 -1.7952548e-08 1.5082637e-08 5.406402e-09 3.8473127e-09 -3.0889284e-09
6.7198713e-09 -2.5346094e-09 -5.8975216e-09 -1.2364488e-08 -3.869872e-09 7.920445e-09 -1.1745467e-08 4.7315756e-09
-7.877644e-09 -1.4603354e-08 7.694995e-09 1.341197e-08 1.5127053e-08 1.3626183e-08 7.127392e-09 -1.0232421e-08
-3.5570993e-09 -7.716661e-09 -1.3307018e-09 -1.6847312e-09 -1.02486455e-08 1.11041505e-08 1.1417892e-08 -1.8893816e-08
6.238686e-09 5.2903144e-09 5.0916253e-09 1.954109e-08 3.7901673e-09 7.439804e-10 -8.66569e-09 5.9240106e-09
2.365765e-09 2.0382737e-08 -2.0390571e-08 1.4710843e-08 1.807503e-09 2.143261e-08 1.5058099e-08 -2.0769345e-08
-9.290021e-09 -8.996208e-09 -1.4637359e-08 -2.7964222e-09 -4.9056146e-09 9.322092e-09 -1.7366814e-08 -1.3268651e-08
-6.9725714e-09 -5.438618e-09 1.6785936e-08 1.2742339e-08 3.6561811e-09 1.9923359e-09 -8.71658e-11 9.50573e-09
-8.4024645e-09 -1.4868239e-08 -1.1954364e-08 7.2016184e-09 1.6848793e-08 2.3217532e-09 -6.546387e-10 8.366981e-09
2.8782228e-09 -2.553802e-09 6.960386e-09 -1.5330889e-08 -1.8035635e-08 3.3339023e-09 -9.55916e-09 -1.903477e-08
-1.5324165e-09 -6.6871855e-09 7.2079906e-09 -1.7601543e-08 -2.2522944e-09 8.330949e-09 -5.7433778e-09 1.4873806e-08
6.526472e-09 1.7681717e-08 2.2363214e-09 -1.30382105e-08 1.9100577e-08 -3.914365e-09 6.3658905e-09 -1.4771491e-08
-4.238602e-09 6.3189125e-09 -3.6304487e-10 4.1499595e-09 7.525127e-10 4.1431973e-09 -9.581989e-09 -3.2413556e-09
1.7253867e-09 3.2359413e-08 6.2330057e-09 2.4611022e-09 6.2469963e-09 4.3186947e-09 -1.0239318e-09 -2.9884648e-10
3.778078e-09 -6.2183507e-09 -1.5278512e-09 8.003988e-09 -4.5769255e-09 -9.3953325e-09 1.3242202e-08 -2.0106767e-09
9.392664e-09 4.8245546e-10 -1.7613124e-09 -6.756541e-09 -4.181665e-09 -1.4373506e-09 -4.544089e-09 3.6700651e-09
-3.1069831e-09 -1.8862494e-08 2.2893227e-08 -1.9548533e-08 -5.3911138e-09 -2.8030207e-09 -2.4930499e-08 -3.7207095e-09
1.2473285e-08 2.7332605e-09 -1.4885506e-08 1.1932516e-09 3.7011954e-09 1.4565535e-08 9.2993115e-09 1.659265e-08
-7.529882e-09 1.3807496e-08 -6.3564647e-09 2.0537389e-08 -1.1838178e-08 -8.411515e-09 -4.5340363e-09 2.8449554e-09
-4.9457314e-09 1.0110341e-08 -1.5407378e-08 2.0338632e-08 8.763764e-09 6.3367533e-09 -5.222146e-10 1.0563721e-08
7.4361037e-09 -2.749736e-09 -1.0887525e-08 -3.026041e-09 3.351602e-08 9.425719e-09 -2.2510063e-08 1.0457755e-09
-1.1618244e-08 -7.957411e-10 -4.928938e-09 -3.2781797e-09 3.99082e-09 3.4559295e-09 6.68222e-09 6.432678e-09
-4.0795713e-09 4.1521258e-09 1.0395111e-08 3.8357393e-09 -1.825178e-08 -1.108234e-09 -1.63669e-08 -6.0186633e-09
7.750624e-09 2.016811e-09 2.5420857e-10 -1.3485612e-08 9.554879e-09 3.2993983e-09 5.6767657e-09 -2.2633215e-09
7.632053e-09 -6.8352053e-09 5.21709e-09 -3.3188217e-09 -1.0858554e-08 8.345495e-10 9.609361e-10 -4.4241704e-09
2.5882695e-08 1.1337591e-08 3.5374563e-09 -3.4427659e-09 5.77451e-09 3.462886e-09 1.493472e-08 -4.2483546e-09
-2.6957028e-09 -4.034063e-09 4.3453414e-09 1.30271305e-08 6.5970975e-09 -8.362453e-09 -5.187211e-09 -1.4991206e-09
-4.796112e-09 -2.0932045e-09 1.1786549e-08 9.816866e-09 -8.307575e-09 8.221429e-10 9.1344277e-10 -1.6329324e-08
-9.17125e-09 6.8174604e-09 3.6667143e-09 -8.8077226e-11 8.863645e-09 7.6667686e-09 8.825387e-09 2.3380657e-08
4.3783426e-09 -1.4198736e-08 1.7043932e-08 1.20952715e-08 -3.5662866e-09 1.4169369e-08 -1.648032e-08 5.9161276e-09
7.2621607e-09 1.0669751e-08 -8.279704e-09 1.1757228e-08 1.9831283e-08 -1.05673195e-08 -2.2928641e-09 2.4312799e-08
1.7326636e-08 1.907632e-08 6.995002e-09 -1.877954e-09 -5.719636e-09 -1.102615e-08 -5.1306217e-09 -1.04101465e-08

b_linear2.b_prior f4 [1, 256]
00000000: 7bcf 2c32 be9a feb1 c6cf 1932 975e 49b1
00000010: 5936 a131 d111 7cb2 4237 0232 2407 beb0
00000020: be2a f3b1 42c2 9b2f 3d8d 7531 ff3e 7531
00000030: 7659 adb0 53c3 60b2 27ef a2b1 330f c831
00000040: b244 b030 3d3c d7b1 7e20 7c32 a4b1 852f
00000050: 859d d331 fc28 edb1 fe8f 5832 a531 8232
00000060: f5ec 79b1 824f cbb1 ea5d 86b2 7389 4bb2
00000070: 09c3 cdb1 6564 8932 498b 95b0 c538 81b2
00000080: ad29 7132 6452 aa32 3755 d930 e4a3 e631
00000090: 47e6 8831 00b4 32b2 f9a4 78b2 399e ed31
000000a0: 6c45 9f2f e244 9a31 1e99 7bb1 fa09 0ab2
000000b0: 68b8 f9b1 fd2f 8e32 979e c730 b245 c3b1
000000c0: b066 1d32 607d 19b2 b7d1 f6b0 265c db30
000000d0: 95eb f7b1 38be e5b0 ee62 5b30 3d07 aa2f
000000e0: 813c beb1 636d a332 dee9 60b0 8f2f 6eb1
000000f0: 258b 8530 b430 1f30 3216 1332 f162 3631
00000100: e44e fdb0 6373 01b2 f3e6 72b2 ae59 e831
00000110: 6fe8 2432 7773 5bb1 18ab 86b0 fa3a 9132
00000120: 1d5e 16b2 d0b6 4cb2 cec8 dab1 2b8d 0db2
00000130: a8b9 79b2 1a37 0331 e077 ae31 3d9a 7131
00000140: 8127 4c32 f47a ebb1 dd61 2c32 50a8 3932
00000150: 2c5a 1bb2 3d50 5931 a8d3 7bb2 bd41 8632
00000160: 4117 5731 a48e 9e32 38f1 1b32 f718 0ab2
00000170: dca3 b331 617c 2d32 c9af 64ae bb82 2430
00000180: a1b5 672f 66a3 85b2 b464 ad32 6876 1e30
00000190: a795 9c32 5a2e 4132 8fd7 d7b1 28c0 25b2
000001a0: 631c e031 7c21 7631 19ac bcb1 e742 e430
000001b0: 224a 7a31 4380 cfb0 1531 1bb2 f14e 8932
000001c0: 58fb ae31 5110 cdb2 74f6 a131 e734 9931
000001d0: bf20 c8b1 aaf1 1ab2 f3d2 4131 8972 1031
000001e0: 6bda 8eb1 e69b 24b2 fc1f 70b1 1636 0d32
000001f0: 43b1 fd30 3091 3e32 1903 8531 239f a032
00000200: 2b2d cbae 71d1 3232 bcd5 1232 915a 09b0
00000210: 8297 15b2 c48b 9c32 2096 68b1 e1fb d5b0
00000220: 5a32 3732 3e6f a4ae 2e74 8a2f f46c c0b1
00000230: 1447 bfb1 7a5a c5b1 f649 ae31 5fcb 2832
00000240: 8834 cfb1 17b6 3b32 6e5f 5832 f115 79b1
00000250: 4288 8131 7483 c430 937c 6ab1 d7ad 8b32
00000260: 0f4e 0c30 e35b ecb1 8ef9 fd30 4bbd c631
00000270: 52e5 8631 cf27 c131 58d3 9d31 e81e b6b1
00000280: 4b34 32b2 294d 3b32 d559 05b2 82d1 bd2f
00000290: 749e f430 a50e 8132 bfb5 1732 64ab 8fb0
000002a0: 7bec 9731 8b87 f6af 54d0 03b2 b30c 2f32
000002b0: bdac 31b2 fea4 9eb1 5985 b032 ac7b 1f32
000002c0: c9cc 37b2 a510 adb1 a1f7 e7b0 ca4f 8f32
000002d0: f230 8fb1 f5ea bab1 7ced 5630 f654 11b2
000002e0: bc60 3db1 8229 93b1 ea1b 09b2 204e 5bb2
000002f0: c7a1 4bb2 968b 86af dadb a9b1 73ed 8fb1
00000300: a5d9 6332 fa7a 5bb2 e05a 1db1 a8fd 9bb1
00000310: 4238 0cb1 395e 9131 ad82 eab0 a665 abaf
00000320: 3d06 8e30 d725 a9b0 88b3 1b32 a674 1d32
00000330: 2c39 c52f 6537 59b0 9fe6 b732 23d4 d1b0
00000340: 9d43 d031 5130 2931 2b17 cbb1 be13 a831
00000350: 3003 d731 e022 22b2 307d bcb1 99bf 8631
00000360: 8a4f 7730 026a c431 64ac f431 4cc1 dab1
00000370: 4c71 9ab0 5dea 6a32 db17 b631 df46 0430
00000380: 93c3 86b1 a6a2 0d31 3125 f031 1bb5 1cb2
00000390: 635c 89b1 d0f8 fbb1 068c 6132 37f2 cb31
000003a0: 8c24 3732 2c84 5ab1 6e6b 3e32 f289 1c31
000003b0: 1b54 eeb1 8d88 8bb1 90b8 8531 48f5 8eb0
000003c0: 5fb5 c3b0 6376 1f2f 823b b0b2 6e74 0832
000003d0: 2898 6031 febe 1fb2 116e b7b1 f94f a0b0
000003e0: 9c7f 95b1 58c5 9a32 25a7 4f32 93f4 b931
000003f0: b77b 45b2 96a7 e3b1 8321 0532 eb17 4332
1.0058893e-08 -7.409965e-09 8.953014e-09 -2.9303118e-09 4.6918953e-09 -1.46723815e-08 7.57956e-09 -1.3826349e-09
-7.07709e-09 2.8332364e-10 3.5732477e-09 3.5688001e-09 -1.2612833e-09 -1.3082928e-08 -4.742009e-09 5.822494e-09
1.282521e-09 -6.264172e-09 1.4675718e-08 2.431878e-10 6.158816e-09 -6.902267e-09 1.2605595e-08 1.5156568e-08
-3.6368963e-09 -5.9171166e-09 -1.564236e-08 -1.18474075e-08 -5.988458e-09 1.5994553e-08 -1.0880764e-09 -1.5043392e-08
1.4037522e-08 1.9828072e-08 1.5813048e-09 6.712513e-09 3.9843004e-09 -1.0401891e-08 -1.447301e-08 6.9155957e-09
2.897126e-10 4.489821e-09 -3.6612344e-09 -8.034926e-09 -7.2678183e-09 1.6552798e-08 1.452423e-09 -5.6831704e-09
9.161951e-09 -8.934279e-09 -1.795846e-09 1.5960537e-09 -7.2154287e-09 -1.6716006e-09 7.9812323e-10 3.0927963e-10
-5.5366063e-09 1.902544e-08 -8.182307e-10 -3.4660592e-09 9.716571e-10 5.7913074e-10 8.561573e-09 2.6540727e-09
-1.8430595e-09 -7.535024e-09 -1.4138766e-08 6.762284e-09 9.598906e-09 -3.1934329e-09 -9.798411e-10 1.6907041e-08
-8.752548e-09 -1.191593e-08 -6.367464e-09 -8.239378e-09 -1.4535921e-08 1.909433e-09 5.0776947e-09 3.515779e-09
1.1883345e-08 -6.8533783e-09 1.0033969e-08 1.0806687e-08 -9.04269e-09 3.1623266e-09 -1.4658248e-08 1.5629547e-08
3.1299836e-09 1.8458486e-08 9.077034e-09 -8.0383336e-09 5.2282143e-09 1.0098206e-08 -5.1997327e-11 5.984863e-10
2.1073855e-10 -1.5557543e-08 2.0185645e-08 5.764833e-10 1.8228844e-08 1.1244618e-08 -6.2818297e-09 -9.647955e-09
6.522485e-09 3.5816745e-09 -5.4910854e-09 1.6608198e-09 3.6421928e-09 -1.5097686e-09 -9.033347e-09 1.5984797e-08
5.092641e-09 -2.387256e-08 4.713735e-09 4.4589004e-09 -5.824489e-09 -9.018928e-09 2.8205107e-09 2.1019864e-09
-4.157575e-09 -9.581504e-09 -3.4942778e-09 8.219578e-09 1.8458554e-09 1.1092467e-08 3.8711616e-09 1.8698818e-08
-9.239395e-11 1.0408585e-08 8.546916e-09 -4.996901e-10 -8.70739e-09 1.8224348e-08 -3.384578e-09 -1.5569378e-09
1.0663451e-08 -7.477617e-11 2.5184604e-10 -5.600322e-09 -5.5669123e-09 -5.7437406e-09 5.072475e-09 9.825128e-09
-6.030465e-09 1.0926235e-08 1.2594553e-08 -3.6246741e-09 3.769885e-09 1.4298238e-09 -3.4122294e-09 1.6260783e-08
5.104263e-10 -6.8789503e-09 1.84791e-09 5.7840785e-09 3.925984e-09 5.621565e-09 4.5933284e-09 -5.3004108e-09
-1.0372854e-08 1.0902377e-08 -7.762044e-09 3.4527764e-10 1.7798372e-09 1.5024236e-08 8.830681e-09 -1.0453332e-09
4.421563e-09 -4.4843448e-10 -7.672572e-09 1.0189228e-08 -1.0342032e-08 -4.6171627e-09 2.0549736e-08 9.283138e-09
-1.0698565e-08 -5.036855e-09 -1.6877842e-09 1.6683675e-08 -4.167412e-09 -5.440024e-09 7.819023e-10 -8.459429e-09
-2.7558107e-09 -4.282982e-09 -7.9807965e-09 -1.2765241e-08 -1.1852939e-08 -2.447364e-10 -4.9435416e-09 -4.1888426e-09
1.3262626e-08 -1.2775439e-08 -2.2898163e-09 -4.539931e-09 -2.040466e-09 4.2307673e-09 -1.7062881e-09 -3.1176944e-10
1.0333633e-09 -1.2307123e-09 9.063008e-09 9.1651255e-09 3.5874714e-10 -7.902286e-10 2.1408878e-08 -1.5267044e-09
6.0612835e-09 2.4620201e-09 -5.9107115e-09 4.891688e-09 6.257686e-09 -9.437571e-09 -5.4857523e-09 3.9216954e-09
8.997111e-10 5.7164025e-09 7.120933e-09 -6.3666104e-09 -1.1237176e-09 1.3673881e-08 5.299609e-09 4.8122034e-10
-3.9221475e-09 2.0610655e-09 6.9891475e-09 -9.121574e-09 -3.997728e-09 -7.333348e-09 1.3128561e-08 5.9356142e-09
1.0660312e-08 -3.1798306e-09 1.1083882e-08 2.27794e-09 -6.9362733e-09 -4.0609565e-09 3.8917918e-09 -1.0401573e-09
-1.4239666e-09 1.4503025e-10 -2.0516158e-08 7.942715e-09 3.268278e-09 -9.298445e-09 -5.338514e-09 -1.1664262e-09
-4.3509782e-09 1.8017701e-08 1.208699e-08 5.4120135e-09 -1.1495039e-08 -6.625622e-09 7.749239e-09 1.1355932e-08
