Parameter/wallplaneTEST/34.pth (torch, 545217 bytes, 24 tensors)

b_linear1.w f4 [4, 256]
0	0x00000000	0.0
1	0x00000000	0.0
2	0x00000000	0.0
3	0x00000000	0.0
4	0x00000000	0.0
5	0x00000000	0.0
6	0x00000000	0.0
7	0x00000000	0.0
8	0x00000000	0.0
9	0x00000000	0.0
10	0x00000000	0.0
11	0x00000000	0.0
12	0x00000000	0.0
13	0x00000000	0.0
14	0x00000000	0.0
15	0x00000000	0.0
16	0x00000000	0.0
17	0x00000000	0.0
18	0x00000000	0.0
19	0x00000000	0.0
20	0x00000000	0.0
21	0x00000000	0.0
22	0x00000000	0.0
23	0x00000000	0.0
24	0x00000000	0.0
25	0x00000000	0.0
26	0x00000000	0.0
27	0x00000000	0.0
28	0x00000000	0.0
29	0x00000000	0.0
30	0x00000000	0.0
31	0x00000000	0.0
32	0x00000000	0.0
33	0x00000000	0.0
34	0x00000000	0.0
35	0x00000000	0.0
36	0x00000000	0.0
37	0x00000000	0.0
38	0x00000000	0.0
39	0x00000000	0.0
40	0x00000000	0.0
41	0x00000000	0.0
42	0x00000000	0.0
43	0x00000000	0.0
44	0x00000000	0.0
45	0x00000000	0.0
46	0x00000000	0.0
47	0x00000000	0.0
48	0x00000000	0.0
49	0x00000000	0.0
50	0x00000000	0.0
51	0x00000000	0.0
52	0x00000000	0.0
53	0x00000000	0.0
54	0x00000000	0.0
55	0x00000000	0.0
56	0x00000000	0.0
57	0x00000000	0.0
58	0x00000000	0.0
59	0x00000000	0.0
60	0x00000000	0.0
61	0x00000000	0.0
62	0x00000000	0.0
63	0x00000000	0.0
64	0x00000000	0.0
65	0x00000000	0.0
66	0x00000000	0.0
67	0x00000000	0.0
68	0x00000000	0.0
69	0x00000000	0.0
70	0x00000000	0.0
71	0x00000000	0.0
72	0x00000000	0.0
73	0x00000000	0.0
74	0x00000000	0.0
75	0x00000000	0.0
76	0x00000000	0.0
77	0x00000000	0.0
78	0x00000000	0.0
79	0x00000000	0.0
80	0x00000000	0.0
81	0x00000000	0.0
82	0x00000000	0.0
83	0x00000000	0.0
84	0x00000000	0.0
85	0x00000000	0.0
86	0x00000000	0.0
87	0x00000000	0.0
88	0x00000000	0.0
89	0x00000000	0.0
90	0x00000000	0.0
91	0x00000000	0.0
92	0x00000000	0.0
93	0x00000000	0.0
94	0x00000000	0.0
95	0x00000000	0.0
96	0x00000000	0.0
97	0x00000000	0.0
98	0x00000000	0.0
99	0x00000000	0.0
100	0x00000000	0.0
101	0x00000000	0.0
102	0x00000000	0.0
103	0x00000000	0.0
104	0x00000000	0.0
105	0x00000000	0.0
106	0x00000000	0.0
107	0x00000000	0.0
108	0x00000000	0.0
109	0x00000000	0.0
110	0x00000000	0.0
111	0x00000000	0.0
112	0x00000000	0.0
113	0x00000000	0.0
114	0x00000000	0.0
115	0x00000000	0.0
116	0x00000000	0.0
117	0x00000000	0.0
118	0x00000000	0.0
119	0x00000000	0.0
120	0x00000000	0.0
121	0x00000000	0.0
122	0x00000000	0.0
123	0x00000000	0.0
124	0x00000000	0.0
125	0x00000000	0.0
126	0x00000000	0.0
127	0x00000000	0.0
128	0x00000000	0.0
129	0x00000000	0.0
130	0x00000000	0.0
131	0x00000000	0.0
132	0x00000000	0.0
133	0x00000000	0.0
134	0x00000000	0.0
135	0x00000000	0.0
136	0x00000000	0.0
137	0x00000000	0.0
138	0x00000000	0.0
139	0x00000000	0.0
140	0x00000000	0.0
141	0x00000000	0.0
142	0x00000000	0.0
143	0x00000000	0.0
144	0x00000000	0.0
145	0x00000000	0.0
146	0x00000000	0.0
147	0x00000000	0.0
148	0x00000000	0.0
149	0x00000000	0.0
150	0x00000000	0.0
151	0x00000000	0.0
152	0x00000000	0.0
153	0x00000000	0.0
154	0x00000000	0.0
155	0x00000000	0.0
156	0x00000000	0.0
157	0x00000000	0.0
158	0x00000000	0.0
159	0x00000000	0.0
160	0x00000000	0.0
161	0x00000000	0.0
162	0x00000000	0.0
163	0x00000000	0.0
164	0x00000000	0.0
165	0x00000000	0.0
166	0x00000000	0.0
167	0x00000000	0.0
168	0x00000000	0.0
169	0x00000000	0.0
170	0x00000000	0.0
171	0x00000000	0.0
172	0x00000000	0.0
173	0x00000000	0.0
174	0x00000000	0.0
175	0x00000000	0.0
176	0x00000000	0.0
177	0x00000000	0.0
178	0x00000000	0.0
179	0x00000000	0.0
180	0x00000000	0.0
181	0x00000000	0.0
182	0x00000000	0.0
183	0x00000000	0.0
184	0x00000000	0.0
185	0x00000000	0.0
186	0x00000000	0.0
187	0x00000000	0.0
188	0x00000000	0.0
189	0x00000000	0.0
190	0x00000000	0.0
191	0x00000000	0.0
192	0x00000000	0.0
193	0x00000000	0.0
194	0x00000000	0.0
195	0x00000000	0.0
196	0x00000000	0.0
197	0x00000000	0.0
198	0x00000000	0.0
199	0x00000000	0.0
200	0x00000000	0.0
201	0x00000000	0.0
202	0x00000000	0.0
203	0x00000000	0.0
204	0x00000000	0.0
205	0x00000000	0.0
206	0x00000000	0.0
207	0x00000000	0.0
208	0x00000000	0.0
209	0x00000000	0.0
210	0x00000000	0.0
211	0x00000000	0.0
212	0x00000000	0.0
213	0x00000000	0.0
214	0x00000000	0.0
215	0x00000000	0.0
216	0x00000000	0.0
217	0x00000000	0.0
218	0x00000000	0.0
219	0x00000000	0.0
220	0x00000000	0.0
221	0x00000000	0.0
222	0x00000000	0.0
223	0x00000000	0.0
224	0x00000000	0.0
225	0x00000000	0.0
226	0x00000000	0.0
227	0x00000000	0.0
228	0x00000000	0.0
229	0x00000000	0.0
230	0x00000000	0.0
231	0x00000000	0.0
232	0x00000000	0.0
233	0x00000000	0.0
234	0x00000000	0.0
235	0x00000000	0.0
236	0x00000000	0.0
237	0x00000000	0.0
238	0x00000000	0.0
239	0x00000000	0.0
240	0x00000000	0.0
241	0x00000000	0.0
242	0x00000000	0.0
243	0x00000000	0.0
244	0x00000000	0.0
245	0x00000000	0.0
246	0x00000000	0.0
247	0x00000000	0.0
248	0x00000000	0.0
249	0x00000000	0.0
250	0x00000000	0.0
251	0x00000000	0.0
252	0x00000000	0.0
253	0x00000000	0.0
254	0x00000000	0.0
255	0x00000000	0.0

b_linear1.b f4 [1, 256]
0	0x3500d1cb	4.7989005e-07
1	0xb6c4905f	-5.858062e-06
2	0xb692a308	-4.3701184e-06
3	0x36416508	2.881805e-06
4	0x36339d55	2.6764658e-06
5	0xb69b0507	-4.6199452e-06
6	0x36a6baa0	4.9689115e-06
7	0xb5c8704d	-1.4933845e-06
8	0xb5ed8208	-1.769572e-06
9	0x35560df1	7.97415e-07
10	0x33587616	5.0398818e-08
11	0xb67387ed	-3.628894e-06
12	0xb69c2530	-4.6534915e-06
13	0x36784619	3.6995682e-06
14	0xb3e4b76d	-1.0650442e-07
15	0xb5c6ab7c	-1.4802058e-06
16	0x35e9e5d2	1.7426739e-06
17	0xb61ef26f	-2.368495e-06
18	0xb63002a5	-2.6227583e-06
19	0x368af175	4.14083e-06
20	0x36a99b86	5.054698e-06
21	0xb6d0e875	-6.2259446e-06
22	0x3689d0f0	4.1072417e-06
23	0xb59bb7ec	-1.1601928e-06
24	0xb578e260	-9.271662e-07
25	0xb6c87cf7	-5.9750123e-06
26	0x35e0bf6a	1.6745009e-06
27	0x360060d0	1.9129839e-06
28	0xb696c570	-4.493333e-06
29	0xb61fb4be	-2.3798052e-06
30	0x362e9e5c	2.6020198e-06
31	0xb62bcb9a	-2.5599497e-06
32	0x362aaf9a	2.5434188e-06
33	0xb68de4ba	-4.2287547e-06
34	0xb63a0102	-2.7716746e-06
35	0xb65543e6	-3.1778995e-06
36	0xb5ac9c2e	-1.2860453e-06
37	0xb5188564	-5.681852e-07
38	0xb680a331	-3.8336952e-06
39	0xb4c08f1a	-3.5866907e-07
40	0x348bdacd	2.6049966e-07
41	0xb589ba6e	-1.0261554e-06
42	0xb642d0d2	-2.9029802e-06
43	0x36617aa7	3.3599006e-06
44	0x35e9cc3a	1.741929e-06
45	0x36096b7b	2.0477153e-06
46	0xb6ae99d1	-5.2035107e-06
47	0xb6c92d4b	-5.9955396e-06
48	0xb3829fbe	-6.082654e-08
49	0x3687c463	4.046176e-06
50	0x34ffad47	4.7623527e-07
51	0xb69c6adf	-4.6616037e-06
52	0xb50773a8	-5.045972e-07
53	0xb670489f	-3.5805058e-06
54	0xb423920c	-1.523369e-07
55	0xb632c4c0	-2.663859e-06
56	0xb6db8a02	-6.542775e-06
57	0xb52e0969	-6.4833745e-07
58	0xb70f7d5e	-8.5526535e-06
59	0xb66dedce	-3.5454173e-06
60	0x36847f37	3.9487163e-06
61	0x3693f18c	4.409061e-06
62	0xb68e50aa	-4.2413203e-06
63	0x36e0c620	6.698785e-06
64	0x3578afba	9.2642915e-07
65	0xb63cd01e	-2.8135323e-06
66	0x36e94339	6.951767e-06
67	0xb708aef8	-8.14697e-06
68	0xb4eb3e29	-4.3817388e-07
69	0xb64cfd24	-3.0545716e-06
70	0xb60275f2	-1.9440163e-06
71	0x362b519e	2.5528493e-06
72	0x35e38b46	1.6953352e-06
73	0x364358fb	2.9109058e-06
74	0xb597cd94	-1.1310208e-06
75	0x36406e99	2.8674606e-06
76	0xb6747441	-3.6426502e-06
77	0xb6524730	-3.1333875e-06
78	0xb42a0292	-1.5833419e-07
79	0xb70de8f0	-8.45849e-06
80	0x36337526	2.6741268e-06
81	0x36e15226	6.715086e-06
82	0xb4c453d7	-3.6568846e-07
83	0x36e7c457	6.9071934e-06
84	0xb52415fa	-6.112674e-07
85	0xb6ccfcf0	-6.1091196e-06
86	0x3605dc81	1.9946895e-06
87	0x34a495d4	3.0656395e-07
88	0x3657aa66	3.2136682e-06
89	0x34d5d15c	3.982667e-07
90	0x36af118f	5.2174505e-06
91	0xb602b752	-1.9478216e-06
92	0xb584283a	-9.846474e-07
93	0x3481dcf9	2.41889e-07
94	0xb619f182	-2.2939353e-06
95	0xb6c59378	-5.888225e-06
96	0xb55cb346	-8.2217264e-07
97	0x36b106fa	5.2758232e-06
98	0x351d11c0	5.851289e-07
99	0xb5a0e0d8	-1.1986367e-06
100	0x3440fa1f	1.7972387e-07
101	0x34bca554	3.513802e-07
102	0x35e054e5	1.6714008e-06
103	0xb6e94e0c	-6.953027e-06
104	0x36cb41a6	6.057514e-06
105	0x350a3640	5.148795e-07
106	0xb63d749b	-2.8231068e-06
107	0xb6e41aac	-6.7980345e-06
108	0x366182c3	3.3603726e-06
109	0xb64c8838	-3.0477659e-06
110	0x33a72b3b	7.784407e-08
111	0xb640b522	-2.8715663e-06
112	0xb63dcaf6	-2.8281333e-06
113	0x36556a34	3.1801292e-06
114	0xb63ce2b2	-2.8146137e-06
115	0xb40b9a40	-1.30015e-07
116	0x358a5d3c	1.0308936e-06
117	0xb4bdfc1e	-3.5387433e-07
118	0xb6c14bd1	-5.7606744e-06
119	0x36404b80	2.8654176e-06
120	0x36cb96f6	6.0674456e-06
121	0xb680d1cd	-3.8391213e-06
122	0x35e8b3da	1.7337691e-06
123	0x36644dba	3.401989e-06
124	0xb6efdcb7	-7.1484496e-06
125	0xb6d5e10f	-6.374095e-06
126	0x3575612b	9.141101e-07
127	0xb591f64d	-1.0875025e-06
128	0x36a7df76	5.003002e-06
129	0xb5f6a6bc	-1.8376954e-06
130	0xb6342b33	-2.6847235e-06
131	0xb5c13271	-1.4394301e-06
132	0x360165e2	1.9281802e-06
133	0xb71a11fc	-9.183303e-06
134	0xb683b33d	-3.9249703e-06
135	0x35980f99	1.1329422e-06
136	0xb6be21a2	-5.6663566e-06
137	0xb61b87db	-2.3175878e-06
138	0x365316d3	3.1454736e-06
139	0x351e08ed	5.8872575e-07
140	0x36b0890c	5.261163e-06
141	0xb6284a27	-2.5077113e-06
142	0xb642ef0a	-2.9047392e-06
143	0xb6088ab7	-2.0346322e-06
144	0x35b8aa79	1.3758682e-06
145	0x35f5013f	1.8254285e-06
146	0xb5eaa8d6	-1.7483496e-06
147	0x366a4699	3.490981e-06
148	0x35926fd4	1.0910394e-06
149	0xb6c56b62	-5.8835585e-06
150	0x36d6dca9	6.403385e-06
151	0x3715590c	8.901825e-06
152	0x3688cc3f	4.076893e-06
153	0xb6192f5c	-2.2826343e-06
154	0xb5afc961	-1.3097125e-06
155	0xb601482a	-1.9264503e-06
156	0x355c3f32	8.204835e-07
157	0x3653ce2e	3.1561462e-06
158	0xb692429b	-4.358893e-06
159	0x3456c10e	2.0000536e-07
160	0xb63ddcc7	-2.8291704e-06
161	0x3698007d	4.53001e-06
162	0x35d2bc0d	1.5700949e-06
163	0x35cf5b13	1.5449208e-06
164	0xb410ac19	-1.3473654e-07
165	0xb61324b4	-2.192607e-06
166	0x36854cea	3.972663e-06
167	0xb4768e53	-2.2962313e-07
168	0x3609a497	2.0510395e-06
169	0xb6fb22f9	-7.4844543e-06
170	0x3603873c	1.9599238e-06
171	0x3507b91e	5.05608e-07
172	0x35acf16f	1.2885265e-06
173	0xb602d664	-1.9496301e-06
174	0xb6e40635	-6.795652e-06
175	0x36b6409d	5.4315447e-06
176	0xb5a729d4	-1.2454643e-06
177	0x34c927b4	3.7468055e-07
178	0x36895a0a	4.0934e-06
179	0xb5a367f4	-1.2174701e-06
180	0xb54c852a	-7.61897e-07
181	0xb53adc4a	-6.961096e-07
182	0xb5dbb2ba	-1.6368788e-06
183	0x36d30e86	6.289981e-06
184	0x36559987	3.1828838e-06
185	0x353c9030	7.024528e-07
186	0xb6beb101	-5.683047e-06
187	0x35c92023	1.498502e-06
188	0x36a5ca98	4.940968e-06
189	0xb6142a21	-2.207824e-06
190	0xb5b6ea7a	-1.3628298e-06
191	0xb69f79ec	-4.752763e-06
192	0xb5b80fa5	-1.3713621e-06
193	0x3526f94e	6.2202605e-07
194	0x350c4fbe	5.2270104e-07
195	0x36a507c1	4.918286e-06
196	0x35878adf	1.0098701e-06
197	0x3594039d	1.1027911e-06
198	0x36443569	2.9237365e-06
199	0xb6581756	-3.2200091e-06
200	0x36e0241a	6.679923e-06
201	0xb60816ee	-2.0278926e-06
202	0x35a6b88e	1.2421676e-06
203	0xb68a6471	-4.1244134e-06
204	0xb62ff453	-2.6219248e-06
205	0xb5f38ce1	-1.8145912e-06
206	0xb6d99f17	-6.4856245e-06
207	0x35021a57	4.8467103e-07
208	0x36eca7f7	7.0529018e-06
209	0xb6bca739	-5.622304e-06
210	0x35724c68	9.026321e-07
211	0x368cc3d3	4.195122e-06
212	0x361c957c	2.3332823e-06
213	0xb669d237	-3.4842067e-06
214	0xb660fd9f	-3.3526228e-06
215	0x356f67ea	8.9185653e-07
216	0xb582c420	-9.742835e-07
217	0xb6b3e59e	-5.3613467e-06
218	0x36fa0cde	7.4520785e-06
219	0x360c338c	2.089163e-06
220	0x368b474a	4.150822e-06
221	0x33632867	5.2889302e-08
222	0x36523214	3.1321588e-06
223	0xb5af5983	-1.3064567e-06
224	0xb64c4468	-3.0438187e-06
225	0x36e44261	6.802657e-06
226	0x35d01215	1.550247e-06
227	0x34a9c086	3.1618782e-07
228	0xb5295018	-6.307396e-07
229	0xb68f14b6	-4.264143e-06
230	0xb4eddb20	-4.4304124e-07
231	0x360dee3f	2.1149315e-06
232	0x368aa36f	4.1317467e-06
233	0xb5386651	-6.869423e-07
234	0xb6e27ff6	-6.7502215e-06
235	0x36b21070	5.306727e-06
236	0x35e38f56	1.6954534e-06
237	0x35419405	7.21135e-07
238	0x36919e71	4.3397818e-06
239	0xb60d76e7	-2.1079848e-06
240	0x344f38a7	1.9298987e-07
241	0xb5bb0271	-1.3933296e-06
242	0x35b8eb47	1.3777543e-06
243	0xb52c4d81	-6.4187776e-07
244	0xb6621918	-3.369123e-06
245	0xb5ba4ec3	-1.3881003e-06
246	0xb67967e8	-3.7164373e-06
247	0xb668096e	-3.4576183e-06
248	0x34eaecfb	4.3758322e-07
249	0x35a90c7e	1.2595117e-06
250	0x36991ead	4.5633265e-06
251	0x36c97e38	6.0049606e-06
252	0x365c6111	3.2839055e-06
253	0xb35e0d43	-5.1700464e-08
254	0x363909fc	2.757296e-06
255	0x359e1434	1.1777797e-06

b_linear1.w_prior f4 [4, 256]
0	0x00000000	0.0
1	0x00000000	0.0
2	0x00000000	0.0
3	0x00000000	0.0
4	0x00000000	0.0
5	0x00000000	0.0
6	0x00000000	0.0
7	0x00000000	0.0
8	0x00000000	0.0
9	0x00000000	0.0
10	0x00000000	0.0
11	0x00000000	0.0
12	0x00000000	0.0
13	0x00000000	0.0
14	0x00000000	0.0
15	0x00000000	0.0
16	0x00000000	0.0
17	0x00000000	0.0
18	0x00000000	0.0
19	0x00000000	0.0
20	0x00000000	0.0
21	0x00000000	0.0
22	0x00000000	0.0
23	0x00000000	0.0
24	0x00000000	0.0
25	0x00000000	0.0
26	0x00000000	0.0
27	0x00000000	0.0
28	0x00000000	0.0
29	0x00000000	0.0
30	0x00000000	0.0
31	0x00000000	0.0
32	0x00000000	0.0
33	0x00000000	0.0
34	0x00000000	0.0
35	0x00000000	0.0
36	0x00000000	0.0
37	0x00000000	0.0
38	0x00000000	0.0
39	0x00000000	0.0
40	0x00000000	0.0
41	0x00000000	0.0
42	0x00000000	0.0
43	0x00000000	0.0
44	0x00000000	0.0
45	0x00000000	0.0
46	0x00000000	0.0
47	0x00000000	0.0
48	0x00000000	0.0
49	0x00000000	0.0
50	0x00000000	0.0
51	0x00000000	0.0
52	0x00000000	0.0
53	0x00000000	0.0
54	0x00000000	0.0
55	0x00000000	0.0
56	0x00000000	0.0
57	0x00000000	0.0
58	0x00000000	0.0
59	0x00000000	0.0
60	0x00000000	0.0
61	0x00000000	0.0
62	0x00000000	0.0
63	0x00000000	0.0
64	0x00000000	0.0
65	0x00000000	0.0
66	0x00000000	0.0
67	0x00000000	0.0
68	0x00000000	0.0
69	0x00000000	0.0
70	0x00000000	0.0
71	0x00000000	0.0
72	0x00000000	0.0
73	0x00000000	0.0
74	0x00000000	0.0
75	0x00000000	0.0
76	0x00000000	0.0
77	0x00000000	0.0
78	0x00000000	0.0
79	0x00000000	0.0
80	0x00000000	0.0
81	0x00000000	0.0
82	0x00000000	0.0
83	0x00000000	0.0
84	0x00000000	0.0
85	0x00000000	0.0
86	0x00000000	0.0
87	0x00000000	0.0
88	0x00000000	0.0
89	0x00000000	0.0
90	0x00000000	0.0
91	0x00000000	0.0
92	0x00000000	0.0
93	0x00000000	0.0
94	0x00000000	0.0
95	0x00000000	0.0
96	0x00000000	0.0
97	0x00000000	0.0
98	0x00000000	0.0
99	0x00000000	0.0
100	0x00000000	0.0
101	0x00000000	0.0
102	0x00000000	0.0
103	0x00000000	0.0
104	0x00000000	0.0
105	0x00000000	0.0
106	0x00000000	0.0
107	0x00000000	0.0
108	0x00000000	0.0
109	0x00000000	0.0
110	0x00000000	0.0
111	0x00000000	0.0
112	0x00000000	0.0
113	0x00000000	0.0
114	0x00000000	0.0
115	0x00000000	0.0
116	0x00000000	0.0
117	0x00000000	0.0
118	0x00000000	0.0
119	0x00000000	0.0
120	0x00000000	0.0
121	0x00000000	0.0
122	0x00000000	0.0
123	0x00000000	0.0
124	0x00000000	0.0
125	0x00000000	0.0
126	0x00000000	0.0
127	0x00000000	0.0
128	0x00000000	0.0
129	0x00000000	0.0
130	0x00000000	0.0
131	0x00000000	0.0
132	0x00000000	0.0
133	0x00000000	0.0
134	0x00000000	0.0
135	0x00000000	0.0
136	0x00000000	0.0
137	0x00000000	0.0
138	0x00000000	0.0
139	0x00000000	0.0
140	0x00000000	0.0
141	0x00000000	0.0
142	0x00000000	0.0
143	0x00000000	0.0
144	0x00000000	0.0
145	0x00000000	0.0
146	0x00000000	0.0
147	0x00000000	0.0
148	0x00000000	0.0
149	0x00000000	0.0
150	0x00000000	0.0
151	0x00000000	0.0
152	0x00000000	0.0
153	0x00000000	0.0
154	0x00000000	0.0
155	0x00000000	0.0
156	0x00000000	0.0
157	0x00000000	0.0
158	0x00000000	0.0
159	0x00000000	0.0
160	0x00000000	0.0
161	0x00000000	0.0
162	0x00000000	0.0
163	0x00000000	0.0
164	0x00000000	0.0
165	0x00000000	0.0
166	0x00000000	0.0
167	0x00000000	0.0
168	0x00000000	0.0
169	0x00000000	0.0
170	0x00000000	0.0
171	0x00000000	0.0
172	0x00000000	0.0
173	0x00000000	0.0
174	0x00000000	0.0
175	0x00000000	0.0
176	0x00000000	0.0
177	0x00000000	0.0
178	0x00000000	0.0
179	0x00000000	0.0
180	0x00000000	0.0
181	0x00000000	0.0
182	0x00000000	0.0
183	0x00000000	0.0
184	0x00000000	0.0
185	0x00000000	0.0
186	0x00000000	0.0
187	0x00000000	0.0
188	0x00000000	0.0
189	0x00000000	0.0
190	0x00000000	0.0
191	0x00000000	0.0
192	0x00000000	0.0
193	0x00000000	0.0
194	0x00000000	0.0
195	0x00000000	0.0
196	0x00000000	0.0
197	0x00000000	0.0
198	0x00000000	0.0
199	0x00000000	0.0
200	0x00000000	0.0
201	0x00000000	0.0
202	0x00000000	0.0
203	0x00000000	0.0
204	0x00000000	0.0
205	0x00000000	0.0
206	0x00000000	0.0
207	0x00000000	0.0
208	0x00000000	0.0
209	0x00000000	0.0
210	0x00000000	0.0
211	0x00000000	0.0
212	0x00000000	0.0
213	0x00000000	0.0
214	0x00000000	0.0
215	0x00000000	0.0
216	0x00000000	0.0
217	0x00000000	0.0
218	0x00000000	0.0
219	0x00000000	0.0
220	0x00000000	0.0
221	0x00000000	0.0
222	0x00000000	0.0
223	0x00000000	0.0
224	0x00000000	0.0
225	0x00000000	0.0
226	0x00000000	0.0
227	0x00000000	0.0
228	0x00000000	0.0
229	0x00000000	0.0
230	0x00000000	0.0
231	0x00000000	0.0
232	0x00000000	0.0
233	0x00000000	0.0
234	0x00000000	0.0
235	0x00000000	0.0
236	0x00000000	0.0
237	0x00000000	0.0
238	0x00000000	0.0
239	0x00000000	0.0
240	0x00000000	0.0
241	0x00000000	0.0
242	0x00000000	0.0
243	0x00000000	0.0
244	0x00000000	0.0
245	0x00000000	0.0
246	0x00000000	0.0
247	0x00000000	0.0
248	0x00000000	0.0
249	0x00000000	0.0
250	0x00000000	0.0
251	0x00000000	0.0
252	0x00000000	0.0
253	0x00000000	0.0
254	0x00000000	0.0
255	0x00000000	0.0

b_linear1.b_prior f4 [1, 256]
0	0xaf9e884d	-2.883688e-10
1	0xaf90b07b	-2.6318844e-10
2	0xb0faab1a	-1.8238524e-09
3	0x309b24e3	1.1288218e-09
4	0x2f4d1c1f	1.8654632e-10
5	0xb12fcc96	-2.5582145e-09
6	0x31826839	3.7953467e-09
7	0xafa262f8	-2.953795e-10
8	0xb06a03b7	-8.5133983e-10
9	0x2d701413	1.3646878e-11
10	0x30a0a532	1.1688484e-09
11	0xb0bcfcb9	-1.3750628e-09
12	0xb1540e03	-3.0858025e-09
13	0x30aca6c0	1.256204e-09
14	0xb0835911	-9.556819e-10
15	0x2fb2c31a	3.251664e-10
16	0x30209124	5.841392e-10
17	0xb08ae2bd	-1.0105264e-09
18	0xb09cd628	-1.1411361e-09
19	0x314afa5d	2.9537184e-09
20	0x30eca5d8	1.7218396e-09
21	0xb032f327	-6.5101563e-10
22	0x311c377c	2.2732527e-09
23	0xafb323b0	-3.2585268e-10
24	0x301680e4	5.4752847e-10
25	0xb132966c	-2.5987914e-09
26	0x300f87df	5.221618e-10
27	0x30f72926	1.798331e-09
28	0xb120571c	-2.333258e-09
29	0x301a3bc8	5.610983e-10
30	0x2e61aa34	5.1310248e-11
31	0xb0647b54	-8.3121177e-10
32	0x30a78194	1.2187678e-09
33	0xb138da74	-2.68997e-09
34	0xb0c92656	-1.463557e-09
35	0xaedf9bb5	-1.0168525e-10
36	0x30c182ec	1.4079808e-09
37	0xb04aa4b7	-7.3721246e-10
38	0xb1035f2c	-1.9117108e-09
39	0x308fc3a1	1.046022e-09
40	0xafc098bf	-3.503313e-10
41	0xb0939074	-1.0736714e-09
42	0x2f92b5d7	2.668645e-10
43	0x31072ad6	1.9669435e-09
44	0x2fb92fbf	3.368523e-10
45	0x3144f869	2.8662959e-09
46	0xb0af4a63	-1.2754068e-09
47	0xb15d1b5a	-3.217528e-09
48	0x311bbe3b	2.2663602e-09
49	0x3109bbf5	2.0042965e-09
50	0x2fecded0	4.3086468e-10
51	0xb03aa87c	-6.7905837e-10
52	0x2f0e48a0	1.2940626e-10
53	0xb0dfba6e	-1.6278372e-09
54	0x308b8dc8	1.0153878e-09
55	0xad17fa9e	-8.6390044e-12
56	0xb108b35d	-1.989256e-09
57	0xafcac35b	-3.6882394e-10
58	0xb1980e41	-4.4254027e-09
59	0xb153b4b7	-3.0807266e-09
60	0x313e7530	2.7715252e-09
61	0xaed7b9a0	-9.810042e-11
62	0xb0fb5764	-1.8287492e-09
63	0x31248a58	2.394378e-09
64	0x2fa25fa1	2.9535577e-10
65	0xafc2ce49	-3.543497e-10
66	0x3185eacf	3.897504e-09
67	0xb130c2e6	-2.5722158e-09
68	0xb1014f70	-1.8817126e-09
69	0xb12c1143	-2.5039106e-09
70	0x2fc343af	3.5518385e-10
71	0x304b67f2	7.3998685e-10
72	0x30c7bf60	1.4533548e-09
73	0x30493270	7.319505e-10
74	0xb0490e65	-7.314383e-10
75	0xacf77937	-7.0336198e-12
76	0xb0c6cbd0	-1.4464323e-09
77	0xb10af405	-2.0220352e-09
78	0x2f7a9b03	2.2792439e-10
79	0xb1630fa4	-3.3041738e-09
80	0x30909504	1.0519732e-09
81	0x310c78e4	2.04414e-09
82	0xb037a596	-6.6810324e-10
83	0x316c7837	3.4410854e-09
84	0xae962e67	-6.829453e-11
85	0xb173c1af	-3.547125e-09
86	0xb02f1cb7	-6.3705435e-10
87	0xafd7fd2e	-3.9288167e-10
88	0x3142de32	2.835702e-09
89	0xb070488c	-8.7414587e-10
90	0x3122c35d	2.3685154e-09
91	0xb10ed6ee	-2.0785893e-09
92	0xaf65d202	-2.0902038e-10
93	0x30623e01	8.2306434e-10
94	0xb0e12c89	-1.6383562e-09
95	0xb132faf3	-2.6045057e-09
96	0xb01a8f7a	-5.6228766e-10
97	0x30e9c30c	1.7008417e-09
98	0x2f2598d4	1.5060958e-10
99	0xaf1d2938	-1.429371e-10
100	0x2e73fd77	5.5476925e-11
101	0x2b8eb218	1.0139138e-12
102	0x30b57926	1.3203916e-09
103	0xb149f61b	-2.9389244e-09
104	0x3087b964	9.875234e-10
105	0xaff2de41	-4.4177464e-10
106	0xb0321469	-6.478503e-10
107	0xb0fd4cc3	-1.842999e-09
108	0x30a3e86e	1.1925871e-09
109	0xb057a1ee	-7.844666e-10
110	0xaef38c27	-1.1075257e-10
111	0xb0b554ff	-1.3193641e-09
112	0x2e1f69cc	3.624638e-11
113	0x308cfe93	1.0258695e-09
114	0xb0ec9c61	-1.7215706e-09
115	0x2dcabcef	2.3048645e-11
116	0x2e8723c7	6.1454446e-11
117	0xaf59dd36	-1.9814625e-10
118	0xb11d23cf	-2.2866862e-09
119	0x2db6fe8d	2.0804048e-11
120	0x311a68df	2.2469562e-09
121	0xb0ecd786	-1.7232515e-09
122	0x2f04e894	1.2087958e-10
123	0x30b66552	1.327104e-09
124	0xb15062e5	-3.0324199e-09
125	0xb14de919	-2.9963927e-09
126	0x304bf0f2	7.4193374e-10
127	0xb0a0b485	-1.1692839e-09
128	0x31737e54	3.5432963e-09
129	0xb047b9f9	-7.266006e-10
130	0xb16d489c	-3.4529313e-09
131	0xafe040ec	-4.0791492e-10
132	0xb02ea25b	-6.353155e-10
133	0xb19a8f1b	-4.498259e-09
134	0xb0c1c839	-1.4099505e-09
135	0xaef4ef39	-1.113833e-10
136	0xb127ddbb	-2.4427738e-09
137	0xb0de03c4	-1.6153696e-09
138	0x31177062	2.2037274e-09
139	0x30e71a6a	1.6814969e-09
140	0x314463a9	2.8578404e-09
141	0xb07aa703	-9.118681e-10
142	0xb0aea429	-1.2706823e-09
143	0x2f0e07f3	1.2917649e-10
144	0x2ff33b6d	4.4243667e-10
145	0x30629ca3	8.2440915e-10
146	0xb0f41c4f	-1.7761382e-09
147	0x3099e007	1.1195888e-09
148	0x301d7e30	5.729559e-10
149	0xb14c8f29	-2.9767284e-09
150	0x31002b62	1.8651112e-09
151	0x31456a4d	2.8727698e-09
152	0x30991295	1.1137496e-09
153	0xb05fdd09	-8.144104e-10
154	0x30482131	7.2806744e-10
155	0xb0889473	-9.937494e-10
156	0x30760cad	8.951229e-10
157	0x30102b4b	5.244842e-10
158	0xb131555b	-2.580541e-09
159	0xaeecfadf	-1.0776601e-10
160	0xb0bd8204	-1.3788513e-09
161	0x30425ab7	7.07057e-10
162	0x2fc11aa2	3.512542e-10
163	0x307724b1	8.991022e-10
164	0x2eb05538	8.018691e-11
165	0xb15cc6a1	-3.212712e-09
166	0x30db5c06	1.5960502e-09
167	0xaea2c820	-7.4024564e-11
168	0xaec0a4da	-8.760433e-11
169	0xb146126b	-2.8823262e-09
170	0x305c1fdd	8.0080814e-10
171	0x3077773c	9.002752e-10
172	0x300414e9	4.8051035e-10
173	0x2fd7d470	3.9259218e-10
174	0xb139ead0	-2.7054519e-09
175	0x2f33afb0	1.6342372e-10
176	0xb1000287	-1.8627888e-09
177	0x3085122d	9.68219e-10
178	0x30974968	1.1007559e-09
179	0x308db274	1.030982e-09
180	0xb025b9f8	-6.029093e-10
181	0x30008716	4.67581e-10
182	0xb06709a5	-8.4051016e-10
183	0x311d64b1	2.2903743e-09
184	0x3132254c	2.592361e-09
185	0x30a14827	1.1734799e-09
186	0xb1132f14	-2.1418076e-09
187	0x300235e9	4.7370335e-10
188	0x311142e2	2.1138296e-09
189	0xb09fb663	-1.162061e-09
190	0xb0a89387	-1.2265539e-09
191	0xb099b40e	-1.118339e-09
192	0xb06c2299	-8.5905466e-10
193	0x2f3a5b19	1.6948966e-10
194	0xafca52ae	-3.6802333e-10
195	0x30c75944	1.4504526e-09
196	0x30edc8fc	1.7301143e-09
197	0xb0643c6c	-8.303178e-10
198	0x30dc119a	1.6012109e-09
199	0xb0d0d6c2	-1.519503e-09
200	0x3142d23c	2.835022e-09
201	0xb12201a6	-2.357504e-09
202	0xb005ba82	-4.865016e-10
203	0xb0dfcdbf	-1.6283862e-09
204	0xb108dfb3	-1.9917763e-09
205	0xb028501c	-6.1231886e-10
206	0xb0f94e2f	-1.8139356e-09
207	0x2f6d4ae3	2.158163e-10
208	0x31258bc2	2.4090103e-09
209	0xb1350fb6	-2.6347897e-09
210	0x30b1eff1	1.294664e-09
211	0x30c95028	1.4647457e-09
212	0x306292d5	8.242698e-10
213	0xb042fbd5	-7.0934664e-10
214	0xb0a1a45a	-1.1761003e-09
215	0xae9c9700	-7.120882e-11
216	0xb02b2e9f	-6.227569e-10
217	0xb1674f52	-3.3660013e-09
218	0x315e22c2	3.232501e-09
219	0x30a75a6d	1.217655e-09
220	0x312d21dc	2.519406e-09
221	0x2e3d5736	4.3051084e-11
222	0x303e0d15	6.914019e-10
223	0xb0a78a6f	-1.2190194e-09
224	0xb0ac1e57	-1.252327e-09
225	0x31323108	2.593028e-09
226	0x2f2edfe7	1.5904754e-10
227	0x2febcd66	4.2892195e-10
228	0x3009ab9a	5.008417e-10
229	0xb04dd4e1	-7.4881085e-10
230	0xb02feece	-6.400399e-10
231	0x311bbb83	2.2662057e-09
232	0x30a60e9b	1.2082241e-09
233	0x2fb9a9e7	3.3772027e-10
234	0xb18ce9c3	-4.101112e-09
235	0x30d341fd	1.5371026e-09
236	0x3088d818	9.95672e-10
237	0x306893db	8.4611224e-10
238	0x309ddbef	1.1485762e-09
239	0xb048ee14	-7.3097906e-10
240	0x2f28198e	1.528859e-10
241	0xaebb6852	-8.5223065e-11
242	0x303196cb	6.4606515e-10
243	0xb05cc1b8	-8.0310825e-10
244	0xb0b29166	-1.2992529e-09
245	0xb0474eed	-7.250794e-10
246	0xb0b3df29	-1.308739e-09
247	0xb0778527	-9.00473e-10
248	0xb0389157	-6.714535e-10
249	0x2ff1a6c8	4.395615e-10
250	0x308eab99	1.0380631e-09
251	0x30d65afe	1.5596411e-09
252	0x30cc3d5c	1.4860393e-09
253	0x2fc30b80	3.5478465e-10
254	0x300bf678	5.091816e-10
255	0x3040f675	7.019943e-10

b_linear2.w f4 [256, 256]
0	0x36d7ad22	6.4276546e-06
1	0x35a06b5b	1.1952174e-06
2	0x37926801	1.7452987e-05
3	0xb684fc88	-3.963305e-06
4	0xb731d0a9	-1.0598605e-05
5	0xb80cff1b	-3.3616187e-05
6	0xb787d6b5	-1.6193235e-05
7	0xb781bc3d	-1.5465654e-05
8	0x36f1bb03	7.2041307e-06
9	0x37700828	1.4307014e-05
10	0xb85ca3a7	-5.26045e-05
11	0xb8794cf6	-5.94379e-05
12	0xb29e5f8c	-1.843707e-08
13	0xb7cf00a0	-2.4676614e-05
14	0xb8b1438b	-8.4525986e-05
15	0x3835f44e	4.338129e-05
16	0x36f5d782	7.3266574e-06
17	0xb7c0ee19	-2.2999056e-05
18	0x35b1ec1d	1.3256246e-06
19	0x38617c8e	5.376018e-05
20	0x38b081b7	8.416495e-05
21	0x3852afd5	5.0231658e-05
22	0x3892cdd5	7.000162e-05
23	0xb7fc8ac9	-3.0105368e-05
24	0xb6ed0b85	-7.0644915e-06
25	0xb7a3760b	-1.9486082e-05
26	0xb83adf6e	-4.455394e-05
27	0x37b4950a	2.1527074e-05
28	0xb835da2c	-4.335695e-05
29	0x38021ea0	3.1022937e-05
30	0x388eff1b	6.818605e-05
31	0xb8c88f6f	-9.56346e-05
32	0x388244c4	6.211692e-05
33	0x385b6cb4	5.2314906e-05
34	0x38060aa0	3.1957985e-05
35	0x375d6905	1.3197078e-05
36	0x382fa1f8	4.1874096e-05
37	0x379d2b7d	1.873611e-05
38	0xb8a211e9	-7.728098e-05
39	0x38533dde	5.036394e-05
40	0xb6c2743f	-5.7951834e-06
41	0x3890f440	6.91195e-05
42	0xb82d2456	-4.1280255e-05
43	0x3817bfe3	3.6179914e-05
44	0xb7f31979	-2.8979719e-05
45	0x38512beb	4.9870385e-05
46	0x379c03bb	1.8598386e-05
47	0xb88410dd	-6.2973915e-05
48	0xb816b786	-3.5933706e-05
49	0xb748e7ba	-1.1974882e-05
50	0xb860389c	-5.3458483e-05
51	0x370c2777	8.353839e-06
52	0xb7c475b5	-2.3419832e-05
53	0x38a0c534	7.6661265e-05
54	0xb852d226	-5.0263618e-05
55	0xb8853214	-6.351262e-05
56	0xb7a50110	-1.9670028e-05
57	0xb82ce297	-4.1219024e-05
58	0x380eb6d3	3.4025707e-05
59	0x37a93b9c	2.0174128e-05
60	0xb67c4e41	-3.7596476e-06
61	0x378513f1	1.5864121e-05
62	0xb68b34f1	-4.148686e-06
63	0x3852a880	5.022483e-05
64	0xb79c9daf	-1.8670076e-05
65	0xb83f4d4f	-4.5609948e-05
66	0xb78165ec	-1.542546e-05
67	0x372bfd4b	1.0251369e-05
68	0x3888994d	6.51354e-05
69	0x37c76703	2.3770617e-05
70	0x37fbdd35	3.002454e-05
71	0x385c08b3	5.246019e-05
72	0x369a0eb6	4.59127e-06
73	0x3810699f	3.4430643e-05
74	0x35aedc82	1.3028186e-06
75	0xb8513d2e	-4.988646e-05
76	0xb81ef0d0	-3.789441e-05
77	0x37acf9f8	2.0620399e-05
78	0xb7b81afb	-2.1947073e-05
79	0xb88a76d9	-6.60249e-05
80	0xb6af48f7	-5.2239006e-06
81	0xb886d3a2	-6.4290376e-05
82	0x3706fe6b	8.046259e-06
83	0xb8cd70e7	-9.7961914e-05
84	0xb75ca254	-1.3150817e-05
85	0xb7c8083f	-2.3845698e-05
86	0xb73ad536	-1.1136106e-05
87	0x3817d903	3.6203313e-05
88	0x3860ab3f	5.3565247e-05
89	0x387810a9	5.9143324e-05
90	0x378e4c51	1.6963257e-05
91	0xb8295a93	-4.0377094e-05
92	0xb7127600	-8.729752e-06
93	0xb850a0fa	-4.9740986e-05
94	0xb6a8009c	-5.006861e-06
95	0xb8b81b88	-8.778932e-05
96	0xb7309ea8	-1.05273575e-05
97	0x36f6cc8e	7.3551846e-06
98	0x37e737f0	2.7563394e-05
99	0x384184da	4.6138513e-05
100	0xb7c2fe42	-2.3245e-05
101	0x384bb96c	4.857166e-05
102	0xb8364019	-4.3451877e-05
103	0x36d28ca0	6.2748586e-06
104	0xb683bb47	-3.925906e-06
105	0x39038d28	0.00012545718
106	0x377008f9	1.4307204e-05
107	0xb4c38fae	-3.642612e-07
108	0xb7453317	-1.175401e-05
109	0x373b5fc0	1.1168362e-05
110	0xb7d98bac	-2.5933456e-05
111	0x37883fbd	1.6242144e-05
112	0xb7ad7e02	-2.0681884e-05
113	0xb74540ff	-1.1757248e-05
114	0xb60fce31	-2.142868e-06
115	0x37fa5bb8	2.9845032e-05
116	0xb7a904be	-2.0148578e-05
117	0xb7916eeb	-1.7336997e-05
118	0x37fa487e	2.983608e-05
119	0x379c392b	1.862327e-05
120	0x3794e263	1.7748394e-05
121	0x37e37b7a	2.7118007e-05
122	0x35806bd8	9.56813e-07
123	0xb7eb354a	-2.8038998e-05
124	0xb8360ae4	-4.3402324e-05
125	0x3808a910	3.258238e-05
126	0xb6b81d81	-5.487062e-06
127	0x3823b607	3.9031755e-05
128	0x372eb7a8	1.0413969e-05
129	0xb8919d17	-6.943399e-05
130	0x38380a9e	4.3878907e-05
131	0xb896672f	-7.171777e-05
132	0xb82914bc	-4.031205e-05
133	0xb4fe71fd	-4.7394124e-07
134	0xb89d8e65	-7.5128664e-05
135	0xb499042f	-2.8501515e-07
136	0x37cc490f	2.4352716e-05
137	0x3814826e	3.5407422e-05
138	0xb85d98b5	-5.2832725e-05
139	0x381cfaf3	3.7427013e-05
140	0x379dc0e1	1.8805675e-05
141	0x37992df5	1.8260422e-05
142	0x38193472	3.6526886e-05
143	0x3818113f	3.6255686e-05
144	0xb80b139c	-3.3158445e-05
145	0x383e60d0	4.5389694e-05
146	0xb812b29d	-3.497546e-05
147	0x389bee70	7.4353884e-05
148	0xb81f585f	-3.7990856e-05
149	0xb7343c14	-1.0742824e-05
150	0xb8049037	-3.1605563e-05
151	0x374f7891	1.2366233e-05
152	0xb7fa0a3f	-2.9807094e-05
153	0x377fa6f7	1.5238059e-05
154	0xb7dc9170	-2.6293768e-05
155	0x3892f537	7.007497e-05
156	0x37d4b7b1	2.5357907e-05
157	0xb58e97d4	-1.0624012e-06
158	0x36e68aba	6.870684e-06
159	0x38728563	5.7821522e-05
160	0xb56bd842	-8.785902e-07
161	0xb82e4494	-4.15487e-05
162	0xb542b7c6	-7.253806e-07
163	0xb672713d	-3.6126723e-06
164	0x39055b8d	0.00012717974
165	0x38055c9e	3.1795927e-05
166	0xb83a4427	-4.4409328e-05
167	0x378069dc	1.5308084e-05
168	0xb7d351a8	-2.5191184e-05
169	0xb7a64c8e	-1.982439e-05
170	0xb7897eda	-1.6390743e-05
171	0xb8081b18	-3.245016e-05
172	0x3842e7f0	4.6469213e-05
173	0xb73e6ce5	-1.13502365e-05
174	0xb798d4a1	-1.8218825e-05
175	0x374121d1	1.151157e-05
176	0xb74b1c28	-1.21062985e-05
177	0x37845e1a	1.5779446e-05
178	0x37a3efed	1.9542838e-05
179	0x3877e5a7	5.910327e-05
180	0xb7605c16	-1.3372881e-05
181	0x378bb2a7	1.6653283e-05
182	0xb84483de	-4.6852852e-05
183	0xb858a277	-5.164972e-05
184	0x387c4b62	6.0151688e-05
185	0xb6988330	-4.5452252e-06
186	0x3836426b	4.3454038e-05
187	0xb8090092	-3.2663876e-05
188	0xb583b754	-9.813616e-07
189	0x38849af0	6.32311e-05
190	0x3800dbac	3.0722164e-05
191	0x37c029bf	2.2907623e-05
192	0x384a0ac8	4.8170594e-05
193	0xb8127e85	-3.4926943e-05
194	0x33f2f210	1.1313034e-07
195	0xb77ed880	-1.5189988e-05
196	0xb7ff2126	-3.0413805e-05
197	0xb836a274	-4.3543478e-05
198	0xb63ce5ca	-2.8147938e-06
199	0xb79f5581	-1.8994093e-05
200	0x38c6c3e7	9.4778654e-05
201	0x3802be1f	3.117148e-05
202	0x36292f1f	2.521039e-06
203	0x378ad979	1.655215e-05
204	0xb8464df4	-4.7279478e-05
205	0x36771438	3.6817637e-06
206	0x3880ec5f	6.147543e-05
207	0xb79391af	-1.7591605e-05
208	0xb7bdd87f	-2.263137e-05
209	0xb7ba8eb8	-2.2239386e-05
210	0x3843bdc9	4.6668374e-05
211	0x38638634	5.4246004e-05
212	0x38437d0c	4.6608082e-05
213	0xb889b8bf	-6.567081e-05
214	0xb7baa7da	-2.225109e-05
215	0xb7deda54	-2.656613e-05
216	0xb77a4dbf	-1.4919263e-05
217	0xb703ec72	-7.86326e-06
218	0x36d3d3ce	6.3129473e-06
219	0x38a13203	7.686394e-05
220	0x380b11e2	3.3156837e-05
221	0x3777b10d	1.476357e-05
222	0xb612557f	-2.180546e-06
223	0xb808cc71	-3.2615328e-05
224	0x36124441	2.1795424e-06
225	0x37947daf	1.77015e-05
226	0x371ffc09	9.53582e-06
227	0xb8323af4	-4.249341e-05
228	0x3795ac19	1.7842323e-05
229	0x36be86ef	5.6781496e-06
230	0x38310a4d	4.2209682e-05
231	0x38b899f7	8.802482e-05
232	0x37bb7d40	2.2350461e-05
233	0xb820b0ae	-3.831152e-05
234	0x383f4417	4.5601362e-05
235	0x3803f90b	3.1464773e-05
236	0xb5ad646a	-1.2918729e-06
237	0x383056b7	4.204243e-05
238	0xb695e2e5	-4.46696e-06
239	0x380de908	3.3834047e-05
240	0x381a190b	3.6739784e-05
241	0x37f8aed9	2.9645324e-05
242	0xb71d5e07	-9.379822e-06
243	0xb5088ad5	-5.0865975e-07
244	0x388a550f	6.596196e-05
245	0xb742de93	-1.1615123e-05
246	0xb806a952	-3.210578e-05
247	0x3893d052	7.048309e-05
248	0x37d2b352	2.5117453e-05
249	0x375c3a2c	1.3126566e-05
250	0x370efab2	8.522229e-06
251	0xb7d272ec	-2.5087465e-05
252	0xb8809de3	-6.132924e-05
253	0xb8458ed6	-4.7101486e-05
254	0xb7dc6977	-2.6275155e-05
255	0xb8c6ac03	-9.4734154e-05

b_linear2.b f4 [1, 256]
0	0x37f07cf2	2.8668412e-05
1	0xb7aa5dfe	-2.0309348e-05
2	0x369b11ac	4.6214172e-06
3	0xb785d83f	-1.5955533e-05
4	0x36c99c5c	6.0084694e-06
5	0xb839e1cc	-4.4317727e-05
6	0x380d242a	3.36507e-05
7	0xb6d00e22	-6.2005283e-06
8	0xb8530f7f	-5.0320752e-05
9	0x371cdc4d	9.349617e-06
10	0x369cd8f1	4.6744176e-06
11	0x37bb40e5	2.2322356e-05
12	0xb66de525	-3.5449132e-06
13	0xb840b509	-4.594497e-05
14	0xb7d108d8	-2.491886e-05
15	0x367209c1	3.6066488e-06
16	0xb6f2bd3b	-7.2341913e-06
17	0x36ec9856	7.0510823e-06
18	0x3868fb5a	5.55472e-05
19	0x37c97f8d	2.4020463e-05
20	0x3867be78	5.525208e-05
21	0xb81cd607	-3.7392627e-05
22	0x381cb694	3.7363337e-05
23	0x37cc9914	2.4389978e-05
24	0xb7dd4efa	-2.638203e-05
25	0xb6a3abee	-4.877794e-06
26	0xb87f4f33	-6.0870498e-05
27	0xb7b95e1f	-2.2097547e-05
28	0xb6b2227e	-5.308829e-06
29	0xb716a7fd	-8.9798095e-06
30	0x3816035c	3.5765916e-05
31	0xb8a7de88	-8.00463e-05
32	0x387ff81f	6.102782e-05
33	0x385d50be	5.2765703e-05
34	0x377b62ea	1.4983796e-05
35	0xb7a228fa	-1.9330986e-05
36	0x379a3b6f	1.8385907e-05
37	0xb7e47769	-2.7235323e-05
38	0xb80d4dae	-3.3689364e-05
39	0xb7844755	-1.5768843e-05
40	0x3788c589	1.6304448e-05
41	0xb74d1dcf	-1.22258925e-05
42	0xb6def092	-6.6441216e-06
43	0xb744f5c9	-1.1739737e-05
44	0xb787eb0f	-1.6202712e-05
45	0x37b40e13	2.1464226e-05
46	0xb7e479f3	-2.7236505e-05
47	0x3529eb33	6.3299666e-07
48	0x37dd2abb	2.6365151e-05
49	0xb7be56d4	-2.2690198e-05
50	0xb8869154	-6.4166874e-05
51	0xb7d04634	-2.4828223e-05
52	0xb79b59a5	-1.8519184e-05
53	0x37d2d2a2	2.5132034e-05
54	0xb5cb4090	-1.5143469e-06
55	0x362e49d5	2.5970996e-06
56	0xb79be08a	-1.8581999e-05
57	0x389ff4af	7.627287e-05
58	0x36c9f370	6.0186067e-06
59	0x370865bf	8.129921e-06
60	0xb71397b8	-8.797208e-06
61	0xb7be02c1	-2.2651047e-05
62	0x381dff1c	3.7669306e-05
63	0x3811519f	3.464671e-05
64	0xb709d463	-8.2152865e-06
65	0xb7e63122	-2.7441016e-05
66	0xb81cce54	-3.7385456e-05
67	0x380c8fdf	3.351259e-05
68	0x383d5b87	4.5146353e-05
69	0x37872222	1.6109148e-05
70	0xb77d26c1	-1.5088998e-05
71	0x389846f0	7.261138e-05
72	0xb8451b41	-4.6993842e-05
73	0xb7e39b27	-2.7132757e-05
74	0xb7746876	-1.4567855e-05
75	0x37235424	9.735148e-06
76	0xb8160cc6	-3.5774683e-05
77	0x371995f4	9.154424e-06
78	0xb7fb96d2	-2.9991763e-05
79	0x37b52d3c	2.1597945e-05
80	0x38367b2a	4.3506887e-05
81	0xb79d9c8f	-1.8788762e-05
82	0x386576dc	5.470855e-05
83	0x36156a95	2.226477e-06
84	0xb7223313	-9.667844e-06
85	0xb5f203bb	-1.8031491e-06
86	0xb807cd94	-3.2377968e-05
87	0x38a3914f	7.7995115e-05
88	0x375fe1a8	1.33443755e-05
89	0x3838161d	4.3889613e-05
90	0x374aae00	1.2080651e-05
91	0xb83ccf27	-4.501562e-05
92	0xb798ff73	-1.8238765e-05
93	0x371b4994	9.255851e-06
94	0x368c3e62	4.1795874e-06
95	0xb799c2e5	-1.8329776e-05
96	0xb61f4e99	-2.3738596e-06
97	0xb834544f	-4.2993863e-05
98	0x388037b0	6.113888e-05
99	0x369d310c	4.6846744e-06
100	0x38406160	4.5867055e-05
101	0x381ee251	3.788091e-05
102	0x3652f7cf	3.1436682e-06
103	0xb7d05261	-2.4833893e-05
104	0x37bd37c7	2.2556529e-05
105	0x37bc0a2e	2.2416087e-05
106	0xb802e7ab	-3.1210173e-05
107	0x36eb3ecc	7.0108563e-06
108	0xb639e98d	-2.7703093e-06
109	0x379af6de	1.8473187e-05
110	0xb84a5ee4	-4.8248927e-05
111	0x38492ad1	4.796201e-05
112	0x378f3f88	1.7076512e-05
113	0xb8475344	-4.7522844e-05
114	0x379f4155	1.89847e-05
115	0xb762dd59	-1.3522186e-05
116	0x3631b32d	2.647935e-06
117	0xb7f6e15c	-2.9430426e-05
118	0x369e16f5	4.7114395e-06
119	0x38286d2d	4.0156e-05
120	0xb5e56c7b	-1.7093402e-06
121	0xb8086aba	-3.2524324e-05
122	0xb6b1aa7b	-5.2948576e-06
123	0x381ebd85	3.784664e-05
124	0x3694cc33	4.4345156e-06
125	0x388365f4	6.265557e-05
126	0x37af0e90	2.0868407e-05
127	0x3859acba	5.1897696e-05
128	0x37b55e20	2.1620712e-05
129	0x380e59d0	3.3939083e-05
130	0x37df588b	2.6624903e-05
131	0x37dd324d	2.6368676e-05
132	0xb80b2993	-3.31789e-05
133	0x383ea826	4.545613e-05
134	0xb7d4e479	-2.537876e-05
135	0xb6611b4f	-3.3543508e-06
136	0x3805e4fe	3.1922937e-05
137	0x3729dd7b	1.0124752e-05
138	0x36f334fa	7.2481316e-06
139	0xb7c8fe17	-2.3960178e-05
140	0xb462cb43	-2.1121836e-07
141	0xb812dc91	-3.501453e-05
142	0x371c0110	9.298572e-06
143	0xb769e436	-1.3941017e-05
144	0x3782b049	1.5579297e-05
145	0x380d26e2	3.3653232e-05
146	0x37a70382	1.9909585e-05
147	0xb7a4f73d	-1.9665453e-05
148	0xb557902e	-8.030355e-07
149	0x36036a38	1.9582349e-06
150	0xb790a924	-1.72449e-05
151	0x389a2484	7.350094e-05
152	0xb70743a8	-8.0623795e-06
153	0x36237713	2.4358203e-06
154	0xb75b5122	-1.3072307e-05
155	0x38079ab9	3.2330605e-05
156	0x37d3145e	2.5162644e-05
157	0x3622896e	2.4219876e-06
158	0x37827b5a	1.5554648e-05
159	0xb6ea2552	-6.978088e-06
160	0xb82c1902	-4.1031286e-05
161	0x38049d59	3.1617794e-05
162	0xb80d60eb	-3.370728e-05
163	0xb63764b2	-2.7327737e-06
164	0x386900f3	5.5552413e-05
165	0x384db628	4.9045455e-05
166	0x37eb6b9b	2.806429e-05
167	0x36ca2d92	6.025374e-06
168	0xb6edebdb	-7.0906076e-06
169	0xb80eeff2	-3.4078905e-05
170	0xb6c95514	-6.000171e-06
171	0x37d3fbc1	2.5270392e-05
172	0x376a215f	1.3955257e-05
173	0xb74c4dfb	-1.2177504e-05
174	0x3885a171	6.372005e-05
175	0x37dcc188	2.6316164e-05
176	0xb83f626c	-4.562961e-05
177	0xb751a6a1	-1.2496167e-05
178	0xb7a827f2	-2.0045762e-05
179	0x3879f24a	5.9591875e-05
180	0xb8124251	-3.4870875e-05
181	0xb7557bd8	-1.2724624e-05
182	0x37877aa3	1.6150361e-05
183	0xb81b3dda	-3.7012484e-05
184	0xb784c687	-1.5828073e-05
185	0xb66290ab	-3.3760832e-06
186	0x37edd428	2.8351395e-05
187	0xb84f41e6	-4.941402e-05
188	0xb7c650fc	-2.364115e-05
189	0xb7649355	-1.3624162e-05
190	0xb80bd056	-3.333421e-05
191	0xb80c179a	-3.340058e-05
192	0x3780165b	1.52692e-05
193	0xb80be9f8	-3.3358083e-05
194	0x37972288	1.8016683e-05
195	0x374271c1	1.15897865e-05
196	0xb77913d2	-1.4846171e-05
197	0xb6e8d278	-6.9386406e-06
198	0xb80e96b0	-3.3995777e-05
199	0xb7b8d1d9	-2.2032227e-05
200	0xb83ef9ac	-4.5532055e-05
201	0x37642fde	1.3601004e-05
202	0x382ecc8c	4.1675332e-05
203	0x37fbe48d	3.0027959e-05
204	0x37facfa5	2.9899014e-05
205	0x3812cf51	3.500219e-05
206	0x3882c398	6.235315e-05
207	0x3738d7ce	1.1017501e-05
208	0x38525bfa	5.015356e-05
209	0x34bdb1a0	3.5333233e-07
210	0xb67596c8	-3.6595611e-06
211	0x37bb6cb8	2.2342763e-05
212	0x37ddbd26	2.6433332e-05
213	0xb88c18bf	-6.6803295e-05
214	0x348c695f	2.61537e-07
215	0x3769a6c7	1.3926713e-05
216	0xb7cbdc8e	-2.430219e-05
217	0x379a7ec3	1.8417259e-05
218	0x37dab72d	2.6072923e-05
219	0xb7364026	-1.0862981e-05
220	0xb7fd18a3	-3.0171423e-05
221	0x3846a7e4	4.736324e-05
222	0xb73cf7da	-1.1263381e-05
223	0xb58f265b	-1.0665493e-06
224	0xb7860056	-1.5974201e-05
225	0xb7087d4e	-8.1354065e-06
226	0x36f7e9ff	7.3884144e-06
227	0xb83d4b37	-4.513116e-05
228	0xb7e7e7c9	-2.764528e-05
229	0xb747d431	-1.1910729e-05
230	0x37e5b0c9	2.738125e-05
231	0x3744eb2f	1.1737268e-05
232	0x37572214	1.2822933e-05
233	0xb7bc84b3	-2.247314e-05
234	0x37f74a12	2.9479186e-05
235	0xb69a29c0	-4.594418e-06
236	0xb840a220	-4.5927358e-05
237	0xb64a7225	-3.0166786e-06
238	0xb7947c5a	-1.770088e-05
239	0x365934d6	3.2366274e-06
240	0x37d4aaa3	2.5351828e-05
241	0xb8114d9c	-3.4642973e-05
242	0xb8270b6b	-3.9826537e-05
243	0x36b46a07	5.3767612e-06
244	0x37449dbb	1.1719235e-05
245	0xb80d7acf	-3.3731394e-05
246	0xb7a07766	-1.9129086e-05
247	0xb5357621	-6.7599655e-07
248	0xb7f3e8e1	-2.90763e-05
249	0x386adb5b	5.599424e-05
250	0x38282427	4.008799e-05
251	0x37028477	7.779446e-06
252	0xb836409e	-4.345236e-05
253	0xb74750b6	-1.1880116e-05
254	0x3846ca6e	4.7395406e-05
255	0xb57abcd7	-9.3407056e-07

b_linear2.w_prior f4 [256, 256]
0	0xb11cf4c3	-2.2840119e-09
1	0xb1d1607f	-6.093671e-09
2	0x31e1ce59	6.571821e-09
3	0xb2b87751	-2.1474678e-08
4	0x32705c0a	1.3990766e-08
5	0x3191035e	4.220438e-09
6	0x316b11bb	3.420708e-09
7	0xb1afb9c9	-5.1142917e-09
8	0x322089d9	9.344569e-09
9	0x317ed346	3.708196e-09
10	0xb29320c9	-1.7127961e-08
11	0xb2ca0f17	-2.3522757e-08
12	0xb18762df	-3.9402575e-09
13	0x31d74d9d	6.266147e-09
14	0xb2e0c506	-2.6166628e-08
15	0x324547d8	1.1483245e-08
16	0xb21fe8b9	-9.307933e-09
17	0xb2b0ba60	-2.057385e-08
18	0x3205c855	7.787169e-09
19	0x32c76f9a	2.32174e-08
20	0x32f8d14d	2.8966179e-08
21	0x32d5d889	2.4894932e-08
22	0x32acb09e	2.0103752e-08
23	0xb2938e80	-1.7177854e-08
24	0xb19ab956	-4.50306e-09
25	0xb267102a	-1.3449645e-08
26	0xb2190898	-8.907726e-09
27	0x31522c1c	3.0584095e-09
28	0xb29ac840	-1.8019023e-08
29	0x328a92d9	1.6132093e-08
30	0x32d5dc38	2.4896607e-08
31	0xb31b0d93	-3.6101095e-08
32	0x32991600	1.7821549e-08
33	0x3244d6fd	1.1457584e-08
34	0x3246fe86	1.1582989e-08
35	0x32d2ea01	2.455363e-08
36	0x32394855	1.0784864e-08
37	0x31ab9cb9	4.9945723e-09
38	0xb2b58f39	-2.1136303e-08
39	0x3253695c	1.2305772e-08
40	0x311faef7	2.3237001e-09
41	0x330b8103	3.2480795e-08
42	0xb2f1261e	-2.8073426e-08
43	0x32caaee9	2.3595435e-08
44	0xb1153489	-2.1712216e-09
45	0x3302610a	3.035624e-08
46	0x32a3c676	1.9065947e-08
47	0xb309bf7b	-3.207195e-08
48	0xb28fd53f	-1.6744364e-08
49	0xb246c3f7	-1.1569674e-08
50	0xb2d08952	-2.4276833e-08
51	0xb12305cc	-2.3722917e-09
52	0xb20e4149	-8.280332e-09
53	0x329eb16b	1.8474301e-08
54	0xb2e929c5	-2.7143765e-08
55	0xb2c7f439	-2.3277709e-08
56	0xb2373575	-1.0664157e-08
57	0xb265dfc2	-1.3380431e-08
58	0x32c71bb5	2.3179249e-08
59	0x32846abd	1.5415361e-08
60	0x31a3d203	4.7678e-09
61	0x31ae0342	5.064437e-09
62	0x2f96aee7	2.7409117e-10
63	0x329cbdd2	1.824711e-08
64	0xb26cae9b	-1.3776709e-08
65	0xb2db7e80	-2.5552481e-08
66	0xb29ee106	-1.849595e-08
67	0x3217afc3	8.82932e-09
68	0x32e917f6	2.7135666e-08
69	0x321569ad	8.696969e-09
70	0x3188698c	3.9701202e-09
71	0x32a0dd02	1.8726954e-08
72	0x319b9d19	4.5289537e-09
73	0x316c5507	3.4390852e-09
74	0x31e6a177	6.7122374e-09
75	0xb2bd7166	-2.2054063e-08
76	0xb2f8a0d5	-2.8944138e-08
77	0x31aedcd9	5.089174e-09
78	0xb250a215	-1.2144047e-08
79	0xb30cdbc2	-3.279616e-08
80	0xb05638c5	-7.793342e-10
81	0xb290eaf2	-1.6870647e-08
82	0x324e060e	1.1992155e-08
83	0xb3148b4f	-3.4585636e-08
84	0xb192f722	-4.277255e-09
85	0x31e50f11	6.66649e-09
86	0xb1ec38b7	-6.8749517e-09
87	0x32c40002	2.2817407e-08
88	0x328be34b	1.628509e-08
89	0x32f5e0a3	2.8623907e-08
90	0x31acd58b	5.030136e-09
91	0xb2a8b303	-1.963918e-08
92	0x32b6b115	2.1268116e-08
93	0xb21bafc2	-9.06215e-09
94	0x31fbe8ee	7.3315425e-09
95	0xb3070b3d	-3.1442358e-08
96	0xb1cfe3bf	-6.0503846e-09
97	0x3200a1a3	7.4873325e-09
98	0x3105f56c	1.9493553e-09
99	0x32563f0c	1.2470775e-08
100	0xb17d189b	-3.6830332e-09
101	0x323de1d0	1.1052592e-08
102	0xb28d52fd	-1.6452299e-08
103	0xb0ea8385	-1.7063121e-09
104	0xaf3e4cdb	-1.7307704e-10
105	0x33744acc	5.6878704e-08
106	0x3220428a	9.328355e-09
107	0x31a878e6	4.903188e-09
108	0x31aff55f	5.121066e-09
109	0x32098409	8.004471e-09
110	0xb156e54c	-3.1271439e-09
111	0x3116a62d	2.1922333e-09
112	0x30568fb3	7.8056955e-10
113	0xb1fa7bcb	-7.2900312e-09
114	0xb10293ed	-1.9001576e-09
115	0x32746819	1.4226338e-08
116	0xb209b26e	-8.01502e-09
117	0xb283f392	-1.536117e-08
118	0x32b67ea3	2.1245176e-08
119	0x30af3974	1.2749255e-09
120	0x3242d9d3	1.1341814e-08
121	0x319169e5	4.2320942e-09
122	0xb168e505	-3.3890626e-09
123	0xb2687006	-1.35296485e-08
124	0xb24e0faa	-1.199434e-08
125	0x31bfc32d	5.5810205e-09
126	0xb19c247a	-4.5443445e-09
127	0x323a2958	1.0836025e-08
128	0xb10b1edc	-2.0244704e-09
129	0xb308b8d6	-3.1833075e-08
130	0x330b44b1	3.2425934e-08
131	0xb30a68b4	-3.2225856e-08
132	0xb24b75d8	-1.184295e-08
133	0xb10b2b24	-2.0251685e-09
134	0xb3222b14	-3.7757744e-08
135	0xb1deea87	-6.487713e-09
136	0x328e5d7b	1.6573486e-08
137	0x3224dc6b	9.596174e-09
138	0xb2e0b616	-2.6159835e-08
139	0x31bc0d1d	5.473011e-09
140	0x31645681	3.3227538e-09
141	0x3295f4df	1.7457237e-08
142	0x32793b62	1.450721e-08
143	0x32d57903	2.4851493e-08
144	0xb281bc08	-1.5103083e-08
145	0x32b5d42b	2.1167656e-08
146	0xb25b4459	-1.2763018e-08
147	0x330c293b	3.263379e-08
148	0xb2a7c2cf	-1.9529947e-08
149	0xb236f905	-1.0650415e-08
150	0xb20acf60	-8.079809e-09
151	0x31b44e98	5.2476246e-09
152	0xb212661d	-8.521536e-09
153	0x326cf559	1.3792794e-08
154	0xb2be06dd	-2.2122032e-08
155	0x330ad7b6	3.2326817e-08
156	0x328388fd	1.5312702e-08
157	0x31ff51d1	7.430778e-09
158	0xb0c81d24	-1.4560197e-09
159	0x32c7e734	2.3271788e-08
160	0x3202ee49	7.621176e-09
161	0xb21d3a59	-9.1518695e-09
162	0xb252fe6a	-1.2281456e-08
163	0xb1360354	-2.6486378e-09
164	0x3376cebe	5.746437e-08
165	0x3281aa4e	1.5095022e-08
166	0xb306242d	-3.1232208e-08
167	0x31a7d1f8	4.8842104e-09
168	0xb2928b62	-1.7060021e-08
169	0xb1269a6e	-2.4243962e-09
170	0xb235f553	-1.0591367e-08
171	0xb1e2df42	-6.602847e-09
172	0x326776e1	1.3473e-08
173	0x31879875	3.9463495e-09
174	0x312fa15f	2.555758e-09
175	0x320c6833	8.172765e-09
176	0xb1c1dede	-5.6423763e-09
177	0x320e26f3	8.274344e-09
178	0x328281aa	1.5192956e-08
179	0x32581015	1.2576511e-08
180	0xb2ca6980	-2.356387e-08
181	0x3132af05	2.6001896e-09
182	0xb2e6fe8c	-2.6891279e-08
183	0xb2845d21	-1.5409173e-08
184	0x32a1429c	1.8773157e-08
185	0x3051c5f0	7.6315043e-10
186	0x31f200a9	7.043202e-09
187	0xb2a14195	-1.877269e-08
188	0x3243ec97	1.1404288e-08
189	0x325a1e01	1.2696092e-08
190	0x322f1bc9	1.0192658e-08
191	0x2f82e070	2.3806335e-10
192	0x3272ea4a	1.4139525e-08
193	0xb2145618	-8.634309e-09
194	0x31d11d06	6.086e-09
195	0xb18729d0	-3.9337706e-09
196	0xb28d175b	-1.6425181e-08
197	0xb1f437cd	-7.1076784e-09
198	0x2f6d14fa	2.1562477e-10
199	0xb20cceca	-8.196091e-09
200	0x33462070	4.612997e-08
201	0x32b39aa2	2.0908661e-08
202	0x2ff2eb8a	4.4186904e-10
203	0xb15eed27	-3.2440057e-09
204	0xb0c33f94	-1.4206187e-09
205	0x317dcc8f	3.6932624e-09
206	0x32d7039b	2.5030934e-08
207	0xb21e3524	-9.208893e-09
208	0xb1efdc4e	-6.9808612e-09
209	0xb21fd9ee	-9.30457e-09
210	0x32443488	1.1420646e-08
211	0x32c8d475	2.3379679e-08
212	0x326bd5a9	1.3727381e-08
213	0xb294ad55	-1.730829e-08
214	0xb23411fa	-1.0481466e-08
215	0xb1ef3c42	-6.962666e-09
216	0xb24e3dd3	-1.2004835e-08
217	0xb1953058	-4.341967e-09
218	0x32715be5	1.4048941e-08
219	0x32b8ba4e	2.150514e-08
220	0xb1d5aa07	-6.2184458e-09
221	0x3180eb65	3.7520516e-09
222	0xb12c3bb2	-2.5063227e-09
223	0xb2e35997	-2.6467019e-08
224	0xb221407f	-9.386098e-09
225	0x323545bf	1.0551445e-08
226	0x318a1779	4.018997e-09
227	0xb20223ab	-7.575106e-09
228	0x326a9a55	1.3655684e-08
229	0x323402ea	1.04780415e-08
230	0x32720b7c	1.4088865e-08
231	0x332fd5de	4.0939874e-08
232	0x31db4e61	6.3826495e-09
233	0xb2d10b29	-2.4335877e-08
234	0x32d9e2e7	2.5365308e-08
235	0x32a921a5	1.968949e-08
236	0xb154c4d9	-3.0961955e-09
237	0x32c08694	2.241294e-08
238	0xb2993e94	-1.7840001e-08
239	0x321ae600	9.016276e-09
240	0x3284beaa	1.5453526e-08
241	0x3285beb5	1.5569961e-08
242	0xb2503cf4	-1.2121053e-08
243	0x326e523a	1.38721195e-08
244	0x330b5c16	3.244721e-08
245	0xb27330eb	-1.4155584e-08
246	0xb1e8bceb	-6.773566e-09
247	0x33215e8d	3.7571727e-08
248	0x32bf58ee	2.2275767e-08
249	0x32b80a9f	2.142525e-08
250	0x323be03d	1.09358185e-08
251	0xb1b64d50	-5.3056866e-09
252	0xb28effd4	-1.6647313e-08
253	0xb2a8d774	-1.965575e-08
254	0xb1ee8928	-6.9423045e-09
255	0xb2e7d08d	-2.6986777e-08
