Parameter/wallplaneDDPG/12.pth (torch, 126279 bytes, 10 tensors)

elu_stack.0.weight f4 [100, 2]
0	0x3eca0a2e	0.3946089
1	0x3ecd6422	0.40115458
2	0xbf310e0b	-0.6916205
3	0xbe423127	-0.18964063
4	0x3efc541a	0.49282914
5	0xbea3f42d	-0.3202223
6	0xbc7b08a2	-0.015321882
7	0x3f222d64	0.6335051
8	0xbf2501cc	-0.64455867
9	0x3e74560f	0.23860954
10	0xbec73eb4	-0.38915026
11	0xbee01186	-0.4376337
12	0x3d8258ae	0.063645706
13	0xbf000640	-0.50009537
14	0xbe911f19	-0.28344038
15	0xbed57353	-0.41689548
16	0xbdd9cd55	-0.10634867
17	0xbe1252fe	-0.14289472
18	0xbf2dd6a0	-0.67905617
19	0x3e9a6cc4	0.30161107
20	0xbdb65d0c	-0.08904466
21	0x3e175828	0.14779723
22	0x3ecf9fde	0.40551656
23	0x3f111c29	0.56683594
24	0x3f06f113	0.527116
25	0xbf2732b8	-0.65311766
26	0x3e759495	0.23982461
27	0xbf26fd00	-0.652298
28	0x3dbd0c40	0.09230852
29	0xbed7e3a2	-0.42165858
30	0xbd597a08	-0.053094894
31	0xbf08da62	-0.53458226
32	0x3b0c05db	0.0021365795
33	0x3ead73f1	0.3387752
34	0x3ed78be2	0.4209891
35	0xbec0ec00	-0.37680054
36	0xbe2d1f93	-0.16906576
37	0xbeebbc2a	-0.46041995
38	0x3eb71c70	0.35763884
39	0xbec952ec	-0.39321077
40	0x3e198dd0	0.14995503
41	0x3ea3e868	0.3201325
42	0x3e23d67e	0.15999791
43	0x3ea6a35e	0.32546514
44	0x3ef84b92	0.48495156
45	0xbf2ae02c	-0.6674831
46	0xbedd05f4	-0.43168604
47	0xbf34445e	-0.7041682
48	0xbda69520	-0.08133912
49	0xbea1d167	-0.31605074
50	0xbf154076	-0.58301485
51	0x3f1ae76b	0.60509366
52	0x3e14f52a	0.14546648
53	0x3dab8027	0.083740525
54	0x3eff8130	0.4990325
55	0x3d95fb27	0.07323294
56	0xbee289e5	-0.4424583
57	0xbeb91178	-0.3614614
58	0xbeed2a45	-0.46321312
59	0x3f242de6	0.64132535
60	0x3ecd462b	0.40092596
61	0xbef9e8a2	-0.48810297
62	0x3ee54909	0.44782284
63	0x3e491860	0.19638205
64	0xbf03275b	-0.51231927
65	0xbf1db692	-0.61606705
66	0xbf1a1120	-0.6018238
67	0xbd34bf83	-0.044127952
68	0xbed71a57	-0.42012283
69	0x3ea65138	0.3248384
70	0xbf0be5c8	-0.54647493
71	0xbf093463	-0.5359556
72	0xbf04e6aa	-0.51914465
73	0xbca77fa3	-0.020446604
74	0x3f320fdb	0.69555444
75	0xbd99c6ae	-0.07508598
76	0xbe8b5012	-0.27209526
77	0xbf0ee74d	-0.55821687
78	0x3f15f0fd	0.58570844
79	0x3f0bd927	0.54628223
80	0xbe78ea6d	-0.24308176
81	0x3f294f07	0.6613621
82	0xbf20c860	-0.6280575
83	0x3f15f76a	0.5858065
84	0xbd663d7a	-0.056210972
85	0xbe130f1e	-0.14361235
86	0xbf0ae18e	-0.5425042
87	0xbf1acc86	-0.6046833
88	0xbe9463e0	-0.2898245
89	0x3f08316b	0.53200406
90	0x3ee83177	0.4535024
91	0xbc66cdfc	-0.014087196
92	0xbed485b1	-0.41508248
93	0xbf1071f2	-0.56423867
94	0xbcef5bf7	-0.029218657
95	0x3d80076e	0.06251417
96	0x3e02e8f4	0.12784177
97	0xbf017ef8	-0.50584364
98	0x3e1de3bd	0.15418907
99	0x3d735a4f	0.059412297
100	0xbe62832e	-0.22120354
101	0x3dd3b483	0.10337164
102	0xbf23e86f	-0.6402654
103	0x3eebbb98	0.4604156
104	0x3e73339a	0.23750153
105	0x3f1b9473	0.6077339
106	0xbddc6ffa	-0.10763545
107	0xbf2a8022	-0.66601765
108	0x3eee880f	0.4658818
109	0xbecb61bf	-0.39723012
110	0x3f337f36	0.70115983
111	0xbeca0668	-0.39458013
112	0x3edb986a	0.4288972
113	0xbe878d0b	-0.26474795
114	0xbd5e362d	-0.054250885
115	0x3de1f4b2	0.11033
116	0xbe69e421	-0.2284093
117	0x3cb7a8fc	0.022419445
118	0x3f0d861b	0.55282754
119	0xbf2b60e6	-0.6694473
120	0x3dd42798	0.103591144
121	0xbeaa4477	-0.3325536
122	0x3f2b018d	0.6679924
123	0x3ef6055a	0.48050958
124	0x3f3233af	0.6961011
125	0xbf2f80bc	-0.6855581
126	0xbdd63d00	-0.104608536
127	0x3c0cfa08	0.008604534
128	0xbed3d285	-0.4137155
129	0xbf130a66	-0.5743774
130	0x3e1685a8	0.14699423
131	0xbe131622	-0.14363912
132	0xbf026f7f	-0.5095138
133	0x3dda6b52	0.10665001
134	0x3e671614	0.22567016
135	0x3f21efb5	0.6325639
136	0x3f338e35	0.70138866
137	0xbd2d694d	-0.04233675
138	0xbeeca604	-0.4622041
139	0x3ed2c82c	0.41168344
140	0xbcdcb9b4	-0.026944019
141	0xbed902c6	-0.42384928
142	0x3e9b1c6f	0.3029513
143	0xbe89f376	-0.26943558
144	0x3f22c331	0.6357909
145	0x3dfa5fbb	0.122252904
146	0x3e9e8b12	0.30965477
147	0xbf1e9fcc	-0.6196258
148	0x3eb5cb1e	0.3550653
149	0xbf14b8ba	-0.5809437
150	0x3f1698eb	0.58827084
151	0x3eae7812	0.3407598
152	0x3d0bc1cf	0.034120377
153	0x3f0b0ac3	0.54313296
154	0xbedc59ba	-0.43037206
155	0xbca6afaa	-0.020347435
156	0xbebe479c	-0.3716401
157	0x3f1be200	0.60891724
158	0x3c8da630	0.017291158
159	0x3ea51013	0.32238826
160	0x3f252b89	0.64519554
161	0xbf27610a	-0.65382445
162	0x3eaf54aa	0.3424428
163	0x3e995a02	0.29951483
164	0xbded5c37	-0.11589854
165	0xbea3877b	-0.319393
166	0x3ecdccfb	0.4019545
167	0xbed55329	-0.4166501
168	0x3f049663	0.5179197
169	0xbe42c332	-0.19019774
170	0x3f268f43	0.6506235
171	0xbd7ff671	-0.062490884
172	0xbedda2ff	-0.4328842
173	0x3f1cfdc3	0.6132471
174	0xbdf14efc	-0.11782643
175	0xbe294a91	-0.16532351
176	0xbefa5fd2	-0.4890123
177	0xbf22d801	-0.63610846
178	0x3dc8ecf8	0.09810823
179	0x3e907b5e	0.28219122
180	0x3e474b84	0.194624
181	0x3e524eb7	0.2053784
182	0x3dcb839b	0.09937211
183	0xbee4753c	-0.44620693
184	0xbec4279c	-0.3831147
185	0x3edb0637	0.4277818
186	0xbf1e5a7f	-0.61856836
187	0x3f3261f9	0.69680744
188	0x3ea5f8a2	0.32416254
189	0x3e8d985e	0.2765531
190	0x3f09a635	0.53769237
191	0x3ed3a32e	0.41335434
192	0x3ea88414	0.32913268
193	0x3e5836d4	0.21114665
194	0x3f24053d	0.64070493
195	0x3f1b3e9f	0.6064243
196	0xbec9a536	-0.39383858
197	0x3e2f3294	0.17109138
198	0xbf10bad6	-0.5653509
199	0xbdbe5664	-0.092938215

elu_stack.0.bias f4 [100]
0	0xbf02d0e7	-0.5110001
1	0x3eba9b38	0.36446548
2	0xbe76081d	-0.24026532
3	0x3ef5abcf	0.47982642
4	0xbe411c7d	-0.18858524
5	0x3c9c9501	0.01911402
6	0xbe36aa22	-0.17838338
7	0xbea0253a	-0.31278402
8	0xbef12d50	-0.47104883
9	0xbea30f42	-0.31847578
10	0xbe3f0f60	-0.18658209
11	0xbeb37365	-0.35048977
12	0xbf095070	-0.5363836
13	0xbeb68ef1	-0.3565593
14	0x3edaaafa	0.4270857
15	0x3f01ef8e	0.50756156
16	0xbeed58c6	-0.4635679
17	0xbf290b50	-0.66032887
18	0xbd72e119	-0.0592967
19	0x3ee19f23	0.44066724
20	0xbe9419d0	-0.28925943
21	0x3eabb919	0.33539656
22	0x3ec3a57e	0.38212198
23	0x3e57435d	0.21021791
24	0x3f237493	0.63849753
25	0x3e8def05	0.2772142
26	0x3eb4eaba	0.35335332
27	0x3edda29d	0.43288127
28	0xbeb73be0	-0.35787868
29	0x3f11cef6	0.5695642
30	0xbec106f0	-0.37700605
31	0x3e1eabc8	0.15495217
32	0xbe51545d	-0.20442338
33	0xbee33b58	-0.44381213
34	0x3d708926	0.058724545
35	0x3f0021ec	0.5005176
36	0xbd9bb763	-0.076033376
37	0xbd0ab030	-0.03385943
38	0x3da1cf96	0.07900922
39	0x3f05b0c6	0.5222286
40	0x3eed0e0f	0.46299788
41	0x3e9aaa8e	0.30208248
42	0x3e892e98	0.2679336
43	0xbe830409	-0.25589016
44	0xbf1220f5	-0.5708154
45	0xbeb6e51e	-0.35721678
46	0xbe30ee73	-0.17278461
47	0x3eae1043	0.33996782
48	0x3ecf7895	0.40521684
49	0xbf0a07d9	-0.53918225
50	0xbf0ce132	-0.5503112
51	0xbc880d93	-0.016608035
52	0xbe74cb7f	-0.23905753
53	0x3ef7fa02	0.48432928
54	0xbe93d5c5	-0.2887403
55	0xbd457f2a	-0.048216976
56	0xbf270ea2	-0.652567
57	0x3eb42663	0.35185537
58	0xbe360387	-0.17774783
59	0xbdfc6a49	-0.1232496
60	0x3f0f8f67	0.5607819
61	0xbefb1d39	-0.49045733
62	0x3c270419	0.010193848
63	0xbdf49c6b	-0.11943897
64	0xbe3da4d2	-0.18519905
65	0xbedf15be	-0.43571275
66	0x3f27bb96	0.6552061
67	0xbe90ee95	-0.28307024
68	0xbf2ef8c3	-0.6834833
69	0xbf338c9d	-0.70136434
70	0x3f141c10	0.5785532
71	0xbec9b98d	-0.39399377
72	0xbf01ba4a	-0.5067488
73	0x3cbf9ca6	0.023390125
74	0xbeba68d6	-0.36408108
75	0xbf065fb6	-0.52489793
76	0xbf2ea0f8	-0.6821437
77	0xbec79926	-0.3898403
78	0x3f2ada00	0.6673889
79	0x3d00c07a	0.03143356
80	0xbe327a98	-0.17429578
81	0xbf169ec8	-0.5883603
82	0x3f099b42	0.5375253
83	0xbed53589	-0.41642407
84	0x3ef63282	0.4808541
85	0xbe956afe	-0.2918319
86	0xbe5a6e00	-0.21331024
87	0xbeefbaa1	-0.46822074
88	0xbe9884b1	-0.29788736
89	0xbf26dc2b	-0.651797
90	0xbf1128ec	-0.56703067
91	0x3ed050d9	0.40686682
92	0x3f1dbe13	0.61618155
93	0xbe094995	-0.13406976
94	0xbf0e7a2b	-0.55655164
95	0xbf283b75	-0.65715724
96	0x3eedcbdf	0.46444604
97	0xbe37277d	-0.17886157
98	0xbee5e27b	-0.44899353
99	0xbde2903d	-0.110626675

elu_stack.2.weight f4 [100, 100]
0	0x3d84cfa4	0.06484917
1	0xbd94ef55	-0.072722115
2	0xbd571ee6	-0.0525197
3	0xbc40ff4d	-0.011779618
4	0x3c424466	0.011857128
5	0xbba38067	-0.004989672
6	0xbd189cde	-0.037258975
7	0x3d53ba13	0.051691126
8	0xbd78f021	-0.06077588
9	0x3d80ee78	0.06295484
10	0xbd662a49	-0.05619267
11	0x3d8a48f0	0.06752193
12	0xbca60d6c	-0.020270072
13	0x3d40ced8	0.04707226
14	0x3d933df5	0.07189552
15	0xbd9f5254	-0.07779375
16	0xbdb712fb	-0.08939167
17	0xbcc071fd	-0.023491854
18	0xbd628a19	-0.05530748
19	0x3c51f003	0.012813571
20	0xbca2f7eb	-0.019893607
21	0xbd0c6a69	-0.034281168
22	0xba9b8760	-0.0011865906
23	0xbc1a1f13	-0.009406823
24	0xbc56f156	-0.013119062
25	0xbd91bab3	-0.07115688
26	0x3d1a0006	0.03759768
27	0xbd8f2cbf	-0.069909565
28	0x3cebaf2a	0.028770048
29	0x3db040d9	0.08606119
30	0xbd86621f	-0.06561684
31	0xbd989442	-0.07450153
32	0xbda3a289	-0.079899855
33	0xba423877	-0.00074089266
34	0x3c622572	0.013802873
35	0x3da72389	0.08161075
36	0xbb07f232	-0.0020743725
37	0xbd99d63b	-0.07511564
38	0x3db00402	0.085945144
39	0xbd055690	-0.032553256
40	0x3c64b29f	0.013958602
41	0x3d701478	0.05861327
42	0x3d4d8109	0.050171886
43	0xbdcb6423	-0.09931209
44	0xbd398719	-0.045294855
45	0x3cdbf514	0.02685026
46	0xbd92b0c9	-0.07162625
47	0x3d9cb314	0.07651344
48	0xbd3081ac	-0.043092415
49	0xbda6a949	-0.08137757
50	0x3ce8c677	0.028414948
51	0x3d94a319	0.07257671
52	0x3d8fa4d0	0.07013857
53	0x3c993f4e	0.018706944
54	0x3d682401	0.05667496
55	0xbd636542	-0.05551649
56	0x3db7bf78	0.08972067
57	0xbda578c7	-0.08079677
58	0xbd7303a6	-0.05932965
59	0x3da6d467	0.08145981
60	0xbd8fb3e9	-0.07016737
61	0xbdb48131	-0.08813704
62	0xbd9ce9ab	-0.07661756
63	0x3cb7db80	0.022443533
64	0xbd2178bb	-0.03942178
65	0xbca241a4	-0.01980669
66	0xbda5e284	-0.08099845
67	0xbd5f82d7	-0.054568138
68	0x3aab79db	0.001308258
69	0x3d6e2fcb	0.058151048
70	0xbd4a7dfd	-0.049436558
71	0x3d1a2418	0.037632078
72	0xbd4f1ede	-0.050566547
73	0xbd09bbdb	-0.03362642
74	0xbd9d9eca	-0.07696302
75	0x3da54193	0.08069148
76	0xbdc50721	-0.096205
77	0x3c76cb36	0.015063098
78	0x3dcae80e	0.09907542
79	0xbc5a71b9	-0.013332778
80	0x3dcbc642	0.09949924
81	0x3d8071c8	0.06271702
82	0x3d51caa1	0.051218633
83	0xbdbdc828	-0.092666924
84	0x3cacf1f0	0.021111459
85	0xbdcba1bc	-0.09942958
86	0xbda74114	-0.081667095
87	0x3d2e122f	0.04249781
88	0x3dc9083b	0.09816023
89	0x3ceef7c7	0.029170884
90	0x3daf2b92	0.08553232
91	0x3cd22630	0.025652975
92	0xbdb82ca8	-0.089928925
93	0xbcb01d2e	-0.021498289
94	0xbba80145	-0.0051271045
95	0xbd5177c4	-0.051139608
96	0x3d3f5fc9	0.046722207
97	0x3d6d229b	0.05789433
98	0x3cd7b098	0.026329324
99	0xbca16bd4	-0.019704737
100	0x3d2434e1	0.04008949
101	0xbd64af30	-0.055831134
102	0xbce83bf4	-0.0283489
103	0x3c8bdaa0	0.017072022
104	0x3d96883c	0.073502034
105	0xbb96ce49	-0.004602228
106	0xbbdd5ee0	-0.0067556947
107	0x3d7c72ba	0.06163285
108	0x3d88154f	0.06644689
109	0x3b30d116	0.0026980094
110	0x3bd09ffe	0.006366729
111	0xbd78f661	-0.06078184
112	0xbd961fcb	-0.07330283
113	0xbdc0e36e	-0.09418379
114	0xbda854cd	-0.082192995
115	0x3d654feb	0.05598442
116	0x3d676313	0.05649097
117	0x3d878260	0.06616664
118	0x3d3ca37e	0.046054356
119	0x3d4de7b6	0.050269805
120	0xbdc5eb82	-0.0966406
121	0xbd6652e7	-0.056231406
122	0xbcb16953	-0.021656668
123	0x3c4538a3	0.012037429
124	0x3d6942cd	0.05694847
125	0xbd8c7c9b	-0.06859704
126	0x3c723ab9	0.014784508
127	0x3d92ac06	0.07161717
128	0xbb81bc38	-0.003959205
129	0x3b14167d	0.0022596412
130	0x3d684e7a	0.056715466
131	0xbc879a5e	-0.0165531
132	0xbdbe2933	-0.09285202
133	0xbdba764c	-0.091045946
134	0xbd25ff4f	-0.040526684
135	0x3dbed299	0.09317512
136	0xbd24bb3a	-0.040217616
137	0xbd791158	-0.060807556
138	0x3ca01077	0.019539101
139	0x3d05fb98	0.03271064
140	0x3d511ba1	0.05105174
141	0x3d198aa4	0.037485734
142	0x3cd8815f	0.026428876
143	0x3c91a9bd	0.017781133
144	0xbd90b3d3	-0.07065549
145	0xbd7d4fe0	-0.061843753
146	0x3c3f5f3b	0.01168042
147	0x3d5b3398	0.053516
148	0xbda46911	-0.08027852
149	0xbc90dc7c	-0.01768326
150	0xbd1bb1ac	-0.038011238
151	0xbd1a8bf9	-0.037731145
152	0x3cb03c51	0.021513136
153	0x3d85eead	0.065396644
154	0xbd073636	-0.033010684
155	0x3dba0b5a	0.090841964
156	0xbdb263e3	-0.08710458
157	0xbd45d668	-0.048300177
158	0x3c7b3180	0.015331626
159	0x3dca5d99	0.098811336
160	0x3c913131	0.017723652
161	0x3b11a6f7	0.0022224763
162	0x3d5914e9	0.052998457
163	0xbdaf35f4	-0.085552126
164	0xbce15df3	-0.027510619
165	0xbcd72181	-0.026261093
166	0x3d97862f	0.0739864
167	0x3d003843	0.031303655
168	0xbcf5a928	-0.029987887
169	0x3c9a9b8b	0.018872997
170	0xbd871d62	-0.06597401
171	0xbd01bf88	-0.0316768
172	0xbd589db2	-0.052884765
173	0x3d6f9207	0.058488872
174	0x3d77eaf3	0.0605268
175	0x3d841554	0.064493805
176	0x3dcbc8c6	0.09950404
177	0x3d0ac5e2	0.033880122
178	0xbd9ca784	-0.076491386
179	0xbd91044a	-0.07080896
180	0xbd9abc95	-0.075555004
181	0x3d68450a	0.056706466
182	0x3d271cfa	0.04079912
183	0xbdac0ad4	-0.08400503
184	0x3ca03bb6	0.019559722
185	0x3be9b562	0.007132218
186	0xbd647db7	-0.055783954
187	0x3d7166d6	0.058935963
188	0xbb7c1a99	-0.0038468002
189	0x3d06df5e	0.032927863
190	0xbd7826f6	-0.06058403
191	0x3d8b56ac	0.06803641
192	0x3d9caa60	0.07649684
193	0x3d03c644	0.032171503
194	0x3dad404a	0.08459528
195	0x3d39f7cf	0.045402344
196	0xba986db7	-0.0011629377
197	0x3da773a6	0.08176355
198	0x3bd0b6ca	0.0063694464
199	0xbd23dbcf	-0.040004548
200	0xbdafe483	-0.08588507
201	0x3be51278	0.006990727
202	0xbd9ac30e	-0.07556735
203	0xbdb03f69	-0.086058445
204	0xbb3b3a57	-0.0028568709
205	0x3d985a84	0.074391395
206	0x3d0daeb0	0.034590423
207	0xbc5b29c5	-0.013376658
208	0xbda2ac0f	-0.07942974
209	0x3d66a718	0.056311697
210	0x3dadcdd5	0.08486525
211	0x3da33040	0.07968187
212	0x3d98bc1e	0.074577555
213	0x3db373e9	0.087623425
214	0x3bf58ba7	0.0074934545
215	0x3d204d12	0.039136
216	0x3d159efe	0.03652858
217	0x3cf2aa05	0.029622087
218	0xbd6bb43d	-0.057544935
219	0xbccd224a	-0.025040764
220	0xbd4c31be	-0.049852125
221	0x3da523b6	0.08063452
222	0x3d3839a4	0.044976845
223	0xbda969ff	-0.0827217
224	0xbcec82d7	-0.028870983
225	0x3d8e8e2a	0.069607094
226	0x3dbe9e7d	0.09307573
227	0xbd6e7f40	-0.058226824
228	0x3d65e4cc	0.0561264
229	0xbd14121b	-0.03615008
230	0x3cf46d5b	0.029837301
231	0x3dbe12e1	0.092809446
232	0x3dad9a95	0.0847675
233	0xbd0361de	-0.032075755
234	0xbd456d4b	-0.048199933
235	0x3c33b181	0.010967613
236	0x3c0ac877	0.008470646
237	0x3d7240f0	0.05914396
238	0x3d13df59	0.036101673
239	0x3b97d96a	0.004634072
240	0xbdcba827	-0.09944182
241	0x3c99ed9b	0.018790057
242	0xbc6ab911	-0.01432635
243	0xbcfc4d24	-0.030798502
244	0xbd9717ff	-0.07377624
245	0x3c9ae728	0.018909052
246	0xbd5ef2ee	-0.054430895
247	0x3dc03dc7	0.09386783
248	0xbdb9da69	-0.090748616
249	0xbd274c99	-0.040844534
250	0xbd947f23	-0.07250812
251	0xbc58553a	-0.013203913
252	0xbc4a6d19	-0.0123551125
253	0xbbd17791	-0.0063924273
254	0xbc84a066	-0.016189765
255	0xbdc1011a	-0.09424038

elu_stack.2.bias f4 [100]
0	0x3d63358c	0.05547099
1	0xbd5732ed	-0.0525388
2	0xbd5ea819	-0.05435953
3	0xbcfd8b35	-0.030950168
4	0x3d1ff6f5	0.039053876
5	0x3d90e6e4	0.07075289
6	0x3d76f483	0.06029178
7	0x3d11a054	0.03555329
8	0x3d91466c	0.0709351
9	0x3bc86b56	0.006116311
10	0xbd9b0078	-0.07568449
11	0x3c02457e	0.007951139
12	0xbd6b3e7b	-0.057432633
13	0xbc5e0267	-0.013550377
14	0xbc95d35e	-0.018289264
15	0x3ce8e781	0.028430702
16	0xbd2058c3	-0.03914715
17	0xbd8fdfd6	-0.07025115
18	0x3c6e6c41	0.014552177
19	0x3dc7368b	0.097272
20	0xbdcbe28d	-0.099553205
21	0x3c897187	0.016777767
22	0x3d3cb294	0.046068743
23	0xbc9e5942	-0.01932967
24	0x3db965a4	0.090525895
25	0xbb8e3ae0	-0.0043405145
26	0x3d9bdc96	0.07610433
27	0x3bbc4a82	0.0057461867
28	0xbce1770f	-0.027522592
29	0x3daec791	0.08534158
30	0x3ac2306e	0.0014815459
31	0x3d92b3b5	0.07163183
32	0xbcae5fb1	-0.021285864
33	0x3dc3524d	0.09537182
34	0xbdb31439	-0.087440915
35	0xba6a4f10	-0.0008938173
36	0x3d30cde2	0.043165095
37	0x3d3dc66e	0.046331815
38	0xbdbdb017	-0.09262102
39	0x3d73caf0	0.05951971
40	0xbdc8611a	-0.09784146
41	0x3d88fb12	0.06688513
42	0x3d916066	0.07098465
43	0xbd1d2722	-0.038367398
44	0x3c079ec2	0.008277597
45	0xbd585331	-0.052813713
46	0xbcf2a1e8	-0.029618219
47	0xbd3fdf13	-0.0468436
48	0xbd5032a4	-0.050829545
49	0x3d1e2ac9	0.03861502
50	0x3d211d7f	0.03933477
51	0xbcd6b84f	-0.026210932
52	0xbd9a7007	-0.07540899
53	0xbdb56fd6	-0.08859222
54	0xbb8f58b1	-0.0043745865
55	0x3d8600d4	0.06543127
56	0xbcf963ac	-0.030443035
57	0x3d9df9f1	0.07713688
58	0x3c906dd5	0.017630497
59	0xbd9f3eed	-0.07775674
60	0x3d2f8240	0.042848825
61	0x3d82802f	0.06372105
62	0x3d0b7140	0.03404355
63	0x3b864d06	0.0040985374
64	0xbd45d088	-0.048294574
65	0x3d3be54f	0.045872983
66	0xbaae4c20	-0.0013297834
67	0xbdb8680d	-0.09004221
68	0xbd8fc778	-0.070204675
69	0x3db1eb28	0.086874306
70	0x3d355d39	0.044278357
71	0xbd94f355	-0.072729744
72	0xbd180984	-0.03711845
73	0xbd8dbd12	-0.06920828
74	0xbd9908f4	-0.07472411
75	0x3c3c11a1	0.011478812
76	0xbcc88a48	-0.02448
77	0xbdbf27b1	-0.093337424
78	0x3cb12ff2	0.021629307
79	0xbd956032	-0.072937384
80	0xbc20c9da	-0.00981375
81	0x3d2118b0	0.039330184
82	0xbd48a719	-0.04898748
83	0x3d8dc4c7	0.06922298
84	0xbcc704f9	-0.024294363
85	0x3da4e02c	0.0805057
86	0xbc30a08b	-0.010780464
87	0xbc800c6c	-0.015630923
88	0x3da3cba4	0.07997826
89	0x3d69aaab	0.057047527
90	0xbbf98e99	-0.007615876
91	0xbd0d0cec	-0.03443615
92	0xbcae7153	-0.021294272
93	0xbd05cd0e	-0.03266626
94	0xbb8e0fb2	-0.004335367
95	0x3d8fe568	0.07026178
96	0x3d16294d	0.03666048
97	0xbdafef74	-0.08590594
98	0x3cb91fe9	0.022598224
99	0x3d613e6e	0.05499118

elu_stack.4.weight f4 [100, 100]
0	0x3d297372	0.041369863
1	0xbdc966e1	-0.09834076
2	0x3d210cc8	0.03931883
3	0x3d19ba17	0.037530985
4	0xbd76a523	-0.06021608
5	0x3dba672f	0.09101712
6	0x3dc0d565	0.09415702
7	0x3caf42cb	0.021394154
8	0x3dace835	0.084427275
9	0x3dc1214e	0.094301805
10	0x3be7fd2a	0.00707974
11	0x3da3d3cd	0.07999382
12	0x3c6c8fec	0.0144386105
13	0xbdc7e620	-0.0976069
14	0xbd848628	-0.06470901
15	0x3cf0688c	0.029346727
16	0xbc72f4f8	-0.014828913
17	0xbd6839c0	-0.0566957
18	0xbd075ac8	-0.03304556
19	0xbc3478d2	-0.011015134
20	0x3d440c69	0.047863398
21	0x3db101d8	0.0864293
22	0xbc89236e	-0.016740527
23	0xbd9700fb	-0.07373234
24	0x3da3d22b	0.07999071
25	0xbcc49c78	-0.024000391
26	0xbc515cb5	-0.012778451
27	0x3d205681	0.039144997
28	0xbd51a2f9	-0.051180813
29	0x3cf41fd6	0.029800337
30	0x3c0610cd	0.008182717
31	0x3d7356a6	0.059408806
32	0xbd98c361	-0.074591406
33	0x3cb8b229	0.02254589
34	0x397db0f9	0.00024193888
35	0xbd45f82a	-0.04833237
36	0xbdaa98b2	-0.083299056
37	0x3d8e83ec	0.06958756
38	0xbd4db23b	-0.050218802
39	0x3d2d5799	0.042319868
40	0xbd06ea90	-0.03293854
41	0xbd441fea	-0.047881998
42	0xbb78fb88	-0.0037991721
43	0x3bfef3b6	0.0077805175
44	0x3cf76aed	0.030202353
45	0xbd59232a	-0.05301205
46	0x3db3739b	0.08762284
47	0xbd0112bc	-0.031512007
48	0xbd0f885f	-0.035042163
49	0xbd9108ea	-0.07081778
50	0xbd8a1ed3	-0.067441605
51	0xbd3509dd	-0.04419886
52	0x3c34dfeb	0.011039714
53	0xbd65414d	-0.05597048
54	0x3c9746f7	0.018466456
55	0xbd8b1f6a	-0.06793101
56	0xbd344632	-0.044012256
57	0xbdc883a0	-0.097907305
58	0x3cfe5a9c	0.031049065
59	0xbd1f2dd2	-0.038862057
60	0x3d64e8c6	0.055886053
61	0x3bbd6ea2	0.0057810107
62	0xbdc83f71	-0.097777255
63	0xbcf6d0f4	-0.030128933
64	0xbb457cae	-0.003013413
65	0xbcf84b90	-0.030309469
66	0x3da57240	0.08078432
67	0x3d691412	0.056903906
68	0x3d90547a	0.070473626
69	0x3d0343fc	0.032047257
70	0x3cfde78e	0.030994203
71	0x3d205c10	0.039150298
72	0xbc9372da	-0.017999101
73	0xbd430771	-0.04761452
74	0x3d9189db	0.07106372
75	0xbdacbbb1	-0.08434237
76	0xbd9d599c	-0.07683107
77	0x3c7547e7	0.014970756
78	0x3dab2c98	0.08358115
79	0x3d076970	0.033059537
80	0xbcf3c46e	-0.02975675
81	0x3daaac02	0.08333589
82	0xbd946b43	-0.07247021
83	0xbd49e92b	-0.049294632
84	0x3cb48c81	0.022039654
85	0x3d551f8f	0.05203205
86	0x3bd040f8	0.006355401
87	0x3d0d8419	0.034549806
88	0x3db8ad57	0.09017437
89	0xbda8758e	-0.08225547
90	0xbd137c67	-0.03600731
91	0x3d7c0871	0.061531488
92	0xbcbfea85	-0.023427257
93	0x3d4cc635	0.049993712
94	0x3dc1a654	0.09455553
95	0xbcfc4c4c	-0.0307981
96	0xbbe8f86e	-0.0071096933
97	0xbcb58393	-0.022157466
98	0x3d33d45f	0.043903705
99	0x3d0f5e43	0.035002004
100	0x3d9ccdbc	0.07656428
101	0x3c812af8	0.01576756
102	0x3c8768d1	0.016529473
103	0x3cd335f7	0.025782568
104	0xbd90b7ea	-0.07066329
105	0xbc3d4471	-0.011551962
106	0xbdc00529	-0.09375984
107	0xbda436c9	-0.08018262
108	0x3c0ad297	0.00847306
109	0x3da66400	0.08124542
110	0x3d98e6ce	0.074658975
111	0x3db11e32	0.086483374
112	0xba8be73f	-0.0010673775
113	0x3da56098	0.080750644
114	0x3d96e97f	0.073687546
115	0x3d4a484c	0.049385354
116	0xbceecf56	-0.0291516
117	0xbd99cdec	-0.075099796
118	0x3d92a9b6	0.07161276
119	0x3d90a8ea	0.07063468
120	0xbd5f6911	-0.05454356
121	0x3dc84510	0.097787976
122	0x3d800371	0.062506564
123	0x3d9bdd0b	0.0761052
124	0x3c73eb12	0.014887588
125	0x3d419c6e	0.047268324
126	0x3d8449dc	0.064594
127	0x3c57f2e4	0.013180468
128	0xbc95a097	-0.018265052
129	0xbbfb331f	-0.007666006
130	0xbdc7a844	-0.09748891
131	0xbc887bc9	-0.016660588
132	0xbd31f1cb	-0.043443482
133	0xbc58326c	-0.013195615
134	0xbc8d19ab	-0.017224154
135	0xbdaad7c6	-0.08341937
136	0x3d9299b3	0.07158222
137	0x3d0f1038	0.034927577
138	0x3b910273	0.004425341
139	0xbd166317	-0.036715593
140	0xbd9ab3f8	-0.075538576
141	0xbdcbf699	-0.09959144
142	0x3cb88eed	0.02252909
143	0xbd49ad80	-0.049237728
144	0x3d38ba84	0.04509975
145	0xbd8d4302	-0.06897546
146	0x3d978245	0.07397894
147	0xbd545a5b	-0.051843982
148	0xbdbecfb1	-0.09316958
149	0xbd80abe0	-0.062827826
150	0xbce7824a	-0.028260369
151	0x3d2e310f	0.042527255
152	0xbd29682c	-0.04135911
153	0x3dca3654	0.098736435
154	0xbbb835ad	-0.005621633
155	0xbd8ee838	-0.06977886
156	0xbd99d6d7	-0.075116806
157	0x3d5883ec	0.052860186
158	0xbcdbbc64	-0.02682323
159	0x3d581342	0.05275274
160	0x3d92a255	0.07159869
161	0x3dc10840	0.09425402
162	0xbd711c06	-0.058864616
163	0xbd8eb600	-0.069683075
164	0xbd293996	-0.041314684
165	0x3d9f53de	0.07779668
166	0xbc98d2eb	-0.018655261
167	0x3da1e14d	0.07904301
168	0x3c81ce6e	0.015845504
169	0xbcbbf46f	-0.022943703
170	0xbd1872c7	-0.037218835
171	0xbd967566	-0.07346611
172	0xbcaeee14	-0.021353759
173	0x3dc1e842	0.09468128
174	0xbdc7e77c	-0.09760949
175	0xbda1adde	-0.07894491
176	0xba981ca2	-0.0011605213
177	0x3bd989ab	0.0066387258
178	0xbc2fb5b3	-0.010724473
179	0x3dc65593	0.09684291
180	0x3b197220	0.002341397
181	0xbc7e2a49	-0.015513011
182	0xbda6a0fa	-0.081361726
183	0xbc34d219	-0.011036419
184	0x3d01526e	0.03157275
185	0xbca3fd31	-0.020018192
186	0x3dafc43a	0.08582349
187	0xbdc92b23	-0.09822681
188	0x3db56e05	0.08858875
189	0x3b7550ae	0.0037432122
190	0x3dc69005	0.09695438
191	0xbd6a96ae	-0.057272606
192	0x3cd79ca8	0.026319817
193	0xbd901b74	-0.07036486
194	0xbd8b9ccb	-0.06817015
195	0x3da572cb	0.08078536
196	0xbda0f24c	-0.078587145
197	0xbae65e69	-0.0017575744
198	0xbd9195d5	-0.07108656
199	0xbd13ee19	-0.03611574
200	0x3d635870	0.055504262
201	0xbdbaf14a	-0.091280535
202	0xbcb2311c	-0.021751933
203	0xbda50daf	-0.080592506
204	0x3d2d519e	0.042314164
205	0xbd99de89	-0.07513148
206	0xbd4cb60d	-0.049978305
207	0xbcc71e50	-0.024306446
208	0x3d0d0684	0.034430042
209	0x3d7aa794	0.06119497
210	0xbd30bd7e	-0.043149464
211	0x3d061bd7	0.032741394
212	0xbc3a61ff	-0.011375903
213	0xbc49e861	-0.01232347
214	0x3d762531	0.060094062
215	0xbc0fc254	-0.008774359
216	0xbc2aaebc	-0.0104176365
217	0xbd8cb5ee	-0.06870638
218	0xbca03316	-0.01955561
219	0xbda1c770	-0.07899368
220	0x3d7eb6c5	0.06218602
221	0x3cec5f99	0.028854178
222	0xbd9ce944	-0.076616794
223	0x3d77ead8	0.0605267
224	0x3daf17a3	0.0854943
225	0x3dab3cbd	0.08361194
226	0x3dab1b75	0.083548464
227	0x3da9dbe7	0.08293896
228	0x3daa1cae	0.083062515
229	0x3d645900	0.05574894
230	0x3d3c1be7	0.045925047
231	0xbd550d5e	-0.0520147
232	0x3dc47bfa	0.09593959
233	0x39a88d63	0.00032148798
234	0xbd22e29f	-0.039766904
235	0xbdb5dc50	-0.08879912
236	0x3cfe6620	0.031054556
237	0xbda779a9	-0.08177502
238	0xbb952903	-0.004552008
239	0xbd966fe0	-0.07345557
240	0xbdb48492	-0.08814348
241	0xbd17dddb	-0.037076812
242	0xbb3ea08e	-0.0029087397
243	0xbd19e9fc	-0.03757666
244	0xbd3566cd	-0.04428749
245	0xbccfcd7e	-0.025366541
246	0xbd8b140d	-0.06790934
247	0xbdb0b99a	-0.08629151
248	0xbd7c97e2	-0.061668284
249	0xbcf7e8b6	-0.030262332
250	0x3c4f2fcd	0.012645674
251	0xbd83b03b	-0.06430098
252	0xbda669dc	-0.0812566
253	0xbd138fc7	-0.03602579
254	0x3cd21a61	0.025647344
255	0x3d86745d	0.06565163

elu_stack.4.bias f4 [100]
0	0x3d601d0e	0.05471521
1	0xbcee63c1	-0.0291003
2	0xbd7ef9da	-0.062249996
3	0x3d2d5765	0.042319674
4	0xbdb16a22	-0.08662821
5	0x3db267fd	0.087112404
6	0x3bb43c0f	0.0055003236
7	0xbdb7ce62	-0.08974911
8	0x3d9a3b8d	0.0753089
9	0x3d16ca9c	0.036814317
10	0xbca63821	-0.020290436
11	0xbd118897	-0.035530653
12	0x3c0195d1	0.007909254
13	0x3d91b663	0.07114866
14	0xbb9d6421	-0.004803196
15	0xbdb35ac0	-0.087575436
16	0xbc74f50a	-0.014951
17	0x3c9501bc	0.018189304
18	0x3d21c437	0.039493766
19	0x3d2f8901	0.042855266
20	0x3c07be21	0.008285076
21	0x3ce7fffe	0.028320309
22	0x3d540830	0.05176562
23	0x3cc3bd17	0.023893876
24	0xbd8c2158	-0.06842297
25	0x3d3ee46b	0.046604555
26	0xbcc4e8db	-0.024036815
27	0x3ccdb339	0.025109874
28	0xbd0b7cd6	-0.0340546
29	0x3d2ecb76	0.042674504
30	0xbd49e1e7	-0.049287703
31	0x3d7b543f	0.06135964
32	0x3d47ea4e	0.048807435
33	0x3db157d9	0.08659334
34	0xbcdd5e57	-0.027022524
35	0xbda61287	-0.081090026
36	0xbd489b7b	-0.048976403
37	0xbc631709	-0.0138604725
38	0x3bb274cf	0.0054460536
39	0xbcdb8ca5	-0.026800463
40	0x3c3cb570	0.011517867
41	0xbcf97295	-0.030450145
42	0xbda83466	-0.08213119
43	0xbd91378a	-0.07090671
44	0xbd835d53	-0.064142846
45	0x3d81354c	0.06308994
46	0x3dab85b5	0.08375112
47	0x3cc4fc81	0.024046184
48	0xbd809227	-0.06277876
49	0xbd5ec3ee	-0.05438607
50	0xbd9c0251	-0.07617629
51	0xbd81b417	-0.063331775
52	0x3d38fdc9	0.045163903
53	0xbdb399a3	-0.08769538
54	0xbcea263d	-0.028582687
55	0xbcb1202f	-0.021621792
56	0xbc878057	-0.01654069
57	0x3dca53af	0.09879243
58	0xbdacba30	-0.0843395
59	0x3db3dae7	0.08781987
60	0xbdaa2d4b	-0.0830942
61	0xbc8d3065	-0.01723499
62	0x3d80c8a2	0.06288268
63	0x3b272db7	0.0025509426
64	0xbd14b21e	-0.03630268
65	0xbdb93e6c	-0.09045109
66	0xbd460f5d	-0.048354495
67	0x3da82559	0.082102485
68	0xbcd49c02	-0.025953297
69	0x3d346df9	0.04405019
70	0x3c7bd1eb	0.015369873
71	0x3c49644b	0.012291978
72	0xbcb1f93b	-0.021725288
73	0x3d9e03a0	0.07715535
74	0xbd812c12	-0.06307234
75	0xbd8eb889	-0.06968791
76	0x3d14e718	0.0363532
77	0xbdb1d00e	-0.086822614
78	0xbcd23565	-0.025660226
79	0xbd80692c	-0.0627006
80	0x3db0347c	0.086037606
81	0x3bbd6fc3	0.0057811453
82	0x3d020a51	0.03174812
83	0x3d517528	0.05113712
84	0x3dbe7f9a	0.09301682
85	0xbd88e7e1	-0.066848524
86	0xbdc706e1	-0.09718109
87	0xbd7cbe86	-0.061705135
88	0x3d111280	0.035418034
89	0x3d939b7a	0.07207389
90	0x3bb60f2f	0.0055560092
91	0xbd7fccdb	-0.062451225
92	0xbdbbd601	-0.091716774
93	0x3cd45be9	0.025922732
94	0xbd94472c	-0.072401375
95	0x3ccd34d3	0.025049603
96	0x3dcb0717	0.09913462
97	0x3d812c7c	0.06307313
98	0x3d9cacc7	0.07650142
99	0x3db15672	0.08659066

elu_stack.6.weight f4 [100, 100]
0	0x3d1e2aaf	0.038614925
1	0x3d25ced5	0.040480454
2	0x3ba7d206	0.0051214723
3	0xbdab437e	-0.083624825
4	0xbd430ae2	-0.0476178
5	0xbd3eb2a6	-0.04655709
6	0x3cf96470	0.0304434
7	0xbdbb5d36	-0.09148638
8	0x3c41e180	0.011833549
9	0xbc405338	-0.011738591
10	0xbceadb8a	-0.028669138
11	0xbd920f56	-0.07131831
12	0x3d8c7da7	0.06859904
13	0x3c761f37	0.015022091
14	0x3d521a9e	0.051294915
15	0xbd5192f3	-0.051165532
16	0x3da2d06b	0.07949909
17	0xbd3f90c1	-0.046768907
18	0xbd44d41d	-0.04805385
19	0xbd20e55c	-0.039281234
20	0x3d1887f9	0.03723905
21	0x3d23c002	0.039978035
22	0xb9b9658a	-0.00035361602
23	0x3d3df0f8	0.046372384
24	0xbc895fa2	-0.016769234
25	0xbdc24262	-0.09485318
26	0x3c84de61	0.01621932
27	0x3cd19d2a	0.025587637
28	0x3c7f1315	0.015568514
29	0x3dbe91be	0.09305142
30	0xbdc5e9d1	-0.096637376
31	0xbb0a9e75	-0.0021151577
32	0x3bb2782f	0.005446456
33	0xbdb71753	-0.089399956
34	0xbd2a39f5	-0.04155918
35	0x3dadcb43	0.08486035
36	0xbbde138a	-0.0067772316
37	0xbd94faa2	-0.07274367
38	0xbd3259d6	-0.043542705
39	0x3b8c67fd	0.0042848573
40	0x3dc65833	0.096847914
41	0xbda59d7e	-0.0808668
42	0xbcc4332c	-0.023950182
43	0x3c8d033e	0.01721346
44	0x3d0ec530	0.03485602
45	0xbd3f457d	-0.04669713
46	0x3dae4a0d	0.08510218
47	0xbd5d2fca	-0.054000653
48	0xbd1ee6bc	-0.038794264
49	0xbdb13c2e	-0.086540565
50	0xbdb11e6c	-0.08648381
51	0x3cb486e2	0.022036973
52	0x3ba9df14	0.0051840637
53	0xbda28f77	-0.0793752
54	0x3c3cf5f2	0.011533247
55	0x3be27f46	0.006912145
56	0xbdb49d8b	-0.088191114
57	0xbd7068ac	-0.058693573
58	0x3b9640a1	0.004585341
59	0x3cbaaf48	0.022788659
60	0x3db2b3a5	0.08725671
61	0xbd7f794f	-0.06237155
62	0x3d99490b	0.07484635
63	0xbd5a7b88	-0.053340465
64	0xbd01f321	-0.031726006
65	0xbd921cc7	-0.07134395
66	0x3a4a187c	0.0007709337
67	0xbc2d3aa1	-0.01057306
68	0x3d005ea9	0.031340275
69	0x3cfb48ba	0.030674327
70	0xbd92d44e	-0.071694
71	0x3cdcd51f	0.026957093
72	0xbdc9c87d	-0.09852693
73	0xbc305f37	-0.0107648885
74	0xbdaffd96	-0.085932896
75	0xbc7f77ad	-0.015592498
76	0xbc830bc9	-0.01599683
77	0x3db9e031	0.09075964
78	0x3da05e4e	0.07830487
79	0xbcc87cec	-0.02447363
80	0x3d67d682	0.056601055
81	0x3d7cf0e3	0.061753165
82	0x3c689940	0.014196694
83	0x3d1c3383	0.038135063
84	0x3cd9ba74	0.026578166
85	0xbd654504	-0.05597402
86	0x3ce26412	0.027635608
87	0xbd22ee14	-0.03977783
88	0x3d3f4b44	0.04670264
89	0xbba6c089	-0.00508887
90	0xbdaec4e0	-0.08533645
91	0xbb523147	-0.0032072829
92	0x3da66146	0.08124022
93	0x3c551fc7	0.013008065
94	0x3d9201e7	0.07129269
95	0xbcd4105c	-0.025886707
96	0x3d85c354	0.065313965
97	0xbd7eaf7f	-0.062179085
98	0xbdc8a9fb	-0.09798046
99	0xbdc892d8	-0.09793633
100	0xbd80b858	-0.06285161
101	0x3d841bd0	0.06450617
102	0x3dc787d8	0.09742707
103	0x3d5f114c	0.054459855
104	0xbc81a3fb	-0.015825262
105	0xbdaba97f	-0.08381938
106	0xbd92080a	-0.071304396
107	0xbd95cae9	-0.07314093
108	0xbd61e591	-0.055150572
109	0x3ced70cc	0.02898445
110	0x3d1ab84f	0.037773427
111	0x3cc08284	0.023499735
112	0xbcf66454	-0.030077137
113	0x3dbaa7f8	0.09114069
114	0xbcfcac39	-0.03084384
115	0x3d62a500	0.055333138
116	0x3d4695db	0.048482757
117	0x3d9bf1fc	0.07614514
118	0xbdb4d966	-0.08830528
119	0xbd53c1bf	-0.051698443
120	0xbca7fee2	-0.02050728
121	0x3c97250e	0.018450286
122	0xbd768355	-0.06018384
123	0x3da97709	0.08274657
124	0x3d8674fd	0.065652825
125	0x3dadfd1c	0.084955424
126	0xbb8b0f93	-0.0042438
127	0x3d2c18ff	0.042016026
128	0xbd257d9e	-0.040403
129	0xbca22a41	-0.019795539
130	0xbd91cccd	-0.07119141
131	0x3bb31884	0.005465569
132	0x3db1a1d0	0.086734414
133	0xbd854b7e	-0.065085396
134	0x3dae7362	0.08518101
135	0xbc340b61	-0.010989041
136	0x3caf226c	0.021378718
137	0x3baa90aa	0.0052052336
138	0xbd02b4d0	-0.031910717
139	0xbc04abef	-0.008097633
140	0x3cb4e293	0.022080695
141	0x3d0bbe8d	0.03411727
142	0x3a7b8465	0.00095946185
143	0x3d69df03	0.057097446
144	0x3caab965	0.020840356
145	0x3bd5ec9b	0.0065284497
146	0x3da05bf0	0.07830036
147	0x3c93eeab	0.018058142
148	0xbd216b47	-0.03940895
149	0xbd30d4a4	-0.04317154
150	0xbdc58274	-0.096440226
151	0x3d7e50e2	0.062088855
152	0xbcd6a5a0	-0.026202023
153	0xbda6b73b	-0.08140417
154	0xbc7e4eb3	-0.015521693
155	0x3d32f983	0.043694984
156	0xbd3976d5	-0.045279343
157	0xbd23abf1	-0.039958898
158	0xbbee3b75	-0.0072702714
159	0x3ca835bb	0.020533433
160	0xbda2d160	-0.07950091
161	0xbd002ef9	-0.031294797
162	0x3bac88fd	0.0052653537
163	0x3d81557e	0.063151345
164	0x3dc7dacd	0.0975853
165	0x3dbd3abe	0.0923972
166	0x3cf6806d	0.030090535
167	0xbd8afdb1	-0.06786669
168	0x3d8a05cb	0.06739386
169	0xbd233938	-0.03984949
170	0xbd38d43b	-0.045124274
171	0xbd80e0b3	-0.06292858
172	0x3dad8ea9	0.08474476
173	0xbd712e4c	-0.058882043
174	0xbd9b8122	-0.075929895
175	0x3d9d680c	0.07685861
176	0xbcb83f2e	-0.022491064
177	0x3dc6f270	0.0971421
178	0xbdb7abd7	-0.08968323
179	0x3c4eea97	0.012629173
180	0x3d995f45	0.07488874
181	0xbca4bb5b	-0.02010887
182	0x3d94e6c8	0.072705805
183	0x3d197827	0.0374681
184	0x3cbe5b93	0.023237025
185	0x3d2e51a1	0.042558316
186	0x3d1fa52c	0.03897588
187	0xbcc0d796	-0.0235403
188	0x3daadc67	0.0834282
189	0xbd44b225	-0.048021454
190	0xbbb7bd58	-0.0056072883
191	0xbd319297	-0.04335269
192	0x3b6f52ec	0.003651793
193	0xbd113838	-0.035454005
194	0xbd5fa0a6	-0.054596566
195	0xbd46e2e5	-0.048556227
196	0xbba4a906	-0.005025032
197	0xbd80a7f4	-0.062820345
198	0xbd48905e	-0.048965804
199	0xbd9e101c	-0.07717916
200	0xbd26d218	-0.040727705
201	0x3d292b95	0.04130133
202	0x3cff2718	0.031146571
203	0x3db4f495	0.08835713
204	0x3d85ac03	0.06526949
205	0x3d537b9a	0.051631548
206	0xbdc2d72b	-0.09513696
207	0xbdbe6e63	-0.09298398
208	0xbb9c0e53	-0.00476245
209	0x3d2c2306	0.04202559
210	0x3db42271	0.08795632
211	0x3d55d386	0.052203678
212	0xbd44a891	-0.04801232
213	0x3d999bfc	0.07500455
214	0x3d8ff859	0.070297904
215	0x3cb82ded	0.022482837
216	0x3d1b55c3	0.037923586
217	0xbd8d1cea	-0.068902805
218	0xbdc677a7	-0.096907906
219	0x3d00b2a7	0.031420376
220	0x3c4d09ce	0.012514545
221	0xbc2e8342	-0.0106514115
222	0xbdbedc8b	-0.09319409
223	0x3d73b505	0.059498806
224	0xbd68c44c	-0.05682783
225	0xbd592a8c	-0.05301909
226	0x3d4d873e	0.050177805
227	0x3d92ffc3	0.07177689
228	0xbdaf31e7	-0.0855444
229	0x3d8c370c	0.06846437
230	0x3dca6c7a	0.098839715
231	0xbd9fd617	-0.07804506
232	0xbc4ba6c4	-0.012429897
233	0x3d83132b	0.064001404
234	0xbdc51c9b	-0.09624597
235	0x3c093512	0.008374469
236	0xbc95d364	-0.018289275
237	0xbd7023c4	-0.05862786
238	0xbd1b0dc1	-0.037854914
239	0x3c9babd0	0.019002825
240	0xbc4475f8	-0.011991017
241	0x3d84bfd1	0.064818986
242	0xbcd4c646	-0.02597345
243	0x3c870f64	0.016486831
244	0x3c462f89	0.012096294
245	0x3b6392b4	0.0034724893
246	0xbdad2fda	-0.084563926
247	0x3d333091	0.04374749
248	0x3c14d017	0.009082816
249	0x3d66331d	0.05620109
250	0x3dc84981	0.09779645
251	0x3c46861c	0.012116935
252	0x3baae7c2	0.005215616
253	0xbc17af4b	-0.009258102
254	0xbd4532a8	-0.048144013
255	0xbdc67c9d	-0.09691737

elu_stack.6.bias f4 [100]
0	0xbc05f57c	-0.008176204
1	0x3cd5d220	0.026101172
2	0x3d8317f7	0.06401055
3	0x3c76e19c	0.015068438
4	0xbd661001	-0.056167606
5	0x3d04504b	0.032303136
6	0xbdc211cf	-0.09476053
7	0xbd823cc8	-0.06359249
8	0xbc2e44ec	-0.010636549
9	0x3d87ac64	0.06624678
10	0x3da80ed7	0.082059555
11	0x3d6eaa9f	0.058268186
12	0x3cc7a18f	0.02436903
13	0x3d6865a8	0.056737572
14	0xbda08a05	-0.07838825
15	0xbc8d3288	-0.01723601
16	0xbc206c56	-0.009791454
17	0x3db6ca2e	0.089252815
18	0x3d4294f2	0.047505327
19	0xbd4a8ab3	-0.04944868
20	0x3c167938	0.009184174
21	0xbdb39fb6	-0.08770697
22	0x3d4343ce	0.047672085
23	0x3da3c672	0.07996835
24	0xbd57e78a	-0.052711047
25	0xbd91211c	-0.07086393
26	0x3d5817f5	0.052757222
27	0xbd94f763	-0.07273748
28	0x3d261df9	0.040555928
29	0x3db50711	0.088392384
30	0x3d37446b	0.044742983
31	0x3cb93a3e	0.02261078
32	0xbaa6334c	-0.0012680083
33	0xbd4c9c25	-0.0499536
34	0x3d66bffc	0.056335434
35	0xbd7794c1	-0.060444597
36	0x3bfd7735	0.007735158
37	0x3d6a8988	0.057260066
38	0xbd1dd352	-0.03853161
39	0x3db7eb45	0.08980421
40	0xbdc6d984	-0.097094566
41	0xbc732348	-0.014839955
42	0xbcf5df36	-0.030013662
43	0x3d5bde8f	0.053679045
44	0xbcbfe526	-0.023424696
45	0x3d05d128	0.03267017
46	0xbcf10b15	-0.02942423
47	0x3d1855d9	0.037191246
48	0x3d9935cc	0.07480964
49	0x3d8a0662	0.06739499
50	0x3c991108	0.018684879
51	0xbd49cdc2	-0.04926849
52	0xbc7a3285	-0.015270834
53	0xbd5802c6	-0.05273702
54	0xbce7077e	-0.028201815
55	0xbcb20652	-0.02173153
56	0x3dbd2b2e	0.092367515
57	0x3d82651f	0.063669436
58	0xbdc56bd8	-0.0963971
59	0xbd292339	-0.041293357
60	0xbd949652	-0.07255234
61	0x3d978f6e	0.07400404
62	0x3d8344b5	0.06409589
63	0x3cb681b2	0.02227864
64	0xbd86e9b1	-0.06587542
65	0x3c90b8ad	0.017666185
66	0xbb8773f6	-0.0041336967
67	0xbbb5d7d0	-0.0055494085
68	0xbd43444f	-0.047672566
69	0xbd82912d	-0.06375346
70	0x3d94d25d	0.07266686
71	0x3d2a1d2f	0.041531738
72	0x3d031b05	0.03200819
73	0x3dbfde73	0.09368601
74	0xbcf682c4	-0.03009165
75	0xbdc0c141	-0.0941186
76	0x3c9fcf6d	0.019508088
77	0x3d3f1001	0.046646122
78	0x3c909203	0.017647749
79	0xbd3f7ed0	-0.046751797
80	0x3d54fbd9	0.051997993
81	0xbdb534e0	-0.08847976
82	0xbdc3f06f	-0.095673434
83	0xbd4d8607	-0.050176647
84	0x3dcb9128	0.09939796
85	0x3dc0ff98	0.09423751
86	0x3aa6a1a0	0.0012712963
87	0xbd170aeb	-0.036875647
88	0xbd8ee1fc	-0.06976697
89	0x3d52e196	0.051484667
90	0x3d93b5a0	0.072123766
91	0xbd0d6218	-0.034517378
92	0xbc956094	-0.018234529
93	0xbd84bde8	-0.06481534
94	0xbda67aeb	-0.081289135
95	0x3d5fdfd0	0.054656804
96	0x3d5f1f3f	0.054473158
97	0xbdb630c7	-0.08896022
98	0x3d0bd3ed	0.034137655
99	0xbd9afebb	-0.07568117

elu_stack.7.weight f4 [2, 100]
0	0x3d1d8511	0.03845698
1	0x3ca4067e	0.020022627
2	0xbd108657	-0.035284366
3	0x39e81e89	0.0004427324
4	0x3d72629d	0.059176076
5	0xbd667b45	-0.056269903
6	0x3c7b9959	0.015356385
7	0xbd98045d	-0.07422707
8	0x3d8c54e7	0.06852131
9	0xbdc645b5	-0.09681264
10	0x3dc6d5e3	0.097087644
11	0xbd395dd5	-0.0452555
12	0x3d3d5ef3	0.04623313
13	0x3c40ba05	0.0117631005
14	0xbd6a5666	-0.057211302
15	0xbd2946e6	-0.04132738
16	0x3da34b15	0.07973305
17	0x3d504a6e	0.05085223
18	0xbc953070	-0.018211573
19	0x3c79685b	0.015222634
20	0xbd708275	-0.058718164
21	0x3d3fc2c3	0.0468166
22	0xbcaffd11	-0.021482976
23	0x3d941d4e	0.07232152
24	0x3db02c58	0.08602208
25	0x3dac8b70	0.08425033
26	0x3d2d2d2f	0.04227942
27	0x3c4a7e3f	0.012359201
28	0xbd47affc	-0.048751816
29	0x3ceabde4	0.028655
30	0xbccfeea5	-0.02538235
31	0x3c81e835	0.015857795
32	0x3d245195	0.040116865
33	0x3d14886e	0.036262922
34	0xbd821f31	-0.063536055
35	0xbd45c438	-0.048282832
36	0x3d84cd64	0.06484488
37	0x3d1fe6ba	0.039038397
38	0xbd376944	-0.044778123
39	0x3d8a00fd	0.0673847
40	0xbcccc629	-0.024996834
41	0x3dc6ed6c	0.097132534
42	0x3d3597a1	0.044334058
43	0x3ceaf1c6	0.02867974
44	0x3da046b5	0.07825986
45	0xbdba24cc	-0.0908905
46	0xbcdaf7c4	-0.026729472
47	0xbd01d712	-0.031699248
48	0xbbf6171c	-0.007510079
49	0xbd9de3c3	-0.07709458
50	0x3d74f7ae	0.05980652
51	0xbdcbb6fe	-0.09947012
52	0x3da57157	0.080782585
53	0x3dc46040	0.09588671
54	0x3bff3d65	0.007789301
55	0xbbb8a7f1	-0.0056352546
56	0x3dc32770	0.095290065
57	0x3d66b489	0.056324515
58	0xbc942c48	-0.018087521
59	0xbb4d9e79	-0.0031374975
60	0xbdc99eae	-0.09844719
61	0x3dbe6db1	0.09298266
62	0x3d131732	0.035910793
63	0xbdbfe583	-0.09369948
64	0x3d8453b2	0.06461276
65	0xbd5d5cc4	-0.054043546
66	0x3daeab64	0.08528784
67	0xbdc5ee3e	-0.09664582
68	0x3db2ad4f	0.08724462
69	0xbcff4ba7	-0.031164004
70	0xbdc1b636	-0.09458582
71	0xbd629d5f	-0.055325862
72	0x3d144073	0.036194276
73	0xbc460126	-0.012085235
74	0xbd7aa589	-0.061193023
75	0x3d368ba5	0.04456677
76	0xbdbfe1b7	-0.093692236
77	0xbd869ebf	-0.06573247
78	0xbdb3c585	-0.08777908
79	0xbc48234e	-0.012215449
80	0xbd4be382	-0.049777515
81	0xbd93dac4	-0.072194606
82	0xbc4004aa	-0.011719862
83	0xbc67a66a	-0.014138797
84	0xbc9b3e7c	-0.018950693
85	0x3da38bf8	0.07985681
86	0x3d19dd61	0.03756464
87	0xbc6c2d4c	-0.0144150965
88	0x3d432e16	0.047651373
89	0x3d3906c4	0.045172468
90	0x3da28946	0.07936339
91	0xbd7d95a3	-0.061910283
92	0x3d8df8b9	0.06932206
93	0x3d654525	0.055974144
94	0xbc6cd5b3	-0.014455247
95	0xbd65b551	-0.05608112
96	0xbca5dd8b	-0.020247241
97	0xbc825c58	-0.015913174
98	0x3dacc15d	0.084353186
99	0xbd3c5c9e	-0.045986764
100	0xbd965fcf	-0.07342493
101	0x3da02a9a	0.078206256
102	0xbdba6136	-0.09100573
103	0xbdc8790b	-0.09788712
104	0x3d9cf4ca	0.07663877
105	0xbd02ff34	-0.031981662
106	0xbd540f3f	-0.051772352
107	0xbc66ed4a	-0.01409466
108	0x3dc4bc75	0.09606258
109	0xbdb114ce	-0.08646546
110	0xbdc83d22	-0.09777285
111	0xbd205170	-0.039140165
112	0x3d813c7a	0.06310363
113	0xbcf280f7	-0.02960251
114	0x3b3b669f	0.0028595102
115	0xbcc2c3d6	-0.023775022
116	0x3cfba774	0.030719496
117	0x3d025f23	0.03182901
118	0xbd92d098	-0.07168692
119	0xbcf11baf	-0.029432146
120	0x3da3c1c8	0.07995945
121	0xbd11a0fd	-0.03555392
122	0xbd60c5b9	-0.054876063
123	0xbd5a417d	-0.05328511
124	0xbcb19665	-0.021678159
125	0x3c25249d	0.01007953
126	0xbd969b75	-0.0735387
127	0xbd4d2d99	-0.050092313
128	0x3d7524bc	0.059849486
129	0xbc8c014c	-0.017090462
130	0x3b9478b2	0.0045309896
131	0x3cfa2cda	0.030538965
132	0xb9d204c9	-0.00040057887
133	0x3daa1e5c	0.08306572
134	0xbd2753a8	-0.040851265
135	0x3d4adbf8	0.049526185
136	0xbda2cf61	-0.07949711
137	0x3dc3a16b	0.095522724
138	0x3cca11e5	0.024666736
139	0x3c372c54	0.011180002
140	0x3c2588d3	0.010103422
141	0x3d10e5e4	0.03537549
142	0xbb0be020	-0.0021343306
143	0x3d602771	0.054725114
144	0xbd93a727	-0.07209616
145	0x3d563a61	0.05230177
146	0x3d784b46	0.06061866
147	0x3d9eb3ea	0.0774916
148	0x3d628fb1	0.055312816
149	0xbdaa8d37	-0.08327716
150	0x3cbf1c04	0.023328789
151	0xbdb19f2f	-0.0867294
152	0x3d461b08	0.048365623
153	0x3d264d35	0.040600974
154	0xbd69560b	-0.056966823
155	0xbb5120e5	-0.0031910476
156	0x3daa4e22	0.08315684
157	0x3d4ade3f	0.049528357
158	0xbd8ff125	-0.070284165
159	0xbcb2315b	-0.02175205
160	0xbdb47b18	-0.08812541
161	0x3cb5b6fd	0.022181982
162	0x3d8d63d4	0.06903806
163	0xbdb5641e	-0.088569865
164	0x3d31e4ad	0.043430973
165	0xbda1047c	-0.078621835
166	0xbdc14695	-0.094372906
167	0xbd8ec707	-0.06971555
168	0xbd9c00d9	-0.07617349
169	0x3c6ddcf4	0.014518011
170	0x3cf78e2f	0.030219166
171	0xbcc67eb6	-0.024230342
172	0xbd748085	-0.05969288
173	0xbcece853	-0.028919375
174	0x3d22fe31	0.039793197
175	0x3d848b88	0.06471926
176	0xbdb67467	-0.08908921
177	0xbdb56ac5	-0.08858255
178	0xbdbfbe4a	-0.09362467
179	0xbd21b8cd	-0.03948288
180	0xbd1ff853	-0.03905518
181	0x3c53e46e	0.01293288
182	0xbc7eeb9f	-0.015559106
183	0x39f5a83f	0.00046855395
184	0x3c582021	0.013191254
185	0x3d8695c6	0.06571536
186	0xbd6e99a4	-0.058251992
187	0x3d7dd4e8	0.06197062
188	0xbdb5c348	-0.088751376
189	0x3ce687ef	0.02814099
190	0xbb1c4b63	-0.0023848645
191	0x3d2bfed6	0.041991077
192	0x3d2711d1	0.040788475
193	0x3b2090a8	0.0024500284
194	0xbd2c7ebc	-0.04211305
195	0xbd937692	-0.0720035
196	0x3d8eebed	0.06978593
197	0x3d9075a3	0.070536874
198	0xbd9a3e0f	-0.07531368
199	0x3db2bde9	0.08727629

elu_stack.7.bias f4 [2]
0	0xbc42a975	-0.011881222
1	0xbd712cdb	-0.058880668
