Parameter/wallplaneDDPG/18.pth (torch, 3727 bytes, 8 tensors)

elu_stack.0.weight f4 [10, 2]
0.47892693 0.25064814 0.13694999 -0.45585895 -0.17199406 -0.19427937 -0.2666695 -0.5075615
0.49373737 -0.63078433 -0.078181244 0.020161096 -0.25039446 -0.6962857 -0.16250941 0.27578208
0.29126713 0.120050974 -0.5861159 0.013815764
00000000: e935 f53e f454 803e 9e3c 0c3e 5866 e9be
00000010: 361f 30be 2cf1 46be e888 88be 8def 01bf
00000020: 25cb fc3e 157b 21bf 7d1d a0bd e228 a53c
00000030: b433 80be c83f 32bf de68 26be 4f33 8d3e
00000040: f720 953e 49dd f53d b10b 16bf 845b 623c

elu_stack.0.bias f4 [10]
-0.17193219 -0.32573828 -0.034606446 0.31361827 -0.28570604 -0.5741609 -0.49793488 0.62166315
0.3823945 0.3232194
00000000: fe0e 30be 2bc7 a6be 7dbf 0dbd 9392 a03e
00000010: 1048 92be 35fc 12bf 52f1 febe 5125 1f3f
00000020: 36c9 c33e 037d a53e

elu_stack.2.weight f4 [10, 10]
0.18444932 -0.30801392 0.25053352 -0.0044211326 0.15257075 -0.08157597 0.10077135 0.03808146
0.2651834 0.28195602 -0.18633026 0.1036892 -0.17239247 -0.031106738 0.04791946 0.29285094
-0.10843124 -0.3007592 -0.13745694 0.23328036 0.08145473 -0.1092184 -0.04949752 0.112617545
-0.2339394 0.045764606 0.25023332 0.14506455 -0.10374547 0.2443431 0.28142905 -0.24457638
0.10555012 -0.11067724 0.16278188 0.061982002 -0.21943234 -0.08844356 -0.005541572 0.08153597
-0.17772453 -0.14509103 -0.13456531 0.30606762 -0.18346535 -0.0057377485 -0.078902245 0.18284403
-0.29907578 0.11427882 0.06226413 0.2601363 0.04556879 0.22037311 -0.2969593 -0.22681984
-0.17591365 0.117511384 0.12168813 0.28844127 0.13420318 0.21594052 0.18930697 0.097860634
0.13598172 -0.08710978 -0.07831131 0.07012898 0.08743687 0.031790107 -0.0586686 0.2257791
-0.067776985 0.09231326 -0.08221752 0.15337783 -0.30780143 0.108680755 0.28489822 -0.19526173
0.25174585 0.042430233 0.24962635 0.20792739 -0.11781194 0.12180037 -0.11927252 0.30575326
-0.21587023 -0.17363606 0.15625091 0.15900262 0.29616186 -0.27546385 -0.081857376 0.002616856
-0.044529364 -0.27910563 -0.08237802 0.092310995
00000000: 48e0 3c3e 00b4 9dbe ee45 803e 26df 90bb
00000010: 823b 1c3e 4d11 a7bd 3661 ce3d 4efb 1b3d
00000020: 1ec6 873e 8a5c 903e 5ccd 3ebe 015b d43d
00000030: a787 30be 8fd3 febc 3247 443d 8ff0 953e
00000040: 3311 debd 1cfd 99be 83c1 0cbe 0ce1 6e3e
00000050: bdd1 a63d e6ad dfbd e9bd 4abd 07a4 e63d
00000060: cf8d 6fbe ab73 3b3d 951e 803e cd8b 143e
00000070: 8178 d4bd 1435 7a3e 7817 903e 3b72 7abe
00000080: a92a d83d c0aa e2bd 4bb0 263e d7e0 7d3d
00000090: dfb2 60be e621 b5bd 1396 b5bb 55fc a63d
000000a0: 6bfd 35be be92 14be 7dcb 09be e5b4 9c3e
000000b0: 57de 3bbe b903 bcbb 8097 a1bd 773b 3b3e
000000c0: 7620 99be 040b ea3d ac08 7f3d 9630 853e
000000d0: 57a6 3a3d 7da9 613e 0d0b 98be 7643 68be
000000e0: b522 34be cfa9 f03d a037 f93d 93ae 933e
000000f0: 8f6c 093e 831f 5d3e b0d9 413e 286b c83d
00000100: cb3e 0b3e 9d66 b2bd ae61 a0bd c89f 8f3d
00000110: 1a12 b33d 5836 023d 7c4e 70bd a332 673e
00000120: a9ce 8abd bc0e bd3d a961 a8bd 140f 1d3e
00000130: 2698 9dbe 0494 de3d 2ede 913e b1f2 47be
00000140: d5e4 803e 53cb 2d3d 0d9e 7f3e ebea 543e
00000150: 6347 f1bd 7972 f93d 2745 f4bd b18b 9c3e
00000160: 160d 5dbe a7cd 31be 3d00 203e 95d1 223e
00000170: 87a2 973e 9909 8dbe d7a4 a7bd 8f7f 2b3b
00000180: 6c64 36bd efe6 8ebe cfb5 a8bd 8c0d bd3d

elu_stack.2.bias f4 [10]
0.1859412 -0.21256864 -0.19901623 -0.22332701 -0.14084865 0.14615306 -0.1825711 0.26208308
-0.022010647 0.25260624
00000000: 5f67 3e3e 98ab 59be e9ca 4bbe d6af 64be
00000010: a13a 10be 26a9 153e ebf3 3abe c12f 863e
00000020: ac4f b4bc 9b55 813e

elu_stack.4.weight f4 [10, 10]
-0.1038423 -0.26278213 -0.059199724 0.22919153 -0.08459931 -0.2846865 0.2118734 -0.24892615
0.1149942 0.019596461 0.14504226 -0.3163004 0.21365054 -0.107938044 -0.25160113 0.0005647466
0.072662376 0.19803956 -0.22210877 -0.2541333 0.14663643 0.16894948 0.26861885 0.18668634
-0.15593284 -0.30432254 -0.14932323 0.13827743 -0.27983204 0.19062199 0.11758507 -0.04426229
-0.30565655 0.24800377 0.28463107 -0.2110268 0.10540096 0.27560127 -0.041091032 0.037678715
0.17919055 0.065006144 0.19553402 0.30973387 0.15455207 -0.23336229 0.10234664 -0.28561905
-0.0068870555 -0.2823713 -0.021257497 -0.091060735 0.29438242 -0.24563311 0.27698347 0.022163002
0.20109105 0.25868094 -0.06786692 -0.14632478 0.19014744 0.19620396 -0.001463771 -0.0671281
-0.31162927 -0.023390248 0.23607527 -0.27340555 0.034366604 -0.25903338 0.1480285 -0.017123012
-0.072614215 -0.22630861 -0.03707775 0.05337125 -0.16550374 0.061115786 0.22483586 0.18559514
-0.14555298 0.019244518 0.07314082 -0.0924537 0.17079261 0.2872242 -0.24881315 0.24887997
0.24670316 -0.13430016 -0.3003896 0.29938537 0.034756143 -0.0087595275 0.15217026 -0.093838304
0.16119087 0.29869667 -0.17044488 0.27133164
00000000: 46ab d4bd 618b 86be 697b 72bd 2fb1 6a3e
00000010: 6742 adbd 6ec2 91be 57f5 583e 7fe6 7ebe
00000020: 1482 eb3d c288 a03c f585 143e 20f2 a1be
00000030: 35c7 5a3e 9f0e ddbd ddd1 80be 810b 143a
00000040: 03d0 943d e2ca 4a3e 7b70 63be c31d 82be
00000050: dc27 163e 1801 2d3e 6988 893e b42a 3f3e
00000060: dcac 1fbe 2ad0 9bbe 30e8 18be 9998 0d3e
00000070: 2546 8fbe 6932 433e 71d0 f03d 604c 35bd
00000080: 047f 9cbe b3f4 7d3e 2abb 913e 6917 58be
00000090: 75dc d73d 9c1b 8d3e 124f 28bd ff54 1a3d
000000a0: ba7d 373e f121 853d 123a 483e 7095 9e3e
000000b0: e642 1e3e 86f6 6ebe 1d9b d13d a93c 92be
000000c0: cfac e1bb f992 90be 3424 aebc 0d7e babd
000000d0: 4bb9 963e 3f87 7bbe c7d0 8d3e 2f8f b53c
000000e0: d0ea 4d3e d471 843e d0fd 8abd 2ad6 15be
000000f0: 03b6 423e b1e9 483e 01dc bfba 757a 89bd
00000100: df8d 9fbe e89c bfbc b7bd 713e d0fb 8bbe
00000110: ffc3 0c3d 06a0 84be c894 173e 8f45 8cbc
00000120: c3b6 94bd 72bd 67be d7de 17bd d09b 5a3d
00000130: d079 29be 8c54 7a3d 5f3b 663e a70c 3e3e
00000140: d70b 15be aea6 9d3c dbca 953d 5e58 bdbd
00000150: 42e4 2e3e 0d0f 933e e0c8 7ebe 64da 7e3e
00000160: c19f 7c3e fb85 09be aacc 99be 0a49 993e
00000170: 755c 0e3d 1f84 0fbc 85d2 1b3e 4c2e c0bd
00000180: 380f 253e c5ee 983e 1a89 2ebe fbeb 8a3e

elu_stack.4.bias f4 [10]
-0.09814729 0.13041908 -0.17666969 0.21760549 0.13716929 0.17386419 0.00597943 0.2368927
0.24209434 0.030681856
00000000: 7201 c9bd 948c 053e e6e8 34be f9d3 5e3e
00000010: 1b76 0c3e 7409 323e 18ef c33b 0094 723e
00000020: 94e7 773e 8458 fb3c

elu_stack.5.weight f4 [2, 10]
-0.1794801 0.19659711 0.20645063 0.1317664 0.10809209 0.2791534 0.014234243 0.18408628
0.1475265 -0.3098443 0.034310386 0.26066902 0.024314465 0.32900107 0.003330033 0.07116079
-0.032343645 0.052903198 0.2781992 0.24583337
00000000: a2c9 37be c150 493e cb67 533e c5ed 063e
00000010: 635f dd3d 32ed 8e3e be36 693c 1d81 3c3e
00000020: 3011 173e e9a3 9ebe 0c89 0c3d 6976 853e
00000030: 212f c73c d472 a83e af3c 5a3b c0bc 913d
00000040: c57a 04bd 06b1 583d 2070 8e3e bebb 7b3e

elu_stack.5.bias f4 [2]
-0.16253807 -0.20170078
00000000: 6170 26be a68a 4ebe
