Parameter/wallplaneDDPG/210.pth (torch, 3727 bytes, 7 tensors)

elu_stack.0.weight f4 [10, 4]
000000 34 01 1e 3e 75 97 f0 3d 1b a1 16 3f a3 de 8b 3e
       0.15430146 0.11747638 0.5883958 0.27318296
000010 6e f6 53 be 50 d9 7c be 8c 9e 69 3e 6f e1 de 3d
       -0.20699474 -0.24692273 0.22814387 0.10882842
000020 15 1a 14 3f 85 ba bf be 90 74 42 bd 07 ce 14 bd
       0.578523 -0.3744699 -0.047474444 -0.036329295
000030 fe c9 cd 3e 9e f0 e6 bd c2 c6 15 3f 66 67 8e 3e
       0.4019317 -0.11276363 0.58506405 0.27813262
000040 db ef d4 3e 9d e4 3b 3e 49 fd 84 3e 6b a1 94 3e
       0.41589245 0.18348928 0.2597449 0.29029402
000050 20 85 f2 3e 2c 2e 8e be c1 2d 1a be d7 7c 82 be
       0.4736719 -0.277696 -0.15056516 -0.2548587
000060 9e 53 ad be 23 e1 95 3d 19 c9 75 bb 21 0c 11 bf
       -0.33852857 0.07318332 -0.0037503897 -0.5665913
000070 94 3d 1c 3e 90 b4 15 bf 43 0b 27 3c 20 61 15 bf
       0.15257865 -0.5847864 0.010195556 -0.58351326
000080 6d 16 52 3e 4e 05 2c bc a2 cd 15 3f d1 5f 27 bc
       0.20516367 -0.010499312 0.58516896 -0.0102157155
000090 91 81 f0 3e 0a 62 95 be 79 22 6e 3e 69 3d 0f 3b
       0.4697385 -0.2917636 0.23255338 0.0021856672

elu_stack.0.bias f4 [10]
000000 a2 c0 8a 3e 1c 95 91 bd 33 2c 8a 3e a8 56 f0 3e
       0.27100092 -0.071085185 0.26986846 0.46941113
000010 e0 2f 1b be bd c9 b2 3e 9a b1 73 be 3a 0e 89 be
       -0.15154982 0.3491954 -0.23798218 -0.26768667
000020 74 d5 1a 3d 69 72 2e 3f
       0.03780122 0.68143326

elu_stack.2.weight f4 [10, 10]
000000 fb 68 01 be 52 30 ba 3e 8f af c1 be 13 62 17 bf
       -0.12637703 0.3636499 -0.37829253 -0.59134024
000010 f5 9b 21 be 27 9f 34 be 62 27 12 3e 91 13 a9 3e
       -0.15782149 -0.17638837 0.14272836 0.3302274
000020 94 3a aa be 4a 0e e4 be a8 b7 bd bd c2 3a 06 3e
       -0.33247817 -0.44542152 -0.09263545 0.13108352
000030 0e 89 8b be 45 46 e9 be 4d 5b cf be 46 3f 4f 3d
       -0.27253002 -0.45561424 -0.40499344 0.05059745
000040 e3 68 81 3e 5a ea 10 3d 69 09 0b bf f0 19 0e bf
       0.25275335 0.035379745 -0.54311234 -0.5550833
000050 d7 7d aa 3e c8 6f 84 bd 6e b6 d2 3d 5a 72 db 3e
       0.33299133 -0.06466633 0.10288702 0.4286068
000060 b5 95 bd 3d 71 4e f9 3e cb 66 93 be a8 9d 16 bf
       0.0925707 0.4869266 -0.28789362 -0.58834314
000070 75 b6 b5 3e 8b fd 35 3e ec 1a 06 3f 1e e9 91 bd
       0.35490766 0.177725 0.5238483 -0.07124542
000080 b3 b9 d4 bc 3d 8b de 3e 76 d6 06 3f 75 29 3a 3e
       -0.025967455 0.43465605 0.5267099 0.18179877
000090 98 aa e0 be ab 3e 02 bf ef 7b 8e 3e e7 a4 63 3d
       -0.43880153 -0.50876874 0.2782893 0.055577185
0000a0 8e 8d a8 bd 2c 8f 3e bb dd 0e 9e bd 3a 60 fa bd
       -0.082301244 -0.0029077036 -0.07717679 -0.12225385
0000b0 04 14 04 bf 1d cc e0 be 62 f5 f0 3e f4 06 c4 3e
       -0.5159304 -0.43905726 0.47062212 0.38286555
0000c0 db b4 a5 be 62 a4 0d bf f6 b8 27 3f 01 d0 a7 be
       -0.32364544 -0.55328953 0.65516603 -0.32775882
0000d0 1d bd fb 3e dc 21 d9 3e d1 35 fe 3e 2b dc c7 3d
       0.4916772 0.42408645 0.49650434 0.097587906
0000e0 06 cf 53 bc dd de 09 be 85 bd 23 3e 8c 2f f7 3e
       -0.012927776 -0.13463922 0.15990265 0.48278463
0000f0 05 3d f5 be e6 c6 87 3e c8 5e a4 be e4 04 1b bf
       -0.47898117 0.26518935 -0.32103562 -0.6055434
000100 79 b1 81 be 9b 6b 19 be b0 6f 65 3e 34 5c c1 3e
       -0.25330713 -0.14982454 0.22405887 0.37765658
000110 c4 e9 a2 3c ed 84 ec be 95 37 c2 be a2 cb d6 3e
       0.019886859 -0.46195164 -0.3793303 0.41952235
000120 50 ae 4a be c9 5c 69 be da 7c 0f 3d 76 0f 9a be
       -0.19793057 -0.22789301 0.035031177 -0.3008992
000130 1d e9 03 3f a3 43 6c 3e 4e af 3b be 8f 4c cb be
       0.5152758 0.23072676 -0.18328592 -0.39706847
000140 8f 47 99 be 3a 8e 9e 3e 16 5d b6 be 13 24 0b bf
       -0.29937407 0.30967885 -0.35617894 -0.5435192
000150 4a 13 e5 be 3f 3f 91 3d 60 2a ac 3e 27 f3 19 3f
       -0.4474128 0.07092141 0.3362608 0.60136646
000160 ee e8 7f be 41 9c b3 be 85 73 cc 3e 8a ca 1a bc
       -0.249912 -0.3508015 0.39931884 -0.009447703
000170 f9 72 84 3e 7b f6 13 3f 16 be a6 3e 8e 24 dd 3e
       0.25868967 0.57797974 0.325669 0.43191952
000180 4a 56 db be ef 42 d5 be f1 75 1e 3d 85 f4 08 3f
       -0.4283927 -0.4165263 0.038686696 0.5349811

elu_stack.2.bias f4 [10]
000000 59 3a d8 be c4 1f 13 bf c3 d0 23 3f e4 3e e8 3e
       -0.42232016 -0.57470345 0.6399042 0.45360482
000010 a4 5d 05 bf f9 05 82 3e 9b 0e ac be 44 4f 05 bf
       -0.5209601 0.25395182 -0.33604893 -0.52074075
000020 14 d9 25 be b7 69 fc 3d
       -0.1619609 0.12324851

elu_stack.4.weight f4 [10, 10]
000000 18 e7 6c bf d0 52 09 bf 56 f6 75 3f 6c f2 19 3f
       -0.9254012 -0.53641987 0.96079004 0.6013553
000010 64 9f 1c bf 7c 23 0e 3f e9 1e 1b bf ad 80 30 bf
       -0.6118071 0.55522895 -0.6059404 -0.68946344
000020 d4 a5 00 bf 5f 1f 6f 3f 56 54 35 bf 80 79 3a bf
       -0.50253034 0.93407243 -0.7083181 -0.72841644
000030 5a 82 4d 3f 96 27 62 3f b6 37 73 bf e9 41 7b 3f
       0.80277026 0.88341653 -0.95006883 0.98147446
000040 84 8e 61 bf 0f 41 40 bf 2b 25 85 bf fe 20 76 3f
       -0.88108087 -0.7509927 -1.0401968 0.9614409
000050 54 43 9e 3e 34 0f 17 3f 95 f2 5c bf aa f0 26 bf
       0.30910742 0.59007573 -0.8630765 -0.65210974
000060 e4 19 21 3f 80 eb 10 bf b5 53 23 3f 72 e8 ae 3e
       0.6293013 -0.56609344 0.637996 0.34161717
000070 be c7 35 3f be fa d8 be 43 5b 53 3f 27 34 2e 3f
       0.7100791 -0.423788 0.8256113 0.6804833
000080 8f 3c 4d bf 49 d8 cc be b6 3b 4e 3f d4 02 72 be
       -0.8017053 -0.40008762 0.8055986 -0.23633891
000090 33 9a 24 3f fc d5 b9 3e ee 1a 53 3f 17 38 b5 be
       0.6429779 0.3629607 0.82462966 -0.35394356
0000a0 f7 7f 56 3f 2d 77 00 3f 92 ef 60 bf 4c 76 21 bf
       0.8378901 0.5018185 -0.87865555 -0.6307113
0000b0 d2 66 2d 3f 50 1d 5e bf 17 32 43 3f 5c ab 00 3f
       0.67735016 -0.8676348 0.76248306 0.50261474
0000c0 ac eb 2c 3f 0a 70 18 bf 87 14 05 bf 58 47 9d be
       0.67547107 -0.5954596 -0.5198445 -0.30718493
0000d0 46 2f 41 3f 0c 08 12 3f 3d ae 16 bf 36 b7 24 3f
       0.7546276 0.5704353 -0.58859617 0.6434206
0000e0 ad 79 f5 be b9 49 bd be 7f d1 62 be 88 79 3f 3f
       -0.47944394 -0.36970308 -0.22150229 0.74794817
0000f0 e5 33 43 bf e7 bf 23 bf 50 fb 6f 3f 67 b0 0b 3f
       -0.7625106 -0.63964695 0.9374285 0.54566044
000100 1d 39 1d bf 55 a3 00 3f 9c fb 2f bf b2 bb f5 be
       -0.6141527 0.50249225 -0.687433 -0.47994763
000110 d1 1a 07 bf fd f0 7b 3f 41 ba 2c bf bb c0 e4 be
       -0.52775294 0.98414594 -0.674717 -0.44678292
000120 f0 df c5 3e 38 91 da 3e 54 28 39 bf 1c fc 24 3f
       0.38647413 0.42688918 -0.7232716 0.6444719
000130 6f 41 b2 be 43 59 67 be f2 4c 47 bf d6 13 89 3e
       -0.34815547 -0.22592644 -0.77851784 0.26772946
000140 e9 c1 fa 3e cb c3 12 3f 44 81 14 bf da 12 79 bf
       0.48976067 0.57330006 -0.58009744 -0.9729439
000150 24 d5 23 3f 48 5c 76 bf f0 4a 4c 3f 9c 00 7b 3f
       0.639971 -0.9623456 0.79801846 0.98047805
000160 48 5a 7f 3f fb 37 50 bf 38 df 11 bf 0c f8 24 bf
       0.99747133 -0.8133542 -0.5698123 -0.6444099
000170 eb 4c 27 3f 14 7f 27 3f 4f 06 3d be 3b fa ef 3d
       0.6535174 0.6542828 -0.18459438 0.117176495
000180 1c f9 a2 be 26 fe 9e be 54 e2 e2 be 03 19 0e 3e
       -0.3183068 -0.31053275 -0.443133 0.13876729

elu_stack.4.bias f4 [10]
000000 94 2d 54 3f f7 05 37 3f 3a ed 36 bf 3d 66 fe be
       0.82882047 0.71493477 -0.7145573 -0.49687377
000010 61 34 5f bf cd ac 22 3f 14 02 33 3f f1 b4 39 3f
       -0.871893 0.63544923 0.69925046 0.7254172
000020 af 3e 28 bf 31 a7 bc 3e
       -0.6572065 0.36846307

elu_stack.5.weight f4 [1, 10]
000000 be d1 6c 3f 0f 73 94 3f 30 03 3f bf f8 db 1d bf
       0.9250754 1.1597613 -0.7461424 -0.6166377
000010 ac e7 5e bf f0 4b 1a 3f 41 e6 5f 3f a8 66 17 3f
       -0.87072253 0.6027212 0.87460715 0.59141016
000020 ce 81 8d bf 2c 10 ec 3e
       -1.1055238 0.46106088
