Parameter/wallplaneDDPG/217.pth (torch, 3727 bytes, 7 tensors)

elu_stack.0.weight f4 [10, 4]
0	0x3e21f8c2	0.1581755
1	0x3df6a7d2	0.12043728
2	0x3f2320df	0.6372203
3	0x3e9e9d02	0.30979162
4	0xbe59e137	-0.21277319
5	0xbe80499e	-0.25056165
6	0x3e1cd4de	0.15315577
7	0x3d5f5977	0.05452868
8	0x3f1573da	0.583799
9	0xbeba9448	-0.36441255
10	0x3d117ddd	0.035520423
11	0x3cc539f4	0.024075486
12	0x3ecdd763	0.4020339
13	0xbde0bcc5	-0.10973505
14	0x3f214968	0.63002634
15	0x3e9fa1c1	0.31178096
16	0x3ed4b9d4	0.41548026
17	0x3e3c74e3	0.18403964
18	0x3eb52a50	0.35383844
19	0x3eb71317	0.35756752
20	0x3ef74474	0.48294413
21	0xbe880ce3	-0.26572332
22	0xbd9bd95b	-0.07609817
23	0xbe4c3340	-0.19941425
24	0xbeaf1ae7	-0.34200212
25	0x3d8b8cf5	0.06813995
26	0xbd99f1be	-0.07516812
27	0xbf1d3d08	-0.6142125
28	0x3e1594f0	0.14607596
29	0xbf15abd2	-0.584653
30	0xbd8c9a19	-0.06865329
31	0xbf22dfb9	-0.63622624
32	0x3e5c4dc6	0.21514043
33	0xbabf0bcf	-0.0014575663
34	0x3f24e7a0	0.6441593
35	0x3d13e4bc	0.03610681
36	0x3ef25c07	0.47335836
37	0xbe91836b	-0.28420576
38	0x3e974462	0.2954436
39	0x3d4913dc	0.049091205

elu_stack.0.bias f4 [10]
0	0x3eab61ba	0.33472997
1	0xbe258afb	-0.16166298
2	0x3ebdae0d	0.37046853
3	0x3f06e15a	0.5268761
4	0xbd02a831	-0.03189868
5	0x3ee03889	0.43793133
6	0xbea638a6	-0.32465094
7	0xbeb9f15b	-0.36316952
8	0x3ded78c2	0.11595298
9	0x3f41b39e	0.756647

elu_stack.2.weight f4 [10, 10]
0	0xbe4b695e	-0.19864413
1	0x3ecb0297	0.39650413
2	0xbedb606d	-0.42847005
3	0xbf29ed96	-0.6637815
4	0xbe587b7f	-0.2114086
5	0xbe62ee3c	-0.22161192
6	0x3e54214c	0.20715827
7	0x3ec9f958	0.39448047
8	0xbec91ddc	-0.39280593
9	0xbf03d95e	-0.5150355
10	0xbe28f619	-0.16500129
11	0x3e351fdf	0.17687939
12	0xbea8ad23	-0.32944593
13	0xbf0721ca	-0.52785933
14	0xbeecc9d8	-0.46247745
15	0xbb83f70a	-0.004027252
16	0x3ea327c0	0.31866264
17	0x3dd42f32	0.10360564
18	0xbf1ada61	-0.6048947
19	0xbf1fb986	-0.6239246
20	0x3ec9bbc8	0.39401078
21	0xbdce8fd4	-0.10086027
22	0x3e1abc7e	0.15110967
23	0x3efb989e	0.49139875
24	0x3e11bcf2	0.14232233
25	0x3f072456	0.5278982
26	0xbeb003f5	-0.3437802
27	0xbf2497af	-0.6429395
28	0x3ed10827	0.40826532
29	0x3e7545da	0.23952428
30	0x3f160f66	0.58617246
31	0xbde0b7e1	-0.10972572
32	0x3cd20399	0.025636481
33	0x3f000407	0.50006145
34	0x3f136cc1	0.5758782
35	0x3e68d062	0.22735742
36	0xbefe0d23	-0.49619398
37	0xbf110526	-0.5664848
38	0x3eab667c	0.33476627
39	0x3df786b1	0.12086237
40	0xbe19ec03	-0.15031438
41	0x3d0595f5	0.032613713
42	0xbe0271d0	-0.12738729
43	0xbe459e79	-0.19298734
44	0xbf1092fb	-0.56474274
45	0xbef65ab6	-0.48116082
46	0x3f0775af	0.52913946
47	0x3ee2cf6c	0.44298875
48	0xbec2f2bf	-0.38075826
49	0xbf1e1d96	-0.61763895
50	0x3f38a4d2	0.72126496
51	0xbeb65d52	-0.35618073
52	0x3f0993b4	0.53741
53	0x3efda494	0.49539626
54	0x3f0b4902	0.54408276
55	0x3e0ebca2	0.13939145
56	0xbd9a4114	-0.07531944
57	0xbe4a1d19	-0.19737662
58	0x3e5fa4bb	0.21840183
59	0x3f0cb4a0	0.5496311
60	0xbf0b2ff6	-0.5437006
61	0x3e99f669	0.3007081
62	0xbebd9afc	-0.37032306
63	0xbf2c12e7	-0.6721634
64	0xbe9bf9aa	-0.30463916
65	0xbe47c99f	-0.19510506
66	0x3e918d07	0.28427908
67	0x3ee01e0b	0.4377292
68	0xbd22cfa2	-0.039748795
69	0xbf06c4da	-0.5264412
70	0xbee7a477	-0.45242664
71	0x3ee925a7	0.4553654
72	0xbe813956	-0.25239056
73	0xbe9c5d3f	-0.3053989
74	0xbcbbff58	-0.022948906
75	0xbeb25e04	-0.34837353
76	0x3f14729b	0.57987374
77	0x3e98cab7	0.2984216
78	0xbe7d6151	-0.24744155
79	0xbef072ca	-0.46962577
80	0xbebac486	-0.3647806
81	0x3eaceaa3	0.33772764
82	0xbecd5ef3	-0.40111503
83	0xbf1c4f04	-0.6105807
84	0xbefca577	-0.4934499
85	0x3cef5e88	0.02921988
86	0x3ec996ec	0.39372957
87	0x3f2878dc	0.65809417
88	0xbe9c58fe	-0.30536646
89	0xbed4b293	-0.4154249
90	0x3eec4605	0.4614717
91	0xbd2de2b8	-0.042452544
92	0x3e9bfaf4	0.304649
93	0x3f244b26	0.6417717
94	0x3ebed9d4	0.37275565
95	0x3ef14dd6	0.47129697
96	0xbef7b581	-0.48380664
97	0xbef22aa5	-0.4729816
98	0x3dc18287	0.09448724
99	0x3f1887cf	0.5958223

elu_stack.2.bias f4 [10]
0	0xbf0105de	-0.5039958
1	0xbf26d800	-0.6517334
2	0x3f34f89b	0.7069184
3	0x3f064eaa	0.5246378
4	0xbf1891a7	-0.5959725
5	0x3eab81ed	0.33497563
6	0xbed27b3b	-0.41109642
7	0xbf1aa592	-0.6040889
8	0xbe75634b	-0.23963659
9	0x3e49bd69	0.1970116

elu_stack.4.weight f4 [10, 10]
0	0xbfc6f889	-1.5544597
1	0xbf958808	-1.1682138
2	0x3fcb7993	1.5896477
3	0x3f9dc95e	1.2327077
4	0xbf9f1cee	-1.2430704
5	0x3f97eb1f	1.1868628
6	0xbf9e5e17	-1.2372464
7	0xbfa8fa83	-1.320145
8	0xbf9138f3	-1.1345505
9	0x3fc81363	1.5630916
10	0xbfabfc7e	-1.343643
11	0xbfae8b46	-1.3636253
12	0x3fb7ff6e	1.4374826
13	0x3fc23f3f	1.5175551
14	0xbfcab785	-1.5837256
15	0x3fceb499	1.6148864
16	0xbfc1f2c0	-1.5152206
17	0xbfb1685c	-1.3859973
18	0xbfd62c08	-1.6732187
19	0x3fcc29ac	1.5950217
20	0x3f701b3a	0.93791544
21	0x3f9bc4d4	1.2169442
22	0xbfbe78ed	-1.4880654
23	0xbfa3a7c6	-1.2785575
24	0x3fa0c11c	1.2558932
25	0xbf98b788	-1.1931009
26	0x3fa1dc11	1.2645284
27	0x3f785d52	0.97017395
28	0x3fab055f	1.3361014
29	0xbf86a1ea	-1.0518162
30	0x3fb92039	1.4462959
31	0x3fa6ae76	1.3021991
32	0xbfb617d4	-1.4226022
33	0xbf830b02	-1.0237734
34	0x3fb69593	1.4264396
35	0xbf5c72d6	-0.86112726
36	0x3fa1ea0b	1.2649549
37	0x3f7ca219	0.9868484
38	0x3fb900a3	1.4453319
39	0xbf7a5a33	-0.97793883
40	0x3fbbaf6a	1.4662907
41	0x3f90f88d	1.1325852
42	0xbfc0df5a	-1.5068161
43	0xbfa15afd	-1.2605892
44	0x3fa7480e	1.3068864
45	0xbfbf770d	-1.4958206
46	0x3fb21a45	1.3914267
47	0x3f911109	1.1333324
48	0x3fa70abd	1.3050152
49	0xbf9cdf83	-1.225571
50	0xbf923161	-1.1421319
51	0xbf6e5467	-0.9309754
52	0x3fb00a97	1.3753232
53	0x3f98a0b1	1.1924039
54	0xbf9aef10	-1.2104206
55	0x3fa1e641	1.2648393
56	0xbf8d0f5f	-1.1020316
57	0xbf7e362d	-0.99301416
58	0xbf588bd9	-0.8458839
59	0x3faf306e	1.3686655
60	0xbfb21da1	-1.3915292
61	0xbfa28067	-1.2695435
62	0x3fc85ac9	1.5652705
63	0x3f968e8a	1.176225
64	0xbf9f42bc	-1.2442241
65	0x3f91108d	1.1333176
66	0xbfa8933f	-1.3169936
67	0xbf8e3282	-1.1109164
68	0xbf944719	-1.1584197
69	0x3fce4a2f	1.6116389
70	0xbfa5d2c4	-1.2954946
71	0xbf88da86	-1.0691688
72	0x3f8130ec	1.0093055
73	0x3f8653a1	1.0494272
74	0xbfabff3d	-1.3437268
75	0x3fa1fa5b	1.2654527
76	0xbf78a274	-0.97122884
77	0xbf598d22	-0.84980977
78	0xbfb304c1	-1.3985826
79	0x3f6430a4	0.8913672
80	0x3f9013a7	1.1255997
81	0x3f9ab2b6	1.2085788
82	0xbf9b90b2	-1.2153533
83	0xbfcd7f4d	-1.6054474
84	0x3fa32c00	1.2747803
85	0xbfcc2503	-1.5948795
86	0x3fb742d1	1.4317266
87	0x3fce728c	1.6128707
88	0x3fd09ca0	1.6297798
89	0xbfb935e3	-1.446957
90	0xbf97cf8f	-1.1860217
91	0xbfa14b7a	-1.2601159
92	0x3fa274a9	1.2691852
93	0x3fa28d34	1.2699342
94	0xbf4db2aa	-0.80350745
95	0x3f3c8da0	0.736536
96	0xbf6fb097	-0.9362883
97	0xbf6db414	-0.928529
98	0xbf87b5e3	-1.0602382
99	0x3f420c8b	0.7580039

elu_stack.4.bias f4 [10]
0	0x3fbab6d9	1.4587051
1	0x3facd8c6	1.3503654
2	0xbfab9bba	-1.3406899
3	0xbf8f5c7d	-1.12001
4	0xbfc006b3	-1.5002044
5	0x3fa0e830	1.2570858
6	0x3faa180b	1.3288587
7	0x3fac4994	1.3459954
8	0xbfa56153	-1.2920326
9	0x3f7c796b	0.9862277

elu_stack.5.weight f4 [1, 10]
0	0x3fcc020e	1.5938127
1	0x3fe9e4fc	1.8273005
2	0xbfb52f90	-1.415514
3	0xbfa4b849	-1.2868739
4	0xbfc519e8	-1.5398531
5	0x3fa2e7da	1.2727005
6	0x3fc5930d	1.5435501
7	0x3fa17462	1.2613642
8	0xbfe2f94d	-1.773233
9	0x3f90cbc4	1.1312184
