Parameter/wallplaneDDPG/218.pth (torch, 3727 bytes, 7 tensors)

elu_stack.0.weight f4 [10, 4]
000000 d4 dc 21 3e 43 7e f6 3d 31 c8 23 3f 6b b9 9f 3e
       0.15806895 0.12035801 0.6397734 0.3119615
000010 6b bd 59 be a7 30 80 be c0 c5 17 3e 7a e4 4f 3d
       -0.21263663 -0.2503712 0.1482153 0.050755
000020 b0 53 15 3f bb 5a ba be ee ef 25 3d 6c 06 e5 3c
       0.5833082 -0.36397347 0.040512018 0.027957164
000030 04 a7 cd 3e 79 75 e0 bd d8 e0 21 3f 80 a4 a0 3e
       0.40166485 -0.10959906 0.6323371 0.31375504
000040 e8 86 d4 3e 2f 4a 3c 3e fa ea b7 3e 34 2b b9 3e
       0.41509175 0.18387674 0.3592146 0.36165774
000050 3c 15 f7 3e 1b dd 87 be 00 2a 92 bd fc 4a 48 be
       0.48258388 -0.26535878 -0.07136917 -0.19559854
000060 18 f6 ae be 96 4f 8b 3d 7b 61 a2 bd e0 e9 1d bf
       -0.3417213 0.06802289 -0.07928749 -0.6168499
000070 50 61 15 3e 2b 88 15 bf cc 9b 95 bd da 98 23 bf
       0.14587903 -0.584109 -0.073051065 -0.6390511
000080 78 31 5c 3e ce 8b b3 ba f5 bd 25 3f 9b 39 20 3d
       0.21503246 -0.0013698281 0.64742976 0.039117437
000090 f1 26 f2 3e f3 56 91 be a8 0a 99 3e 92 da 54 3d
       0.47295335 -0.2838665 0.29890943 0.051966257

elu_stack.0.bias f4 [10]
000000 df 47 ad 3e 27 97 2b be a1 c0 c0 3e 1e b3 07 3f
       0.33843896 -0.16756879 0.37646964 0.53007686
000010 42 95 c9 bc 3d 04 e3 3e 52 c6 a8 be ff a6 bc be
       -0.024607304 0.4433917 -0.32963806 -0.36846158
000020 dd 66 f7 3d 90 ba 42 3f
       0.120801665 0.7606592

elu_stack.2.weight f4 [10, 10]
000000 93 54 4d be 4b c6 ca 3e b7 ac db be e8 55 2a bf
       -0.20051794 0.3960441 -0.42905208 -0.6653733
000010 e7 6e 59 be c0 54 63 be 7c aa 55 3e 52 af ca 3e
       -0.21233712 -0.22200298 0.20865816 0.39586884
000020 5a af c9 be ef 3e 04 bf d3 57 2a be 3a d5 34 3e
       -0.39391595 -0.5165853 -0.16635065 0.17659464
000030 a9 de a8 be 93 6b 07 bf 0a f7 ec be d4 13 91 bb
       -0.32982376 -0.5289852 -0.46282226 -0.0044274125
000040 22 a0 a3 3e 94 9f d6 3d 8f f9 1a bf 80 f3 1f bf
       0.3195811 0.10479656 -0.60537046 -0.62480927
000050 31 4c ca 3e 49 31 ce bd 83 4f 1b 3e f6 2d fc 3e
       0.39511254 -0.10067994 0.1516705 0.49253815
000060 b1 6b 12 3e 2c 1d 07 3f 98 77 b0 be 93 c1 24 bf
       0.14298894 0.5277889 -0.34466243 -0.6435787
000070 89 5f d1 3e 9d 8d 76 3e 0d 4b 16 3f df 4d e0 bd
       0.408932 0.24077459 0.5870827 -0.10952353
000080 e3 95 d7 3c 3a 4e 00 3f ad 7b 13 3f 37 00 69 3e
       0.026316589 0.50119364 0.5761059 0.22753988
000090 8e 6c fe be f1 33 11 bf 1e c7 ab 3e a0 54 fa 3d
       -0.49692196 -0.5671988 0.33550352 0.12223172
0000a0 0e 97 1b be b3 26 05 3d 4a 31 03 be f1 67 47 be
       -0.15194342 0.03250761 -0.12811771 -0.19473244
0000b0 96 ad 10 bf e2 5e f6 be de b2 07 3f a2 5d e3 3e
       -0.5651487 -0.48119265 0.53007305 0.44407374
0000c0 44 69 c3 be 4b 69 1e bf a4 02 39 3f 84 27 b6 be
       -0.3816625 -0.61879414 0.72269654 -0.35577023
0000d0 a4 b5 09 3f 8e 96 fe 3e 42 73 0b 3f 20 41 0f 3e
       0.53792787 0.4972424 0.54472744 0.13989687
0000e0 2c bc 9d bd 22 cf 4b be 7e 05 61 3e 28 1d 0d 3f
       -0.077019066 -0.19903234 0.21974751 0.55122614
0000f0 16 7d 0b bf 54 c4 99 3e 7a d6 bd be ba 61 2c bf
       -0.5448774 0.300326 -0.37077695 -0.6733662
000100 2b 4c 9c be 91 16 48 be d3 20 92 3e 20 a6 e0 3e
       -0.30526862 -0.19539858 0.28540668 0.43876743
000110 8f b9 27 bd a6 12 07 bf f0 7d e8 be a6 e0 e8 3e
       -0.040948447 -0.5276283 -0.45408583 0.45483893
000120 b7 9e 81 be 84 62 9d be 49 4d c5 bc 97 81 b2 be
       -0.25316402 -0.30739224 -0.024084704 -0.34864494
000130 83 be 14 3f 8c 91 99 3e 53 b1 7e be fd 48 f1 be
       0.581032 0.29993856 -0.24872331 -0.47125998
000140 fa 95 bb be 9a b6 ac 3e dc a7 cd be fe b2 1c bf
       -0.3663786 0.33733064 -0.4016713 -0.6121062
000150 4d f2 fc be 12 5e ea 3c 31 37 ca 3e 5d bc 28 3f
       -0.4940361 0.02860931 0.39495233 0.6591242
000160 9c eb 9c be 6e 7c d5 be 8d ed ec 3e 86 6d 2d bd
       -0.30648506 -0.41696495 0.46274987 -0.042340778
000170 1b 41 9c 3e 45 9d 24 3f 86 25 bf 3e 07 52 f1 3e
       0.30518422 0.64302474 0.37333316 0.47132894
000180 86 31 f8 be 79 b0 f2 be ef e3 c3 3d 55 d2 18 3f
       -0.48475283 -0.47400263 0.09564959 0.5969594

elu_stack.2.bias f4 [10]
000000 43 96 01 bf 2b 30 27 bf 01 4b 35 3f 4a ad 06 3f
       -0.50619906 -0.65307873 0.7081757 0.5260817
000010 4d 03 19 bf 1f c6 ac 3e 03 6d d3 be e3 32 1b bf
       -0.5977066 0.33744904 -0.41294107 -0.6062452
000020 6f c4 77 be a9 de 4b 3e
       -0.24196027 0.19909157

elu_stack.4.weight f4 [10, 10]
000000 aa d4 c6 bf 8c 71 95 bf c4 55 cb 3f 07 b1 9d 3f
       -1.553365 -1.1675277 1.5885549 1.231965
000010 bc 03 9f bf 0d d3 97 3f 29 45 9e bf c6 dd a8 bf
       -1.2423015 1.1861283 -1.2364856 -1.319268
000020 19 23 91 bf d2 ef c7 3f ba e1 ab bf bc 70 ae bf
       -1.1338836 1.5620062 -1.3428261 -1.3628154
000030 fd e2 b7 3f ef 1f c2 3f 78 95 ca bf af 90 ce 3f
       1.4366146 1.5165995 -1.5826864 1.6137904
000040 01 d3 c1 bf 99 4b b1 bf c8 06 d6 bf 51 07 cc 3f
       -1.5142518 -1.3851196 -1.672082 1.5939733
000050 7a f8 6f 3f 00 ab 9b 3f 9e 56 be bf 1f 8c a3 bf
       0.9373852 1.216156 -1.4870183 -1.2777137
000060 c5 a5 a0 3f 9c 9d 98 bf 7d c0 a1 3f 88 37 78 3f
       1.2550589 -1.1923099 1.2636868 0.96959734
000070 37 e7 aa 3f 4d 8d 86 bf f7 fc b8 3f 8e 90 a6 3f
       1.3351811 -1.0511872 1.4452199 1.3012865
000080 5f f6 b5 bf 6d f6 82 bf 62 73 b6 3f 54 52 5c bf
       -1.4215811 -1.0231453 1.4253962 -0.8606312
000090 35 cd a1 3f df 78 7c 3f a7 dd b8 3f 56 33 7a bf
       1.2640749 0.98621935 1.4442643 -0.9773458
0000a0 e8 8d bb 3f b8 e2 90 3f b2 bd c0 bf 2c 41 a1 bf
       1.4652681 1.1319189 -1.505789 -1.2598014
0000b0 40 2c a7 3f 57 54 bf bf bf fb b1 3f ed f9 90 3f
       1.3060379 -1.4947613 1.3904952 1.1326271
0000c0 cd ee a6 3f 71 c6 9c bf f8 17 92 bf a1 30 6e bf
       1.3041626 -1.224806 -1.1413565 -0.9304295
0000d0 88 ea af 3f 70 86 98 3f cb d3 9a bf 9f c8 a1 3f
       1.3743448 1.1916027 -1.2095884 1.263935
0000e0 bc f7 8c bf 4b 0c 7e bf d7 6c 58 bf 07 10 af 3f
       -1.1013103 -0.9923751 -0.84541076 1.3676766
0000f0 9c fe b1 bf 1e 66 a2 bf 43 37 c8 3f 8b 77 96 3f
       -1.3905826 -1.2687414 1.5641865 1.1755232
000100 05 29 9f bf c0 f9 90 3f 33 77 a8 bf 2c 1c 8e bf
       -1.2434393 1.1326218 -1.3161377 -1.1102347
000110 f4 2f 94 bf 84 24 ce 3f 34 b4 a5 bf 02 c4 88 bf
       -1.1577134 1.6104894 -1.2945619 -1.0684817
000120 bf 1c 81 3f f3 3d 86 3f 80 df ab bf 9f dc a1 3f
       1.0086898 1.0487655 -1.3427582 1.2645453
000130 83 7b 78 bf 6d 6c 59 bf 09 e3 b2 bf f3 0e 64 3f
       -0.97063464 -0.8493107 -1.3975536 0.8908531
000140 83 ff 8f 3f b6 9c 9a 3f fb 7a 9b bf 8a 5c cd bf
       1.1249851 1.2079074 -1.2146906 -1.6043866
000150 8b 13 a3 3f 46 01 cc bf 49 25 b7 3f da 4d ce 3f
       1.2740339 -1.5937889 1.4308254 1.6117508
000160 48 78 d0 3f de 17 b9 bf 58 b3 97 bf 65 2d a1 bf
       1.6286707 -1.4460409 -1.1851606 -1.2591978
000170 a2 56 a2 3f f9 6e a2 3f 0f 94 4d bf 61 72 3c 3f
       1.2682688 1.2690116 -0.80304044 0.7361203
000180 60 89 6f bf d2 8b 6d bf fb 9d 87 bf 09 f1 41 3f
       -0.9356899 -0.92791474 -1.0595087 0.75758415

elu_stack.4.bias f4 [10]
000000 e2 99 ba 3f 16 c2 ac 3f 82 80 ab bf f7 46 8f bf
       1.4578211 1.349673 -1.3398592 -1.1193532
000010 ae e7 bf bf 04 ce a0 3f b0 fe a9 3f 57 2c ac 3f
       -1.4992578 1.2562871 1.328085 1.3451031
000020 e5 4b a5 bf 75 53 7c 3f
       -1.2913786 0.98564845

elu_stack.5.weight f4 [1, 10]
000000 ed 61 cc 3f 94 4f ea 3f bf 80 b5 bf 5d 0c a5 bf
       1.5967385 1.8305535 -1.4179915 -1.2894398
000010 12 7c c5 bf b5 34 a3 3f 05 ef c5 3f d9 be a1 3f
       -1.5428488 1.275046 1.5463568 1.2636367
000020 9d 5c e3 bf fa 10 91 3f
       -1.7762638 1.1333306
