Parameter/wallplaneDDPG/24.pth (torch, 3727 bytes, 7 tensors)

elu_stack.0.weight f4 [10, 4]
00000000: 04a0 f83d 6315 c53d 8dca e33e a27d 4f3e
00000010: 2184 23be b921 5fbe 2f33 be3e 90aa 3c3e
00000020: 7002 013f 0edd e3be cb55 79be fb27 0abe
00000030: 2e6a c43e 6422 06be aa70 df3e af3e 553e
00000040: 7505 c83e cfd4 2a3e 8f15 9b3b ed40 2c3e
00000050: f7ff b53e 3129 c2be cfbe a2be 89fe aebe
00000060: 31ba 91be 9ee0 f53d 6088 523e f492 f0be
00000070: 3b1f 713e 86a8 07bf 8b48 9c3e 1cc8 e0be
00000080: d702 f63d 32d9 95bd d14c ed3e 875e a1bd
00000090: 5cb9 c53e 8eb4 bfbe 7846 e43c f15a c9bd
0.121398956 0.0962322 0.4449047 0.20262769 -0.15968372 -0.21790208 0.37148425 0.1842444
0.50394344 -0.4450459 -0.24349134 -0.13491814 0.3836226 -0.13099056 0.43640643 0.20824693
0.39066663 0.16682743 0.0047327946 0.16821642 0.35546848 -0.37922052 -0.317862 -0.3417857
-0.28462365 0.12005733 0.20559835 -0.46987116 0.2354707 -0.5299152 0.30524096 -0.4390267
0.120122604 -0.07316817 0.4634767 -0.07879358 0.3861798 -0.3744244 0.027865633 -0.09831799

elu_stack.0.bias f4 [10]
00000000: f167 d83d 0809 bd3d 5339 483d 164f 9a3e
00000010: 283e e2be d886 243e 9952 6fbb 6c78 723d
00000020: 6b7e dcbd 85a4 e73e
0.105667 0.09230238 0.048882794 0.30138463 -0.44188046 0.16067064 -0.0036517738 0.059196874
-0.107663 0.45242706

elu_stack.2.weight f4 [10, 10]
00000000: b7f2 3f3e 7537 273e 372e 16be 12c5 88be
00000010: 5635 a23d 4ba0 2d3d 22fc 00be 4cdf 8e3d
00000020: b62c 70bd a4e0 10be 8d77 353e ac79 a4bd
00000030: 5a28 3bbd dc27 39be 89d3 33be 0903 8b3e
00000040: 41d5 d13b d466 55be 843a 98be 1f93 95be
00000050: 6b69 a63d cf9c b63d 5af5 9dbd e2bb 283e
00000060: d027 bbbd 46c1 a43e 3fa8 a0bd 3e13 c6be
00000070: 4c7a 0e3e 7677 88bd 99bf 893e 6e77 b23d
00000080: d385 5cbe f10b 2b3e 4935 af3e 2ee2 8e3b
00000090: b15c 66be 5ed0 9abe f5d6 5f3d a38d 48be
000000a0: 7d58 4f3e d5e6 2abe 1c5c f33d 281a 353e
000000b0: d171 a3be de9b 84be 4c47 753e 37ce 213e
000000c0: bc58 a7bd 94f9 8fbe 0c72 c93e b123 4ebe
000000d0: 4caa a73e 9c6b 143e 8af2 a93e 155c 63bd
000000e0: 0190 473e bdc2 833d 6d46 79bd bef0 6b3e
000000f0: d3b4 65be f636 e33d 96bf 0dbe 62c5 adbe
00000100: ecde 8dbd 5392 bb3c 3126 313c 316e 2f3e
00000110: b494 793e e0f7 5bbe 4cfb efbd 3b42 803e
00000120: bb0b d7ba 531b 3e3d 8537 723e 7709 efbd
00000130: d92f 953e f229 343c 4800 433d cc6d 11be
00000140: 6cb6 58bc d205 393e afa3 37be 21cc 75be
00000150: 1d73 8cbe 90ce 703e 957e ed3d 1ca5 c83e
00000160: e095 54bc f580 99bd 354e 1e3e 16cf d93d
00000170: f1bb e23d 7437 a33e 62a5 333e 4f91 983e
00000180: 539a 77be 81de 71be ef0a 29be 8bf7 9a3e
0.18744932 0.16329749 -0.14666067 -0.26712853 0.07920329 0.042389195 -0.12596181 0.06976184
-0.05863639 -0.14148194 0.17721386 -0.080310196 -0.04569278 -0.18081611 -0.17561163 0.27150753
0.0064035957 -0.20840007 -0.29732144 -0.29213807 0.08125576 0.089166276 -0.07712813 0.16477922
-0.09138453 0.32178706 -0.078445904 -0.38686556 0.1391384 -0.0666341 0.2690399 0.08714186
-0.21535425 0.16703774 0.3422034 0.004360459 -0.22496296 -0.30237097 0.05464836 -0.1958528
0.202486 -0.16689618 0.11882803 0.17685759 -0.31922773 -0.25900167 0.23952979 0.15801321
-0.081712216 -0.281201 0.39344823 -0.20130803 0.32747114 0.14494175 0.33192855 -0.05550774
0.19488527 0.06433628 -0.06085818 0.23041055 -0.2243226 0.11094467 -0.13842615 -0.33939654
-0.069272846 0.022896921 0.010812328 0.17131878 0.24373132 -0.21481276 -0.11717853 0.2505053
-0.0016406694 0.046412777 0.23653992 -0.11671727 0.29138067 0.010996329 0.04760769 -0.1420204
-0.0132270865 0.18068627 -0.17933534 -0.2400365 -0.27431574 0.23516297 0.11596409 0.39188468
-0.012975186 -0.074953 0.15459521 0.10635202 0.11071003 0.31878245 0.17543557 0.29798362
-0.24179964 -0.23620035 -0.16508077 0.30266985

elu_stack.2.bias f4 [10]
00000000: 66a6 8bbd 6f1b 92be 392b b33e 96d6 223e
00000010: 0aad 43be 4acd 82bd 5b8b 25bd 75cf 64be
00000020: faef 3e3e b8a7 33be
-0.06818847 -0.28536555 0.34993914 0.1590217 -0.19108978 -0.06386812 -0.040416103 -0.22344764
0.18646231 -0.17544448

elu_stack.4.weight f4 [10, 10]
00000000: 6f5a aabe 656e 733d a7c2 ba3e a561 503b
00000010: 9d9c 67bc e218 31bd 9459 ffbb 9410 bdbd
00000020: 9312 c53d a7ff ac3e 8dee e2bd ea22 06be
00000030: 96bb 523e 37e8 923e dd3c b5be 1e6a c53e
00000040: e2b3 91be d264 1dbe 2da9 e3be 3418 bb3e
00000050: a32f 89be 5868 983c ab67 8dbe 4033 86bd
00000060: 4fcc 3d3d 4f09 b53c 58ac 513d f0fc 77be
00000070: 47e9 fd3d f752 2a3e 33e8 9a3e ca60 263e
00000080: bb5c 8abe 8f2e 073e 5e98 8e3e 8a44 983e
00000090: dde1 e53d 1955 29be 1854 973e e445 383e
000000a0: 29ea 7d3e 65e9 b8bd 3c99 90be 4309 08bd
000000b0: 6024 a63d a3f9 8abe e3bf 293e 809e c1bd
000000c0: a94c a03d ebce 253b b713 95bb 73ae 503e
000000d0: 0443 6f3e 21f1 4c3d 8e7a 90bd 6cd5 fb3d
000000e0: 8d53 2a3d 6cd1 173e 35d3 993e 87cd 683e
000000f0: a6fe 2fbe b99e 44bd e3d9 ae3e 83af 56bd
00000100: fdc4 8ebc 0685 c4bd 3abd b8bd 5893 f03d
00000110: d92c 903d 8be3 c63e 5e12 29be a295 713d
00000120: 50f1 07be 03f3 b8bd 7961 57be 9d1b 033e
00000130: d7ac 2d3e 20c5 933e 292d 87be 8bf0 80be
00000140: 6acd debd 6143 cdbc f83e 953c 2005 c1be
00000150: 5418 2c3d 8a8f bbbe 0ad7 4d3e bee6 c43e
00000160: 72a7 cd3e f5a2 5dbe 0e41 31be a545 7fbe
00000170: 2d53 823e 7b26 833e 929a 5c3e 5779 91be
00000180: 99a9 a73d 847a b43d f349 35bd b293 86be
-0.3327212 0.059431452 0.36476633 0.0031796482 -0.014136461 -0.04323662 -0.007792661 -0.09231678
0.096226834 0.33788797 -0.11080656 -0.13099256 0.20579371 0.2869279 -0.35397997 0.38557523
-0.28457552 -0.15370491 -0.44465008 0.36541903 -0.26794156 0.018604442 -0.27618155 -0.06552744
0.046337422 0.022099165 0.05118975 -0.24217582 0.1239801 0.16633211 0.3025528 0.1624786
-0.27023873 0.13201354 0.27850622 0.2973979 0.112247206 -0.16536368 0.29556346 0.17995411
0.24796356 -0.090288915 -0.2824191 -0.033211958 0.08112407 -0.27143583 0.16577105 -0.094540596
0.07827122 0.0025300335 -0.0045494693 0.20379047 0.23365408 0.050034646 -0.070546255 0.12296566
0.041583586 0.14825982 0.3004395 0.22734652 -0.17186984 -0.048002932 0.3415061 -0.052413475
-0.017427916 -0.09595685 -0.09020467 0.117468536 0.07039804 0.38845477 -0.16510913 0.05898059
-0.13275647 -0.09030726 -0.21033277 0.12803502 0.16960464 0.28861332 -0.26401642 -0.2518352
-0.108790234 -0.025056543 0.018218502 -0.37699223 0.04201539 -0.3663295 0.20101562 0.38457292
0.40166813 -0.21644194 -0.17309973 -0.24928911 0.25454083 0.25615296 0.21543339 -0.28412887
0.08186645 0.088124305 -0.044259977 -0.26284558

elu_stack.4.bias f4 [10]
00000000: 4692 6d3e b67f f03d d106 f9bd b0b0 2c3d
00000010: 6ef8 8cbe 2349 de3d a12e d03d 6a41 4f3e
00000020: ef1e 73bd 7d91 0ebd
0.2320033 0.11743109 -0.12159503 0.04216069 -0.27533287 0.108537935 0.10165144 0.20239797
-0.059355672 -0.034806717

elu_stack.5.weight f4 [1, 10]
00000000: 545d a83e 8e9f 103f 083f 1bbe dbe5 97bc
00000010: 3c5e 8cbe a9d6 a53b 855e 8e3e a08c 273d
00000020: a1a7 02bf c73d dd3c
0.32883704 0.5649346 -0.15160763 -0.01854222 -0.27415645 0.00506099 0.27806488 0.040905595
-0.5103703 0.027006997
