Parameter/cartSAC/1.pth (torch, 7255 bytes, 6 tensors)

linear_relu_stack.0.weight f4 [32, 4]
0.47516775 -0.27303034 -0.36805362 -0.18168879 0.3449899 0.08220838 -0.051944017 -0.003689462
0.46991873 -0.27840024 0.3418486 -0.061273456 -0.297539 -0.47965258 -0.18418133 0.037946254
-0.42035252 -0.49620873 -0.08574146 0.4691974 -0.46354967 -0.35836506 -0.23571247 -0.26677966
-0.047315717 0.150195 -0.19011694 0.459449 0.4670514 0.2531861 0.10645801 -0.24039596
0.118885815 0.45335656 0.3494234 0.15359545 -0.0015193853 0.16304505 -0.12254095 -0.47846866
0.25859606 -0.35596192 -0.021950893 0.38422942 0.11557646 -0.4480695 0.286884 -0.25615692
-0.085272014 0.08550541 0.15477204 -0.48498487 0.41782928 -0.19064295 0.15131742 0.055820443
0.45449764 -0.0028741593 -0.27024174 -0.06359944 -0.31657338 0.012111243 -0.0436126 -0.38859975
-0.027895574 0.467412 -0.077201605 -0.18146142 -0.005107632 -0.04145865 -0.40070117 0.12078665
0.28878754 0.23383325 -0.009649539 -0.15659654 0.09986365 -0.27598876 -0.106954634 -0.1797424
-0.46988493 0.24159285 -0.09647131 -0.3489557 -0.25331497 -0.24729651 -0.058015466 0.45572555
0.07573481 0.23604453 0.48564738 -0.07524717 0.4244719 -0.1541459 0.14703333 -0.11272311
-0.30067325 -0.41936225 0.24871635 0.31277776 -0.277714 0.47030282 -0.11604476 0.08003223
0.29576737 0.3672408 -0.24421698 0.39835924 -0.32665002 0.333049 0.33775532 -0.48139596
-0.06661397 0.3919865 -0.32457268 -0.44663596 0.057194054 0.21045712 -0.12943345 -0.20211327
0.49853283 0.04075578 0.02926407 0.23430985 0.09009117 0.38054883 0.24924535 -0.34084392
00000000: 3049 f33e a2ca 8bbe 8671 bcbe a00c 3abe
00000010: 84a2 b03e de5c a83d 40c3 54bd e7ca 71bb
00000020: 3099 f03e 7a8a 8ebe c806 af3e e0f9 7abd
00000030: 0857 98be 0695 f5be 089a 3cbe 886d 1b3d
00000040: 7238 d7be 120f febe 3899 afbd a43a f03e
00000050: 6256 edbe a07b b7be 9c5e 71be 5897 88be
00000060: 20ce 41bd b8cc 193e 04ae 42be e63c eb3e
00000070: 5c21 ef3e 9ca1 813e a806 da3d 5c2a 76be
00000080: 687a f33d 5a1e e83e a0e7 b23e 2048 1d3e
00000090: 1c26 c7ba 48f5 263e c0f6 fabd d8f9 f4be
000000a0: b466 843e a440 b6be 5cd2 b3bc b8b9 c43e
000000b0: 5ab3 ec3d 5e69 e5be 76e2 923e 0027 83be
000000c0: 18a3 aebd 761d af3d 907c 1e3e f04f f8be
000000d0: b8ed d53e e837 43be f4f2 1a3e faa3 643d
000000e0: eab3 e83e 645c 3cbb 205d 8abe 6c40 82bd
000000f0: e815 a2be 3c6e 463c 20a3 32bd 8cf6 c6be
00000100: 4285 e4bc a050 ef3e e01b 9ebd 06d1 39be
00000110: ec5d a7bb 8cd0 29bd b428 cdbe fe5e f73d
00000120: f6db 933e fc71 6f3e 1a19 1ebc d85a 20be
00000130: 5085 cc3d 664e 8dbe 080b dbbd 640e 38be
00000140: c294 f0be 1e64 773e c092 c5bd 52aa b2be
00000150: 80b2 81be 4c3b 7dbe a0a1 6dbd dc54 e93e
00000160: da1a 9b3d a8b5 713e c6a6 f83e 301b 9abd
00000170: 6254 d93e 6cd8 1dbe e88f 163e 60db e6bd
00000180: d8f1 99be a6b6 d6be 80af 7e3e 6824 a03e
00000190: 8830 8ebe 88cb f03e e0a8 edbd f0e7 a33d
000001a0: d26e 973e fc06 bc3e 0414 7abe bef5 cb3e
000001b0: ac3e a7be 6685 aa3e 44ee ac3e 8879 f6be
000001c0: e86c 88bd 74b2 c83e 642e a6be 78ad e4be
000001d0: 5044 6a3d 1282 573e 348a 04be c8f6 4ebe
000001e0: b23f ff3e 88ef 263d 34bb ef3c ecee 6f3e
000001f0: b881 b83d 4cd7 c23e 2c3a 7f3e 1883 aebe

linear_relu_stack.0.bias f4 [32]
0.3039899 0.34708428 -0.1732943 0.44864982 0.28430516 0.3588615 -0.46008956 -0.32544667
0.26267195 -0.22657824 -0.07178368 0.096511245 -0.07190664 0.4549747 -0.13921171 0.12783757
0.24317846 -0.42454952 -0.40822917 5.4873162e-06 0.2870785 -0.28287208 0.127473 -0.2504329
0.21063702 -0.37896138 -0.31943643 -0.45651197 -0.42679 -0.41742837 -0.37212133 -0.08471374
00000000: 90a4 9b3e 08b5 b13e 1074 31be 6eb5 e53e
00000010: 7290 913e b2bc b73e dc90 ebbe f2a0 a6be
00000020: f07c 863e 2004 68be 5203 93bd b0a7 c53d
00000030: ca43 93bd 72f2 e83e 848d 0ebe dae7 023e
00000040: c603 793e 8e5e d9be 6a03 d1be b01f b836
00000050: f4fb 923e 9cd4 90be 4888 023e be38 80be
00000060: 3bb1 573e 3a07 c2be 2c8d a3be f0bb e9be
00000070: 3884 dabe 2cb9 d5be b086 bebe 667e adbd

linear_relu_stack.2.weight f4 [32, 32]
-0.011750398 0.14698482 -0.08237279 -0.07487341 -0.002907102 -0.0415575 -0.028060677 -0.1718256
0.112783924 0.0065756147 0.07686456 -0.0849047 -0.1543178 0.13934112 -0.10997431 0.082604
0.051261276 -0.09888982 0.004230792 0.008793272 0.11288513 0.027785648 0.02907311 -0.07357577
0.17322671 -0.03464715 0.046509292 0.09820772 -0.075500436 0.09798386 0.1681357 0.06386203
-0.016369963 0.07228201 0.009931243 0.023785759 -0.11534201 0.15080537 0.16721705 -0.115916096
0.008493066 -0.17307405 -0.011256048 0.088042796 -0.120542966 0.10023042 0.03457974 -0.030157782
0.080003515 -0.14905323 -0.057371963 0.10353495 0.04731222 -0.10354842 0.032577716 0.08761048
0.15399784 -0.06945588 -0.11169542 0.011742209 -0.17220023 0.08046813 -0.005817313 -0.018748121
0.05323403 0.071263194 -0.07267982 0.009345714 -0.10919203 -0.06270884 0.09864202 0.09890477
-0.16123241 -0.04003662 -0.08546068 0.0058626942 -0.07224565 -0.15113512 -0.1381297 -0.15346661
0.121853 0.050171565 -0.10026619 0.035227515 -0.058150623 -0.1375023 0.14621985 0.10973737
0.10900542 0.15268485 -0.0599407 0.10594156 0.060366455 -0.013054692 -0.16430847 -0.013989199
-0.11023983 0.11509282 0.072197676 0.042850133 -0.12615481 -0.12662853 0.115882315 0.12386826
0.011068005 0.13278396 0.077724606 -0.02729689 0.1399905 0.051122233 -0.116429895 -0.015913865
0.020903334 -0.12354469 0.15582375 0.059170425 -0.0957683 -0.16004512 -0.0085026035 -0.011831094
0.03248811 -0.14422359 -0.16044506 -0.03194117 -0.036482137 -0.16018856 0.04924762 0.1627982
-0.13189815 -0.013639524 0.0004888294 -0.010749298 0.15172622 -0.13075113 -0.14721905 0.10414044
0.0625203 0.120717406 0.09256315 0.0408242 0.06529293 -0.07122398 -0.082704686 0.09002325
0.0839435 0.13254914 -0.0101548005 -0.15669166 0.1228276 -0.16924544 0.16790095 0.15844838
0.13233148 0.022858853 -0.11890614 -0.003306824 -0.16504258 -0.1050538 0.17117374 0.122303136
-0.16085923 -0.06919331 -0.0015828013 -0.14595942 -0.10637851 -0.020477805 -0.16839334 0.08121524
-0.04527309 -0.078557566 0.11124625 0.018510556 0.026893208 0.028280541 0.12637237 0.11925619
0.061849114 0.035425372 -0.07785361 -0.000593621 0.08160744 0.013079129 -0.07213673 0.16857462
0.16217788 -0.042773522 0.0059763575 -0.07008 -0.06848794 0.15946496 0.05011916 0.0140844
-0.08179328 0.047777735 0.036025565 -0.12557687 -0.17087807 -0.1227968 -0.04285818 -0.14256546
0.1766178 0.0071207765 -0.12449585 0.15254632 -0.1762319 -0.06949504 0.056919966 0.040451974
-0.17496194 0.07591638 0.10090019 -0.15840662 -0.08061803 0.11616864 0.10637361 0.06444862
0.033195477 0.13616121 0.0683142 0.12845568 -0.15979594 -0.07418058 0.09040417 0.14691298
-0.11079894 0.011841834 -0.097325504 -0.039557166 0.035250027 0.1740167 0.1577751 -0.006704794
-0.1715391 -0.04399028 -0.12148726 -0.012763919 -0.027458597 -0.037937112 -0.025512647 -0.00657198
-0.09917663 0.11249906 -0.05155527 -0.1581061 0.14104737 -0.042012252 0.13901168 -0.10327164
-0.164809 0.029104 0.03737886 0.099732146 -0.03635342 0.038622614 -0.12592901 -0.15093282
00000000: be84 40bc 3083 163e 11b3 a8bd 3b57 99bd
00000010: 1485 3ebb 3238 2abd 81df e5bc 0df3 2fbe
00000020: 42fb e63d 4178 d73b 2b6b 9d3d 84e2 adbd
00000030: 7c05 1ebe 70af 0e3e 363a e1bd 492c a93d
00000040: 58f7 513d bf86 cabd 75a2 8a3b a811 103c
00000050: 5230 e73d ba9e e33c bb2a ee3c e5ae 96bd
00000060: 5862 313e 2cea 0dbd 8780 3e3d 2121 c93d
00000070: f99f 9abd c3ab c83d c42b 2c3e 19ca 823d
00000080: 4d1a 86bc 9708 943d a7b6 223c 5ada c23c
00000090: 6f38 ecbd b96c 1a3e f23a 2b3e 6b65 edbd
000000a0: 8026 0b3c 533a 31be 4a6b 38bc c84f b43d
000000b0: 3bdf f6bd 9b45 cd3d 7ca3 0d3d 740d f7bc
000000c0: e2d8 a33d 69a1 18be ddfe 6abd 220a d43d
000000d0: 75ca 413d 3211 d4bd 3670 053d 206d b33d
000000e0: 9cb1 1d3e e23e 8ebd 92c0 e4bd 6562 403c
000000f0: 4255 30be 7acc a43d 299f bebb a995 99bc
00000100: ed0b 5a3d 70f2 913d 28d9 94bd c41e 193c
00000110: 12a0 dfbd 7e6d 80bd d404 ca3d 968e ca3d
00000120: 1c1a 25be 70fd 23bd 0206 afbd d81b c03b
00000130: 87f5 93bd 2ac3 1abe df71 0dbe 5a26 1dbe
00000140: 118e f93d b380 4d3d 5c58 cdbd ba4a 103d
00000150: 592f 6ebd 67cd 0cbe a8ba 153e fcbd e03d
00000160: 3c3e df3d 6b59 1c3e 6184 75bd e3f7 d83d
00000170: d142 773d 59e3 55bc 7b40 28be f432 65bc
00000180: 6cc5 e1bd c9b5 eb3d 60dc 933d 9f83 2f3d
00000190: ba2e 01be e9aa 01be b553 ed3d a4ae fd3d
000001a0: 9456 353c 85f8 073e 142e 9f3d ba9d dfbc
000001b0: ab59 0f3e 8c65 513d cc72 eebd cb5d 82bc
000001c0: 783d ab3c 0005 fdbd 4390 1f3e b05c 723d
000001d0: 2c22 c4bd dee2 23be 814e 0bbc 34d7 41bc
000001e0: 4112 053d 59af 13be b64b 24be bfd4 02bd
000001f0: 4b6e 15bd 7808 24be dfb7 493d 92b4 263e
00000200: 4f10 07be 4f78 5fbc c924 003a d31d 30bc
00000210: 1e5e 1b3e a0e3 05be 97c0 16be 9547 d53d
00000220: a50a 803d b03a f73d c091 bd3d 4737 273d
00000230: 4db8 853d e1dd 91bd 1361 a9bd 1c5e b83d
00000240: 92ea ab3d f6ba 073e 5260 26bc c773 20be
00000250: 098d fb3d ad4e 2dbe 3aee 2b3e 4b40 223e
00000260: e781 073e 7d42 bb3c 1085 f3bd 4db7 58bb
00000270: ec00 29be 7226 d7bd 2b48 2f3e 117a fa3d
00000280: 48b8 24be 39b5 8dbd 0076 cfba 6376 15be
00000290: fadc d9bd 12c1 a7bc 4e6f 2cbe 2d54 a63d
000002a0: 4770 39bd cae2 a0bd 13d5 e33d 73a3 973c
000002b0: 254f dc3c 98ac e73c c267 013e 973c f43d
000002c0: 7f55 7d3d 321a 113d b771 9fbd 3b9d 1bba
000002d0: cd21 a73d d849 563c 6cbc 93bd d39e 2c3e
000002e0: f511 263e 4a33 2fbd 52d5 c33b 1a86 8fbd
000002f0: 6843 8cbd c84a 233e c049 4d3d 41c2 663c
00000300: 3c83 a7bd 96b2 433d 8b8f 133d 3997 00be
00000310: a9fa 2ebe e47c fbbd 0f8c 2fbd aefc 11be
00000320: 4cdb 343e 6755 e93b aef7 febd 1a35 1c3e
00000330: 2376 34be 6a53 8ebd e924 693d f8b0 253d
00000340: 3929 33be 0c7a 9b3d c2a4 ce3d 5835 22be
00000350: 111b a5bd d3e9 ed3d 68da d93d a3fd 833d
00000360: fbf7 073d d86d 0b3e 51e8 8b3d e389 033e
00000370: 8ca1 23be fdeb 97bd d225 b93d 5b70 163e
00000380: 8eea e2bd 4004 423c 9852 c7bd b206 22bd
00000390: 5562 103d 6f31 323e cc8f 213e e3b3 dbbb
000003a0: f2a7 2fbe 272f 34bd 50ce f8bd c21f 51bc
000003b0: daf0 e0bc f263 1bbd e6ff d0bc c459 d7bb
000003c0: 1e1d cbbd e865 e63d 9e2b 53bd 91e6 21be
000003d0: b96e 103e 0a15 2cbd 1459 0e3e 1580 d3bd
000003e0: b1c3 28be 836b ee3c 931a 193d 5e40 cc3d
000003f0: 53e7 14bd bf32 1e3d 89f3 00be 228e 1abe

linear_relu_stack.2.bias f4 [32]
0.029545479 -0.017696941 -0.12810479 -0.087502696 0.029473426 0.06813951 -0.13951014 0.08748834
0.02843057 -0.16437143 -0.046276994 0.16563123 -0.16721472 -0.010561237 -0.16993512 -0.020928847
-0.10084855 -0.1364215 -0.091892116 -0.043360323 0.051126797 0.0045379153 -0.17416432 0.12937017
0.13048361 0.11126743 -0.024813266 0.107030824 0.026542276 0.023433426 0.028129566 0.06835398
00000000: 5c09 f23c 2df9 90bc e72d 03be 9d34 b3bd
00000010: 4172 f13c ba8c 8b3d bfdb 0ebe 162d b33d
00000020: 3ae7 e83c fc50 28be f28c 3dbd 3c9b 293e
00000030: 563a 2bbe 0a09 2dbc 7903 2ebe f972 abbc
00000040: af89 cebd 14b2 0bbe ef31 bcbd 989a 31bd
00000050: 556a 513d cbb2 943b 2258 32be 9d79 043e
00000060: 7f9d 053e 2ee0 e33d 3145 cbbc fa32 db3d
00000070: 306f d93c 75f7 bf3c fa6f e63c 2cfd 8b3d

linear_relu_stack.4.weight f4 [2, 32]
-0.13486235 0.08046328 0.052540235 -0.0034984811 -0.11445995 0.15984206 -0.12660883 -0.04061719
-0.15237768 -0.14310054 -0.16456269 0.027408449 -0.1058433 0.12233492 0.031000284 0.13421409
-0.14027454 -0.16797993 0.022962613 -0.01606134 -0.14931606 -0.15964843 0.059429035 -0.16602269
-0.018111642 0.14171192 -0.101918936 -0.044016793 0.07443273 0.036615323 0.05702539 -0.08202552
0.07775129 -0.012937465 -0.07281759 0.13951802 0.06804352 0.06036319 0.09399847 -0.011429529
-0.0081656305 -0.061971515 -0.11235096 -0.020214614 0.079649135 0.17201746 0.009459608 -0.076984785
0.06748617 0.067085974 0.14458153 0.09632046 0.09048069 -0.078476004 0.028200464 0.15806662
-0.14966126 -0.044406176 -0.027360246 -0.0075362185 0.08457228 -0.10882493 0.030811189 0.15033965
00000000: 5b19 0abe efc9 a43d 6e34 573d c646 65bb
00000010: fa69 eabd a3ad 233e bfa5 01be 365e 26bd
00000020: e508 1cbe f388 12be 1f83 28be af87 e03c
00000030: 5fc4 d8bd bb8a fa3d 4ff4 fd3c 6b6f 093e
00000040: 21a4 0fbe ee02 2cbe 171c bc3c 1293 83bc
00000050: 4fe6 18be e17a 23be dc6b 733d da01 2abe
00000060: de5e 94bc ee1c 113e e0ba d0bd f44a 34bd
00000070: 3070 983d f3f9 153d 7593 693d fffc a7bd
00000080: 113c 9f3d a9f7 53bc 6321 95bd d0dd 0e3e
00000090: 675a 8b3d 643f 773d 4582 c03d eb42 3bbc
000000a0: 23c9 05bc d8d5 7dbd 4318 e6bd 1e99 a5bc
000000b0: 161f a33d 5825 303e 79fc 1a3c 33aa 9dbd
000000c0: 3036 8a3d 5f64 893d 2e0d 143e a943 c53d
000000d0: f14d b93d 07b8 a0bd a904 e73c 37dc 213e
000000e0: cd40 19be 40e3 35bd 9822 e0bc 62f2 f6bb
000000f0: 3b34 ad3d 9bdf debd bf67 fc3c a3f2 193e

linear_relu_stack.4.bias f4 [2]
-0.08052238 -0.14001085
00000000: ebe8 a4bd 015f 0fbe
