Parameter/cartSAC/2.pth (torch, 7255 bytes, 6 tensors)

linear_relu_stack.0.weight f4 [32, 4]
000000 8d 8c 92 3e 1b d1 c4 be 6a e4 c9 bb bf 69 e1 be
       0.28622857 -0.38440785 -0.0061612623 -0.4402599
000010 dd 46 c8 3e 46 4c 8e 3e a5 62 dc 3e ce 11 1e 3e
       0.39116564 0.27792567 0.4304401 0.1543648
000020 7b 56 a5 be b6 81 b9 3e e8 03 d4 be d5 90 c7 bc
       -0.32292542 0.36231774 -0.4140923 -0.024361053
000030 25 7a c7 be 41 20 19 be 74 fb 9a be de 53 20 be
       -0.38960376 -0.1495371 -0.30269969 -0.15656993
000040 68 54 e7 be cc b4 df be 88 34 b0 be 47 e7 fc 3c
       -0.45181584 -0.43692625 -0.34415078 0.030872
000050 24 e7 c3 be 40 62 b3 be b5 e2 8f 3d 75 0c 06 3e
       -0.38262284 -0.35035896 0.07025663 0.1309069
000060 02 78 e9 be ee de b8 3e c6 0d 9a 3e c4 42 20 3d
       -0.4559937 0.36107582 0.30088633 0.039126173
000070 eb ce 8d 3c 13 a6 9f 3c e4 21 04 3e b4 32 35 3e
       0.01731058 0.01948837 0.12903553 0.17695123
000080 24 7a 22 3c e8 11 da be 12 e9 a1 be 7f 9f f5 3e
       0.009916816 -0.42591786 -0.3162313 0.47973248
000090 7f 23 0d 3e cf 61 3d 3e 36 e5 f3 be d8 19 85 3e
       0.13783072 0.18494342 -0.47635812 0.2599628
0000a0 c4 ea 18 3d 98 ee c7 be 88 0e 2a 3e e0 f1 b7 3d
       0.037333265 -0.3904922 0.16607106 0.08981681
0000b0 a0 30 13 3e c9 ef 58 be 48 09 bc be 42 df e2 3e
       0.14374018 -0.21185221 -0.3672583 0.44310957
0000c0 7f 71 02 be 9f 8a 9f bd c8 c6 93 3e ff d9 29 be
       -0.12738608 -0.07790112 0.28862596 -0.16587065
0000d0 7e 56 92 3e c7 cb 2a 3e 88 dc 9b be 36 5f ff 3e
       0.28581613 0.16679297 -0.3044169 0.49877328
0000e0 6d c3 f7 be aa d9 a7 be 38 34 e1 3e bb 76 3f be
       -0.48391286 -0.32783252 0.43985152 -0.18697636
0000f0 d6 00 f1 be 33 73 d2 be d0 9a 51 3e 90 99 3d be
       -0.4707095 -0.41103515 0.20469213 -0.1851561
000100 86 6b f5 be c2 f8 27 3d 20 be a8 3e a2 70 01 be
       -0.47933596 0.04100872 0.32957554 -0.12640622
000110 ea 62 a1 be c2 a9 b8 3e 92 71 e8 3e 4d 2d ab be
       -0.31520778 0.36067015 0.45399147 -0.33433
000120 ed d4 3f be db 3b bf 3e 44 eb 6a bb 6d 18 19 3e
       -0.18733568 0.37350354 -0.0035845796 0.14950724
000130 7a 2b 38 be 39 4e a1 be f8 b2 b5 be 9a 16 89 3e
       -0.17985335 -0.31504992 -0.35488105 0.26775056
000140 a8 32 ae 3e bd 28 0c b9 9c b8 79 3e 1e f2 c8 3e
       0.34023023 -0.00013366617 0.24386829 0.3924722
000150 21 2b 88 bd 9f aa f7 3e c4 1c cf 3e 08 8a b7 be
       -0.06648851 0.4837236 0.40451634 -0.35847497
000160 1a 06 10 3d 4c 21 9d be f0 13 57 3e 54 42 74 ba
       0.03516207 -0.30689466 0.210037 -0.0009317745
000170 d7 93 55 be c8 40 cc 3e f7 5d 8e be 58 46 b7 be
       -0.20857178 0.39893174 -0.27806064 -0.35795856
000180 e9 ab d5 3e 11 f4 9a be 6f db 28 bd 9c 64 86 3d
       0.4173272 -0.30264333 -0.041224893 0.065621585
000190 94 34 f6 bd b5 ba fe 3e 6a 08 b0 be df 65 50 3e
       -0.12021747 0.4975182 -0.3438142 0.2035136
0001a0 4a 54 ab 3d 0b f4 d2 3d c0 50 97 bd 20 79 bd 3d
       0.08365686 0.10300454 -0.07388449 0.092516184
0001b0 36 3d 2e 3e 9e 13 05 3e ec 2c c3 be be 62 6d 3d
       0.17015538 0.12995765 -0.3812021 0.057955496
0001c0 2e 70 ed be 25 24 98 be 29 85 df 3c 30 ed be 3e
       -0.4637465 -0.29715076 0.027285175 0.37290335
0001d0 68 74 dd be 46 1e 17 be cc ee ca be 8d e0 02 be
       -0.43252873 -0.14757642 -0.39635313 -0.12780972
0001e0 1e 4f af be 53 cc 1b 3e f8 c2 ef be 28 be 0d 3e
       -0.3424005 0.15214662 -0.46828437 0.1384207
0001f0 4b 96 e3 be e5 56 ec 3e 71 1e 76 be 53 ef f0 bd
       -0.44450602 0.46160045 -0.2403505 -0.117643975

linear_relu_stack.0.bias f4 [32]
000000 03 39 5c 3e 78 f3 6a 3e 91 3f 8f be 56 35 63 3e
       0.21506123 0.22944438 -0.27978185 0.22188315
000010 de 2c 88 3e 63 dc ef 3d 0b c1 e6 be 32 2a cb be
       0.2659673 0.11711957 -0.45069155 -0.3968063
000020 9e 3b 5f be 58 57 87 be ec e3 c8 3e 87 da 37 be
       -0.21800086 -0.26433825 0.3923639 -0.17954455
000030 50 0c 1a be b0 fb 6c bd 68 cd 99 be e3 1d c2 3e
       -0.1504376 -0.057857215 -0.30039525 0.37913427
000040 f6 20 ed be a8 ea f7 be 7a 96 ac be 95 af 9a be
       -0.4631421 -0.48421216 -0.33708555 -0.30212083
000050 84 a0 c3 be 47 93 82 be b2 75 11 bd b1 13 80 3e
       -0.382084 -0.2550299 -0.035512634 0.25015023
000060 b1 f2 06 be 69 25 39 3e bc 58 b4 be 5c 33 d2 be
       -0.13178517 0.18080677 -0.3522395 -0.4105481
000070 c0 6d c6 be 97 5a 01 3f b2 47 e4 bd ee 99 b4 3e
       -0.38755608 0.50528854 -0.11146487 0.3527369

linear_relu_stack.2.weight f4 [32, 32]
000000 2a cd c4 3d 9f ea 8e 3d 02 1e bb bc 1c 04 f3 bd
       0.096094444 0.06978344 -0.022841457 -0.11866018
000010 eb 3a 99 3c 53 93 09 be a5 ff cb bd f5 ce 9e bd
       0.018704852 -0.13435106 -0.0996087 -0.07754318
000020 58 e4 dc bd 05 ae 25 be b3 8b 1e 3b a3 0d b8 bd
       -0.107857406 -0.16179664 0.0024192154 -0.08986976
000030 57 16 16 3c 7b 29 b0 3d fc b1 20 3e 40 55 1d bd
       0.0091606 0.08601662 0.15692896 -0.03841138
000040 5c 87 33 be 52 71 2c be f7 94 ad bd 01 bd 0f 3e
       -0.17532104 -0.16840103 -0.084756784 0.14036943
000050 14 8f f9 3d a9 97 06 39 a3 85 23 be 59 74 d1 3d
       0.12185493 0.00012835734 -0.15968947 0.1022727
000060 d8 47 84 bd 05 34 c9 bd ee dd 12 3d 21 54 44 3d
       -0.064590156 -0.09824375 0.03585618 0.047931794
000070 a4 98 b9 3d cd d0 21 3e b8 51 5d 3d c0 b3 09 3e
       0.09062317 0.15802307 0.05403301 0.13447475
000080 36 dc 3f bd 79 96 19 3e 47 29 1d 3e f0 ab 75 3d
       -0.04684087 0.14998807 0.15347777 0.059978426
000090 b9 6a 0c 3d eb b1 80 bc 61 c2 0b 3d 4b 0b 06 be
       0.034281466 -0.015709838 0.03412092 -0.13090245
0000a0 4b 21 a7 3d 81 7f b2 3d ad 50 cb bd 72 1f 0f 3e
       0.08160647 0.08715726 -0.09927497 0.13976839
0000b0 de 6f a9 3d eb b0 2c 3c 6e 7d 2e 3d ea 50 9e 3d
       0.0827329 0.010540227 0.042600088 0.07730277
0000c0 d4 cd 03 3e ba 41 0d bd e4 ea a6 bd d9 2f 2d be
       0.12871486 -0.03448651 -0.081502706 -0.16912784
0000d0 49 59 1f 3e 07 e8 9f bd 2a a9 84 bc c2 37 11 be
       0.15561403 -0.078079276 -0.016193945 -0.14181426
0000e0 1c 52 2c be 4a ff 30 be 29 12 16 bd 64 37 17 3d
       -0.16828197 -0.17284885 -0.036638413 0.03691806
0000f0 f9 60 16 3e 13 19 81 ba d8 16 22 3e 66 ae ea 3d
       0.1468543 -0.0009849392 0.15829027 0.11459045
000100 54 e9 16 be 95 ce 14 be 21 c0 ab 3d a4 e0 b0 ba
       -0.14737445 -0.1453193 0.08386255 -0.0013494682
000110 07 60 0d bc 46 37 0d 3e 19 de 27 3e c5 e5 25 3d
       -0.008628852 0.13790616 0.16393317 0.04050233
000120 94 f8 3f 3d d0 e4 b8 bd a9 50 3c 3d 3e 19 2f be
       0.046867922 -0.090280175 0.04597536 -0.17099473
000130 15 5d 9a 3d aa a7 21 be 60 30 8e 3d 77 a2 61 bd
       0.07537285 -0.15786615 0.069428205 -0.05508658
000140 14 cb 10 be 8c be c5 bc 76 5e 0a be 70 5d 1c bd
       -0.14139968 -0.024138711 -0.13512596 -0.038175046
000150 47 6d 2c 3e 82 29 2f be e9 e6 53 bd f4 03 3c bc
       0.16838561 -0.17105678 -0.051733885 -0.011475552
000160 f6 1e e5 3d 27 f5 3d 3d 5c 4e c6 bd 56 06 0e 3e
       0.11187546 0.046376374 -0.096829146 0.13869604
000170 24 32 df 3d ec e1 dd 3d 8d 35 6c bd 3b 34 1f 3e
       0.108982354 0.10834107 -0.057668258 0.15547268
000180 99 8a a9 bd 29 67 a3 bd 9a 3a 0b be 8c 79 2d bd
       -0.082783885 -0.079786606 -0.13596573 -0.042352244
000190 9a 4b 0b be 3a d8 1f 3e eb 20 1c be 5d 4b 71 bd
       -0.13603058 0.15609828 -0.15246932 -0.058909763
0001a0 e4 86 09 be 30 4e e7 bc c8 83 45 bc 11 9f f0 3d
       -0.13430363 -0.028235525 -0.012055345 0.117490895
0001b0 63 70 c3 bc 4a 68 00 bb 6e e1 dc 3d 52 75 72 3d
       -0.023857301 -0.001959341 0.10785185 0.059193917
0001c0 31 c4 1a bc 32 1a 23 be b1 e8 ee bd 41 6f d8 3c
       -0.00944619 -0.15927961 -0.11665476 0.026420237
0001d0 70 ab c4 bd 22 5d 1d 3e 30 c6 f4 bd 75 56 fe bd
       -0.096030116 0.15367559 -0.11951864 -0.12418834
0001e0 c4 d6 e3 3d aa bf e4 bd e5 b9 13 be b9 50 ec bd
       0.11124948 -0.111693695 -0.14426382 -0.11538834
0001f0 84 19 95 bd cd 73 1a 3e f4 5d ec bb 1f 3b 26 3e
       -0.07280257 0.15083237 -0.0072133485 0.1623349
000200 f5 58 17 bd 30 43 8b bd 4d d0 2b 3c 46 14 35 bc
       -0.03695007 -0.067999244 0.0104866745 -0.011052197
000210 ac 7d 27 bd 21 ee 88 bb a4 2d 6a bd 80 c4 22 3e
       -0.040891334 -0.004178778 -0.057172433 0.15895271
000220 9a 7e 88 3c 59 c6 86 3d 44 7e 77 bc 4e 89 65 3d
       0.01666193 0.065808006 -0.015105788 0.056039147
000230 b2 50 15 be e2 ce c8 bd 20 cb 0f 3d 77 11 07 3e
       -0.14581564 -0.09805085 0.035105824 0.13190256
000240 23 5c 74 3d fc e9 eb 3d f2 42 99 bd f1 0a b5 bc
       0.05965818 0.11519238 -0.07483472 -0.022099944
000250 d9 d2 06 be a7 ae ce 3d 03 3d d8 3d aa 24 f1 3a
       -0.1316637 0.10091906 0.10558512 0.0018397768
000260 d8 18 48 bd f2 a6 08 bd 14 16 53 3d 82 b9 9b 3d
       -0.048851818 -0.033362336 0.051534727 0.07603742
000270 f5 a9 c8 bd c4 b0 cb 3a d3 cd 17 3e dd 28 9a bd
       -0.09798042 0.0015540351 0.1482461 -0.07527325
000280 20 2b ff 3b a4 d1 65 bd 9f 64 e1 bd b2 68 fe bd
       0.0077871233 -0.056108132 -0.1100552 -0.12422313
000290 3b 2a 58 bd 04 28 fa 3d ee 21 1c bd e3 61 dc bd
       -0.05277465 0.122146636 -0.038118295 -0.10760858
0002a0 cf bc 63 bd 99 21 cb bd 46 0d d6 bd 4e 6d 97 3d
       -0.055599984 -0.099185176 -0.104517505 0.07393895
0002b0 9b 49 05 3d c3 71 30 3e d9 6a db bd 9e d5 21 be
       0.0325409 0.17230897 -0.10713739 -0.15804145
0002c0 c2 c4 62 3d 66 cd ea bd 08 4f e0 bd 05 ae 36 3c
       0.055363424 -0.11464958 -0.10952574 0.011149888
0002d0 4e d4 03 be 7c e0 f2 bc b7 06 34 be c2 91 21 3e
       -0.12873957 -0.029648058 -0.17580687 0.15778258
0002e0 f2 18 62 bc 25 9a 80 bd 9f fc e9 3c 48 18 7f bd
       -0.013799893 -0.06279401 0.028562842 -0.062279016
0002f0 b3 88 1d be 8e 7e 37 3e 69 2d 0c 3c 0f fa bf bd
       -0.15384178 0.1791937 0.0085557485 -0.09373867
000300 a7 0b 0f be c7 e8 50 bd 3d 17 86 3d 0a 95 f1 3d
       -0.13969289 -0.051003244 0.06547401 0.11796005
000310 07 df 17 3e e0 e1 20 bd 0e 2f a3 3d d9 f5 e1 3d
       0.14831172 -0.03927791 0.07967959 0.1103322
000320 72 fa 30 3e 67 6d f6 3c b7 5d cd 3d a3 65 ed bc
       0.17283037 0.030081464 0.1002764 -0.028979128
000330 ec b2 2d be a9 bb 88 3d 19 c1 16 3e be 87 99 bd
       -0.16962785 0.06676418 0.14722098 -0.07496594
000340 5b 73 0c be 34 e4 02 3e c3 e4 f1 3d a7 47 25 be
       -0.1371588 0.12782365 0.11811211 -0.16140614
000350 58 11 54 3c f1 60 4e bd 14 54 83 bc 04 eb 2b 3e
       0.012943588 -0.05038542 -0.016031303 0.1678887
000360 74 94 d7 bd 4a 87 2b be f5 cf 31 3e 1d 8c b9 3d
       -0.10526362 -0.16750827 0.17364486 0.090599276
000370 2d 41 2a 3e d4 53 f9 bb de 83 57 bd e3 bd 8c bd
       0.16626425 -0.00760887 -0.052615993 -0.068721555
000380 0c ea 2e 3e 45 3e 3e 3d ab 1f 66 3d 87 d3 b5 bd
       0.1708147 0.046446104 0.056182545 -0.08878236
000390 6f 61 1c be 32 ee 37 bd 62 a2 a6 3c 82 cf 22 3e
       -0.15271543 -0.044904895 0.020341102 0.1589947
0003a0 a6 47 ee 3d f5 73 06 bd 61 9a 2a be 4d 73 4b bd
       0.116347596 -0.03282543 -0.16660453 -0.049670506
0003b0 b3 43 cf 3d 83 72 ca bc 2a 0a cc bd 5d eb e3 3c
       0.101203345 -0.024712807 -0.09962876 0.02782219
0003c0 c8 13 76 3d eb f2 da 3d c6 c2 d6 bd 58 e2 98 3d
       0.06007746 0.10690864 -0.10486369 0.07465047
0003d0 88 45 2c 3e e2 91 24 3e 17 98 2a 3e 84 0d 7d 39
       0.16823399 0.16071275 0.1665958 0.00024132995
0003e0 c8 68 02 3e 60 5e 44 3d fb 47 87 bc 4a ed 7c 3d
       0.12735283 0.047941566 -0.016513815 0.061749734
0003f0 04 06 3e 39 2c d0 21 be 55 a5 2c 3e 53 d3 63 bd
       0.00018122053 -0.15802068 0.16859944 -0.055621456

linear_relu_stack.2.bias f4 [32]
000000 34 d7 0a bd c6 3b 45 bd 40 89 26 3e de 13 72 bb
       -0.03389664 -0.048152708 0.16263294 -0.0036938111
000010 06 6e dc bd 9d df 23 3e db 80 9a bd d7 3b 8b bd
       -0.10763173 0.1600327 -0.075441085 -0.06798523
000020 cf 52 31 3e 0c 74 e6 3d 56 54 c3 3d 75 e5 8a bc
       0.17316745 0.11252603 0.0953757 -0.016955117
000030 cd b5 df 3d a3 83 3d 3d fa 5a b4 bd 5c 25 a1 3d
       0.109233476 0.046268117 -0.08806415 0.07868454
000040 0d 93 b4 3b 2b ba c4 3d 87 d7 a9 3d c8 5a 0a be
       0.005510694 0.09605821 0.08293062 -0.13511193
000050 12 d0 16 3e 79 5a 19 3b ec ba 95 3c 4b 14 36 be
       0.1472781 0.0023399873 0.018277608 -0.17781179
000060 b0 53 ac 3d 70 ea 8f bc 29 e0 13 3e 61 70 2c 3d
       0.084143996 -0.017567843 0.14440979 0.04209936
000070 ae 6e e6 3b 85 75 8b 3d 05 c3 01 be 4f bc c5 3d
       0.007032237 0.068095244 -0.1267205 0.09655058

linear_relu_stack.4.weight f4 [2, 32]
000000 c9 90 d8 3d 86 c7 2c 3e d0 5e 15 bd ab 9e 90 3b
       0.105744906 0.16872987 -0.036467373 0.004413446
000010 f2 8b 35 be 37 29 10 3d 66 bb 07 3e a8 b4 ec 3d
       -0.17729166 0.035195556 0.1325508 0.11557895
000020 d2 f9 cc 3d fa a7 76 bd 41 aa 5e 3d 50 4f f4 ba
       0.10008587 -0.06021879 0.054361586 -0.001863936
000030 6a 92 c4 bd a7 53 03 3b e1 32 a3 3d df 29 03 be
       -0.09598239 0.0020038874 0.07968689 -0.12808941
000040 e0 cf 24 3d 0e e9 39 3e 6a c2 16 be d8 b3 4f 3d
       0.040237308 0.1815531 -0.147226 0.05070862
000050 69 05 37 3e 78 db ce 3d 54 e2 eb 3d 81 98 50 bd
       0.17873158 0.10100454 0.11517778 -0.05092669
000060 bc 80 21 3e 06 22 29 be f7 c5 ce bd 33 ba f3 bd
       0.15771765 -0.16516885 -0.100963525 -0.11900749
000070 5b 66 2b be d3 2e 95 3c d6 4e 24 3e 32 72 ce 3d
       -0.16738264 0.018210804 0.16045699 0.10080375
000080 6a 39 09 be b0 6c 00 be 42 35 f4 3c f5 92 1c 3d
       -0.13400808 -0.12541461 0.029810552 0.038226087
000090 1b 2b 1c 3e 45 d3 2f 3d 67 7b 06 3e f2 65 54 bd
       0.15250818 0.04292609 0.13133012 -0.051855035
0000a0 53 c5 26 bd 6b dc 0d be ec fa 93 bb cd 09 00 3d
       -0.040715527 -0.13853614 -0.004515996 0.031259347
0000b0 40 90 68 bd 3d 4c c9 3d 14 2f 7a bd 4d c7 8a 3d
       -0.056778193 0.098289944 -0.061080053 0.06776295
0000c0 f3 16 ec bb 7c ab 92 bc a4 7c 88 bd 90 f0 20 3e
       -0.007204884 -0.017904036 -0.06664398 0.15716767
0000d0 4d 69 e6 3c 1c e6 9b bc 4c b0 bb bb 24 25 d2 bd
       0.028126383 -0.019030623 -0.0057278033 -0.1026099
0000e0 25 e9 e9 3d 1f ac 0d be b6 6e 38 3d a6 aa ce 3c
       0.11421422 -0.1383519 0.045027457 0.025227856
0000f0 08 8d 9b bd c4 9c b6 3c 8b 78 ec bd c5 a8 af bd
       -0.07595259 0.022291549 -0.11546429 -0.08577112

linear_relu_stack.4.bias f4 [2]
000000 5b a6 01 3e 1a db 4f 3e
       0.12661116 0.20298424
