Parameter/cartDQN.pth (torch, 7255 bytes, 6 tensors)

linear_relu_stack.0.weight f4 [32, 4]
000000 6e f6 c2 bb b9 45 b0 be 67 c2 cc be 02 00 b3 3e
       -0.005949787 -0.34428194 -0.39992067 0.34960943
000010 e7 6e 38 be db 2d fb be 00 7c db 3d 93 2c bf 3e
       -0.18011056 -0.49058422 0.107170105 0.37338695
000020 e7 92 7b be be a7 05 3e 4c b6 df be a5 9e 54 3e
       -0.24567758 0.1305227 -0.4369377 0.20763643
000030 fc 74 89 3e 17 68 3b be 28 f1 86 3b 5e 60 d2 3e
       0.26847064 -0.18301426 0.0041181035 0.41089147
000040 67 ad d4 3c c2 d7 2c be 83 d7 f9 3e d5 3f 1f 3e
       0.02596159 -0.1687918 0.48797235 0.15551694
000050 9a 26 96 3e f3 79 80 3e 0c 4e b7 be 29 4e 15 3e
       0.29326326 0.2509304 -0.35801733 0.14580597
000060 c5 cf 9c be 95 39 d6 be ab 57 df be dd 2a 19 3d
       -0.30627266 -0.41840807 -0.43621573 0.037394393
000070 0d 71 c4 be b0 47 df 3e 9d 06 ff 3e af 19 7a 3e
       -0.383675 0.4360938 0.49809733 0.2442386
000080 15 2d 80 be 70 e5 68 bd 11 74 37 bd c0 57 0a be
       -0.25034395 -0.056859434 -0.044788424 -0.13510036
000090 bc 88 c9 be d7 b4 f7 be 69 a7 a0 be 14 34 27 3e
       -0.39362133 -0.48380157 -0.31377724 0.1632846
0000a0 63 3b fc 3e 83 fe 76 3e 3b 44 c9 3e 79 fb cd 3e
       0.49264058 0.24120526 0.39309868 0.4023092
0000b0 a9 46 27 be 7d dc 5d 3e e7 7e 46 be cb 71 1c 3e
       -0.16335548 0.21666141 -0.19384347 0.15277784
0000c0 8f cc 2c 3e aa 95 13 be f9 a3 c1 be 9c 67 ef bc
       0.16874908 -0.14412561 -0.37820414 -0.02922421
0000d0 c6 4d e3 3e 33 d2 48 3e 6f 75 81 3e f6 9f ee 3e
       0.44395274 0.19611435 0.25284907 0.46606416
0000e0 a4 6b f3 be 10 95 12 be 04 80 b4 be 06 fb dd be
       -0.4754306 -0.14314675 -0.35253918 -0.43355578
0000f0 54 a7 2a be 58 18 c1 be a3 b7 8e be e8 e7 40 be
       -0.16665393 -0.37713885 -0.2787448 -0.18838465
000100 12 fa 9b 3e a4 5f dc 3e 4c 06 1e be 80 1e a3 bc
       0.30464226 0.43041718 -0.1543209 -0.019912004
000110 2b 10 ff 3e c6 55 de bd 95 d0 b3 3e 5c 0b 8f 3d
       0.49817023 -0.10856204 0.35120073 0.069845885
000120 86 07 f4 be 4c f6 54 3e 1c 30 bb be c8 f7 88 bd
       -0.4766199 0.2079708 -0.36560142 -0.066878855
000130 d9 5e 89 be 40 d1 fe be 3b 5f 20 3e e0 6f db be
       -0.26830176 -0.4976902 0.15661328 -0.4285879
000140 a3 99 eb be f6 64 b9 3e fb 7e a2 be a1 fa d0 be
       -0.46015653 0.3620984 -0.31737503 -0.40816215
000150 17 52 65 be 80 a6 3a 3e 83 8c bb bd ed 67 a4 3e
       -0.22394596 0.18227577 -0.0915766 0.3211054
000160 03 25 c7 3e 89 d3 67 3e d2 2d 3c bd 4a 62 ee 3e
       0.38895425 0.22639288 -0.045942135 0.46559364
000170 19 e8 8d 3e d8 b3 cc be 49 71 8f be ba 32 33 be
       0.2771614 -0.3998096 -0.28016117 -0.1749982
000180 9c 73 03 be 04 07 f7 3e 2a c4 8e be 8c 3f 41 3e
       -0.1283707 0.4824754 -0.27884036 0.18871897
000190 e0 28 bf bd 4c b0 21 be 40 24 a9 3e 70 58 f4 bd
       -0.09333968 -0.15789908 0.3303547 -0.119309306
0001a0 f0 70 e2 be 49 9d f3 be 5c b3 a9 3e f1 d2 ab be
       -0.4422679 -0.47580937 0.33144653 -0.33559373
0001b0 45 6a d6 be 1a a7 d2 3e 44 c8 ca be 80 44 d5 bd
       -0.41877952 0.41143113 -0.39605916 -0.10413456
0001c0 60 55 66 be 8b dc ec be 02 5b 66 be 26 93 8f be
       -0.22493505 -0.4626201 -0.22495654 -0.28041953
0001d0 fd 1e fa be d0 71 56 3e 7d 03 04 3e eb b0 fd bd
       -0.48851767 0.20941854 0.12891956 -0.1238726
0001e0 6c f0 5e be 06 77 b5 3e c0 0a f2 be b4 b0 d6 be
       -0.21771401 0.3544237 -0.47273827 -0.4193169
0001f0 e2 de 93 3e a2 3e bb 3e 2c d5 06 be 48 3f be bd
       0.28880984 0.36571223 -0.13167256 -0.09289414

linear_relu_stack.0.bias f4 [32]
000000 fa e7 d9 3e 7e 65 f3 be ad 25 36 3e 88 4c 62 be
       0.42559797 -0.4753837 0.1778781 -0.22099507
000010 85 c6 90 3e 41 00 44 3e fe 81 00 3e 60 d1 cc 3e
       0.28276458 0.19140722 0.12549588 0.4000349
000020 fc 5f a2 3e 0c ed b4 be 69 bf cb 3e 39 5d fe 3e
       0.31713855 -0.35337102 0.39794472 0.49680498
000030 09 7b 52 3e c4 cb 6a bb 28 e4 3e be 76 e6 ec 3e
       0.20554747 -0.003582702 -0.18641722 0.46269578
000040 60 2c 40 be d6 32 ac 3e da fd a3 be 85 c5 b1 3e
       -0.18766928 0.33632535 -0.3202961 0.34721008
000050 0d 0c 80 3e 77 ce c7 be 7e e6 cf 3e 91 fc 87 3e
       0.25009194 -0.39024708 0.4060554 0.2655988
000060 88 1d 17 be 04 49 ef be 8e fd 9a 3e 0f 6b 24 3d
       -0.14757359 -0.46735394 0.30271572 0.04014116
000070 9f ed cd 3e 83 cc a2 3e e0 7f 1f be b2 1d c8 be
       0.40220353 0.31796655 -0.15576124 -0.39085156

linear_relu_stack.2.weight f4 [32, 32]
000000 7e 06 03 be 88 1f 8f 3c 55 cc 09 be e3 fd 65 3d
       -0.12795445 0.01747109 -0.13456853 0.05615033
000010 ae 2c db bd a4 ce 20 be 0b fc 49 bd aa 03 ff 3d
       -0.10701881 -0.15703827 -0.049312633 0.12451871
000020 ff 5a 29 3e a3 05 78 3d d0 b9 02 3e 54 76 31 3d
       0.16538619 0.06055225 0.12766194 0.043325737
000030 b6 1e 8e bd 24 61 a8 3d b4 6c 23 3d 27 08 96 3d
       -0.069394514 0.08221653 0.03989859 0.07325774
000040 de c8 30 3d 9d 0f fa bd 73 a7 94 bd 66 c0 db bd
       0.043160312 -0.12210009 -0.07258501 -0.107300565
000050 08 c5 86 3d f4 ed 8f bd e6 0f b7 bd 0b 09 e0 bd
       0.065805495 -0.07027808 -0.08938579 -0.10939225
000060 0e d2 46 3d 3a d1 22 3d 67 a7 3a 3d 7e 9f 79 3d
       0.048540168 0.039750315 0.045569804 0.06094312
000070 b2 2f 9e bd 13 d4 55 bd af 45 17 3e 68 d4 ea bd
       -0.07723941 -0.052204203 0.14772676 -0.114662945
000080 20 ca ab bd 69 72 03 be 25 b7 2b 3e 4f 63 ba 3d
       -0.08388162 -0.12836613 0.16769083 0.09100973
000090 ee fc ab 3d c9 7a df bd b6 25 0a 3e 40 29 e1 bd
       0.08397852 -0.10912091 0.13490948 -0.10994196
0000a0 98 46 a9 3d 9e 6c 43 3d 34 a3 ce 3d ac ca 2a 3e
       0.08265418 0.047711007 0.10089722 0.16678876
0000b0 9e e3 25 3e fe 1c 1e be 5c 23 5a bd d0 89 eb 3d
       0.1620011 -0.15440747 -0.053256378 0.11500895
0000c0 44 ea 0c be af af af 3c 3c af c9 3d 6e 67 db 3d
       -0.1376124 0.021446077 0.098478764 0.10713087
0000d0 09 50 50 3d 7c e0 01 be 60 06 32 be 46 59 d2 3d
       0.050857577 -0.1268329 -0.17385244 0.10270934
0000e0 00 c0 db bd 87 e0 0c 3e b7 d0 38 bd 1f 7a ac 3a
       -0.107299805 0.13757525 -0.04512092 0.0013158954
0000f0 b0 b2 ff bd a7 09 2b 3e ad e1 18 3d 79 4b 91 3d
       -0.12485254 0.16702901 0.037324596 0.070944734
000100 8b f4 da 3d 70 3a 26 be 52 38 66 bd c7 74 9b 3d
       0.10691174 -0.1623323 -0.056206055 0.07590633
000110 29 b3 02 3d d8 d5 f8 3d b2 61 17 be ab 3f c2 bd
       0.03190914 0.121501625 -0.14783362 -0.094848
000120 1e 90 bd bd 91 eb 33 be 89 e8 6e 3d 12 ef a4 bd
       -0.09256004 -0.1757033 0.05832723 -0.080534115
000130 99 53 28 bd 19 dc 0e be 48 8f 34 3e 46 91 ce bd
       -0.04109535 -0.13951148 0.17632782 -0.100863025
000140 10 79 d4 bd 60 d0 0b 3e 0a 8f 21 3e fa 2b 0b 3e
       -0.10374653 0.13653708 0.15777221 0.13590994
000150 1a 32 4e bc 45 5f 03 3e 2b 96 13 bd 4a 5c 5f bd
       -0.012585187 0.12829311 -0.036031883 -0.054531373
000160 82 c3 97 3d b2 75 4d bc ab 0e 8c 3c a9 ca e0 3d
       0.07410337 -0.012540268 0.017096838 0.10976154
000170 8e 89 20 bc b5 93 a0 bd 8a c5 2e be 4a 70 e3 bd
       -0.009798421 -0.07840673 -0.17067543 -0.11105402
000180 66 5b 21 3e 4c 0e ef 3d cc 29 eb bd 68 7a 2c be
       0.15757522 0.11672649 -0.114825815 -0.1684357
000190 4f d7 f8 3d 89 aa d7 3d 7a 4f 23 3e 5a d8 14 bd
       0.12150442 0.10530574 0.15948287 -0.03633914
0001a0 10 04 d5 bd 56 ed 68 3c 28 af c8 bd 45 88 0d 3e
       -0.104011655 0.014216742 -0.097990334 0.13821514
0001b0 04 bd 49 3d bc c3 2b 3b 1a 27 a8 3d 7d 27 11 bd
       0.049252525 0.0026209196 0.08210583 -0.03543805
0001c0 a4 96 31 be 28 c6 07 be d5 79 e1 bc d5 80 fe 3d
       -0.17342621 -0.13259184 -0.027523914 0.124269165
0001d0 ee 72 b6 3d dc fe c8 3d a9 ea 42 3c d1 70 06 be
       0.0890864 0.098142356 0.011896768 -0.13128974
0001e0 9e 76 35 3d 22 00 d2 bd ad 6b b7 3d 95 fe c8 bc
       0.044302575 -0.102539316 0.089560844 -0.024535457
0001f0 47 1c 33 be 39 58 35 3c 47 bf c9 3d 43 ab 16 ba
       -0.17491256 0.011068397 0.098509364 -0.0005747566
000200 09 96 05 be 83 92 a3 bd f9 c3 69 3d 4e 02 71 3d
       -0.13045515 -0.07986929 0.05707166 0.05884009
000210 dd 75 a6 bd 20 13 10 be ee f9 d5 bc 5c fb ff bd
       -0.081279494 -0.14069796 -0.026120152 -0.12499115
000220 f9 95 dc 3d 1e 2b 06 be 92 b6 f3 bd 9f 62 20 3e
       0.107707925 -0.13102385 -0.11900057 0.15662621
000230 08 38 86 bd be 31 67 bc 40 de 83 3c 83 28 b1 3d
       -0.06553656 -0.014110981 0.016097188 0.08650305
000240 65 ee 12 3e c8 df 2e 3e 6e b6 cf 38 b6 c4 a9 bd
       0.14348753 0.17077553 9.904509e-05 -0.08289473
000250 f3 5a 87 3d 8c 7a d7 bd a6 41 96 bb 00 58 22 be
       0.06609144 -0.10521421 -0.0045854626 -0.15853882
000260 fc 6a 99 bd 27 8f 98 3d 2f 9e 22 3e ad 25 5b 3c
       -0.07491109 0.07449179 0.15880655 0.013375682
000270 ec 65 c0 3d 71 fc 01 3c 34 b0 15 3e eb 41 56 bb
       0.0939444 0.007933722 0.14617997 -0.0032693099
000280 7e e7 1c be f0 1b bc bd 78 c5 89 3c ce 91 77 3c
       -0.15322682 -0.09185016 0.016817793 0.015110446
000290 7c 05 18 3e ca 24 04 3e ea 8e 99 3d ca f5 80 3d
       0.14845842 0.12904659 0.07497962 0.062968805
0002a0 c7 62 32 be 24 59 4a bd 87 86 8b 3c 22 69 12 be
       -0.17420493 -0.049401417 0.017031921 -0.14297917
0002b0 c1 24 38 bd af 27 09 3e 37 58 2b be 1e ff cd bd
       -0.044956926 0.13394044 -0.1673287 -0.10058425
0002c0 2d 69 60 3d fe 2f f0 3d 7a ac db 3d 03 67 28 be
       0.054787803 0.11727904 0.10726257 -0.16445546
0002d0 37 6e b6 3d ce e5 47 bd 44 4a 34 be 85 5a 87 3d
       0.089077406 -0.048803143 -0.17606455 0.06609062
0002e0 14 55 ef 3d 9c 3b ae 3d ca a8 14 be 40 63 15 bd
       0.11686149 0.08507463 -0.14517513 -0.036471605
0002f0 fe c1 8f bc 9d 3d 0e bc af e3 c7 bd c9 b5 2f be
       -0.017548557 -0.008681682 -0.09760224 -0.1715919
000300 35 c4 21 be e4 81 f4 bd 86 27 e7 bd c7 ce 8a 3d
       -0.15797503 -0.11938837 -0.11286835 0.06777721
000310 57 85 00 be 76 8c a4 bd 9c 77 19 3e f0 88 e5 3c
       -0.12550865 -0.08034603 0.14987034 0.028019398
000320 e2 04 bd bd 26 ab 1d 3e fc 43 e8 3d a4 a9 a8 3d
       -0.09229447 0.15397319 0.11341092 0.082354814
000330 2f a9 22 3e 05 ba 2d 3e c8 23 fb 3d ab 9e 1f 3e
       0.15884851 0.16965492 0.12262684 0.15587871
000340 f3 79 7d bd 3e 10 84 bd 97 ad 90 3c 13 23 59 3d
       -0.061883878 -0.064484105 0.0176609 0.053011965
000350 33 0e 78 bd a4 e6 0a 3e 2c 8c 2d 3e 36 4c ce 3c
       -0.060560416 0.13564545 0.16948003 0.025182825
000360 6d cf 1e be b5 ff 13 bd fb ab b3 3d 7a 5d ec bd
       -0.15508814 -0.036132533 0.08773037 -0.11541267
000370 16 bd fd 3d 36 26 0e 3e c3 23 d7 3d 7f f2 14 3e
       0.12389581 0.13881764 0.10504868 0.1454563
000380 77 a7 f8 3d 2b 65 59 bd 6f ff 24 3e 2f 0b 86 ba
       0.121413164 -0.053074997 0.16113065 -0.0010226722
000390 0c 40 55 bd da c6 f8 bc 4c c0 3c 3d 1f 93 04 3e
       -0.052063033 -0.030368257 0.046081826 0.12946747
0003a0 a4 fa 08 bd 92 bc 08 bd 06 5e b3 3d c4 b6 0b be
       -0.033442155 -0.03338296 0.08758168 -0.13643938
0003b0 5a 20 3d bd 0f cc 7e bd 8c f7 c5 bd 50 b2 aa 3b
       -0.04617343 -0.062206324 -0.096663564 0.005209245
0003c0 ed 46 1d be 69 2a 01 3d 5d b1 5d 3c 10 3f 03 bc
       -0.15359087 0.031534586 0.013531056 -0.008010641
0003d0 8c e8 ec 3a bd 27 ff 3d 4a 41 04 be 0c 15 8b 3d
       0.0018074675 0.12458751 -0.12915531 0.06791124
0003e0 54 1c 07 3d 80 85 8f bd ff 1b ca bd 4d 47 5c 3d
       0.032986 -0.07007885 -0.09868621 0.053778935
0003f0 8b dd f0 3d b7 dc 2f 3e f1 10 23 3e d8 f9 84 3c
       0.11761006 0.1717404 0.15924431 0.016232416

linear_relu_stack.2.bias f4 [32]
000000 c0 3b 33 be 73 3e 7e 3d 12 cb 76 3d 10 77 54 3d
       -0.17503262 0.062071275 0.060252257 0.05187136
000010 8d 4c fb 3d 05 d6 1a 3e e2 08 03 be ed dd 34 be
       0.1227046 0.15120704 -0.12796357 -0.17662783
000020 44 56 08 bd 49 b4 a4 bc 60 d5 1b 3e 0a a6 8b 3c
       -0.033285394 -0.020105498 0.15218115 0.017046947
000030 60 96 8c 3c 9c 10 ed bd be 60 28 3e b9 50 fc bd
       0.017161548 -0.115754336 0.16443154 -0.12320084
000040 52 bc 1e bd 15 b0 06 3e 83 92 8a 3d 3c b9 da 3d
       -0.038753815 0.13153107 0.06766226 0.10679862
000050 9e 82 19 be 00 4e 33 be 8d 64 16 3b 33 d2 9a 3d
       -0.14991233 -0.17510223 0.0022948117 0.075596236
000060 9f 18 61 bd 54 1b 11 3e b7 20 1e b9 50 6b 60 bc
       -0.05495512 0.14170581 -0.00015080241 -0.01369746
000070 5d 34 23 3d 56 af ba bd b8 b8 6f 3b b1 c1 e8 3d
       0.03984486 -0.09115474 0.0036578607 0.11365069

linear_relu_stack.4.weight f4 [2, 32]
000000 56 7b 21 be 48 e4 95 3d ff ff 00 3e 9f 94 cd bc
       -0.15769705 0.07318932 0.12597655 -0.025095282
000010 a4 04 1f 3d 13 fb 62 bd 2c 92 14 3e 9a 94 31 3c
       0.038822785 -0.055415224 0.14508885 0.010838652
000020 73 e3 b1 bd 46 df b4 bd fb 77 1b 3c 00 ca ee 3c
       -0.086859606 -0.088316485 0.009489055 0.029149055
000030 06 34 1c be 1c 4f 10 3e f9 09 33 be 22 ad bd bd
       -0.1525422 0.14092678 -0.17484273 -0.09261538
000040 d8 18 2f bd a4 74 ef 3d ad b1 06 3d 1a e6 f8 3d
       -0.042748302 0.11692169 0.03288429 0.121532634
000050 db 9b d2 3d 64 a4 5d bd 47 0f 00 3e 3b 69 f3 3d
       0.10283633 -0.054111853 0.12505828 0.118853055
000060 71 7a 23 be a1 95 59 3d af 76 a1 3c 1c 9d b1 bd
       -0.15964676 0.053121213 0.019709913 -0.08672544
000070 a8 07 48 3d b4 d4 9c bd 9f 41 ce 3d 6c 82 c6 3b
       0.048835427 -0.076577574 0.1007111 0.006058028
000080 aa 86 e9 bd 0c 7a 9f 3b 2b c3 16 3e 5b e4 05 be
       -0.11402638 0.004866844 0.14722888 -0.13075392
000090 f0 4b 7e bd 24 f3 b4 bc 7e 2c dd bd da f3 87 bd
       -0.06208414 -0.022088595 -0.10799502 -0.06638308
0000a0 ad 20 8e 3d de 67 f0 3d 15 19 06 be e0 56 22 bc
       0.06939826 0.11738561 -0.13095506 -0.009908408
0000b0 38 64 59 bc be 5e 72 bd 6b 25 fb 3d bf e3 eb bd
       -0.013268523 -0.059172384 0.12262996 -0.115180485
0000c0 b2 c6 31 be 54 a2 da bc 9d c5 f0 3b 88 c1 20 be
       -0.17360952 -0.026688732 0.007347776 -0.15698826
0000d0 7e 2e 0f 3e a7 a5 e7 3d 01 0b 31 3e 9c 26 81 bd
       0.13982579 0.113108926 0.17289354 -0.06306192
0000e0 1e c8 8e bd bc ac a6 bd df 22 26 be ea 22 df 3a
       -0.06971763 -0.08138415 -0.1622424 0.0017023955
0000f0 3a 64 de bd 7e 34 15 3a 3b 2a fc bd ed f5 17 be
       -0.108589604 0.0005691721 -0.12312742 -0.14839907

linear_relu_stack.4.bias f4 [2]
000000 15 d9 fb 3c 4c ea 25 be
       0.030743161 -0.16202658
