Parameter/cartDQN_test.pth (torch, 7255 bytes, 6 tensors)

linear_relu_stack.0.weight f4 [32, 4]
0.3836784 -0.62315875 -0.45820716 0.85131454 0.0547781 -0.14005983 -0.0029771924 -0.3127765
0.41776457 0.32822645 0.21654889 -0.021952186 0.76838017 -0.5841062 -0.7384562 0.5086882
0.14527828 0.44363338 0.4509328 0.24656232 -0.25489265 0.12915504 0.33526242 -0.20755643
0.2157377 -0.3043707 -0.99217856 0.77377325 0.19798476 0.41555363 -0.11740506 0.4045452
0.90343845 -0.13386707 -0.34421775 0.37965444 0.2536066 -0.7244355 -0.3657739 0.5117493
0.64636654 -0.3465201 -0.6640019 0.9393919 0.48487836 -0.17825483 -0.13716498 0.09551237
-0.48823014 -0.059234887 0.19779432 -0.41958275 1.2181119 -0.5552626 -0.9085446 0.6111081
0.89070946 -0.8803885 -0.500524 0.36887616 0.40183887 -0.5852101 -0.051015154 0.66129476
0.8490803 -0.7572231 -0.12550314 0.8233519 1.0645753 -0.11443603 -0.0977612 0.4231818
0.48152506 0.3840596 0.31293738 -0.37582403 0.59444374 -0.12908112 -0.9712232 -0.05368918
0.043696143 0.15224527 0.12627696 -0.21210976 1.2056277 -0.65956086 -0.51518226 0.30945686
-0.35425717 0.005443871 0.49394596 -0.440221 0.09640068 -0.18022418 -0.07229769 -0.4071647
0.08718543 -0.24269481 -0.04687588 0.31710806 0.10628355 -0.3086427 0.36371598 -0.44198862
0.2518503 0.41658604 -0.22684896 0.21345323 0.43379086 -0.09533841 -0.36842144 0.85531324
-0.4016284 -0.013998028 0.25278467 0.28656694 0.74877477 -0.87232095 -0.6914046 0.84836495
-0.4863033 0.3315297 -0.21520318 -0.24866256 -0.25809208 0.33987033 0.09538898 -0.42080787
00000000: 7f71 c43e 5587 1fbf 219a eabe c0ef 593f
00000010: 005f 603d d86b 0fbe 001d 43bb 3e24 a0be
00000020: 3de5 d53e 4c0d a83e febe 5d3e 12d5 b3bc
00000030: 90b4 443f fc87 15bf 770b 3dbf 6439 023f
00000040: d4c3 143e ea23 e33e aae0 e63e d57a 7c3e
00000050: 4a81 82be 3841 043e 84a7 ab3e ac89 54be
00000060: 58ea 5c3e 7ad6 9bbe 6aff 7dbf 0116 463f
00000070: 84bc 4a3e 72c3 d43e 1072 f0bd 8c20 cf3e
00000080: be47 673f 7314 09be 4f3d b0be 1162 c23e
00000090: b9d8 813e 9b74 39bf b746 bbbe 0102 033f
000000a0: 4778 253f 156b b1be 07fc 29bf fd7b 703f
000000b0: fa41 f83e 6f88 36be fa74 0cbe fd9b c33d
000000c0: 4df9 f9be 48a0 72bd 988a 4a3e 8dd3 d6be
000000d0: 17eb 9b3f b125 0ebf 6196 68bf 9571 1c3f
000000e0: 8905 643f 2461 61bf 5722 00bf 56dd bc3e
000000f0: d3bd cd3e 54d0 15bf 44f5 50bd 9d4a 293f
00000100: 545d 593f 60d9 41bf e583 00be 31c7 523f
00000110: 0144 883f 705d eabd 0637 c8bd 49ab d83e
00000120: 748a f63e 76a3 c43e 5439 a03e 026c c0be
00000130: 772d 183f d72d 04be 15a2 78bf 30e9 5bbd
00000140: bafa 323d 2fe6 1b3e bf4e 013e 4d33 59be
00000150: 0252 9a3f fbd8 28bf fce2 03bf 2171 9e3e
00000160: 3261 b5be 8062 b23b 7ce6 fc3e a664 e1be
00000170: b86d c53d b08c 38be d010 94bd e477 d0be
00000180: 468e b23d fd84 78be ec00 40bd fd5b a23e
00000190: 31ab d93d 6a06 9ebe fb38 ba3e 554c e2be
000001a0: 86f2 803e c44a d53e 184b 68be 7c93 5a3e
000001b0: d619 de3e c940 c3bd bca1 bcbe cff5 5a3f
000001c0: 3da2 cdbe fc57 65bc fe6c 813e e7b8 923e
000001d0: b4af 3f3f 6d50 5fbf e4ff 30bf 722e 593f
000001e0: bffc f8be 43be a93e 395e 5cbe 66a1 7ebe
000001f0: a524 84be 7c03 ae3e 4c5b c33d 2174 d7be

linear_relu_stack.0.bias f4 [32]
1.0191934 -0.4860683 -0.093778305 1.379827 -0.051413424 -0.30756438 0.83551353 -0.46546704
1.3620003 1.3916774 0.7837969 0.9139233 -0.09410257 1.1680714 1.3321612 0.042470746
0.894486 1.1880677 -0.46224117 1.20031 -0.06732042 1.1167611 -0.29743522 -0.45630664
-0.47654533 -0.05252119 -0.06275716 0.83363086 -0.32012534 1.3416324 -0.11394282 -0.12790193
00000000: ee74 823f f2dd f8be d70e c0bd 2c9e b03f
00000010: e296 52bd 1479 9dbe 37e4 553f b251 eebe
00000020: 0756 ae3f 7c22 b23f eaa6 483f e1f6 693f
00000030: d9b8 c0bd 5d83 953f 4284 aa3f cef5 2d3d
00000040: 09fd 643f 9a12 983f e0aa ecbe c2a3 993f
00000050: 4adf 89bd 07f2 8e3f 6e49 98be 06a1 e9be
00000060: c0fd f3be 7620 57bd d386 80bd d568 553f
00000070: 78e7 a3be 9cba ab3f da5a e9bd b9f8 02be

linear_relu_stack.2.weight f4 [32, 32]
0.5781407 0.09207411 0.12029156 0.42213538 0.047152117 0.08203104 0.36411178 -0.15371425
0.566859 0.6200827 0.45598528 0.7797191 0.016984094 0.36964723 0.62053716 0.03406877
0.41525343 0.60222864 0.02576363 1.1976846 -0.09290893 0.44198674 -0.015970832 -0.11061937
-0.44870004 -0.17359814 0.0727046 0.53983235 -0.22362788 0.5990975 0.0328444 0.02233991
-0.073751375 -0.12377499 -0.020316383 -0.13802406 -0.11144056 0.10469593 -0.10140858 0.13015243
-0.06765968 -0.0007905695 -0.018850788 -0.13493927 -0.033348188 0.091261014 -0.13298818 0.16069989
0.01963746 0.08382321 -0.007933322 -0.11481471 -0.12906024 0.02301671 -0.09814119 -0.042169373
-0.0976616 0.13031888 0.14000309 0.06883769 0.06403973 -0.15174617 -0.011282627 -0.15892944
0.07770176 0.066471055 -0.02462951 0.11144875 -0.096117906 -0.0030760455 0.024504172 0.15967853
0.102219425 -0.12319913 -0.08712547 0.033802543 -0.172822 -0.046886023 -0.012401297 -0.13782287
-0.17687035 -0.03715 0.16645445 -0.09306562 -0.17262314 -0.1421919 -0.015361346 -0.058407925
-0.10332791 0.10192611 -0.09058108 -0.09037233 0.03534049 0.022362022 0.03543234 0.11111826
0.0015464522 0.14400361 -0.09378643 0.05060924 -0.011781097 0.09091517 -0.13938282 0.1717089
-0.14015768 -0.013590356 -0.12899694 -0.022329696 0.13963708 0.09328737 -0.11120979 -0.0007891576
-0.028450787 -0.06134893 -0.07640996 0.04288307 0.16962759 -0.06486063 0.0965387 0.021926519
-0.05964801 -0.01929567 0.0037801296 0.16496924 -0.05171016 -0.124741964 -0.15740012 -0.026743123
0.57462454 0.014448909 -0.05970994 0.6406001 0.010865023 -0.1629597 0.37394658 -0.112216994
0.8196908 0.6494231 0.56098706 0.79080415 0.12937163 0.61608845 0.8018809 0.38933975
0.6195405 0.6188729 -0.04452629 1.4729062 -0.029893737 0.644918 -0.16402265 0.00089439825
-0.454069 0.09691754 -0.043407682 0.60591453 -0.30735868 0.6844612 -0.11038622 -0.1324753
0.78990257 -0.07249715 0.026923371 0.6485954 0.13857704 -0.12797312 0.6250911 -0.14054015
0.85602826 0.81512284 0.5710792 0.86967355 -0.031650778 0.6070036 0.57574546 0.14547116
0.45398435 0.5667148 -0.12580143 1.3325393 -0.15924405 0.5161373 0.10498297 0.027336657
-0.43747735 0.08867086 0.095964655 0.57876724 -0.39493626 0.7698126 0.065659374 0.06746595
-0.029198198 0.04318031 0.05591502 -0.10853123 0.115715645 -0.10970432 -0.08779686 0.06594431
-0.06701905 -0.16929805 0.092696 -0.06448175 0.0052305926 -0.13999505 -0.1732258 0.035539232
-0.029684678 0.0601551 0.15407632 0.16805354 0.15352891 -0.01978217 0.034748115 0.059046764
-0.0025828641 0.11056661 0.14098601 0.055638433 0.052925166 -0.12660764 0.06643462 -0.103815585
-0.1478524 0.08747233 0.029094707 -0.15168528 -0.048299085 -0.032874625 0.09618374 -0.060992874
-0.09288432 -0.16780148 0.06183324 -0.061167173 0.097085394 -0.09556608 0.0728094 -0.06787297
-0.14816096 0.1321877 0.085228495 -0.044128045 0.16840997 0.011166954 -0.023970893 0.119045034
-0.17279531 -0.14109752 -0.02671617 0.16336884 0.09988125 -0.17280442 0.13185611 0.055758595
00000000: 0701 143f 5a91 bc3d 6c5b f63d 2122 d83e
00000010: 9422 413d e4ff a73d dc6c ba3e 4567 1dbe
00000020: ac1d 113f bdbd 1e3f e776 e93e ac9b 473f
00000030: 3a22 8b3c 6742 bd3e 86db 1e3f b28b 0b3d
00000040: 199c d43e a82b 1a3f 400e d33c bb4d 993f
00000050: 0947 bebd 164c e23e 43d5 82bc 698c e2bd
00000060: 03bc e5be b6c3 31be 26e6 943d 7432 0a3f
00000070: b5fe 64be 745e 193f d987 063d 3002 b73c
00000080: f60a 97bd be7d fdbd 8b6e a6bc 2e56 0dbe
00000090: f33a e4bd d26a d63d 4daf cfbd ae46 053e
000000a0: 2991 8abd 393e 4fba f86c 9abc 852d 0abe
000000b0: 1c98 08bd 0ee7 ba3d 0e2e 08be 838e 243e
000000c0: bdde a03c 81ab ab3d c4fa 01bc fa23 ebbd
000000d0: 5e28 04be 8a8d bc3c 40fe c8bd cbb9 2cbd
000000e0: ce02 c8bd 5072 053e f85c 0f3e c6fa 8c3d
000000f0: 4327 833d 5963 1bbe c4da 38bc 66be 22be
00000100: 1a22 9f3d fa21 883d d3c3 c9bc 3e3f e43d
00000110: 77d9 c4bd 7b97 49bb f9bc c83c c582 233e
00000120: 6b58 d13d d34f fcbd d76e b2bd 8974 0a3d
00000130: 40f8 30be 8f0b 40bd cf2e 4bbc 7021 0dbe
00000140: 801d 35be 992a 18bd 0973 2a3e 3099 bebd
00000150: 1fc4 30be c19a 11be 28ae 7bbc 263d 6fbd
00000160: 959d d3bd a3be d03d 9382 b9bd 2115 b9bd
00000170: 31c1 103d 8f30 b73c 8021 113d f891 e33d
00000180: 53b2 ca3a af75 133e 1a13 c0bd a24b 4f3d
00000190: 8105 41bc bc31 ba3d 5fba 0ebe 75d4 2f3e
000001a0: 7f85 0fbe 16aa 5ebc c617 04be c4ec b6bc
000001b0: 06fd 0e3e 730d bf3d f5c1 e3bd 78df 4eba
000001c0: a011 e9bc 0449 7bbd d37c 9cbd 28a6 2f3d
000001d0: dbb2 2d3e a6d5 84bd 15b6 c53d 3e9f b33c
000001e0: 7951 74bd f411 9ebc 0dbc 773b b2ed 283e
000001f0: 08ce 53bd b778 ffbd 7f2d 21be 6514 dbbc
00000200: 981a 133f 1ebb 6c3c 6992 74bd 5efe 233f
00000210: 3603 323c e8de 26be ed75 bf3e 06d2 e5bd
00000220: 42d7 513f 9840 263f d99c 0f3f 2472 4a3f
00000230: ff79 043e f9b7 1d3f 1148 4d3f 8a57 c73e
00000240: 359a 1e3f 746e 1e3f 3361 36bd 3188 bc3f
00000250: b6e3 f4bc 5919 253f 8ef5 27be 0d76 6a3a
00000260: bb7b e8be b47c c63d 41cc 31bd 371d 1b3f
00000270: 1e5e 9dbe d938 2f3f 2c12 e2bd 9ba7 07be
00000280: 0e37 4a3f 6379 94bd 678e dc3c 590a 263f
00000290: 24e7 0d3e 630b 03be f805 203f c2e9 0fbe
000002a0: ab24 5b3f e4ab 503f 3f32 123f eda2 5e3f
000002b0: 3fa4 01bd 9764 1b3f 0e64 133f 64f6 143e
000002c0: a370 e83e 3914 113f 17d2 00be a690 aa3f
000002d0: df10 23be 9321 043f 5001 d73d 20f1 df3c
000002e0: 08fd dfbe 1199 b53d 1e89 c43d 172a 143f
000002f0: 1635 cabe 7012 453f 6c78 863d 972b 8a3d
00000300: 0f31 efbc d6dd 303d 2607 653d 9f45 debd
00000310: 53fc ec3d a9ac e0bd d7ce b3bd cf0d 873d
00000320: 4941 89bd 785c 2dbe 67d7 bd3d 020f 84bd
00000330: 6465 ab3b dd5a 0fbe 1b62 31be 9691 113d
00000340: 482d f3bc 3265 763d 2fc6 1d3e 3a16 2c3e
00000350: af36 1d3e 380e a2bc 0a54 0e3d 05db 713d
00000360: 4545 29bb bf70 e23d a35e 103e 20e5 633d
00000370: 0fc8 583d 6fa5 01be e00e 883d 449d d4bd
00000380: 9f66 17be b124 b33d 0658 ee3c 6353 1bbe
00000390: 43d5 45bd 8ba7 06bd fbfb c43d aad3 79bd
000003a0: 223a bebd 27d4 2bbe da44 7d3d 6e8a 7abd
000003b0: b5d4 c63d 26b8 c3bd 181d 953d fc00 8bbd
000003c0: 82b7 17be 365c 073e 478c ae3d 9cbf 34bd
000003d0: aa73 2c3e 9af5 363c 9b5e c4bc e2cd f33d
000003e0: 41f1 30be de7b 10be dfdb dabc 294a 273e
000003f0: 8a8e cc3d a4f3 30be 4a05 073e 2063 643d

linear_relu_stack.2.bias f4 [32]
0.7701794 -0.102849096 0.046970744 0.027527118 1.1185095 1.1262023 -0.15439527 0.023281876
-0.16980015 0.88851273 -0.17231248 0.919926 0.98974705 1.1557853 0.8822006 0.8450296
0.01730166 1.0732853 1.1949049 0.011921001 0.009797345 -0.047362246 -0.01280301 0.11910322
0.78879666 -0.12725541 -0.13587804 0.9556828 -0.011767543 -0.18405223 0.9124783 1.0719151
00000000: 7a2a 453f 8ca2 d2bd 6564 403d 8d80 e13c
00000010: 522b 8f3f 6627 903f cb19 1ebe a2b9 be3c
00000020: 17e0 2dbe 9275 633f af72 30be 4580 6b3f
00000030: 1060 7d3f c6f0 933f e6d7 613f dc53 583f
00000040: 36bc 8d3c 6a61 893f a5f2 983f 4d50 433c
00000050: 0b85 203c eafe 41bd b7c3 51bc 64ec f33d
00000060: 94ee 493f 3e4f 02be 9d23 0bbe a1a7 743f
00000070: a7cc 40bc 3078 3cbe 2e98 693f 8434 893f

linear_relu_stack.4.weight f4 [2, 32]
0.50965005 -0.029662572 -0.115419984 -0.1571928 0.9413578 0.8456487 0.15169717 -0.16316389
0.16720186 0.6811479 -0.15966883 0.6203302 0.48255613 0.99011475 0.54133123 0.74093276
0.08103678 0.9408632 1.1086441 -0.11417365 -0.13385046 -0.06334817 -0.13271151 -0.14248995
0.7235718 0.04427048 0.12921701 0.84894437 -0.15570523 -0.06367373 0.5055727 0.91726667
0.5285624 -0.044213686 0.06726272 0.016599894 0.6013961 0.8265135 0.12166058 -0.07695298
-0.10201337 0.5665563 -0.11172541 0.0770535 0.23148604 0.71919286 0.44419533 0.3566329
-0.17036314 0.7633714 0.8996914 0.081783734 -0.1358909 -0.048466682 0.07887377 -0.007297832
0.566823 -0.07308703 -0.14050767 0.91532004 -0.1163735 -0.055266947 0.3280324 0.57960296
00000000: 6d78 023f ecfe f2bc 5061 ecbd 26f7 20be
00000010: d3fc 703f 6f7c 583f 8156 1b3e 6f14 27be
00000020: f736 2b3e b55f 2e3f 3a80 23be f6cd 1e3f
00000030: 9911 f73e 2978 7d3f af94 0a3f c5ad 3d3f
00000040: 9cf6 a53d 69dc 703f 0de8 8d3f e0d3 e9bd
00000050: 1810 09be afbc 81bd 87e5 07be e3e8 11be
00000060: 003c 393f f654 353d 7751 043e 6b54 593f
00000070: 3171 1fbe 5f67 82bd 366d 013f fdd1 6a3f
00000080: de4f 073f 6919 35bd 09c1 893d 80fc 873c
00000090: 18f5 193f 6496 533f 2f29 f93d 8699 9dbd
000000a0: 63ec d0bd d509 113f 4bd0 e4bd 3ace 9d3d
000000b0: ad0a 6d3e 061d 383f 926d e33e 9698 b63e
000000c0: ad73 2ebe 4f6c 433f 2d52 663f 3b7e a73d
000000d0: fc26 0bbe 0085 46bd 9288 a13d a722 efbb
000000e0: 501b 113f a7ae 95bd 3ee1 0fbe 6a52 6a3f
000000f0: 3b55 eebd 985f 62bd ddf3 a73e dc60 143f

linear_relu_stack.4.bias f4 [2]
1.2506765 0.6009659
00000000: 2b16 a03f e7d8 193f
