Parameter/wallplaneDDPG_bay/01.pth (torch, 126407 bytes, 10 tensors)

elu_stack.0.weight f4 [100, 2]
0.15610889 -0.039832987 0.6700682 -0.28410643 -0.6328041 -0.39852676 -0.6214863 0.044189706
-0.035044428 0.31159857 -0.28602022 -0.26364076 -0.17384572 -0.48095682 -0.12662423 -0.42360163
0.30839506 0.40188563 0.42358956 0.25728628 -0.38606733 0.05455269 -0.3639248 0.012557232
0.2713592 0.22645763 -0.4001463 0.3048388 0.42800006 -0.596334 0.5502579 0.17914256
-0.43037993 0.62429065 -0.4535268 -0.68898225 -0.4153894 0.12810746 -0.6662666 0.30554745
0.69629097 0.41160214 -0.21237543 -0.11969418 0.47982305 -0.58438265 0.68220145 -0.38722315
-0.4862062 -0.38378134 -0.057454415 -0.5338219 0.0837092 0.43289644 -0.23063986 0.44081026
-0.04804016 0.093169235 -0.5354491 -0.22134782 -0.34920517 0.196026 -0.52059835 -0.24800225
-0.62344813 0.33589926 -0.28062415 0.6728445 -0.25238216 -0.4993363 -0.12317222 0.22930658
0.4561141 0.10800155 0.2812616 -0.43147793 0.09479854 0.43367952 0.034993432 -0.12784766
-0.1103874 -0.64462876 0.17691746 0.61521155 0.11926024 0.25679073 -0.5086952 0.047533132
0.12065639 -0.6247672 -0.51467276 -0.4765856 -0.25635213 0.38926533 -0.64071494 -0.06212715
-0.1108012 0.67011034 0.3848926 0.69210905 0.3171928 0.071200356 0.22777463 0.31205696
0.07420635 -0.104602404 -0.5424275 -0.68682986 -0.67998 -0.20696935 0.26754776 0.6246588
-0.004589792 -0.27928406 -0.41529456 -0.1460573 -0.26117897 -0.30434752 -0.21714099 0.09991003
0.0028728978 -0.6583696 -0.1808646 0.06940498 0.6779776 -0.36767164 0.15830524 -0.18590494
-0.65747243 -0.078462005 -0.021741536 0.5416784 -0.27147713 0.20983179 -0.69347775 0.1485286
-0.4938112 0.6930862 0.16728927 -0.19576082 -0.096681915 0.027143667 0.30916855 -0.06597676
-0.4642567 -0.43131363 -0.5811408 0.24336062 0.4795416 0.0826605 0.57378286 0.6136904
0.24008168 -0.29003733 0.6793588 -0.45511118 0.32888594 -0.4711194 -0.15237021 0.4910691
0.69735384 -0.65910363 -0.26234922 -0.4272967 -0.035115995 0.4352017 -0.03450023 0.47205785
-0.29475844 -0.5220792 -0.03663994 0.30102316 0.6979142 0.36415955 -0.22398816 0.5826486
-0.59261173 -0.35402957 0.3057324 0.6476157 0.16939737 0.2316154 0.13679467 -0.5049658
0.6838484 -0.076314874 -0.16976303 -0.6305445 -0.6496835 0.23332453 -0.40577072 -0.07026798
0.59368885 0.67034596 -0.07039097 -0.41740265 -0.27141112 -0.20484717 -0.6856332 -0.5423013
00000000: 02db 1f3e ea27 23bd 9789 2b3f 6676 91be
00000010: 73ff 21bf b30b ccbe ba19 1fbf 4400 353d
00000020: bf8a 0fbd d989 9f3e 3e71 92be ecfb 86be
00000030: 9d04 32be f93f f6be c8a9 01be 50e2 d8be
00000040: f5e5 9d3e f4c3 cd3e bbe0 d83e 07bb 833e
00000050: 9eaa c5be a472 5f3d 5a54 babe d9bc 4d3c
00000060: 98ef 8a3e 82e4 673e fadf ccbe d513 9c3e
00000070: d322 db3e 58a9 18bf b4dd 0c3f 2671 373e
00000080: c25a dcbe 83d1 1f3f aa34 e8be 2461 30bf
00000090: ebad d4be 9a2e 033e 7390 2abf b770 9c3e
000000a0: 2040 323f 84bd d23e f278 59be 3922 f5bd
000000b0: 5eab f53e 1a9a 15bf c1a4 2e3f 1d42 c6be
000000c0: 05f0 f8be fd7e c4be 5255 6bbd 8da8 08bf
000000d0: bb6f ab3d 9aa4 dd3e db2c 6cbe e2b1 e13e
000000e0: c2c5 44bd 83cf be3d 3113 09bf 01a9 62be
000000f0: 05cb b2be 0abb 483e ef45 05bf 4df4 7dbe
00000100: 4c9a 1fbf fdfa ab3e f8ad 8fbe 8a3f 2c3f
00000110: 3c38 81be 02a9 ffbe b841 fcbd 58cf 6a3e
00000120: ca87 e93e eb2f dd3d 8501 903e adea dcbe
00000130: bd25 c23d 3e0b de3e 4655 0f3d 7fea 02be
00000140: ca12 e2bd 6406 25bf da29 353e 817e 1d3f
00000150: b63e f43d 137a 833e d939 02bf 1ab2 423d
00000160: b31a f73d bef0 1fbf 98c1 03bf 0703 f4be
00000170: 9640 83be c94d c73e e505 24bf 0a79 7ebd
00000180: bdeb e2bd 5a8c 2b3f a510 c53e 0f2e 313f
00000190: 1867 a23e 7ed1 913d c13d 693e eec5 9f3e
000001a0: 80f9 973d c939 d6bd 87dc 0abf 15d4 2fbf
000001b0: 2b13 2ebf c6ef 53be 05fc 883e a4e9 1f3f
000001c0: f765 96bb 52fe 8ebe 7da1 d4be 0b90 15be
000001d0: 40b9 85be 70d3 9bbe 355a 5ebe a19d cc3d
000001e0: 3a47 3c3b e98a 28bf 9234 39be 3324 8e3d
000001f0: f18f 2d3f 753f bcbe c51a 223e dd5d 3ebe
00000200: 1d50 28bf b0b0 a0bd 4e1b b2bc 70ab 0a3f
00000210: 0dff 8abe 25de 563e c287 31bf e217 183e
00000220: d2d4 fcbe 196e 313f e14d 2b3e 8675 48be
00000230: 2b01 c6bd 655c de3c 574b 9e3e d31e 87bd
00000240: 0eb3 edbe 24d5 dcbe a5c5 14bf 8733 793e
00000250: 7a86 f53e e949 a93d 6fe3 123f d01a 1d3f
00000260: f9d7 753e c67f 94be 75ea 2d3f 5504 e9be
00000270: bd63 a83e 9036 f1be f006 1cbe 696d fb3e
00000280: c885 323f 04bb 28bf a352 86be a2c6 dabe
00000290: cad5 0fbd c2d2 de3e 1d50 0dbd 91b1 f13e
000002a0: 94ea 96be fca6 05bf c313 16bd b51f 9a3e
000002b0: 81aa 323f 1f73 ba3e 275d 65be 7528 153f
000002c0: 67b5 17bf 5d43 b5be f588 9c3e 24ca 253f
000002d0: 8176 2d3e 962c 6d3e e713 0c3e 7045 01bf
000002e0: b010 2f3f f94a 9cbd 5cd6 2dbe 5d6b 21bf
000002f0: a851 26bf a0ec 6e3e 2ec1 cfbe a9e8 8fbd
00000300: fefb 173f cb9b 2b3f 2429 90bd cdb5 d5be
00000310: 66f6 8abe 75c3 51be a885 2fbf 42d4 0abf

elu_stack.0.bias f4 [100]
-0.015180452 0.66366595 -0.05470678 0.6601599 -0.33107477 0.21989225 -0.63890684 0.44323993
-0.5595194 -0.13123576 0.05535078 -0.30068564 -0.43816513 -0.2745009 0.1439459 -0.29315072
-0.09270469 0.21909474 0.23642738 0.003539998 -0.6413365 0.020179827 -0.29510152 -0.12925604
-0.56432277 -0.34331515 0.45559943 0.46742693 -0.6172587 -0.19276029 0.5046039 0.6759535
-0.6778139 0.21373358 -0.019959398 0.495718 -0.53766453 0.34807345 0.63707554 0.45008063
-0.55526215 -0.6720499 0.49752256 0.19347763 -0.4426461 0.48665464 -0.39559805 -0.32118207
-0.4901639 0.5683629 0.17300253 0.5139511 0.18018705 0.09089642 0.33744073 -0.43672892
-0.053627312 0.09421001 0.5057013 -0.37761426 -0.3817342 -0.57395947 0.3710697 -0.15655395
-0.2244431 -0.6367155 -0.13325864 0.6272913 0.14817129 0.22143853 -0.68968666 -0.28120106
-0.32847676 -0.03832497 -0.478897 -0.7069133 0.4961768 0.66944164 -0.24635684 0.06487858
0.2950759 0.68115664 -0.30137095 -0.009906027 0.054412004 0.42394528 0.35481003 -0.55384606
-0.00020921695 0.08059034 0.07352383 -0.2923232 -0.562176 0.41034442 0.21951933 -0.5467784
0.47482437 0.058470238 0.033459708 0.19965932
00000000: 6eb7 78bc 03e6 293f 3714 60bd 3d00 293f
00000010: a282 a9be 6f2b 613e 668f 23bf 58f0 e23e
00000020: aa3c 0fbf ab62 06be 80b7 623d 78f3 99be
00000030: 2e57 e0be 628b 8cbe 8e66 133e da17 96be
00000040: f5db bdbd 5f5a 603e 051a 723e 50ff 673b
00000050: a12e 24bf 2a50 a53c 8c17 97be b25b 04be
00000060: 7577 10bf 01c7 afbe 5444 e93e 9552 ef3e
00000070: ab04 1ebf f462 45be b92d 013f 4a0b 2d3f
00000080: 3685 2dbf fadc 5a3e e481 a3bc c0ce fd3e
00000090: 62a4 09bf af36 b23e 6217 233f f870 e63e
000000a0: a925 0ebf 760b 2cbf 47bb fe3e 001f 463e
000000b0: 82a2 e2be cc2a f93e d48b cabe fa71 a4be
000000c0: c3f6 fabe 3b80 113f 9327 313e 4d92 033f
000000d0: f482 383e e727 ba3d 08c5 ac3e ef9a dfbe
000000e0: 50a8 5bbd 2df1 c03d a475 013f a856 c1be
000000f0: aa72 c3be 02ef 12bf d9fc bd3e ae4f 20be
00000100: 69d4 65be c9ff 22bf f474 08be 2a96 203f
00000110: 37ba 173e c8c0 623e 4e8f 30bf 96f9 8fbe
00000120: 1b2e a8be a5fa 1cbd fd31 f5be 45f8 34bf
00000130: e30a fe3e 8760 2b3f f844 7cbe 10df 843d
00000140: 3014 973e 4860 2e3f 4b4d 9abe e34c 22bc
00000150: 1fdf 5e3d 5b0f d93e a9a9 b53e dbc8 0dbf
00000160: 3f61 5bb9 8c0c a53d a993 963d 63ab 95be
00000170: c4ea 0fbf aa18 d23e adc9 603e abf9 0bbf
00000180: 2e1c f33e 7d7e 6f3d 0c0d 093d 7e73 4c3e

elu_stack.2.weight f4 [100, 100]
0.02040335 0.071442485 -0.058662128 -0.04895475 -0.0710632 0.042494167 0.08750947 0.008252657
-0.033958126 -0.025899876 0.0046444773 0.0014900208 0.077563025 -0.061705735 0.062045634 0.04418235
0.0037321092 0.025624871 0.03505527 0.06447853 0.0010555983 -0.044747103 -0.048019446 0.08920776
-0.095899165 -0.002471876 -0.034002136 0.09115006 -0.022847116 -0.027835047 -0.039280474 0.049689043
0.09615191 0.07733154 0.023434078 -0.089618824 0.067401044 0.06487037 -0.088674866 0.06037432
0.0031941652 -0.0798223 -0.09505703 0.056058552 -0.061754774 0.03266566 -0.077256456 -0.014918185
0.013042474 -0.075455405 -0.05582073 0.09886091 -0.0005265951 0.08604144 0.08433558 0.09871315
-0.004778135 0.037232567 0.091322124 -0.01591599 -0.0057295086 -0.05265987 0.013981414 -0.01269635
0.023186266 -0.09048857 0.014752495 0.0027037382 0.013412083 0.009431231 0.06269181 0.008977043
-0.013984585 -0.0018063784 -0.06436347 0.08206308 -0.023504103 -0.065875925 0.02684393 -0.03951657
0.019068254 -0.07278546 -0.036442768 0.07336285 0.031000186 -0.09086489 0.0032908916 0.032770194
0.0533468 -0.050757885 -0.08249563 0.046141934 -0.085322335 -0.055416953 0.09324558 -0.09372983
-0.09415199 0.04389591 -0.09501016 -0.0077393292 0.05780032 0.06350819 -0.012109304 0.0033028007
0.031845737 -0.05732974 -0.019814003 0.05333234 0.04588635 -0.0049757003 -0.09150498 -0.092220835
0.09848054 0.008660602 0.03368547 0.040465593 0.06648382 0.035766937 0.057234205 -0.032398093
0.01102618 0.00441618 0.0034552098 0.016027546 0.03975923 0.052727915 0.037872948 0.08431393
-0.03505615 -0.09641148 0.02819457 0.028181208 0.034514893 -0.060410142 0.08837155 -0.096756294
0.07933437 -0.07661398 -0.02460419 0.029109705 -0.010956931 -0.08782603 -0.045113396 -0.00037785768
0.07604617 -0.033035852 -0.06643021 -0.04013715 0.056952 -0.0006297827 -0.005016899 -0.04195663
0.04020194 0.0753981 0.030046774 0.041460276 -0.014243806 0.009019923 -0.0037293911 -0.05680597
0.045280565 0.06352376 0.047920536 0.08653978 0.044693828 -0.010372782 0.06579136 -0.088702284
-0.071362965 0.020955933 0.001011622 0.07987019 0.03215293 0.08304302 0.07063065 -0.029261483
-0.007842791 0.021624243 -0.06856042 0.00024266243 -0.090524256 0.01744777 -0.047065545 0.029944599
0.003150499 0.023504162 0.061022032 0.060641147 -0.086342655 0.090381525 0.04124966 -0.014796448
-0.09092849 -0.04122895 0.055491544 -0.07270974 -0.03158865 -0.0572641 0.052672792 -0.09771502
-0.05588081 0.05348722 0.097767554 0.07256021 -0.09355395 -0.085696235 -0.051944386 0.057675958
-0.012261665 -0.089975975 -0.07945641 0.002384758 0.085493185 0.0824453 0.06273227 0.08221884
0.09573326 0.09662217 0.013390339 0.008518147 -0.07955103 -0.066530086 0.02638526 -0.09918753
0.008221579 -0.09578049 -0.08861198 0.053334393 -0.025143648 0.039926063 -0.07615421 -0.031273246
-0.07507451 0.005128801 0.080702364 -0.017965352 0.053501725 -0.002188909 0.020880997 0.036321938
0.016457533 0.01940669 0.019455958 -0.08310385 -0.04307382 -0.010126579 0.07617406 0.06819663
0.010724092 -0.04873698 0.042462315 -0.08994768 -0.010556507 -0.0568452 0.06483307 0.032783844
00000000: ed24 a73c 7050 923d b347 70bd c784 48bd
00000010: 9589 91bd 5d0e 2e3d 2a38 b33d 2736 073c
00000020: ad17 0bbd fa2b d4bc b330 983b cd4c c33a
00000030: 5dd9 9e3d 27bf 7cbd 9023 7e3d 8df8 343d
00000040: 6796 743b 40eb d13c 1d96 0f3d 520d 843d
00000050: 005c 8a3a bd48 37bd 0ab0 44bd 8fb2 b63d
00000060: c866 c4bd 33ff 21bb d345 0bbd e2ac ba3d
00000070: e029 bbbc 5306 e4bc 90e4 20bd bd86 4b3d
00000080: 4beb c43d 0060 9e3d d3f8 bf3c 138a b7bd
00000090: 8f09 8a3d c2da 843d 2b9b b5bd 104b 773d
000000a0: 3355 513b e079 a3bd 43ad c2bd a79d 653d
000000b0: 93f2 7cbd 6dcc 053d a238 9ebd 676b 74bc
000000c0: 1ab0 553c 5d88 9abd 47a4 64bd 9777 ca3d
000000d0: 330b 0aba 7f36 b03d 22b8 ac3d 1f2a ca3d
000000e0: e791 9cbb 2d81 183d 1807 bb3d 4062 82bc
000000f0: 9abe bbbb e0b1 57bd 4d12 653c 5a04 50bc
00000100: 20f1 bd3c 1252 b9bd 73b4 713c 3331 313b
00000110: 5abe 5b3c 7385 1a3c 9064 803d 7314 133c
00000120: 9a1f 65bc 00c4 ecba ffd0 83bd b010 a83d
00000130: ad8b c0bc f5e9 86bd cde7 db3c 20dc 21bd
00000140: 0735 9c3c 8b10 95bd 0345 15bd 433f 963d
00000150: 1af4 fd3c 5f17 babd 00ac 573b 0a3a 063d
00000160: 2d82 5a3d 80e7 4fbd 78f3 a8bd 53ff 3c3d
00000170: 7abd aebd e3fc 62bd 8af7 be3d 6df5 bfbd
00000180: c2d2 c0bd 33cc 333d b094 c2bd 339a fdbb
00000190: 07c0 6c3d 9510 823d 1a66 46bc cd73 583b
000001a0: ad70 023d 97d2 6abd fa50 a2bc 0373 5a3d
000001b0: 53f3 3b3d 330b a3bb f766 bbbd 47de bcbd
000001c0: 2ab0 c93d 33e5 0d3c c7f9 093d 40bf 253d
000001d0: ab28 883d 5a80 123d 6a6e 6a3d ddb3 04bd
000001e0: 27a7 343c 9ab5 903b cd70 623b 334c 833c
000001f0: 93da 223d 3af9 573d aa20 1b3d c8ac ac3d
00000200: 0a97 0fbd 6273 c5bd 4df8 e63c 47dc e63c
00000210: 7d5f 0d3d a070 77bd 25fc b43d 2a28 c6bd
00000220: 0f7a a23d cae7 9cbd ba8e c9bc 7a77 ee3c
00000230: b384 33bc 22de b3bd d3c8 38bd 331b c6b9
00000240: 18be 9b3d 9a50 07bd 900c 88bd da66 24bd
00000250: 8046 693d 0018 25ba cd64 a4bb b7da 2bbd
00000260: caaa 243d 526a 9a3d a724 f63c 40d2 293d
00000270: da5e 69bc 4dc8 133c cd68 74bb 60ad 68bd
00000280: 1d78 393d bf18 823d 5348 443d c53b b13d
00000290: e010 373d 9af2 29bc 9fbd 863d 8ba9 b5bd
000002a0: bf26 92bd c7ab ab3c 6798 843a fb92 a33d
000002b0: cab2 033d 7512 aa3d cda6 903d c7b5 efbc
000002c0: 0d7f 00bc 5325 b13c 6869 8cbd 3373 7e39
000002d0: c864 b9bd a0ee 8e3c cdc7 40bd 604e f53c
000002e0: 9a78 4e3b cd8b c03c 3df2 793d da62 783d
000002f0: 6bd4 b0bd f319 b93d 67f5 283d cd6c 72bc
00000300: b738 babd b0df 28bd 1a4b 633d d8e8 94bd
00000310: 1a63 01bd c38d 6abd 6dbf 573d d01e c8bd
00000320: 47e3 64bd 6a15 5b3d 5b3a c83d 739a 943d
00000330: 3799 bfbd 8281 afbd a3c3 54bd a03d 6c3d
00000340: 27e5 48bc 5345 b8bd 0bba a2bd 9a49 1c3b
00000350: 0d17 af3d 15d9 a83d c779 803d 5a62 a83d
00000360: cd0f c43d d8e1 c53d 2763 5b3c b38f 0b3c
00000370: a7eb a2bd ed40 88bd e725 d83c d522 cbbd
00000380: cdb3 063c 9028 c4bd 337a b5bd 2a75 5a3d
00000390: 0dfa cdbc 8389 233d bdf6 9bbd 6018 00bd
000003a0: aac0 99bd 800f a83b 4847 a53d 132c 93bc
000003b0: a024 5b3d cd73 0fbb a00e ab3c 50c6 143d
000003c0: f3d1 863c c7fa 9e3c 1a62 9f3c 5a32 aabd
000003d0: 2d6e 30bd f3e9 25bc 2501 9c3d adaa 8b3d
000003e0: 1ab4 2f3c 6da0 47bd f7ec 2d3d 7d36 b8bd
000003f0: 33f5 2cbc 83d6 68bd 33c7 843d 5a48 063d

elu_stack.2.bias f4 [100]
0.06949252 0.0005423665 0.09968096 -0.06807732 0.046205666 0.08779418 -0.090570524 0.07784151
-0.051037755 -0.0552966 0.08837923 0.08348268 0.029664362 0.06890815 0.07846353 0.09393748
0.016106976 -0.025560511 -0.010868466 -0.068579495 -0.047911204 -0.063713744 0.04736991 0.03316119
-0.0325989 -0.07757254 -0.033341862 0.0010684133 -0.09886318 -0.08642472 0.026617372 0.051282395
0.04753485 -0.07485031 0.063472725 0.050920356 0.026452292 0.085046865 -0.0968399 -0.033194877
0.00064855814 -0.086840704 -0.012445784 -0.06351962 -0.03331076 -0.097591475 0.08824866 0.05548917
0.07246548 -0.038831484 -0.07683891 -0.05898825 -0.04092714 0.032349695 0.07511263 0.07078971
-0.021893919 -0.01576115 -0.04474751 0.07789693 -0.09905918 -0.09728848 0.011969007 0.045636095
-0.06770827 -0.06676765 0.030362153 -0.017827189 0.018093586 -0.050906636 0.013384032 -0.0944403
-0.022055818 0.057273783 -0.010222829 -0.0053308606 0.008750439 0.08405709 -0.0004300475 0.0183854
-0.019857777 -0.07344508 -0.05503143 -0.012669945 0.049459435 -0.087452985 -0.08618095 0.016730964
0.070538774 0.08768474 0.07944303 0.0471684 0.015977884 0.090554975 0.041983794 0.025338305
0.051997554 -0.055324923 -0.047728993 0.054861832
00000000: 1852 8e3d 9a2d 0e3a 8825 cc3d 1f6c 8bbd
00000010: 2742 3d3d 6fcd b33d 0a7d b9bd 5f6b 9f3d
00000020: f70c 51bd b07e 62bd 2b00 b53d f8f8 aa3d
00000030: ad02 f33c b71f 8d3d 7db1 a03d 4b62 c03d
00000040: c7f2 833c 4764 d1bc a711 32bc 6873 8cbd
00000050: 8a3e 44bd 5a7c 82bd f306 423d 07d4 073d
00000060: 6d86 05bd 5ade 9ebd 7a91 08bd 000a 8c3a
00000070: c778 cabd 72ff b0bd ad0c da3c 7d0d 523d
00000080: e7b3 423d 1f4b 99bd fdfd 813d dd91 503d
00000090: 7ab2 d83c 0d2d ae3d ff53 c6bd 5af7 07bd
000000a0: 0004 2a3a 8ad9 b1bd 67e9 4bbc 9316 82bd
000000b0: dd70 08bd 0ade c7bd b7bb b43d 9d48 633d
000000c0: c868 943d c30d 1fbd b85d 9dbd aa9d 71bd
000000d0: 37a3 27bd 1d81 043d a7d4 993d 32fa 903d
000000e0: e05a b3bc 871d 81bc 2a49 37bd 6d88 9f3d
000000f0: 8adf cabd 2f3f c7bd a719 443c eaec 3a3d
00000100: a2aa 8abd 7abd 88bd 0dba f83c 530a 92bc
00000110: 0039 943c 7a83 50bd b348 5b3c ea69 c1bd
00000120: 67ae b4bc ea97 6a3d a77d 27bc 80ae aebb
00000130: 005e 0f3c 2026 ac3d 0078 e1b9 fa9c 963c
00000140: c7ac a2bc 606a 96bd a368 61bd 9a95 4fbc
00000150: fa95 4a3d 8d1a b3bd a37f b0bd 600f 893c
00000160: a276 903d 0f94 b33d 07b3 a23d a733 413d
00000170: 0de4 823c e374 b93d 33f7 2b3d 4792 cf3c
00000180: 63fb 543d 639c 62bd 7a7f 43bd cdb6 603d

elu_stack.4.weight f4 [100, 100]
-0.09511035 0.079009 -0.07283594 0.02157631 0.091678225 -0.04976636 0.09947534 0.003939605
0.07963836 -0.04319639 0.027540172 0.07832569 0.04897293 0.065722 0.07843321 -0.057057
-0.056859184 -0.03245175 0.002374351 -0.09462233 -0.06007451 0.07786097 -0.07519143 0.00250808
0.046791114 0.05587989 0.003101933 0.073076546 -0.05409502 0.041318096 -0.019867076 0.00051673653
-0.065773524 0.021889603 0.08297753 0.08291997 0.08851409 -0.0052057505 -0.040593814 -0.044463433
-0.06979823 0.05927358 -0.026551653 -0.019676734 0.025828088 0.057634722 0.018802274 -0.081306696
0.05212325 -0.052709725 -0.08635932 -0.0337932 -0.025947643 0.0009401083 0.0016560555 -0.024556125
-0.07230492 -0.096312754 -0.06263113 -0.07318746 0.0478428 -0.033117294 -0.029529942 -0.09912131
0.07562858 0.0944302 0.051128007 0.0655696 -0.021194745 -0.030156208 -0.06564838 -0.083848216
-0.022325588 0.018130934 0.09628785 0.032713056 0.020522166 0.08765435 0.03657956 0.008061099
-0.041343033 -0.09134715 -0.029160453 0.042130936 0.024893617 -0.07068377 -0.01915865 0.09672622
-0.036750436 -0.004715407 -0.08940574 -0.044892408 0.051518716 0.094583705 -0.08316254 -0.0019268155
0.04768913 -0.06277557 0.094641045 0.008069873 0.07676548 -0.03497645 0.008020914 -0.053347852
-0.0046758177 0.00019897222 -0.025575448 -0.06978633 0.08105361 -0.05957774 -0.016243542 0.000712359
-0.048371103 -0.0027754188 0.022358967 0.087151505 -0.030026495 0.0287117 0.091800384 0.094950214
0.09315752 -0.04734036 -0.012878037 -0.008186567 -0.07877731 -0.045065403 0.08816832 -0.04194231
-0.09922644 -0.06451281 -0.05155878 -0.052545346 0.04547149 -0.07861836 0.023310198 0.08258287
-0.09092633 -0.09771939 0.07223319 -0.0012866736 -0.02254889 0.031230295 0.011256516 0.030770957
0.05402335 -0.044085827 -0.033328842 -0.04411168 0.011184144 0.034483194 -0.03404454 -0.08528408
0.0020717501 -0.09963258 -0.05814029 0.004010308 -0.067987315 0.063141465 -0.05333543 -0.00960908
0.08709674 0.009354544 0.009473729 -0.060730506 0.03758354 0.06741613 0.051806714 0.010620952
-0.01952821 -0.042989135 -0.030665517 -0.011206961 -0.09935855 -0.06059703 -0.057276774 -0.09915223
-0.04232489 -0.014394367 -0.09445759 -0.07814461 -0.010427034 -0.08767008 -0.09946219 -0.026297165
-0.09104502 0.03589027 0.03712219 0.036683608 -0.050249625 -0.0013114334 -0.050509572 0.078607045
0.076773144 -0.092939995 -0.019477857 -0.019928372 0.0339391 0.0014463306 -0.041451264 -0.09878445
0.0026348473 -0.00076223613 -0.006344843 -0.06141713 0.0646159 0.0204275 -0.09186669 0.054054726
-0.070577756 0.021140337 0.059040096 -0.07014469 -0.042434514 0.033452727 0.05539124 -0.09301572
-0.08327816 0.034888577 0.06739217 -0.05350813 -0.053474676 0.020970954 0.02439344 -0.02020501
-0.02132069 -0.010408497 0.091376126 -0.030577375 -0.09770638 0.0972214 0.06820772 0.0125177745
-0.046355512 0.0031069636 -0.05696845 0.09027509 0.04265597 -0.0411618 -0.04172833 -0.060785104
0.024651159 -0.008601332 0.08041074 0.054781463 -0.07041985 0.07274278 0.08825169 0.01886468
0.018284071 -0.077110365 0.06805958 -0.045345284 0.003311169 -0.079825036 -0.09935935 0.031271625
00000000: 37c9 c2bd 78cf a13d 022b 95bd cdc0 b03c
00000010: cbc1 bb3d d0d7 4bbd bab9 cb3d cd17 813b
00000020: 7019 a33d b3ee 30bd ed9b e13c 3869 a03d
00000030: d797 483d 4299 863d 97a1 a03d 9ab4 69bd
00000040: 2de5 68bd 20ec 04bd 009b 1b3b 5ac9 c1bd
00000050: b010 76bd 9275 9f3d f7fd 99bd 9a5e 243b
00000060: 0aa8 3f3d 50e2 643d cd49 4b3b 28a9 953d
00000070: bd92 5dbd 2a3d 293d 47c0 a2bc 9a75 073a
00000080: 45b4 86bd d351 b33c 20f0 a93d f2d1 a93d
00000090: e046 b53d 0095 aabb b345 26bd 4a1f 36bd
000000a0: 60f2 8ebd dac8 723d da82 d9bc 1a31 a1bc
000000b0: 6d95 d33c 6312 6c3d 3a07 9a3c 2084 a6bd
000000c0: 307f 553d 27e6 57bd 28dd b0bd bd6a 0abd
000000d0: 2790 d4bc 9a71 763a 0010 d93a ed29 c9bc
000000e0: 9a14 94bd 9f3f c5bd c044 80bd 4fe3 95bd
000000f0: d0f6 433d 00a6 07bd c7e8 f1bc 1d00 cbbd
00000100: 28e3 9a3d 9f64 c13d 9a6b 513d 5b49 863d
00000110: 9aa0 adbc 270a f7bc a872 86bd 9db8 abbd
00000120: 27e4 b6bc 5387 943c 9032 c53d 20fe 053d
00000130: 1a1e a83c 2084 b33d 73d4 153d b312 043c
00000140: 5057 29bd 3714 bbbd e7e1 eebc 7d91 2c3d
00000150: b3ed cb3c a7c2 90bd 9af2 9cbc 6518 c63d
00000160: a087 16bd b383 9abb 5b1a b7bd 1ae1 37bd
00000170: 4a05 533d 1ab5 c13d 1f51 aabd 338d fcba
00000180: ad55 433d 7a90 80bd 2ad3 c13d 8037 043c
00000190: 3837 9d3d 7743 0fbd 276a 033c 4783 5abd
000001a0: 9a37 99bb 33a3 5039 9a83 d1bc 23ec 8ebd
000001b0: 6fff a53d ca07 74bd 2d11 85bc 9abd 3a3a
000001c0: c720 46bd cde3 35bb 272a b73c 7d7c b23d
000001d0: 20fa f5bc cd34 eb3c d701 bc3d 4275 c23d
000001e0: 5fc9 be3d f7e7 41bd 67fe 52bc f320 06bc
000001f0: 0056 a1bd 8096 38bd 9891 b43d b3cb 2bbd
00000200: 3b37 cbbd 4b1f 84bd 4d2f 53bd ca39 57bd
00000210: 5040 3a3d aa02 a1bd 07f5 be3c 3521 a93d
00000220: 9537 babd 1b21 c8bd ffee 933d 9aa5 a8ba
00000230: 73b8 b8bc add6 ff3c 406d 383c 6013 fc3c
00000240: 9747 5d3d 5793 34bd d383 08bd 73ae 34bd
00000250: b33d 373c 403e 0d3d 4a72 0bbd 6ba9 aebd
00000260: 33c6 073b 2b0c ccbd 8324 6ebd e768 833b
00000270: ef3c 8bbd 5050 813d 4076 5abd 676f 1dbc
00000280: c75f b23d cd43 193c b337 1b3c 8dc0 78bd
00000290: 33f1 193d 7811 8a3d 4733 543d 8003 2e3c
000002a0: a0f9 9fbc 6015 30bd 4036 fbbc 679d 37bc
000002b0: 7f7c cbbd 9734 78bd 0d9b 6abd 5310 cbbd
000002c0: dd5c 2dbd 5ad6 6bbc fb72 c1bd 480a a0bd
000002d0: 27d6 2abc 5f8c b3bd d5b2 cbbd 276d d7bc
000002e0: d075 babd ad01 133d 700d 183d 8d41 163d
000002f0: 8dd2 4dbd 67e4 abba 20e3 4ebd bbfc a03d
00000300: 3d3b 9d3d 5357 bebd 0790 9fbc d340 a3bc
00000310: ba03 0b3d cd92 bd3a cdc8 29bd 804f cabd
00000320: 67ad 2c3b cdd0 47ba 67e8 cfbb 8790 7bbd
00000330: 5755 843d 9357 a73c 9a24 bcbd 7d68 5d3d
00000340: 128b 90bd 802e ad3c 07d4 713d 05a8 8fbd
00000350: d0cf 2dbd ba05 093d ede1 623d 077f bebd
00000360: bd8d aabd 53e7 0e3d e804 8a3d 572b 5bbd
00000370: 4308 5bbd 47cb ab3c c0d4 c73c fa84 a5bc
00000380: baa8 aebc 6788 2abc 6823 bb3d 677d fabc
00000390: 481a c8bd 031c c73d 7db0 8b3d 5a17 4d3c
000003a0: 47df 3dbd 339e 4b3b c057 69bd 25e2 b83d
000003b0: 07b8 2e3d 4799 28bd 53eb 2abd cdf9 78bd
000003c0: 3af1 c93c 9aec 0cbc 63ae a43d 8762 603d
000003d0: 4838 90bd 2bfa 943d 4dbd b43d 1a8a 9a3c
000003e0: 7ac8 953c 0aec 9dbd d262 8b3d fabb 39bd
000003f0: 3300 593b 4f7b a3bd ea7c cbbd ad16 003d

elu_stack.4.bias f4 [100]
-0.06865833 -0.071546115 -0.007460034 0.0050070407 0.097874455 -0.05581342 0.03664061 0.087419145
-0.034304906 0.013360083 -0.077609934 0.07323625 0.002518332 0.074540555 0.0765331 0.0717224
-0.061280597 0.004172242 0.016536832 0.09417689 0.088864066 0.04903878 0.011507344 -0.06235961
-0.08210223 -0.011646772 -0.0597775 0.0852884 0.071262754 0.015908433 -0.06986467 0.037378322
0.081914775 0.05735557 0.052622046 -0.030838585 -0.041049708 0.008493507 -0.07536902 0.093611576
-0.0950554 0.013703859 0.020253373 -0.046941724 -0.032004595 -0.09632959 -0.024580693 -0.060169246
-0.08486165 0.04438765 0.062962905 -0.034494568 0.04481223 0.00526191 0.058217358 0.079602085
0.09805717 0.036429178 -0.018756986 -0.0607633 -0.05839466 0.0803284 -0.06050512 -0.05151547
0.099615216 -0.09299139 -0.0748948 -0.08841667 0.06521404 -0.07837894 -0.088629425 -0.056907415
-0.05036224 -0.07201316 -0.034193207 -0.015547502 -0.0014225602 0.068377115 0.07522017 -0.017337942
-0.046581507 -0.004516721 -0.01682669 0.095600165 0.08192866 0.01585257 0.0039613484 0.012610483
-0.03092773 0.048791494 -0.009305537 0.085609846 -0.069676995 -0.031225836 -0.040534306 0.02586006
0.027816987 -0.085682966 -0.08695214 0.09458616
00000000: bd9c 8cbd c586 92bd 4d73 f4bb 1a12 a43b
00000010: 6772 c83d 9d9c 64bd 7714 163d cf08 b33d
00000020: 4d83 0cbd 40e4 5a3c f5f1 9ebd e3fc 953d
00000030: 9a0a 253b b8a8 983d 63bd 9c3d 32e3 923d
00000040: 5d01 7bbd 4db7 883b 4078 873c d0df c03d
00000050: 5dfe b53d e3dc 483d 4d89 3c3c ca6c 7fbd
00000060: 3725 a8bd 1ad2 3ebc 40d9 74bd afab ae3d
00000070: 35f2 913d 6752 823c 3515 8fbd 031a 193d
00000080: efc2 a73d aded 6a3d 378a 573d 33a1 fcbc
00000090: bd23 28bd 5a28 0b3c 135b 9abd 6db7 bf3d
000000a0: 68ac c2bd 2786 603c 67ea a53c f745 40bd
000000b0: 4017 03bd 7348 c5bd 735d c9bc 0774 76bd
000000c0: f2cb adbd d3cf 353d b2f2 803d 2d4a 0dbd
000000d0: 078d 373d 1a6c ac3b 5375 6e3d 6b06 a33d
000000e0: 33d2 c83d c336 153d 40a8 99bc f0e2 78bd
000000f0: 3d2f 6fbd 3783 a43d 37d4 77bd e301 53bd
00000100: 1003 cc3d 4572 bebd 7262 99bd cd13 b5bd
00000110: f08e 853d 2385 a0bd 5883 b5bd c017 69bd
00000120: a348 4ebd a37b 93bd 2d0e 0cbd f3ba 7ebc
00000130: 3375 baba 4d09 8c3d 080d 9a3d 4d08 8ebc
00000140: 40cc 3ebd 0001 94bb 20d8 89bc 05ca c33d
00000150: 37ca a73d 40dd 813c 33ce 813b 339c 4e3c
00000160: 275c fdbc 97d9 473d 4076 18bc 3754 af3d
00000170: d0b2 8ebd 53cd ffbc 4d07 26bd 7ad8 d33c
00000180: 73e0 e33c 8d7a afbd f713 b2bd 63b6 c13d

elu_stack.6.weight f4 [100, 100]
0.058842313 -0.08843893 0.066665016 -0.03664414 0.058745373 -0.046522703 -0.08205805 -0.04210768
0.028104007 -0.023609972 0.09213287 -0.004055381 0.07976713 -0.027908696 -0.03871944 -0.066612534
0.07345424 0.012511003 -0.0857652 0.038268853 0.08055156 0.08283762 -0.07425356 0.08901607
0.029199375 -0.073381245 -0.050979853 0.02038002 0.030021263 0.044728782 -0.08790475 0.07977977
0.085319296 0.012431455 -0.07736863 0.016874624 0.09483156 0.017284691 0.0063645006 -0.008264172
-0.020785762 -0.052310348 0.03017037 0.04701667 0.024017656 0.004320407 -0.03298856 0.09772278
0.06859603 0.006118989 -0.09334388 0.06553872 0.05813091 -0.08988519 -0.0835494 0.06716949
-0.033548202 -0.02102654 0.042673673 -0.046919074 -0.09891317 -0.09247253 -0.09592658 0.073575
0.0023765683 -0.049324203 -0.021029174 -0.022957778 0.039814737 -0.055389 0.01992382 -0.03544278
-0.07399124 0.0822884 0.048084926 0.09236822 0.014218367 -0.007480824 -0.009606838 -0.0056530717
-0.044437956 0.049181093 0.010143316 -0.010075736 -0.0991856 -0.047629666 0.0441795 0.022867179
0.08174062 0.05949862 -0.03144444 0.03445777 -0.09405058 -0.09619466 0.09182825 0.022621417
-0.029638661 0.064536706 -0.048574116 -0.07317386 -0.06853404 0.050381124 0.052664112 0.044875182
0.016948236 0.050716292 0.06220856 -0.06583889 0.017584896 -0.08953067 -0.0040765763 0.020094693
0.069360696 0.08234191 -0.012900627 0.065802 0.043709304 -0.06086686 -0.06450405 -0.015902067
-0.058144044 0.07045217 -0.036034226 0.09114086 -0.09129693 0.008576107 0.0072962525 -0.039587915
0.046813276 -0.021418154 0.008494032 0.05426358 -0.094361894 -0.017015433 -0.024176335 0.0139183765
-0.06635394 0.008693612 -0.08185234 0.066286564 0.020948876 0.026564086 -0.035184562 -0.004432905
0.0094417455 -0.07375009 0.0117414 -0.076658 0.008944559 -0.05486243 -0.06226057 -0.038685787
-0.07790827 0.035154667 0.06431156 -0.0031151294 0.090217166 0.074295774 -0.06658756 0.030989362
-0.009267295 -0.05152854 0.010183322 0.09946095 0.07483927 -0.004098809 -0.08421693 0.09337174
0.07406836 0.07007082 -0.039290287 0.09458808 -0.016272807 -0.008120072 -0.08912468 -0.034420133
-0.0076982263 -0.05903727 -0.06835847 -0.06095302 0.0202433 -0.09668871 0.04910482 0.09229533
0.026157891 -0.06628352 0.08763354 -0.07298553 0.05592352 0.063969016 -0.047018826 0.04876777
0.0022212386 -0.012567806 0.07878734 -0.08147587 -0.0287933 -0.005531871 -0.06235346 0.04469453
0.07844587 -0.00019967556 0.053089272 0.054642927 0.027778983 -0.055203285 0.060770478 -0.028135097
0.045136143 -0.064483605 -0.08238887 0.027680147 0.016416622 -0.07495469 0.02481841 -0.01787646
-0.064318076 0.036273252 0.02734362 -0.019170154 0.09416542 0.08010646 -0.061216034 0.05703633
-0.014896226 -0.004041982 -0.09165553 0.048775565 -0.02336892 0.024182785 -0.081827156 -0.08903418
0.026816154 0.08177643 0.006621003 -0.062817805 0.00049713854 -0.0998941 -0.09973667 0.014383435
0.09121434 -0.055001475 -0.015605807 -0.08479928 -0.029041244 -0.06699226 -0.034997214 -0.039122283
-0.033702742 -0.040457632 -0.077346526 -0.016221905 -0.08150647 0.044137787 -0.017567217 -0.068738274
00000000: a304 713d 781f b5bd ab87 883d 2a18 16bd
00000010: fd9e 703d 978e 3ebd 0d0e a8bd 1a79 2cbd
00000020: 603a e63c b369 c1bc 28b0 bc3d 00e3 84bb
00000030: f35c a33d c7a0 e4bc 4798 1ebd 276c 88bd
00000040: 2d6f 963d f3fa 4c3c aaa5 afbd cdbf 1c3d
00000050: 37f8 a43d c5a6 a93d 4012 98bd 0f4e b63d
00000060: 8733 ef3c e848 96bd 40d0 50bd 00f4 a63c
00000070: 27ef f53c 8735 373d 6807 b4bd 9363 a33d
00000080: e2bb ae3d 4dad 4b3c 7273 9ebd a73c 8a3c
00000090: 0d37 c23d a098 8d3c 4d8d d03b 7366 07bc
000000a0: e746 aabc 6043 56bd da27 f73c 8d94 403d
000000b0: adc0 c43c 3392 8d3b 031f 07bd e222 c83d
000000c0: 137c 8c3d cd81 c83b 132b bfbd 2a39 863d
000000d0: ad1a 6e3d ba15 b8bd f31b abbd 2890 893d
000000e0: d769 09bd da3f acbc 97ca 2e3d 372e 40bd
000000f0: fd92 cabd 3d62 bdbd 2875 c4bd 7dae 963d
00000100: 33c0 1b3b 2d08 4abd 6045 acbc f311 bcbc
00000110: c714 233d 93df 62bd 4737 a33c 732c 11bd
00000120: b888 97bd d286 a83d b3f4 443d 8d2b bd3d
00000130: 27f4 683c b321 f5bb 0066 1dbc 673d b9bb
00000140: 9304 36bd 1d72 493d 2730 263c b314 25bc
00000150: d221 cbbd 5317 43bd 90f5 343d f353 bb3c
00000160: a067 a73d d3b4 733d e3cb 00bd 9723 0d3d
00000170: 979d c0bd b501 c5bd 7310 bc3d 8d50 b93c
00000180: c7cc f2bc d22b 843d a7f5 46bd 2ddc 95bd
00000190: 935b 8cbd 705c 4e3d 53b6 573d 0acf 373d
000001a0: 07d7 8a3c e3bb 4f3d 67ce 7e3d 8ad6 86bd
000001b0: 330e 903c db5b b7bd cd94 85bb a09d a43c
000001c0: fb0c 8e3d e0a2 a83d 275d 53bc 33c3 863d
000001d0: 8708 333d 874f 79bd b31a 84bd 0d45 82bc
000001e0: 7328 6ebd 3a49 903d a098 13bd 0fa8 ba3d
000001f0: e3f9 babd cd82 0c3c 6715 ef3b f026 22bd
00000200: 47bf 3f3d 2075 afbc 8d2a 0b3c 7d43 5e3d
00000210: cf40 c1bd f363 8bbc 730d c6bc e709 643c
00000220: 93e4 87bd a76f 0e3c 33a2 a7bd 40c1 873d
00000230: fa9c ab3c ed9c d93c b01d 10bd e741 91bb
00000240: 8db1 1a3c 4a0a 97bd 005f 403c dffe 9cbd
00000250: 338c 123c 6db7 60bd f004 7fbd fd74 1ebd
00000260: 5f8e 9fbd 57fe 0f3d c7b5 833d 3327 4cbb
00000270: c7c3 b83d 6228 983d 0f5f 88bd 67dd fd3c
00000280: dad5 17bc 970f 53bd f3d7 263c 2fb2 cb3d
00000290: 5545 993d 4d4f 86bb ed79 acbd af39 bf3d
000002a0: 27b1 973d 4a81 8f3d daee 20bd 65b7 c13d
000002b0: 8d4e 85bc 0d0a 05bc 0087 b6bd 20fc 0cbd
000002c0: 6741 fcbb 10d1 71bd 87ff 8bbd e0a9 79bd
000002d0: 47d5 a53c bb04 c6bd 2322 493d 5505 bd3d
000002e0: 1349 d63c a7bf 87bd 3779 b33d 7079 95bd
000002f0: 1010 653d 3002 833d d096 40bd b7c0 473d
00000300: 3392 113b 33e9 4dbc 425b a13d d2dc a6bd
00000310: eddf ebbc b344 b5bb 5766 7fbd 9d11 373d
00000320: 3aa8 a03d 0060 51b9 2374 593d 43d1 5f3d
00000330: c090 e33c d71c 62bd 77ea 783d 937b e6bc
00000340: ade0 383d fb0f 84bd 7fbb a8bd 7ac1 e23c
00000350: 277c 863c d881 99bd fa4f cb3c a771 92bc
00000360: 32b9 83bd 4393 143d baff df3c ba0a 9dbc
00000370: cdd9 c03d db0e a43d aabd 7abd ed9e 693d
00000380: 4d0f 74bc 9a72 84bb e5b5 bbbd e3c8 473d
00000390: 2d70 bfbc fa1a c63c ff94 a7bd 8d57 b6bd
000003a0: 8dad db3c 677a a73d 00f5 d83b 9fa6 80bd
000003b0: 6752 023a 4795 ccbd bd42 ccbd 80a8 6b3c
000003c0: 95ce ba3d 3a49 61bd 80af 7fbc 3fab adbd
000003d0: e7e7 edbc 3d33 89bd 3d59 0fbd b03e 20bd
000003e0: e30b 0abd e7b6 25bd db67 9ebd cde3 84bc
000003f0: ddec a6bd d3c9 343d 20e9 8fbc a7c6 8cbd

elu_stack.6.bias f4 [100]
0.070425704 -0.04756347 0.061679807 -0.03670497 -0.08961244 0.08570862 -0.06743083 -0.037253153
0.025487518 -0.0473922 -0.07812338 -0.093549035 -0.011994111 0.02915976 -0.07317487 0.025657153
-0.09412678 -0.03372505 -0.043026518 -0.08687104 0.033461727 0.076790825 0.005547166 0.054023992
-0.08021835 0.08222609 -0.0157269 -0.08616366 -0.059337795 0.04081148 -0.0950312 -0.09257412
0.07419349 0.0696216 0.09040286 0.085595705 0.08685424 0.01742716 0.04851023 0.088345625
-0.04698291 -0.046107795 0.08812211 0.079122536 -0.0103339795 0.08619791 -0.025888646 0.07604841
0.051529016 0.03668679 0.07082838 0.09906774 -0.06590116 0.029763222 -0.09892545 0.07148176
0.08778786 -0.01248045 0.012198627 -0.0033573748 0.057287622 0.046088707 0.097273804 0.025208974
-0.081531085 0.017675389 0.0021098615 0.05012182 -0.009180701 -0.051900685 0.061691847 -0.06641574
0.064102106 0.044671144 0.062002458 -0.05623008 0.029833484 0.050686326 -0.055141937 0.044996716
-0.038748752 -0.0070503354 0.025116479 -0.0034299016 -0.024189388 -0.0275841 0.07170488 -0.07567006
0.06731238 0.07254119 0.07644492 0.06360193 -0.028258657 -0.051555492 0.0069484594 0.025927162
0.009857893 -0.047495104 -0.089781955 0.055884816
00000000: 5a3b 903d ead1 42bd f7a3 7c3d f357 16bd
00000010: ba86 b7bd 0088 af3d 2d19 8abd c396 18bd
00000020: 33cb d03c 531e 42bd 27ff 9fbd a396 bfbd
00000030: f382 44bc 73e0 ee3c b5dc 95bd f32e d23c
00000040: 8bc5 c0bd 4723 0abd 933c 30bd 72e9 b1bd
00000050: 2a0f 093d 8244 9d3d 00c5 b53b 4348 5d3d
00000060: 8549 a4bd 2766 a83d b3d5 80bc 9376 b0bd
00000070: 300c 73bd f029 273d b89f c2bd 8097 bdbd
00000080: c2f2 973d c595 8e3d 2225 b93d cd4c af3d
00000090: a3e0 b13d 67c3 8e3c aab2 463d 8dee b43d
000000a0: 2771 40bd 87db 3cbd 5d79 b43d ff0a a23d
000000b0: da4f 29bc 8888 b03d 6d14 d4bc 45bf 9b3d
000000c0: 1710 533d e344 163d 780e 913d 07e4 ca3d
000000d0: 30f7 86bd 00d2 f33c 6d99 cabd 0765 923d
000000e0: 1fca b33d cd7a 4cbc c0dc 473c 6707 5cbb
000000f0: 6da6 6a3d 83c7 3c3d 7d37 c73d 0d83 ce3c
00000100: c5f9 a6bd facb 903c 9a45 0a3b 8a4c 4d3d
00000110: a76a 16bc d095 54bd 97b0 7c3d fa04 88bd
00000120: f747 833d 17f9 363d 4af6 7d3d 8351 66bd
00000130: 5a65 f43c 779c 4f3d 83dc 61bd 7a4e 383d
00000140: 03b7 1ebd 8006 e7bb 13c1 cd3c 33c8 60bb
00000150: d328 c6bc 0df8 e1bc 02da 923d e8f8 9abd
00000160: 13db 893d 7a90 943d 278f 9c3d bb41 823d
00000170: b37e e7bc da2b 53bd e7af e33b 3365 d43c
00000180: 0083 213c 3a8a 42bd 9adf b7bd 7ae7 643d

elu_stack.7.weight f4 [2, 100]
-0.051425505 0.096405916 -0.051090002 -0.051981617 0.057643365 0.06402544 0.09788543 0.016451562
0.01494472 0.057230294 -0.06950056 -0.006904757 -0.084286176 0.0009329915 -0.05996543 -0.08489182
0.09098931 0.033460785 -0.08746705 -0.032608833 -0.022438705 0.008467734 -0.016057802 -0.0038878918
-0.09760524 -0.08675742 0.026229192 -0.020901358 -0.01460278 -0.07740318 0.058689892 0.036300052
0.06575861 0.08601526 -0.07567798 0.06385054 0.050181188 -0.048528053 0.063707076 -0.017524565
0.017776692 -0.033383906 -0.094913065 -0.07986053 -0.020700825 -0.02004372 0.013241554 -0.05110384
0.066571675 -0.0336457 0.01232636 0.05961839 0.026209628 -0.08679769 0.09820761 -0.029468406
0.072107546 -0.020022238 -0.042494725 -0.022733105 0.042744804 -0.05950549 0.034609642 0.08242098
0.061716236 0.011910248 0.078997076 -0.025225377 -0.06971879 0.011581147 -0.020975161 -0.09989687
0.066697255 0.092334904 -0.061470117 0.015349614 0.05821363 -0.04500513 -0.097297825 -0.04830536
0.09631816 -0.015460241 0.0028409362 -0.06593076 0.024543751 0.026223361 -0.033976354 0.09426065
0.09831772 0.025642574 0.08451177 -0.06993133 -0.06763629 -0.08384327 0.08477699 -0.081334986
-0.048072685 -0.016483558 -0.04213209 0.008913517 -0.09524896 -0.07379799 -0.028827203 -0.08429533
0.070372105 0.011903048 -0.022629594 0.021607136 -0.054759074 0.07656564 0.06366619 -0.025959432
-0.055415273 0.035050333 -0.06517091 0.043126572 0.07510424 0.054139294 -0.013284194 -0.021523012
0.021000767 -0.055290487 -0.035327386 0.040022075 -0.037990846 0.054457534 -0.07618866 0.032819714
0.011719227 0.09628292 0.03505955 0.04489237 -0.07718288 -0.06873455 0.083211236 -0.09512197
-0.006974256 0.03273381 -0.035408627 0.030063082 0.044973817 0.09961229 -0.019786287 -0.07777294
0.057298232 -0.0364228 -0.04014895 -0.09353848 0.03794712 -0.050646544 -0.09395893 0.003802693
0.08730809 0.059448004 0.03159777 0.091972105 0.033680033 0.028568447 0.0058407546 -0.013589776
0.07929015 -0.074136905 -0.05878533 -0.01509496 0.011044991 0.01790067 0.086545706 0.077841096
0.053329468 -0.0055066943 -0.098146774 -0.045090687 -0.08554395 0.008596492 -0.0514946 -0.0183802
-0.006149817 0.0069494965 0.04469483 -0.07445957 0.008510626 -0.052541077 0.024016643 0.05958854
-0.052314784 -0.066393845 -0.015054166 -0.06685857 0.043697942 0.017805172 -0.09186109 0.08591439
-0.05227183 0.07605815 0.020332372 0.04911499 0.093073525 -0.094834305 -0.07408654 -0.020562602
00000000: 8da3 52bd 7770 c53d c043 51bd adea 54bd
00000010: 731b 6c3d c51f 833d 2878 c83d 6dc5 863c
00000020: b3da 743c 506a 6a3d 4f56 8ebd 4d41 e2bb
00000030: 3b9e acbd 0094 743a 509e 75bd c3db adbd
00000040: 9a58 ba3d 2d0e 093d ed21 b3bd d790 05bd
00000050: 60d1 b7bc 40bc 0a3c a78b 83bc 00cc 7ebb
00000060: 42e5 c7bd e0ad b1bd 9ade d63c 5339 abbc
00000070: 8040 6fbc 8f85 9ebd d064 703d 5daf 143d
00000080: 73ac 863d c528 b03d 0ffd 9abd 12c4 823d
00000090: ca8a 4d3d 5ac5 46bd db78 823d ad8f 8fbc
000000a0: 6da0 913c 90bd 08bd c861 c2bd eb8d a3bd
000000b0: c794 a9bc ba32 a4bc 1af3 583c 4352 51bd
000000c0: bb56 883d 13d0 09bd 80f4 493c 6a32 743d
000000d0: 93b5 d63c fdc2 b1bd 1221 c93d ba67 f1bc
000000e0: 1fad 933d ad05 a4bc f30e 2ebd c73a babc
000000f0: 2d15 2f3d 07bc 73bd d7c2 0d3d 55cc a83d
00000100: 2aca 7c3d 3323 433c 38c9 a13d 73a5 cebc
00000110: bac8 8ebd dabe 3d3c 1ad4 abbc bb96 ccbd
00000120: 9298 883d 151a bd3d 17c8 7bbd f37c 7b3c
00000130: 6a71 6e3d 4d57 38bd 1544 c7bd d7db 45bd
00000140: 7542 c53d f34c 7dbc 002f 3a3b b506 87bd
00000150: fa0f c93c 60d2 d63c ca2a 0bbd ba0b c13d
00000160: cd5a c93d 6010 d23c 8214 ad3d 2838 8fbd
00000170: e584 8abd 05b6 abbd 8f9f ad3d f592 a6bd
00000180: dde7 44bd 8708 87bc b392 2cbd 000a 123c
00000190: e311 c3bd 6723 97bd 0727 ecbc 08a3 acbd
000001a0: 401f 903d 0005 433c b361 b9bc 7301 b13c
000001b0: 0d4b 60bd 72ce 9c3d 6b63 823d e0a8 d4bc
000001c0: 20fb 62bd f090 0f3d 5378 85bd 7da5 303d
000001d0: 40d0 993d 2ac1 5d3d f3a5 59bc 0751 b0bc
000001e0: cd09 ac3c 4778 62bd 73b3 10bd 30ee 233d
000001f0: 4a9c 1bbd dd0e 5f3d cd08 9cbd f76d 063d
00000200: 0002 403c fb2f c53d 9a9a 0f3d 10e1 373d
00000210: 0f12 9ebd b3c4 8cbd a76a aa3d 4fcf c2bd
00000220: 4d88 e4bb e313 063d a308 11bd da46 f63c
00000230: 7736 383d 8701 cc3d da16 a2bc 6b47 9fbd
00000240: 8db1 6a3d 1330 15bd 3a73 24bd 1a91 bfbd
00000250: 706e 1b3d c072 4fbd 8a6d c0bd 9a36 793b
00000260: 95ce b23d c07f 733d aa6c 013d df5b bc3d
00000270: 13f4 093d 6008 ea3c cd63 bf3b a7a7 5ebc
00000280: e062 a23d 17d5 97bd e3c8 70bd da50 77bc
00000290: 0df6 343c 6da4 923c e03e b13d 276b 9f3d
000002a0: 0070 5a3d 8071 b4bb 2d01 c9bd 03b1 38bd
000002b0: ab31 afbd 4dd8 0c3c 00ec 52bd 1392 96bc
000002c0: 6784 c9bb 9ab8 e33b ed11 373d 427e 98bd
000002d0: 2770 0b3c 5035 57bd 8dbe c43c 1d13 743d
000002e0: 0748 56bd 7ff9 87bd c0a5 76bc 25ed 88bd
000002f0: 9dfc 323d 27dc 913c ab21 bcbd e2f3 af3d
00000300: fd1a 56bd 60c4 9b3d 1390 a63c cd2c 493d
00000310: 559d be3d 7d38 c2bd afba 97bd e772 a8bc

elu_stack.7.bias f4 [2]
0.08669134 -0.09481972
00000000: 3b8b b13d d730 c2bd
