Parameter/wallplaneDDPG_bay/02.pth (torch, 126791 bytes, 9 tensors)

elu_stack.0.weight f4 [100, 4]
00000000: 7e73 f9be e895 72be 4eee af3e fe73 bebe
00000010: a01f 7d3d 807f c3be 2ce0 583e b0d6 0a3d
00000020: 7821 32be 20a1 973e 0a35 8cbe e654 893e
00000030: 642d cebe 764b 9ebe 40b2 833d 9046 5b3e
00000040: 0032 75bd d0c9 36bd 20ba eb3d c0e8 ebbc
00000050: 0025 13bb 0033 5c3b 380e dcbe f4fd 933e
00000060: b8f3 053e 4449 933e 04c5 c5be 82de db3e
00000070: a81a 61be b628 cdbe 4030 acbd e0fb 833e
00000080: 2a8f b4be a0df f83c 0ced dbbe 0072 833c
00000090: 40ad 563d 9661 ba3e 90c2 30be e02c 443e
000000a0: 8e0b d3be 7cda 9dbe 48e2 29be 706a ae3d
000000b0: 7c64 b93e 32d3 f33e be30 913e 34f7 ad3e
000000c0: 58d7 99bd 0060 20ba 0017 39bb eeb5 863e
000000d0: 3879 7c3e a0ab 5d3e cc84 ff3e 60d7 e5bd
000000e0: 7a6e f73e 4808 dd3e faf9 a8be 50c6 9b3d
000000f0: 201a e63e f475 513e 5e51 a53e 6c6a ccbe
00000100: 88e1 83be 70f5 7c3e e675 d8be 2817 a6bd
00000110: 7a4e aebe 8c18 9d3e 585d fc3e 48c1 efbd
00000120: 7c3f 63be 00c3 5d3e 6473 2abe f88e 5cbe
00000130: 4472 28be aa2f 82be 88a4 50be a0de 78be
00000140: 8057 7f3c 7ca0 a83e b080 4fbe 4ce2 033e
00000150: 7e06 f43e 10e4 5f3e 9eb7 e23e ca89 fcbe
00000160: 16c2 c2be 60aa ebbe f046 ddbd 84b2 9abe
00000170: 3075 fa3e 6017 e63e 4800 b33e bc07 b8be
00000180: 00b5 82bd facf 94be 3ad4 a6be c0a2 243d
00000190: 0027 6b3b 5ab3 d73e d4de 5abe dcee 713e
000001a0: 50b2 5cbd 4c0d e5be 1ad3 aa3e c47f f93e
000001b0: aca8 da3e 7a59 e5be f0e9 a73e 8c28 633e
000001c0: 7633 c33e 008b 1cbd 405e f93d f459 1bbe
000001d0: d04f 6d3e 00b5 043d 783a 81be 9cb0 713e
000001e0: bc2b 133e 0e1e b9be a61d f13e 202f 45bd
000001f0: e08b d3bd e0b0 aebe d864 f73e be90 e8be
00000200: 2815 fb3d 7ea2 833e 3083 b13d 6afd f03e
00000210: 5c44 c43e 9c53 45be dc77 9b3e a085 533d
00000220: 68c6 e43d 7a96 c5be b4f9 3fbe d8a9 983e
00000230: 6cae 77be 2677 f93e 6ef6 eb3e 329c 973e
00000240: e0d1 da3c f846 31be 34f9 44be 0080 8137
00000250: 4055 52be c887 5ebe be63 823e 0876 e93e
00000260: b02b 0dbd 1465 6b3e 346d dfbe 0cd1 083e
00000270: 5068 9cbe f468 eb3e 48f6 bf3d 14e8 97be
00000280: 8407 15be 5c91 72be e882 43be 2006 cdbd
00000290: 987d d0bd e02b 20be 4014 69be 98c6 2f3e
000002a0: ccdb be3e 7cf1 21be 68dc 9e3d a4d0 2abe
000002b0: 50a2 ebbd 00bf f1bc 00d4 043d c067 4bbd
000002c0: 6a71 d4be 0045 7c3b 78e2 f33d 2c47 0abe
000002d0: c0bc 8d3c 7c16 53be e08d ec3d c02f 17bc
000002e0: 5cc4 dcbe 6c4e 6f3e 647f 56be 1071 893e
000002f0: 3090 7abe 0cf0 823e b64b d03e fe81 af3e
00000300: 6eb1 8c3e b0ca e63d 9890 3cbe a871 50be
00000310: a06d 553e c092 45bc 5601 ae3e 80c4 59be
00000320: 2413 2dbe f279 ce3e b0dd 01be 56d2 b0be
00000330: 3e4f 903e 5e91 b93e f817 2d3e c0aa d7bc
00000340: dc85 5b3e 0c66 a6be ba90 dabe 2e49 ffbe
00000350: c0ff 233c 48b0 9c3e f440 a73e 4088 6c3c
00000360: 8ef3 eb3e 7472 c1be 6048 31bd d463 0ebe
00000370: 0005 7bbc 8052 a03c 30d2 ef3e 0a2e bdbe
00000380: 205f a2bc ecaf 8b3e c217 93be 4478 c33e
00000390: b052 c7bd f4a2 013e 40b1 f53e f295 863e
000003a0: 1eff d53e 70a7 a5bd 6223 f2be ece8 f83e
000003b0: a2d3 a0be 3630 d1be 6c5a 91be d8e8 a4bd
000003c0: 0077 cc3c d873 13be 4a7f bfbe a470 b93e
000003d0: 20b0 353e a0f8 e4be a82c a8be 00dc a33b
000003e0: 20d0 96be 1c16 e53e d0c6 70bd ccfd 4bbe
000003f0: 468e 90be 601e af3c 4038 ca3d 0cf2 e4be
-0.48720926 -0.23689997 0.343615 -0.3719787 0.061797738 -0.38183212 0.21179265 0.03389615
-0.1739558 0.29615116 -0.27384216 0.26822585 -0.40269005 -0.30916947 0.06430483 0.21413636
-0.059862137 -0.044626057 0.1151011 -0.028797507 -0.0022452474 0.0033599734 -0.42979598 0.28904688
0.13081253 0.28766835 -0.38626873 0.42943197 -0.21982825 -0.40070122 -0.084076405 0.25778103
-0.35265476 0.03038007 -0.4295429 0.01604557 0.052411318 0.36402577 -0.1726172 0.19157743
-0.41219753 -0.30830753 -0.16590226 0.08516395 0.36209476 0.47622067 0.283575 0.33977664
-0.07511777 -0.0006117821 -0.0028242469 0.26310676 0.24655616 0.21647501 0.49906003 -0.1122272
0.48326474 0.4317038 -0.33003217 0.076061845 0.44941807 0.20455152 0.3228864 -0.39924943
-0.25758004 0.24703002 -0.4227745 -0.081098855 -0.34044248 0.3068279 0.49289966 -0.11706787
-0.22192186 0.21656418 -0.1664558 -0.21538913 -0.16449839 -0.2542699 -0.20375264 -0.24303675
0.0155848265 0.3293494 -0.20263934 0.12879294 0.47661203 0.21864343 0.44280714 -0.49323875
-0.380387 -0.46028423 -0.10804546 -0.30214322 0.48917532 0.4493971 0.34961152 -0.359434
-0.06382179 -0.29064924 -0.3258379 0.040194273 0.00358814 0.42129022 -0.21374065 0.23626274
-0.05388099 -0.44736707 0.33364183 0.4873029 0.4270681 -0.44794828 0.32795668 0.22183436
0.381252 -0.0382185 0.1217618 -0.15171033 0.23174977 0.032399178 -0.2523992 0.23602527
0.14372152 -0.36155742 0.47092932 -0.048140645 -0.103294134 -0.3411932 0.48319125 -0.4542293
0.122598946 0.2570991 0.086676 0.4706834 0.38333404 -0.19270176 0.30364883 0.051641107
0.111706555 -0.38591367 -0.18747598 0.2981708 -0.2418763 0.48723716 0.46086448 0.29611355
0.026711404 -0.17312229 -0.19235688 1.5437603e-05 -0.20540333 -0.21731484 0.25466722 0.45597863
-0.03446549 0.22987777 -0.43638003 0.13360995 -0.30548334 0.4597851 0.09373146 -0.2966925
-0.14553648 -0.23688263 -0.19092906 -0.10010934 -0.10180205 -0.15641737 -0.22761631 0.17165601
0.37277067 -0.15814775 0.07756883 -0.16681153 -0.11505568 -0.029510021 0.03242874 -0.04965949
-0.41492778 0.0038493276 0.1190843 -0.13503712 0.017301917 -0.20614046 0.11550498 -0.009227693
-0.4311856 0.2336976 -0.20947033 0.26844072 -0.24469066 0.25573766 0.40682763 0.34278864
0.27479118 0.11269128 -0.18414533 -0.20355856 0.208426 -0.012058914 0.33985394 -0.21266365
-0.16901833 0.40327412 -0.12682223 -0.34535474 0.28185457 0.3624372 0.16903675 -0.026326537
0.21437782 -0.3249973 -0.42688543 -0.4986052 0.010009706 0.30603242 0.32666743 0.014436781
0.46084255 -0.37782633 -0.043281913 -0.13905269 -0.015321016 0.019570589 0.46840048 -0.36949188
-0.01982075 0.27282655 -0.28729063 0.38177693 -0.09732568 0.12659818 0.47986794 0.26286274
0.417962 -0.08088577 -0.4729262 0.48615205 -0.31411463 -0.40857095 -0.283893 -0.08052224
0.024959087 -0.1439966 -0.374018 0.3621875 0.17742968 -0.44720936 -0.3284657 0.0050005913
-0.29455662 0.4474343 -0.058783352 -0.19921035 -0.28233546 0.021376789 0.0987401 -0.44715917

elu_stack.0.bias f4 [100]
00000000: 8c27 0d3e 8028 9fbe 2810 ae3d 184a 173e
00000010: b82c 7d3e 3420 8b3e 7074 52be a097 9d3c
00000020: b062 b23e cc36 4bbe 2054 04bd 0070 4ebc
00000030: 4053 45bc 847e 493e 50fe 4e3e 40d6 b43c
00000040: 84bb 3e3e a0e6 1bbe 1c4a 323e 7e5e cabe
00000050: 3c5c 503e 04ed 9bbe 10f3 86be 26f4 933e
00000060: 8066 8d3e f0d0 55bd ac87 7ebe 7494 52be
00000070: 8c22 95be 00ad 1fbc 8edb b6be 201a 743e
00000080: 348a b7be 5827 bc3e 5aba efbe dc0d c13e
00000090: 783e f9bd 6089 843e 10db 06be 5c56 433e
000000a0: 08e2 3cbe 84f4 79be 7cd9 bcbe b042 73bd
000000b0: 2ec6 963e 500c dfbe 787a 16be 3c36 b9be
000000c0: 5ca8 d83e 6092 b5bc 50f2 623e 7009 99bd
000000d0: 08ef c83e 1097 7abe 4649 89be 849a 863e
000000e0: 3858 903d 9459 50be 62e4 9a3e ec91 f5be
000000f0: 382e 843d d05f 96bd 64a6 98be d0b4 ed3e
00000100: 58fa dfbd faf6 f7be 1049 a4be 60fd 033d
00000110: 4a4c 953e 42d2 de3e e4ae 363e 00a8 1bbe
00000120: 3865 903d a069 dcbe 1ce8 56be d010 54be
00000130: 68c2 43be 2488 abbe e41e 55be 740a 77be
00000140: 5a15 98be e026 713e ec3f fb3e 9482 61be
00000150: 66cf c1be 48a3 fbbd 1077 5b3d e436 323e
00000160: fc79 cdbe ccd5 9a3e 602a 923e be21 c43e
00000170: 20ac ee3e 9040 513d 2c54 07be 00fd ce3e
00000180: e86c 91be 22a2 97be 6e83 df3e 80ab 08be
0.13784617 -0.31085587 0.08499175 0.14774358 0.2472409 0.27173007 -0.2055223 0.01923734
0.34840918 -0.19845122 -0.03230679 -0.012599945 -0.012043774 0.19677168 0.202142 0.022074819
0.18626219 -0.15224695 0.17411083 -0.39525217 0.20347685 -0.30454266 -0.26357317 0.28897208
0.27617264 -0.05220121 -0.24856442 -0.20564443 -0.2912792 -0.009745836 -0.35714382 0.23838091
-0.35847628 0.36748767 -0.46821862 0.37705886 -0.12170118 0.2588606 -0.13169503 0.19075912
-0.18445599 -0.24409682 -0.36884677 -0.05938977 0.29448074 -0.4356408 -0.14695156 -0.3617419
0.42315948 -0.022164524 0.22162747 -0.07472503 0.39244866 -0.24471688 -0.26813716 0.2628976
0.070480764 -0.20346671 0.30252367 -0.47962892 0.06454128 -0.073424935 -0.29814446 0.4642701
-0.10936421 -0.48430616 -0.32086992 0.03222406 0.29159766 0.4351979 0.17840153 -0.15200806
0.07050556 -0.43049335 -0.2098698 -0.20709538 -0.19117129 -0.33502305 -0.20812565 -0.24125081
-0.2970379 0.23549986 0.49072206 -0.22022468 -0.37853545 -0.12287003 0.053580344 0.17403752
-0.4013213 0.3024124 0.28547955 0.38306993 0.46615696 0.051086962 -0.13215703 0.404274
-0.284034 -0.29615885 0.4365496 -0.13346672

elu_stack.2.weight f4 [100, 100]
00000000: 839b 813d 47fb ba3d 578c 053d 93bd 2b3d
00000010: 5f28 823d 4d06 e4bb 1d75 573d d3cf 503d
00000020: bbe0 c9bd 334b e33b 0a5e 843d 68ef 953d
00000030: b3cd 32bc 8df1 303d 0b89 973d 2d9c a03d
00000040: da8f 403c 3289 acbd 4765 22bd 33db febb
00000050: ef3f bcbd 4d29 ef3c 53d7 3bbd 27cf 59bc
00000060: 0311 51bd eddb b6bc 3b28 84bd 3d6e 293d
00000070: 33cc 54bb 0bca 81bd 674a 8a3a 0041 6e3b
00000080: fafd 30bd cd97 073d 9ab5 033b 33da c13d
00000090: 2798 7a3c f3d3 a6bd 4215 ab3d ed45 d6bc
000000a0: 1028 4abd 8f77 b33d 4330 3ebd 4a0d c03d
000000b0: 4dfb a33d a377 563d e389 233d 435d 3cbd
000000c0: 189d 993d da58 563d 7aa0 713d c0ac 5e3c
000000d0: 00f0 60bc fa24 973c 5daa 84bd 6735 aabd
000000e0: 1a12 6b3d 5db1 9d3d 5537 b13d df1d aabd
000000f0: 530f bd3d a373 a83d 5865 bbbd fdac 0bbd
00000100: 6ade 323d 03bf c93d 75c6 86bd b3cc 0dbd
00000110: 9a86 10bd 4043 9bbd 8036 84bc 1b7d b6bd
00000120: 6fa2 afbd c578 a0bd 838f 9e3d 806d 4fbd
00000130: 3d86 c33d d262 83bd 1a19 eebb 9ac7 4abd
00000140: cd8c 58b9 fa35 f33c bffa 83bd b309 a3bb
00000150: 932e 543d e3e5 81bd 63cd 8bbd 1a20 bb3c
00000160: 7720 173d 63ac 1f3d 9359 02bd 6712 283b
00000170: 83c7 45bd 50e7 543d 4069 f03c a70d 1f3c
00000180: f773 abbd 470b 863d 5d80 3a3d 72e1 c4bd
00000190: 3333 83bd 10e0 063d 4357 29bd 8a7f a1bd
000001a0: 6ae5 8f3d f30d 76bc 4a03 8a3d 8a5d 4f3d
000001b0: a37f c0bd 7ffb 9e3d e0cf c6bc 0b80 acbd
000001c0: f3fe cc3c 2302 09bd 932c 683d 9a10 3b3c
000001d0: 4776 403d fa58 ad3c 0a7d 4e3d 20ae a73d
000001e0: f36b 833d aabe 7b3d a0e6 adbc f305 12bd
000001f0: 3b6a 9b3d f3c4 313d ed18 45bd 10e6 01bd
00000200: 335d e7bc 0035 013d 6562 863d 000c 66bb
00000210: 6d77 12bd 8d4b 563d 9ad5 5d3c ff47 8b3d
00000220: edc2 b9bc 8095 abbd cda2 313c 5a71 b5bc
00000230: 72bd b73d 2780 9e3c bfc1 98bd e7ce 103c
00000240: e059 5e3d d33f 803c f3fd b4bc 9a80 683c
00000250: cde2 6dbc ca87 c6bd 6aef c43d 3f9e 82bd
00000260: 9f05 c3bd 2a14 5dbd 674b 543b 2b8c bc3d
00000270: 9058 62bd 5f70 843d 75fb c73d 201f f33c
00000280: 47c6 4dbd ede3 d83c 9f4e 98bd b338 83bc
00000290: 52cd b5bd 5a51 fc3c 80e8 513c 5290 8abd
000002a0: dffa 933d 6b56 923d 5ad5 683d 4da0 9e3b
000002b0: 5a0d 6fbc 322d 9ebd 5ac5 173c 6229 a0bd
000002c0: 776f 313d 0080 5eba d36c 38bd cde2 13bc
000002d0: 879b afbc 3acc 233d 678f 42bb cde5 0abb
000002e0: 3aeb 063d 92cc 803d 9087 63bd b07a 823d
000002f0: 97a5 703d cd70 9a3c 686a 853d 9af0 653d
00000300: 0522 ad3d 75e8 adbd 50a2 12bd 87f6 4abd
00000310: 13b0 9c3c d038 15bd 7ae6 ad3d 300c 633d
00000320: 17c7 4dbd e079 6a3d 7d76 bf3d 4d03 2dbd
00000330: 3a2b fe3c 7821 8cbd 5de9 0dbd cd47 77bc
00000340: 1d57 9d3d 03f9 b03d 10aa 0f3d 9a81 1fbd
00000350: 67bc 403d fb74 b03d 5de3 3fbd e796 50bd
00000360: 6dac 66bd ea3e 06bd b3fb b9bd c382 283d
00000370: 8da3 f7bc 93ed 12bd 9ab9 69bb 9366 823c
00000380: 5a99 1d3d c716 c8bc 00ff 123d 83a8 1d3d
00000390: f317 e7bc f7ad c43d 33aa 813d e723 843c
000003a0: f38b 38bd f275 a3bd f371 1b3c f353 5bbd
000003b0: 3a45 95bd 73fb 603d 8d7f 33bc 9aec 4ebb
000003c0: ff4d 8ebd 7d7b 0e3d ddb6 313d 4dec 153c
000003d0: 6777 1f3d 30e8 5ebd 33f1 acbd 137f 67bd
000003e0: f000 693d f85c b53d cd03 683b 60ab af3c
000003f0: e0e8 773d 0008 a43b cdc4 f239 db79 cc3d
0.0632849 0.091299586 0.03260454 0.04192884 0.063553564 -0.006958759 0.052601922 0.050979447
-0.09857317 0.0069364547 0.06463249 0.07321054 -0.0109133 0.04319911 0.07399186 0.07842288
0.011753047 -0.084246054 -0.039647367 -0.0077775954 -0.09191882 0.029194498 -0.045859646 -0.013294018
-0.051041614 -0.022321666 -0.06452986 0.041364897 -0.0032470345 -0.06337365 0.0010550738 0.003635466
-0.04321096 0.033103753 0.0020097257 0.09465446 0.015295065 -0.08145895 0.08353664 -0.02615639
-0.049354613 0.08763038 -0.046432745 0.09377535 0.08006916 0.05236019 0.03992642 -0.04598738
0.075006664 0.05233083 0.058990933 0.0135909915 -0.013729095 0.018450249 -0.06477807 -0.08310967
0.05739031 0.07699845 0.08653132 -0.08306479 0.092314385 0.08225181 -0.09150189 -0.03410052
0.04366914 0.09850886 -0.065808214 -0.034619045 -0.035284616 -0.07581186 -0.016139269 -0.08910581
-0.085759036 -0.07835535 0.077422164 -0.050641537 0.09547088 -0.06415333 -0.007266176 -0.04950676
-0.00020651818 0.029688824 -0.064443104 -0.0049755215 0.05180223 -0.063426755 -0.06826284 0.022842456
0.036896195 0.03898276 -0.031823706 0.0025645734 -0.048285972 0.05197841 0.029347062 0.009707845
-0.08371728 0.0654512 0.045532573 -0.09613313 -0.0640625 0.032928526 -0.041342985 -0.07885654
0.07026179 -0.015017974 0.067389086 0.050626315 -0.09399345 0.07762813 -0.024269044 -0.0842286
0.025023913 -0.033449303 0.056683134 0.011417532 0.046987798 0.021160591 0.050412215 0.081875086
0.06417074 0.06146113 -0.021228135 -0.035650205 0.07588621 0.043400716 -0.048119474 -0.031713545
-0.028242683 0.031544685 0.06561736 -0.0035102367 -0.035758425 0.052318145 0.013539696 0.068008415
-0.022675956 -0.08378124 0.010842037 -0.022148777 0.08971681 0.019348217 -0.07458829 0.008838392
0.05428493 0.015655434 -0.022093749 0.014190817 -0.014519406 -0.096938685 0.09615977 -0.06377839
-0.095225565 -0.053974308 0.0032393576 0.092064224 -0.05526024 0.064667456 0.097647585 0.029677927
-0.05023792 0.026475871 -0.07436871 -0.016018247 -0.08877052 0.03080051 0.01281178 -0.06765808
0.07225584 0.07145389 0.056844093 0.0048408867 -0.014590586 -0.07723464 0.009263361 -0.07820393
0.04331919 -0.00084877014 -0.045025658 -0.0090262415 -0.021436466 0.039989688 -0.0029687525 -0.00211941
0.032939173 0.06289019 -0.055549204 0.06371057 0.05875167 0.018852616 0.06514436 0.05613766
0.08453754 -0.08491603 -0.035799325 -0.049551513 0.019126927 -0.036431134 0.084912255 0.055431545
-0.050238695 0.057245135 0.09348772 -0.042239476 0.031026471 -0.06842321 -0.03464638 -0.015092802
0.07682631 0.08641245 0.035074294 -0.038941957 0.047054674 0.08616062 -0.04684769 -0.05092516
-0.05631678 -0.032774843 -0.09081211 0.04114033 -0.030229354 -0.0358711 -0.0035663606 0.015918052
0.038476326 -0.024424924 0.03588772 0.038490783 -0.028209662 0.09603494 0.06331291 0.0161304
-0.04505534 -0.07981481 0.009487617 -0.053546857 -0.072885945 0.0549273 -0.010955703 -0.003157413
-0.0694847 0.034785736 0.043387283 0.009150577 0.03893223 -0.05442065 -0.084444426 -0.05651767
0.05688566 0.08855623 0.0035402656 0.021444023 0.06052482 0.0050058365 0.00046304465 0.099841796

elu_stack.2.bias f4 [100]
00000000: d078 91bd 5353 86bd 336b 8a3d 35ef b2bd
00000010: 67c9 523c 0d2f 61bd 8056 b73b cde8 803c
00000020: f374 b0bd 4d5f 1f3c 9abf e33a 8d1c 463d
00000030: 13d0 71bd ed68 333d e34e 113d 9373 953c
00000040: ea55 86bd 8dd9 ac3d dd25 683d 4785 b03d
00000050: bd22 a23d bad6 1c3d cd44 a13d 9706 39bd
00000060: 8d85 b0bc 473e 5ebd b3ea 7cbd 75df c6bd
00000070: 0034 823b a078 35bd 134d 97bd 3354 51bc
00000080: 7a88 ca3c 2730 683c 9a0b 9b3a cdb6 7c3d
00000090: e76b 8dbb a741 963c 37d0 c93d 100e 0cbd
000000a0: f736 b3bd 2de7 993d fd73 763d b336 de3c
000000b0: 4d10 593d 532a 6bbd 8043 643d e3e3 a13d
000000c0: 6ac5 723d 8728 0a3d 33c5 863a 0005 c5bd
000000d0: 4d95 a1bb f08b 09bd 5d7f 613d a23e bc3d
000000e0: 7a65 9a3d 8d9a a93d bd8d bb3d 002a bf3a
000000f0: 48f8 aebd 3357 03ba 57db 093d 7378 b33d
00000100: 1a5c ac3b 7348 3e3d 35e8 863d fd4f 813d
00000110: b3f4 9c3b 03c7 79bd 230c 853d 4704 253d
00000120: 90b7 733d 071e cc3c 6aee 543d 3dac 28bd
00000130: 4393 09bd 9ace 773b 9a0d 03ba 4058 80bd
00000140: 4ac9 1b3d 3a27 fb3c 6dd6 62bd 732c 15bd
00000150: bd9b 61bd 48de c53d c07e 213c 1a09 d43c
00000160: e05c 063d c8d1 bdbd bdda 793d 600f 973c
00000170: 6d2c 23bd 47f5 9e3c 5851 86bd 30fd 1bbd
00000180: 3f6f a5bd ba30 ebbc 9aed 4abb 006a 1f3d
-0.07103121 -0.065588616 0.06758728 -0.08737031 0.012865401 -0.05497651 0.0055950284 0.015736008
-0.08616056 0.009727311 0.0017375827 0.048367072 -0.059036326 0.043801237 0.035475623 0.018243587
-0.065593556 0.08439932 0.056676734 0.08619171 0.07916782 0.038290717 0.07874451 -0.0451723
-0.021548057 -0.05425861 -0.061747264 -0.0971059 0.003973484 -0.04430449 -0.073877476 -0.012776422
0.02472328 0.014171637 0.0011829019 0.06169777 -0.0043158415 0.018341852 0.09854167 -0.0341931
-0.08750718 0.075147964 0.06016921 0.027125692 0.05299406 -0.05741341 0.055728436 0.07904794
0.0592703 0.033730056 0.0010282159 -0.09620094 -0.004931128 -0.03358072 0.055053104 0.09191634
0.07538886 0.08281431 0.09157894 0.001458466 -0.0854345 -0.0005010247 0.033656444 0.08763208
0.005260003 0.04645581 0.06587259 0.06314085 0.0047899126 -0.060980808 0.064964555 0.040287282
0.05950123 0.024916662 0.051985182 -0.041179884 -0.033587705 0.0037812353 -0.000499928 -0.06266832
0.03803376 0.030658353 -0.055380274 -0.036419343 -0.055080164 0.096615374 0.00985688 0.025883246
0.032803416 -0.09268528 0.06099962 0.018439949 -0.03983729 0.019404067 -0.06558484 -0.038083255
-0.08077859 -0.028709758 -0.0030964375 0.03891945

elu_stack.4.weight f4 [100, 100]
00000000: 80e8 af3b 8034 393c 22a7 9c3d 6755 3cbc
00000010: 7a5f db3c c70a 0dbd e785 a2bb 3a69 3bbd
00000020: da57 e4bc 2062 583d b319 a83c d354 013d
00000030: 401f 0cbc 03a6 143d 9a3a 49bd cae1 52bd
00000040: 90e3 3fbd 671c b23a ba5c 733d 700c 03bd
00000050: 37d9 10bd b3a6 983b 4f8f be3d 4d40 0c3c
00000060: b313 463d 700f 4abd 0000 ac36 352b a63d
00000070: e758 b83c f051 67bd 5742 3e3d cd04 c43b
00000080: 632e 63bd baae 2abd bb9b b4bd 0da9 60bc
00000090: 5a37 c1bd 4a54 7ebd a8d3 b33d 4d6d c03b
000000a0: 6738 433b 97b1 8dbd cd10 e2bb c29b a8bd
000000b0: 982f bdbd 8d74 7c3c 1011 90bd 559e 9abd
000000c0: 300a 2dbd 8894 9f3d 1bcd ad3d caee 38bd
000000d0: 2313 c93d 33d6 273b 9a9d 0a3a 6a8e 5ebd
000000e0: 2d2b aabd 1a43 00bc 400a 6fbc 4df8 acbd
000000f0: 4047 22bc d02e 833d 6d10 51bd 87fb 273d
00000100: a08d 9f3c df51 8bbd 1ab6 853d 6d26 c8bd
00000110: e75b ddbb b318 abbd 38c0 9d3d 6744 023d
00000120: 5aa4 2dbd 48bf aabd c0d2 c3bc 28d7 ab3d
00000130: c0f5 4bbc 60c4 673d c83b cabd ff45 c23d
00000140: adc7 38bd bb48 b6bd a7a3 f93c d8a4 c23d
00000150: ed4a 273d 3aca a23d 2b2c 953d ffb7 973d
00000160: c08b 983d 0dee 23bd fa4e d33c b043 403d
00000170: 8767 36bd d567 bebd 20d3 13bd 92e4 c8bd
00000180: 8a42 963d 7018 c73d b381 053c f393 73bd
00000190: ed71 483d 68ed b6bd 32e8 c53d 9d06 0abd
000001a0: 2deb 9ebc 6792 b6bd a37f 883d c756 c23c
000001b0: 80b6 5fbd 9ab1 68ba 6711 16bd b33b acbb
000001c0: f88f bcbd cd0a 00bb 4d5b 393c e710 873c
000001d0: 6846 a7bd dbb9 ab3d ed35 893d c2d2 a5bd
000001e0: b30a b33c 6019 a0bc 27c6 053c f37f 85bc
000001f0: 03bc 193d 5ab1 123c a306 b7bd 0d3c 3d3c
00000200: a751 993c 2d90 85bd bd1a 0ebd f729 a7bd
00000210: 9704 53bd f298 9e3d d096 b0bd 3300 08bd
00000220: 90b3 1f3d 0080 9a37 97a7 48bd 2d4a 57bd
00000230: 6a19 64bd 63d2 873d 33c4 0d3c 4096 d8bc
00000240: 1090 88bd 6706 23b9 e0d5 f9bc 732f 64bd
00000250: 0383 913d d0c0 87bd bb97 93bd 0b7e b83d
00000260: 9d77 69bd 70bc 713d 2d2d 403d 0563 a4bd
00000270: fb90 aa3d 7077 9a3d 5845 8e3d 204b 763d
00000280: cda4 f53c 201d 33bd 1afb 2c3d c003 1b3c
00000290: 6d22 563d 4d74 cbbc cfe5 9dbd a265 98bd
000002a0: aa6c 5c3d 0269 c5bd f368 2cbd cd0c adbd
000002b0: 4052 30bc 33fb 913a 83bb 3cbd f0a7 7abd
000002c0: 1feb 97bd 6aa7 8cbd 6035 abbc 679b 89bc
000002d0: 00db 8abb 435c ab3d 773f 983d ba95 93bc
000002e0: 8012 8e3d 85b5 bd3d cdf3 413c e5ba 99bd
000002f0: 8095 373d cdf4 12bc 2563 c73d 53c9 b53d
00000300: 7385 a3bc dd0c 3bbd 6095 c23c 8de3 383c
00000310: a34a a53d d061 003d 0d91 c53d f3d6 31bd
00000320: 38b8 9a3d 702e 0ebd 6d05 f23c e792 923c
00000330: 5383 38bd b06d ae3d 97ed a1bd aa0f 6d3d
00000340: e741 cdbc 7342 4e3c e72d 293d 67b8 f4bc
00000350: 40a3 62bc 9acb 2c3b 8dd2 76bc 0a26 18bd
00000360: 531c 973d 67fa f3bb 9daf 0c3d 7acd 5c3d
00000370: 831e a3bd cda3 23bd b24a 9a3d f320 32bd
00000380: f792 3abd 2da7 2d3d 3343 9539 87ed 92bc
00000390: 05ae 953d 9a62 33bb 833e 8e3d 25fd 91bd
000003a0: edfb a1bc 1a48 7c3d 7067 463d bff5 abbd
000003b0: 6775 39bb 533c aebc e8ce a83d 9ac7 c0bc
000003c0: 9a78 19bb e73b 07bd 0371 4fbd 3f74 8e3d
000003d0: 4d3f 2ebc d3ec 193d 8ac4 c73d f0db c4bd
000003e0: 3b76 9cbd ff7d 983d b3cb dbbc 5a27 7bbc
000003f0: 80f1 723d 4a76 21bd f354 123c 473b 893c
0.0053682923 0.011304021 0.076490656 -0.011494971 0.026778925 -0.034434106 -0.00495981 -0.04575465
-0.027873922 0.052827954 0.020520067 0.031575035 -0.008552372 0.036291134 -0.049128152 -0.05148486
-0.04684788 0.0013588787 0.059414603 -0.031994283 -0.035363402 0.004658544 0.09304678 0.008560252
0.04835863 -0.04933113 5.1259995e-06 0.0811371 0.02250333 -0.056474626 0.046449985 0.0059820176
-0.05546416 -0.04167054 -0.08818766 -0.01371218 -0.094343856 -0.062092103 0.087806046 0.0058724047
0.0029788257 -0.06918638 -0.0068989755 -0.082328334 -0.092375934 0.015408647 -0.070345044 -0.07549731
-0.042246044 0.07792002 0.084863864 -0.045149602 0.09818103 0.002560985 0.00052877667 -0.054335035
-0.083090164 -0.007828498 -0.014589846 -0.08445797 -0.009904683 0.06405413 -0.051041055 0.04101136
0.019476712 -0.06802725 0.06528874 -0.09772954 -0.0067553404 -0.083543204 0.077026784 0.031803515
-0.042393066 -0.08337265 -0.023904204 0.08390647 -0.012448728 0.056583762 -0.098746836 0.09486007
-0.0451123 -0.08900591 0.030473543 0.09504098 0.04084294 0.07948728 0.07283815 0.07408141
0.0744853 -0.040021945 0.025794495 0.04693955 -0.044532325 -0.09297148 -0.036090016 -0.09809221
0.0733691 0.09721458 0.0081485985 -0.059467267 0.048936773 -0.089320004 0.09663428 -0.033697713
-0.01939925 -0.08914643 0.0666497 0.02372302 -0.054617405 -0.00088765624 -0.03663769 -0.00525614
-0.09207147 -0.0019537688 0.011313272 0.016487552 -0.08167726 0.083850585 0.06699739 -0.080968395
0.021855688 -0.01954335 0.008164919 -0.016296363 0.037532818 0.008953417 -0.08936813 0.011549962
0.018715693 -0.0652164 -0.03469347 -0.08162301 -0.05151805 0.07744016 -0.08622515 -0.033203315
0.038989604 1.8417835e-05 -0.04898795 -0.052560974 -0.0556883 0.06631925 0.008652735 -0.026438832
-0.06668103 -0.00015547276 -0.030497491 -0.055709314 0.071050666 -0.06628573 -0.07206675 0.09008416
-0.056998838 0.0590176 0.046918083 -0.08026699 0.08328434 0.07542312 0.0694682 0.06013024
0.02998581 -0.043728948 0.042231657 0.009461343 0.052278925 -0.02483573 -0.07709848 -0.0744126
0.053814568 -0.09639169 -0.042092275 -0.08449707 -0.010761797 0.0011137485 -0.046077263 -0.061195314
-0.07417893 -0.06867869 -0.020899475 -0.016797734 -0.0042375326 0.08367207 0.0743398 -0.018015731
0.06937122 0.09263138 0.011837912 -0.075063504 0.04482031 -0.008969498 0.09735707 0.0887629
-0.019961094 -0.045666564 0.023752868 0.011284721 0.080708764 0.03134328 0.09646807 -0.043417882
0.07554668 -0.034712255 0.029543603 0.017892314 -0.045047116 0.08517015 -0.07906645 0.057876267
-0.025055839 0.012589085 0.04130354 -0.029873086 -0.013832867 0.0026366473 -0.015064848 -0.037145652
0.07378449 -0.007445622 0.034347165 0.053906895 -0.07964804 -0.039951134 0.07533778 -0.043488454
-0.045550313 0.04239576 0.00028469562 -0.017935527 0.07308582 -0.0027372004 0.06945517 -0.071283616
-0.019773448 0.0615922 0.04843849 -0.08396482 -0.0028298737 -0.021269 0.08242589 -0.023532677
-0.0023417831 -0.03301611 -0.050644886 0.06955766 -0.010635209 0.03757937 0.09754284 -0.09612262
-0.07639738 0.07445907 -0.02683053 -0.015329206 0.059312344 -0.03941945 0.008931386 0.016751898

elu_stack.4.bias f4 [100]
00000000: 57c6 04bd 7317 97bc f32b 8bbd af01 8ebd
00000010: 0ae5 5f3d 1784 6e3d 5f9e c73d 4569 90bd
00000020: 950b bc3d fa2d 783d ed37 703d 4d5a c83c
00000030: 6243 8e3d a305 bf3d aaa1 963d d3db 39bd
00000040: 276a 4cbc 7d97 6cbd e391 143d e72a 023d
00000050: f0ca 6abd 9ae2 b83d 30c5 c43d 4d18 a03c
00000060: 7391 8abd a08c 1fbd fa33 a93d 078a 253d
00000070: 939b c53c b772 6f3d 0010 573d 60c3 433d
00000080: 3794 cabd 1adc a4bc f3f0 8c3d e3e7 563d
00000090: 5372 9ebc 0d12 c93d bd90 76bd adcc b43d
000000a0: 6f20 a73d 923d 95bd 8096 9cbc 43fe a3bd
000000b0: 408d 803c cd5a 423c 5ae2 cbbd 6338 6ebd
000000c0: 0f6a cabd e0b1 9fbd 37d0 5f3d 0fc5 a73d
000000d0: c7ba 563d 0036 903d b344 293c 07da fcbc
000000e0: bf94 ae3d 3314 0cbc 7a69 3ebd 0096 55bb
000000f0: 8da7 4cbc 333b b83a ef7d 9d3d 00bc caba
00000100: bad6 e4bc 9a32 623c 40aa ca3d 1da4 b8bd
00000110: cd42 8a3b a73d 1fbd d523 8b3d da0e 8f3d
00000120: 5d05 803d d317 aabc 73ef 73bc b5d7 97bd
00000130: b5d8 80bd f338 b53c 53f4 b7bd 2819 9f3d
00000140: 4abc 21bd 6d84 c8bd d717 a73d 2336 74bd
00000150: c8e1 80bd 5838 ca3d 80ab 9fbd db3b 9e3d
00000160: 60b0 d93c 4067 26bd 0a56 a33d 6750 383c
00000170: a32e c0bd 73cf 3f3c 3a3f c13d 00db 0dbb
00000180: dac7 bbbd c078 b53c 3b82 a03d 5070 3dbd
-0.032415714 -0.018443799 -0.06795492 -0.06933915 0.054661788 0.05823144 0.09747004 -0.070513286
0.091818966 0.06059072 0.058647085 0.024457121 0.06946446 0.09327247 0.07355054 -0.045375656
-0.012476481 -0.057761658 0.03627194 0.031779196 -0.057322443 0.09027596 0.09607923 0.019542838
-0.067660235 -0.03895247 0.08261867 0.040414836 0.024122035 0.05845901 0.052505493 0.047793746
-0.09891551 -0.020124484 0.06881895 0.05246724 -0.019341623 0.09817896 -0.060196627 0.08828101
0.08160483 -0.07287134 -0.019114733 -0.08007481 0.015692353 0.011862469 -0.099552825 -0.058159243
-0.0988351 -0.07797599 0.05464193 0.08191883 0.05242422 0.0704155 0.010331321 -0.030865682
0.08524465 -0.008549738 -0.04648731 -0.0032590628 -0.012491119 0.0014055729 0.076900356 -0.0015467405
-0.02793442 0.01380601 0.09895754 -0.09015677 0.004219389 -0.038877156 0.06793944 0.069852546
0.06251023 -0.020763313 -0.014888632 -0.0741419 -0.062913336 0.022121882 -0.08982148 0.0776847
-0.039486207 -0.09790883 0.08158844 -0.05962194 -0.06293064 0.09874028 -0.07796383 0.0772626
0.02657336 -0.04062581 0.07975395 0.011249638 -0.09383895 0.011707175 0.09435888 -0.0021645427
-0.09168978 0.022152305 0.078373395 -0.046249688

elu_stack.6.weight f4 [100, 100]
00000000: 63f2 73bd 1318 3a3d 90dc aabd 8f66 c7bd
00000010: a55c 96bd 03f2 1d3d 1a15 a3bc c009 dc3c
00000020: 9af5 c3bd 7fda 823d ea60 aa3d 2362 39bd
00000030: 1049 7dbd b791 9fbd 473e 3a3d 4d72 143c
00000040: 4aaa b13d c2b3 b7bd 87d3 5e3d 8d9f 8b3d
00000050: e00a ca3c 5a39 a4bd 7a42 97bd 679e c8bb
00000060: bbe0 a03d cdf2 93bd 2d17 c9bc 8001 343c
00000070: aa84 af3d f3cc 91bd 23cf 403d 67da 4b3b
00000080: 4031 0f3d 73c6 acbd b380 38bd 9b86 993d
00000090: 27e9 ad3c 2858 993d c7e5 b9bd fba0 b0bd
000000a0: cf5a 9cbd e73f 54bc 6730 743b a7c8 f0bc
000000b0: 73f2 bdbc 0d8b a43c 003d c7bd cd0b 6fbc
000000c0: 2894 843d 9a45 33bd b3da febc 9ad7 0c3c
000000d0: e39b 003d 339e 643d 001e 953a d3d7 5a3d
000000e0: 80fa 553c cd52 583c 18e5 95bd 9a33 043c
000000f0: 5afb 433d f36d 933d ed63 b73d b3da a33b
00000100: e0bf 5bbd 3743 493d 43c8 55bd c0d4 33bd
00000110: f515 a3bd 3b59 913d d55d c23d 07da 623d
00000120: 33ec 503d 5a55 843c e319 40bd 2b3e 98bd
00000130: 1b93 b8bd 8d49 64bd bbc7 cbbd 9055 773d
00000140: 9304 f13c 0b21 c13d cb76 903d 5d3b b73d
00000150: f79a 7d3d 8375 5bbd 7737 a4bd 6dcb 3fbd
00000160: 4214 94bd c755 ccbd d09c b83d ff98 893d
00000170: 6a0c 023d 6d84 cf3c 1d0b 8d3d c054 cf3c
00000180: 0006 15bc 53ed 163d 171e 83bd a03b 47bd
00000190: 7569 813d 588f b8bd 67bc f63b a0d4 7e3d
000001a0: c775 cc3c 87a5 a83d 42bc 813d 7334 d9bc
000001b0: 4db2 77bc 82cf a4bd 2a5a 0d3d 4db8 673d
000001c0: 837d 553d 1a82 f7bc dd3f 0f3d 6785 0dbb
000001d0: 0258 b9bd 2fac c6bd a7a8 1bbc 5dd5 0e3d
000001e0: 80a4 46bd 5ab9 4c3d 6d61 35bd 809b 74bd
000001f0: 9a13 e43b 9a8c 3b3b d76b 1abd fa08 91bd
00000200: 07b8 18bd cfca aebd 9a78 603d 5771 0c3d
00000210: fd72 19bd e0b8 ddbc cd5f 4e3d 30cf 34bd
00000220: e74b adbc 6a6a 94bd b381 81bb b3fa 3ebd
00000230: ffe3 973d b0d2 62bd c8a5 89bd 0332 743d
00000240: 3af0 d4bc 3aba 75bd 0d3e 1d3c ad54 aabd
00000250: 9b95 9fbd cd8d 693d 9743 52bd 5308 c33d
00000260: 0706 953c 1343 8dbc 1a47 de3c edd5 e3bc
00000270: f344 d83c ef5b 9dbd 6051 a13c 27f3 5abc
00000280: cf24 a43d 33d9 4a3b daff 1bbd a3b0 7ebd
00000290: bb95 963d 3296 8e3d 50ee 3cbd a75b 0ebc
000002a0: 6787 ab3c a23c b93d 3377 80bb 7af6 27bd
000002b0: 673d e3bb e3a9 243d 13ce fd3c 73b2 2bbc
000002c0: c079 48bc 6bc3 b23d 679d 69bd 530c 673d
000002d0: 401b 45bc 1829 893d 070c 723d 3345 953a
000002e0: ad59 c73c d0fb 08bd 6261 c3bd 3aa4 843c
000002f0: 6d8f 6fbd 1067 31bd 6fac a0bd 9a70 f43c
00000300: ddf8 aabd d344 7abd d724 cc3d 3aa6 63bd
00000310: a788 8e3c 671c 813b cd8d b7bb 2374 843d
00000320: 4748 c6bc 98b6 803d d51f a03d ca1f 90bd
00000330: ea5c a0bd 7a1a 213d 174e bf3d a35a 2cbd
00000340: 7b5a b3bd 9a4b 2a3d f3ef 133c 62b4 cbbd
00000350: 0d7c 8fbd 4a07 78bd 8bb5 c33d d3c9 79bd
00000360: 8a1b bbbd d30b 333d 6b1e c9bd e3ca 6dbd
00000370: ad02 91bc 8d1b a4bd 575c 383d 3338 c7bc
00000380: 5a3f b7bd 77c0 21bd 0d03 c53c 5d0a 2e3d
00000390: 4834 993d 7a78 ddbc 2d78 273d 671d 903c
000003a0: 8246 97bd c0e2 573d 0d52 c73c 9399 1f3d
000003b0: 1384 1b3d 3585 90bd 2dd3 a1bd f378 7b3c
000003c0: 775c 40bd 13e6 98bd 5775 963d 8a33 43bd
000003d0: 9fd1 ae3d 9817 b7bd 7f3d b0bd eafc 393d
000003e0: 1a1c f13c 8f70 c5bd 8056 863d 70b4 3a3d
000003f0: ef82 ca3d c0b5 75bd d824 a3bd c74d d5bc
-0.05955733 0.045433115 -0.0834285 -0.097363584 -0.07341889 0.03856088 -0.019907523 0.026860118
-0.09568329 0.06389331 0.08319266 -0.045259606 -0.061837256 -0.07791465 0.04546955 0.009060455
0.08675058 -0.08969833 0.054400947 0.06817541 0.024663389 -0.080187514 -0.07385726 -0.0061223987
0.07855364 -0.07224045 -0.024547184 0.010986686 0.085702255 -0.07119169 0.04707254 0.003110552
0.034959078 -0.08436289 -0.045044612 0.07496377 0.02122934 0.074875176 -0.0907703 -0.086244546
-0.07634508 -0.012954689 0.0037260295 -0.029392553 -0.023186898 0.020085836 -0.09728432 -0.014590216
0.06473571 -0.04376755 -0.031110143 0.008596325 0.031398665 0.055814933 0.0011376739 0.053428482
0.013060212 0.013203335 -0.07319087 0.008068943 0.04784713 0.071987055 0.08954606 0.005000436
-0.053649783 0.049136367 -0.052192938 -0.043904066 -0.07963172 0.070970975 0.09490553 0.05538371
0.051006507 0.01615398 -0.046899687 -0.074337326 -0.09012433 -0.055734206 -0.09950205 0.060384333
0.029421126 0.094301306 0.07053908 0.089468695 0.061915364 -0.053578865 -0.080183916 -0.04682486
-0.07230426 -0.09977298 0.090142846 0.06718635 0.03175012 0.0253317 0.06886885 0.025308967
-0.009095669 0.036847424 -0.064022236 -0.048640847 0.063189425 -0.09011716 0.0075297835 0.062214494
0.024958504 0.08234697 0.063347355 -0.026514268 -0.015118194 -0.080473915 0.034509815 0.056572247
0.05212165 -0.030213404 0.034973014 -0.0021594407 -0.09049989 -0.0970081 -0.009500659 0.034871448
-0.048496723 0.049981453 -0.044282366 -0.05971861 0.0069603445 0.002861774 -0.0377005 -0.0708179
-0.037284877 -0.085347764 0.054802515 0.034287777 -0.037463177 -0.027065694 0.05038433 -0.044142902
-0.021154357 -0.07246859 -0.003952229 -0.046625804 0.07416534 -0.05537671 -0.067210734 0.059618007
-0.025993455 -0.059992053 0.009597314 -0.08316932 -0.07792207 0.057019997 -0.05133399 0.09523072
0.01819135 -0.017243898 0.027133513 -0.027811969 0.026400065 -0.076835506 0.019692123 -0.013363636
0.08014833 0.0030952215 -0.038085796 -0.062180173 0.073527776 0.06962241 -0.04612571 -0.008688844
0.020938588 0.09044768 -0.0039204597 -0.041006543 -0.00693481 0.04020108 0.030982053 -0.010479557
-0.012236059 0.08728679 -0.057034876 0.056408238 -0.012030423 0.06697291 0.0590935 0.0011388421
0.024334753 -0.033443272 -0.09540059 0.01619159 -0.05848639 -0.04331118 -0.07845389 0.029838849
-0.08348248 -0.061100792 0.09967964 -0.055578448 0.017399145 0.0039401534 -0.005601621 0.06467464
-0.024204386 0.06284827 0.078185715 -0.07037313 -0.07830222 0.03933189 0.09341066 -0.042078625
-0.08757492 0.041576006 0.009029376 -0.09946515 -0.07006083 -0.060553826 0.09556111 -0.06098349
-0.09136112 0.04371245 -0.09820255 -0.058054816 -0.017701471 -0.080130674 0.045009937 -0.02431879
-0.0894763 -0.03949019 0.024049306 0.042490352 0.07480675 -0.027034987 0.040886093 0.017592145
-0.07386495 0.05270648 0.024331117 0.03896482 0.037967753 -0.07056657 -0.07901607 0.015348661
-0.04696318 -0.07465758 0.073465995 -0.047656573 0.08536076 -0.08940047 -0.086054794 0.045407213
0.029432345 -0.096406095 0.06559467 0.045582235 0.09888255 -0.059987783 -0.07966012 -0.026038064

elu_stack.6.bias f4 [100]
00000000: a3f5 01bd 002b 29bd 950a 94bd aa5c 493d
00000010: 9aea a6bd 9ade 053b ba78 ac3c 15da 943d
00000020: 15cd 8c3d 0264 ac3d 9a4e 3ebc 0377 9e3d
00000030: 7d71 bb3d 20a9 c4bc 1aeb 713c 5316 fd3c
00000040: f30d 4d3d 2754 523c 471c 8fbc e7a0 c03b
00000050: 1bac cc3d 570b a93d 8df5 1ebd badf f43c
00000060: a04b 37bd 07fa cbbd 7a20 e43c 33ce 6ebd
00000070: 684e ae3d f754 b5bd af6b a53d f37e 0ebd
00000080: 0a24 53bd 9ba6 bebd 734d a03d 4d15 3cbc
00000090: b7b1 acbd 8708 583d 27d6 27bd 4a12 333d
000000a0: f2ac aabd c32c 5ebd 8768 853d 32d7 a73d
000000b0: 0d39 69bd 3708 093d 8732 d2bc 5274 c33d
000000c0: 5a45 1b3c c0e0 be3d 02d2 90bd 4da1 3abd
000000d0: d866 c23d 8b1d 903d fa7e 97bd 42f9 ae3d
000000e0: 4740 3ebd fa5c 87bc 7743 7cbd 4dc2 48bc
000000f0: 80b8 0a3c 7afd cabc bd6a 19bd b733 bdbd
00000100: 6746 e03b cdec 363b 40b6 483c 3a1c c1bd
00000110: cd98 56bb c5e5 aa3d 4228 8e3d 276d 22bd
00000120: fa18 3c3d 0fb2 9fbd 87f2 c6bc 00de f03a
00000130: 3a46 c43d d7f9 61bd 6092 e1bc dd7b 7c3d
00000140: 22d9 923d 838e 933d e3d8 1b3d 7309 573d
00000150: c77d c0bc 8761 70bd c05e b83d 0062 cc3b
00000160: 985c b7bd 0052 3f3c 1d57 b63d 9af8 bc3c
00000170: caa3 6c3d ad1e 963c bd95 993d a065 1ebd
00000180: a7de 753c e7ab c63c 97d4 b73d 7df5 5dbd
-0.031728398 -0.041300774 -0.07228581 0.049160637 -0.081502154 0.002042687 0.02105366 0.07268158
0.06875054 0.084175125 -0.01161542 0.077375434 0.091525055 -0.024006426 0.014765525 0.030894434
0.05006213 0.012837446 -0.017469538 0.005878556 0.09993764 0.08254116 -0.038808394 0.029891837
-0.044749856 -0.09959798 0.027847517 -0.058302116 0.085110486 -0.088540964 0.0807718 -0.034789037
-0.05154804 -0.09309121 0.07827272 -0.011479688 -0.08432334 0.052742507 -0.040975716 0.043718614
-0.08333768 -0.054241907 0.06514078 0.08195342 -0.056939173 0.0334551 -0.025658859 0.09543671
0.009476984 0.093202114 -0.07071306 -0.045563985 0.09492272 0.07036885 -0.07397266 0.08543636
-0.04644802 -0.016523827 -0.061587777 -0.012253356 0.00846684 -0.02477907 -0.03745531 -0.092383794
0.00684433 0.002791214 0.012250483 -0.09429212 -0.0032744885 0.08344606 0.06941272 -0.039654877
0.045922257 -0.07797634 -0.024285568 0.0018376708 0.09583707 -0.055169906 -0.027535617 0.061641563
0.07170321 0.07204916 0.038048636 0.052499246 -0.023497475 -0.05868676 0.09002447 0.0062372684
-0.08953208 0.011677265 0.08903334 0.023067761 0.05777339 0.018325174 0.074992634 -0.038671136
0.015006698 0.024251891 0.08976095 -0.054189194

elu_stack.7.weight f4 [1, 100]
00000000: e74f eb3b f360 2dbd 8727 d6bc da91 c03d
00000010: dad2 15bc 67d8 c73a bae0 123d e7bd 92bd
00000020: c7a8 4a3d b03e 593d f374 4a3c 4db8 ee3b
00000030: d271 87bd 803f 73bc 07f6 a9bd b300 e83b
00000040: 5a87 4ebd 533a dabc 5d51 02bd cdb3 653b
00000050: 3334 883d 33c8 6bbc 404f 2bbc a014 d83c
00000060: c302 29bd 6a64 373d 9df9 92bd 1035 03bd
00000070: 602f f23c ed36 98bc a709 f4bc e72d 3fbc
00000080: 5880 853d 67fe 8fbd 4be3 913d e38c 793d
00000090: 8dbe 41bd 0736 953c d240 c83d 5abf 08bd
000000a0: cdae 8f3a 6000 8b3d 37a8 bebd 0516 cabd
000000b0: 00a2 65bd 6719 213c 223e c1bd 87b7 a7bc
000000c0: 5069 5abd 3873 bebd 7377 af3c 67de afb9
000000d0: 2a62 52bd ca28 89bd f353 393d 8829 94bd
000000e0: 8056 c6bc adc7 e3bc 0aa9 bf3d 233f 29bd
000000f0: 2f08 83bd afd0 b03d 47cf cabd cae9 97bd
00000100: 670e 993b 1a14 ae3b 4085 f8bc f3fe 1cbc
00000110: 578a a2bd 035b aebd 00f1 083d 13bb 753d
00000120: f3f6 313c 00a1 583d 7789 693d 80ff ca3c
00000130: 27fd 5e3c 379c 2dbd 00be 733c f7c9 0ebd
00000140: 6384 a43d 2b00 b6bd 5357 093d c01d 1d3d
00000150: e711 70bc 57a4 90bd 278f 053d ddbc 39bd
00000160: cd66 a0ba 8042 c53c 0a6a 45bd 0786 893d
00000170: 0dc1 9cbd 1796 cabd 7f7d bbbd 4d1a bf3b
00000180: d0d7 193d bae6 8ebc 5a56 af3d e754 86bc
0.007181156 -0.042328786 -0.026141895 0.09402819 -0.009144509 0.0015246988 0.035858847 -0.07165127
0.049477365 0.0530383 0.012356984 0.007285154 -0.066135064 -0.014846683 -0.08298879 0.0070801615
-0.05042205 -0.02663914 -0.031815875 0.0035049797 0.06650581 -0.014390993 -0.010455906 0.026377022
-0.0412624 0.044773497 -0.07176516 -0.032033026 0.029563606 -0.018580878 -0.029789759 -0.011668659
0.0651862 -0.07030945 0.07123431 0.060925376 -0.047300864 0.018214239 0.097779885 -0.033385612
0.0010962129 0.06787181 -0.09309428 -0.09867481 -0.0560627 0.009832717 -0.09435679 -0.020473255
-0.05332309 -0.0929932 0.021419263 -0.00033544304 -0.051363148 -0.06697233 0.045246076 -0.07234484
-0.024211168 -0.027805174 0.093584135 -0.041319977 -0.06398045 0.08633553 -0.09902816 -0.074176386
0.0046709063 0.005312455 -0.030336976 -0.009582269 -0.079365425 -0.08513453 0.03343296 0.05999286
0.0108621 0.052887917 0.057015862 0.024780035 0.013610161 -0.042385306 0.0148768425 -0.034860577
0.08033063 -0.08886751 0.033530544 0.03835845 -0.014652706 -0.07062595 0.032607224 -0.04534613
-0.0012237668 0.024079561 -0.04819683 0.06715017 -0.07654009 -0.098919086 -0.09154796 0.0058319927
0.03755933 -0.017444003 0.08561392 -0.016397906
