Parameter/cartPG/1.pth (torch, 7255 bytes, 6 tensors)

linear_relu_stack.0.weight f4 [32, 4]
000000 80 19 bb be 58 3b 90 3d 80 be 45 bd 68 98 87 3e
       -0.36542892 0.07042569 -0.048277378 0.26483464
000010 ee 99 88 3e 85 66 dc bd 78 9a 5a 3d 5d 0d ac be
       0.2667994 -0.107617415 0.05336997 -0.33603945
000020 6f 0e 06 bc c1 16 fb be 4c c4 42 be bb c4 69 be
       -0.008182152 -0.49040797 -0.19020194 -0.22828953
000030 3b ad 0e 3e fc 5b 45 3e 14 ad 9b 3d 37 53 cf bd
       0.1393327 0.1927337 0.076013714 -0.10123294
000040 8e b8 02 3e d3 1e 51 be 15 4e d3 3e 97 8e 40 3e
       0.12765715 -0.20421915 0.4127051 0.18804394
000050 76 68 0d be da 00 73 be 01 73 c7 be f0 a7 8c be
       -0.1380938 -0.23730794 -0.3895493 -0.27471876
000060 12 ac d4 be fd 28 91 3e 78 97 e6 be 9f 0a 7a 3e
       -0.4153753 0.28351584 -0.45037436 0.24418114
000070 47 9f f7 3e bf 75 f0 be 3b 7e b3 3e 31 21 90 3e
       0.48363706 -0.46964833 0.35057244 0.28150323
000080 b1 41 a4 be 6f be 3d be b5 c5 b3 3e f5 dc 98 3e
       -0.3208137 -0.18529676 0.35111776 0.29856077
000090 c0 3e e9 3d 0a 8a e6 3e de c8 fe be b8 72 bd 3d
       0.11388922 0.4502719 -0.49762625 0.092503965
0000a0 ce 71 1d 3d 24 6a cb 3e 79 94 00 be b9 b6 3f be
       0.03843861 0.39729416 -0.12556638 -0.18722047
0000b0 6b e5 14 be a9 29 bf bd 4b bf 7a 3e 73 36 ce be
       -0.14540641 -0.09334118 0.24487035 -0.40275916
0000c0 ac 0a a0 be dc 44 49 3e 61 ea 1d be 73 ef 60 be
       -0.31258142 0.19655174 -0.1542144 -0.21966343
0000d0 0d aa e7 3e 52 cd bd bd 4c 28 5f 3d 49 1c dc be
       0.45246926 -0.09267677 0.05448179 -0.4299033
0000e0 f8 79 20 be d6 18 49 3e fd 57 87 be 30 e7 b3 3e
       -0.15671527 0.1963838 -0.26434317 0.3513732
0000f0 0e 33 22 3e 40 ad d5 3e 05 d4 fb 3e 00 0f 95 be
       0.15839788 0.41733742 0.49185196 -0.29113007
000100 68 c3 f1 3e 00 9b 34 3e 90 93 0a bd e2 26 99 3e
       0.47219396 0.17637253 -0.033832133 0.29912478
000110 f8 cf b1 bd 21 bf d7 3d 9d 49 c3 3d e0 b7 e7 3e
       -0.08682245 0.10534502 0.09535525 0.45257473
000120 ec 6c f9 3e 02 20 78 be a7 50 df be de 9f 2f 3e
       0.48715913 -0.2423096 -0.4361622 0.17150828
000130 cb c1 94 bd a4 e1 b1 3e 53 fe 97 3e 48 26 6d 3d
       -0.072635256 0.34742463 0.2968622 0.057897836
000140 ac 46 d9 3e 82 3b e7 3e d0 3a 4f bd ea bd 80 3e
       0.4243673 0.45162588 -0.050593197 0.25144893
000150 e3 2f 75 3e 64 51 dd 3d d2 37 28 3e f1 01 b9 3d
       0.23944049 0.1080654 0.16427544 0.090335734
000160 e5 43 ea bd 75 8b c8 3e 30 ad 7e 3e 85 a5 bb be
       -0.11438731 0.39168897 0.24870753 -0.3664972
000170 31 a5 45 be 4b 3b a6 bc 49 5f ff bd e4 7b f8 be
       -0.19301297 -0.020291945 -0.12469346 -0.4853202
000180 7c be 13 3e 90 78 22 be a4 51 12 be 28 04 8a be
       0.14428133 -0.15866303 -0.14288956 -0.26956296
000190 cb 06 c2 be 36 6c 15 be dc 42 b7 3b b4 d4 e4 3e
       -0.37895808 -0.1459206 0.005592687 0.4469353
0001a0 68 30 47 3e fa b2 c5 be 65 d3 5a 3e 50 20 af 3e
       0.1945206 -0.3861311 0.21369703 0.3420434
0001b0 7a 51 38 be 68 c0 03 3e 43 94 dc be 0d 7b de be
       -0.17999831 0.12866366 -0.43081865 -0.43453255
0001c0 5a 29 e6 be 7c 5a 91 3e 0b 89 b8 3e 9f 00 d7 be
       -0.44953424 0.28389347 0.36042055 -0.4199266
0001d0 79 69 92 3e ed 41 09 be 45 b4 c7 3e 57 38 ae be
       0.28596094 -0.13404055 0.39004722 -0.3402736
0001e0 78 eb 8c b8 bc 69 3d 3e 53 23 ad 3b 86 a2 b9 3e
       -6.71958e-05 0.18497366 0.005283752 0.36256808
0001f0 c5 71 ee be 84 fd a6 3c 62 01 a6 be 66 39 88 3e
       -0.46571174 0.020384558 -0.3242293 0.26606292

linear_relu_stack.0.bias f4 [32]
000000 be 4e c3 be 86 9e e0 3e cf e6 63 3e 73 a8 8e 3e
       -0.38146013 0.43870944 0.22256015 0.27862892
000010 32 da e4 bd b2 fc 52 3c 41 19 bd 3e 56 ae b0 be
       -0.1117443 0.01287763 0.3693333 -0.34508008
000020 f2 47 12 be 2c b2 d1 be 1d 22 c9 be 25 a1 cf bd
       -0.14285257 -0.40956247 -0.3928384 -0.10138158
000030 7e 47 85 3e 1f b1 b5 3e 7e e3 c1 3d 4f 70 3c 3e
       0.26031107 0.35486695 0.09467219 0.18402217
000040 ea ac b9 be 6f e2 82 be 48 29 6c 3d 74 aa b9 3e
       -0.36264735 -0.2556338 0.057656556 0.36262858
000050 b0 4b ef bd a7 26 d7 3e 8b 5a c2 3e 50 04 e0 3e
       -0.11684358 0.42021677 0.37959704 0.4375329
000060 18 d0 5a be 03 7e 10 be 2a 91 71 bd 32 f0 c2 3e
       -0.21368444 -0.1411057 -0.05897633 0.3807388
000070 c8 ab 89 be 01 ae 38 3e ee 03 e4 3e e7 41 4e be
       -0.2688887 0.18035127 0.44534248 -0.20142327

linear_relu_stack.2.weight f4 [32, 32]
000000 9e 4b b5 bd 3b 33 b1 bd 3a 31 a7 3c a6 de 13 be
       -0.088523135 -0.086523496 0.020409215 -0.14440402
000010 ad e2 38 bd c5 7b 08 be bf 91 27 3d 0c 1c 1f 3d
       -0.04513805 -0.13328464 0.04091048 0.038845107
000020 b5 41 04 bd 3e 8f 83 3d 83 1f 15 be fd 5a 2a be
       -0.032289226 0.06423806 -0.14562802 -0.16636272
000030 5a 2a 66 bd a8 24 ed 3c 9e 3e d6 bd 69 ab e4 bd
       -0.056192733 0.028948143 -0.10461162 -0.111655064
000040 b2 c3 ef bd 9c df 15 3e e9 a7 c5 bd 97 b3 b6 3d
       -0.11707248 0.14636081 -0.09651167 0.08920973
000050 fa fd f1 bb 67 41 c9 bc 37 9a 23 3e ca a3 65 3d
       -0.0073850127 -0.02456732 0.15976797 0.056064405
000060 3b 3d 89 3d b3 4e 1e 3e f1 94 62 bc f7 96 00 3e
       0.06701132 0.15459709 -0.013829456 0.12557589
000070 c3 83 14 bd 7a e8 6b 3d f7 bb fc bc dc cb 33 be
       -0.03625847 0.057594754 -0.030851347 -0.17558235
000080 1e c4 1f bc 4a 02 f2 bd 2c 18 3e bc 04 c1 9d bd
       -0.009751348 -0.11816843 -0.011602443 -0.077028304
000090 43 8a ee bc 32 67 21 3e d1 4d 65 bd 0e f9 cb bd
       -0.029118663 0.15762022 -0.055982415 -0.09959613
0000a0 55 7f 23 bb 15 de f1 bd 5f 49 ea bd d9 76 b3 3a
       -0.0024947722 -0.11809937 -0.11439776 0.0013692036
0000b0 ec 00 64 3d 3f de ea bd 8c 04 27 3e 2f d8 0e be
       0.05566494 -0.11468171 0.16310328 -0.13949655
0000c0 3b 87 8e 3d d5 86 3b bc ef c5 17 3e fc 93 29 be
       0.06959387 -0.011445721 0.148216 -0.16560358
0000d0 45 8c 42 bc 50 9a cc 3d 1b 20 24 be be 5d 0e 3d
       -0.011874263 0.0999037 -0.16027872 0.03475737
0000e0 e1 aa d8 bd 71 eb c7 3d 93 f4 20 3e 5d 23 0e 3e
       -0.105794676 0.09761704 0.15718298 0.13880678
0000f0 f0 02 c2 bd c5 4c c6 bd b9 a8 0a 3e b8 9c 8b 3d
       -0.094732165 -0.096826114 0.13540925 0.06817001
000100 33 1c 2f 3e 57 4a b1 bd ce 29 35 3e f9 4d d7 bb
       0.17100601 -0.08656757 0.17691728 -0.0065705744
000110 77 41 08 3d a1 35 5b bd 71 49 c3 3b 58 13 2d be
       0.033265557 -0.05351794 0.0059596826 -0.1690191
000120 eb 38 8c 3c e5 84 4e 3d 2d 3d 1e bd 43 f3 e2 bd
       0.017116984 0.050419707 -0.03863256 -0.11081555
000130 41 11 14 3e 52 ab 06 be cc 95 4b 3d 48 34 23 be
       0.14459707 -0.13151291 0.049703404 -0.15937912
000140 4b 52 05 be 91 1a 35 be 29 68 d8 3d 1a a5 ff bd
       -0.13019674 -0.17685916 0.10566742 -0.124826625
000150 3a ad 85 3d d5 6b 75 3a 68 8e 20 be 6d 7e c7 3d
       0.06527181 0.00093620765 -0.15679324 0.09740911
000160 0c 11 05 3d 6e c1 eb 3c 61 37 a5 bd 1c a7 18 3d
       0.03248696 0.028778758 -0.08067203 0.037268743
000170 87 16 85 ba d5 7e 78 bd 26 e5 24 3e bd 9c 47 3d
       -0.0010153808 -0.06066783 0.16103038 0.04873346
000180 b1 69 ce 3d 20 19 2c bd bd f8 8a bd ad d6 ce bd
       0.10078753 -0.04201615 -0.06785724 -0.1009954
000190 11 4b 13 3e 55 6d 94 bd 28 d6 b2 bc 13 25 23 be
       0.14384104 -0.07247416 -0.021830633 -0.15932111
0001a0 d5 2c 00 be 2d d1 19 be f0 92 82 bd b3 0b cc 3d
       -0.12517102 -0.150212 -0.06375682 0.09963169
0001b0 fa d6 30 3e 0d 67 fe bd a7 05 15 be fb 09 2c be
       0.17269507 -0.12421999 -0.14552937 -0.16800682
0001c0 83 f7 28 3d 39 10 3d 3c 6b 36 b0 bd 20 48 35 bb
       0.04125167 0.011539512 -0.086041294 -0.0027661398
0001d0 f5 70 ad 3c 9b f7 ab bd c0 76 1d be 20 be 80 3d
       0.021172026 -0.08396836 -0.15377331 0.062862635
0001e0 90 7c e1 3d 6f 35 86 3c 1a 2d 4a bd 17 ed 1f 3e
       0.110100865 0.016382901 -0.04935942 0.15617786
0001f0 83 60 bf bd 10 eb 1a be e2 ff 1c be a0 ee 8f bc
       -0.0934458 -0.15128732 -0.15331987 -0.01756984
000200 a8 61 1a be 01 73 1e bd f8 f2 4c bd 9f dd a2 3c
       -0.15076315 -0.038683895 -0.0500364 0.019881068
000210 6d 78 46 3d 59 3f cd bd 3c dc 0b be f4 47 0e be
       0.04845469 -0.10021848 -0.13658231 -0.13894635
000220 37 3b 22 3e 79 5b 19 be b9 53 42 bd ae e8 b1 bd
       0.15842901 -0.149763 -0.047443125 -0.08686958
000230 1f 1f b3 bd 2b 27 91 bd af a5 22 3e 2f 52 f1 bd
       -0.0874617 -0.07087549 0.15883516 -0.117832534
000240 e9 5a 28 3d 04 32 25 be 76 81 20 be e9 0b 39 bb
       0.041102324 -0.1613236 -0.15674385 -0.0028235859
000250 56 75 f2 3d 3d 3a 28 3e c6 ac cd bd 3a 6e 8c 3d
       0.11838786 0.16428466 -0.100427195 0.068569615
000260 1a 44 ad 3b ae 5d ad bd 5a 2b 08 be 01 b4 13 3e
       0.0052876594 -0.084651336 -0.13297787 0.14424135
000270 96 ae 28 3e 62 dd 0c bc 41 ec 69 3c 47 27 9c 3d
       0.16472849 -0.008597704 0.014277519 0.07624679
000280 9d 1b 8c bd 3b 20 16 3e 45 b8 fe 3d 2a 19 b0 3d
       -0.06841204 0.14660732 0.124374904 0.0859855
000290 fa 08 34 bd bd e3 23 3e 3b e1 28 3e 8d df 05 3e
       -0.043953873 0.16004844 0.16492169 0.13073559
0002a0 dc e5 3e 3d b3 d7 89 bd a2 7e cb 3d 48 aa f4 bd
       0.04660593 -0.067305945 0.09936263 -0.11946541
0002b0 35 a9 92 bb 55 d4 2c 3e 01 e9 cb 3d fa 4f 0c 3d
       -0.0044757375 0.16877873 0.09956551 0.03425596
0002c0 3a 61 c2 3c 43 44 f2 bd 67 49 1d 3e cb 0c 01 be
       0.023728002 -0.11829426 0.15360032 -0.12602536
0002d0 ee fc f7 bc 40 07 90 3d 4e 7b 1a 3e 21 47 dc bd
       -0.030271973 0.07032633 0.150861 -0.10755754
0002e0 ee 77 2c 3e 4e 60 8b 3c d9 92 ae 3d 83 04 2f 3e
       0.16842625 0.017013695 0.08524103 0.17091565
0002f0 3f c9 27 be 5d 33 3b bb e7 cc dd 3d 7f 07 83 3d
       -0.16385363 -0.002856455 0.10830098 0.06397914
000300 99 03 17 3e e7 ed 21 be 38 ea 83 3c 81 49 b0 3d
       0.14747466 -0.15813409 0.016102895 0.0860777
000310 1b 3c 2c bd c1 61 c7 3d 30 cc 03 be 8f fa 00 3e
       -0.04204951 0.09735442 -0.1287086 0.1259558
000320 db 21 6b 3d 18 56 56 3d b4 2e 1c 3c 0d e4 33 3e
       0.057405334 0.0523282 0.009532619 0.17567463
000330 5c d0 1f 3e 13 73 69 bd 61 d9 d5 3c ec 5a 2b bd
       0.15606827 -0.05699451 0.02610463 -0.041834757
000340 3c d3 c6 3d 15 2e df bd d0 dd 32 3d e2 8d 03 3e
       0.097082585 -0.10897461 0.043668568 0.12847093
000350 ea 37 04 be f0 f8 f7 3c c1 ac 63 3d b0 94 af bd
       -0.12911955 0.03027007 0.055584673 -0.08573282
000360 b4 7f 4d bd f6 fa de bd bd 82 e9 bd e2 67 3d 3d
       -0.050170615 -0.10887711 -0.114018895 0.04624165
000370 66 26 ea bd 59 4e 0d 3e a1 06 82 bd a5 2c 7f 3d
       -0.11433105 0.13799419 -0.063489206 0.062298436
000380 84 ee b7 3d 63 aa 0f bd 62 02 70 bd 0a c1 51 3d
       0.0898104 -0.035074603 -0.058596022 0.051209487
000390 25 b4 b3 3d c2 bf a9 bc 34 4c 27 3e 7a 6e 92 3c
       0.08774594 -0.02072132 0.16337663 0.017874945
0003a0 c4 23 79 3d 97 b7 23 be 5a f2 db bd 53 05 d1 3d
       0.060825124 -0.15988003 -0.10739584 0.10206094
0003b0 4e fd 22 bd 7a 4f e9 3d 89 32 d7 3d d2 76 13 bd
       -0.03979235 0.11392112 0.10507686 -0.036001988
0003c0 91 ae 4e 3d 79 e8 19 be 94 00 20 bd 19 d4 d4 bd
       0.05045945 -0.15030088 -0.03906305 -0.10392017
0003d0 5d c5 08 3e ff 24 22 be 1d c3 65 bd d0 ca b2 bd
       0.13356538 -0.15834425 -0.056094278 -0.0873009
0003e0 28 44 af 3d ca 93 62 bb 67 3a 76 bc 77 aa ea bc
       0.08557922 -0.0034572952 -0.015028573 -0.028645737
0003f0 40 b3 f8 bb 29 34 fa 3d 74 14 f2 bd 15 06 d8 bc
       -0.0075897276 0.1221698 -0.118203074 -0.026370088

linear_relu_stack.2.bias f4 [32]
000000 86 d1 ab bd 5a c3 cd 3d 6c 34 fd ba 06 fa 12 3e
       -0.08389573 0.10047026 -0.0019317991 0.14353189
000010 3c 6f 42 bd 43 4a 2f 3e 11 59 38 3c 9a 84 2b 3e
       -0.047469363 0.17118172 0.011251704 0.16749802
000020 6c ba e8 bb 82 4e 36 3d 13 db fe 3d f7 ce 3c 3d
       -0.0071023013 0.044508465 0.12444129 0.046095815
000030 a4 0e 7b 3d 46 45 24 3d d1 2c 6d 3d 7c c8 2e be
       0.06129326 0.040105127 0.05790407 -0.17068666
000040 98 2d 20 3e 7b 3a d2 bd da ef 16 bd b9 24 90 bd
       0.15642393 -0.102650605 -0.036849834 -0.07038254
000050 2b e2 14 bc 7d 74 fa ba 1e 07 10 3e 2b 20 a5 bd
       -0.009087126 -0.0019108203 0.14065215 -0.08062776
000060 74 cc 62 3b 94 f1 19 be aa d7 a0 3d a5 dd bd bd
       0.0034606727 -0.15033561 0.07853635 -0.09270791
000070 9f d9 b5 bd 47 0a 75 bc f1 ab 2b 3d e4 fc aa bd
       -0.088793986 -0.014956064 0.041912023 -0.08349016

linear_relu_stack.4.weight f4 [2, 32]
000000 aa 22 bb bd 7e 27 bb 3d 89 2a 27 3e 8b 91 c8 bd
       -0.09137471 0.09138392 0.1632482 -0.09793385
000010 4d d7 a9 3d 03 ba 08 be 38 91 00 3e 51 1d 13 3e
       0.082930185 -0.13352208 0.12555397 0.14366652
000020 d3 7d ab bc 47 26 fb 3d 63 af 14 be 99 8c e0 bc
       -0.020934021 0.1226316 -0.1452003 -0.027410792
000030 ce fb 0e be ad d0 b9 3d f5 aa 19 3e 83 81 ac 3c
       -0.13963243 0.09073005 0.15006621 0.02105785
000040 7a 94 b5 3d 0a 7a ab bd 94 f9 1b bb b9 70 0f be
       0.0886621 -0.083728865 -0.0023799883 -0.14007844
000050 54 6c d3 3d d6 20 a5 bd bb 74 e5 bc 0c 9c 4c 3d
       0.10323396 -0.080629036 -0.028009763 0.049953505
000060 9f 51 01 3e 29 cf c8 3d be 67 2d 3e 98 80 a4 3d
       0.12628792 0.09805138 0.16934106 0.0803234
000070 d8 ec 2b 3d f3 55 63 3d 23 b3 36 3d 16 4c 0d 3e
       0.04197392 0.05550189 0.04460443 0.13798556
000080 a0 9e cb bd ea f6 6b bd 33 e9 ff b9 46 9e e7 bd
       -0.09942365 -0.057608522 -0.00048811137 -0.11309485
000090 e9 95 17 be 2b 7f 17 3e a5 88 a6 3d 90 e8 75 bd
       -0.1480328 0.14794604 0.081315316 -0.060036242
0000a0 17 3d a1 3d b1 a7 d0 bd ee a0 20 be 49 13 65 bd
       0.0787298 -0.101882346 -0.1568639 -0.055926595
0000b0 1d c2 2b 3e c7 a8 a6 bd d8 6d 2c 3e b3 5b b8 3d
       0.16773267 -0.081376605 0.16838777 0.09001865
0000c0 89 f2 37 be 61 20 23 3e 1b 34 c8 3d f0 99 10 3e
       -0.17963614 0.1593032 0.09775563 0.14121222
0000d0 81 40 ee bd 7c 5f 14 3e 61 d6 13 3d d0 ab 0f bd
       -0.11633397 0.1448955 0.03609312 -0.035075963
0000e0 d8 2f a4 3d 7f 15 cf bd 5a f7 23 be 8a 59 e7 3c
       0.08016938 -0.10111522 -0.16012326 0.028240938
0000f0 4b 1f 6f 3c f1 77 13 be 6b ec ed bd 51 7d b9 bc
       0.014594863 -0.14401223 -0.11617359 -0.022642763

linear_relu_stack.4.bias f4 [2]
000000 09 e0 c2 3c 9d 1e 15 3d
       0.023788469 0.03640615
