Parameter/cartPG/1.pth (torch, 7255 bytes, 6 tensors)

linear_relu_stack.0.weight f4 [32, 4]
00000000: c125 023f f5b7 263e c12b aabe 1e22 ccbe
00000010: 38bd 7bbe 5989 e4bd 3276 6b3e 29eb e13e
00000020: 017a a7be e4d9 62be 6fcf f0be 6df0 f1bd
00000030: b89a aebe 18a0 4fbe c7b1 31be 6172 62bc
00000040: 442b 0dbe 98a8 a9be 3170 8fbe edcb 073e
00000050: 57fa eebd f91d 893d 5109 e33e dbb2 7ebe
00000060: 1062 82be f8dd c7bd 468a 983e f5f4 9dbe
00000070: c377 77be 3f1d b0be 5069 66be 0d4d e43e
00000080: 8512 8a3e b8b7 8f3b d89c 543d 5526 fcbe
00000090: 7407 373e 593d ddbe 091c 81bd f135 fe3b
000000a0: 891d 8bbe f85c 92be d2f2 8cbe 3e52 11bf
000000b0: 6c2e 5c3e 5d2a 4bbe a608 b6be dcdf d9bd
000000c0: b2b6 8ebd 986a a1be 4421 2ebe 84f9 77bd
000000d0: 79f8 0abe 00e7 433e d856 0f3f ba9a 873e
000000e0: 43a2 573d 959c 673e add9 2c3d 9976 09bf
000000f0: 2ad9 df3d ae3a a3be f90d 043e 1df9 d8be
00000100: 2a39 06be 17cf fdbc acd5 9a3e d0d1 0a3f
00000110: 05c8 ce3d e1b7 b1be e141 4f3e 9b28 773e
00000120: 9737 b4be ba96 ebbc a646 aa3e 19a8 2d3e
00000130: 00e1 9fbe 94e6 15bc df4b a6be a83c d7bd
00000140: 7daf b23c 89ef 423e 99ff 78be 8971 f9be
00000150: f6ae 91be 6a59 693e c23e 613e 8069 01bf
00000160: fde2 41be f845 c13e fac8 213f 74ff e83e
00000170: 4692 c3be 7719 c3be 5e8c 673e ce3d 0e3e
00000180: eaa1 b73e 101b 07bf 6386 5fbe b389 143e
00000190: ad8b 65be 73bc cc3e 79a1 e93e 7b8e 663e
000001a0: c430 d63e dcb4 84bd 3a5a 0b3f 4e9d bd3e
000001b0: 0cb8 0f3e e04d d4be ff0a e8bd 2a63 c3be
000001c0: b366 aabc 5005 3f3e b280 d33e 17d4 7a3e
000001d0: 89e5 163e 4903 fc3e 027e 783e 3d61 12bf
000001e0: 6cc9 d4be e2cd 7ebe 5da0 adbe 94e2 ad3e
000001f0: 12db 5e3e aba1 ce3c 2337 073f 8f4a cf3e
0.5083886 0.16281112 -0.33236507 -0.3986978 -0.245839 -0.111590095 0.22994307 0.44124725
-0.3271027 -0.22153431 -0.4703326 -0.11813436 -0.34102416 -0.20275915 -0.17352973 -0.013821215
-0.13786036 -0.3313644 -0.28015283 0.13261385 -0.11668842 0.0669517 0.44343045 -0.24872915
-0.2546544 -0.09759134 0.29792994 -0.3085095 -0.24166779 -0.34397313 -0.22501111 0.44590035
0.26967254 0.0043859147 0.05190739 -0.49247995 0.17873937 -0.43210867 -0.063041754 0.007757895
-0.2717097 -0.28586555 -0.27529007 -0.56766117 0.21502084 -0.19840379 -0.35553473 -0.10638401
-0.0696844 -0.31526637 -0.17004877 -0.06054069 -0.13571347 0.19131088 0.5599189 0.26485234
0.05264498 0.22618325 0.04219978 -0.5369659 0.10930093 -0.31880707 0.12895955 -0.42377558
-0.13107744 -0.030982537 0.30241144 0.542264 0.100967444 -0.347106 0.20239975 0.24136584
-0.35198662 -0.028758395 0.33257025 0.16958655 -0.3122635 -0.009149212 -0.3247976 -0.10509616
0.021812195 0.19036688 -0.24316253 -0.48719433 -0.28453797 0.22788015 0.21996596 -0.50551605
-0.18934245 0.37748694 0.6319729 0.45507395 -0.38197535 -0.38105366 0.2261214 0.13890764
0.35865718 -0.5277567 -0.21828608 0.14505653 -0.22416563 0.39987525 0.45631006 0.2251529
0.4183408 -0.06479809 0.5443455 0.37034076 0.14035052 -0.41465664 -0.11330222 -0.38161594
-0.020800924 0.1865437 0.41309124 0.24494968 0.14735998 0.49221256 0.24266818 -0.57179624
-0.41559923 -0.24883226 -0.3391141 0.33961928 0.21763256 0.025223574 0.52818507 0.4048657

linear_relu_stack.0.bias f4 [32]
00000000: 27e4 6f3e cf03 8f3e 1270 d6be ea80 643e
00000010: 93c2 59be d27d d6be 320b 663e 927f 3e3e
00000020: bbbf 543e 35ba fdbe 8777 1d3e b241 6dbe
00000030: dccf 583d 9985 103e 5853 af3d 7d5e e8be
00000040: c38b 57be 6ae0 40be bb13 aabe eef0 ce3e
00000050: 73ba 5dbe ed69 743d 46ab 293e d7d2 f33e
00000060: fe2c 9a3e da48 c03e 4fd5 dbbd 07eb 073f
00000070: b13f e53d 7266 c03e 9074 dbbe 99ec 4c3e
0.23426877 0.27932593 -0.41882378 0.22314802 -0.2126563 -0.41892868 0.22465208 0.18603352
0.20776264 -0.49556127 0.15377627 -0.23169592 0.052932605 0.14113463 0.085608184 -0.4538459
-0.21049409 -0.18835607 -0.33218178 0.4041819 -0.21653156 0.05967133 0.16569242 0.47621796
0.3011245 0.3755558 -0.10734045 0.53093 0.11193789 0.3757816 -0.42862368 0.2001213

linear_relu_stack.2.weight f4 [32, 32]
00000000: 713d a1bd f904 d0bc 0dc5 36bd b841 6bbd
00000010: dba1 17bc a594 05be d25c 12be 27fe 1b3e
00000020: 8d04 07be 485c 29be 26a8 4dbe 16d2 45bd
00000030: 602c f23c 2074 903c d95c 44be 712c 913d
00000040: 149a 0b3e 4381 263e f7ed 193e ac74 613d
00000050: c9b3 39be 9a77 e0bd eea7 d43d 5466 d63d
00000060: 8106 57bd 895c 7f3e e727 273e f217 31bd
00000070: 3c95 aabc d43a fdbc e05d 3cbd 8b29 513e
00000080: ab08 c43d b7e2 b5bd 8ee9 003e e86a f13d
00000090: b47b ee3d 88f6 513d f48d 493e ad46 983d
000000a0: 7c29 ff3d 3aa1 1dbe 288e 8c3e 3973 183d
000000b0: ee11 e03c b75a 26bd dac0 6a3d 705d fb3d
000000c0: 9d40 a7bd 1497 063d 263d cb3c 2c4d 613e
000000d0: f863 28bd 2f61 1f3d 4a21 6ebe f0b9 333e
000000e0: 9b3f 643d 6195 20bd 2c8e 283d 5b73 643e
000000f0: 4629 9e3d 5af0 2a3e cb91 273e ff44 39be
00000100: 197e 4ebd 5890 7cbd 7287 063e c96b 893d
00000110: 41f8 c23d 81af 23bd fa8d c7bc 7354 a13d
00000120: 9d74 293e 3c3e 073e 7d87 9b3e 2ef5 153d
00000130: 1f63 853d b681 81bd 8024 8c3e 5848 e3bc
00000140: f0e9 75be dfa7 e4bd 0174 563c 62c9 513e
00000150: c23d 853e 900e e03d a38d 01bd 37b3 c13d
00000160: 88d9 043e b0f7 533d 4720 6ebe 0d2a cf3d
00000170: 0983 7dbe 3f1e a1bd c359 553d 443c c9bd
00000180: 1d4b 023d 0ff3 2abe fb99 983d 79d7 9f3d
00000190: 3222 6e3d e6cb 8e3d c510 b53d d035 e73c
000001a0: 2df7 0a3e a2b9 febd 5ee8 08bd 35e5 cbbc
000001b0: c325 3d3d 7258 e0bc 7850 90bd 0ff3 97bd
000001c0: b0a0 273e 7bfc 11be 8ae9 19be 5a07 80bd
000001d0: a7f6 e6bd 64b4 fc3c ef29 08be 1db0 a43d
000001e0: 695a 23bd 8f91 4ebd bf95 383d 6aba c5bd
000001f0: 3b2b 913d f054 3b3d 74ce e83d 86f6 e8bd
00000200: 7db5 c03d 4d1f 01be f59b 88bd 76bf aebc
00000210: 862d 013d cb6a c53d bb16 513e b5cb 80bc
00000220: d6cf 423e 96c4 013e f032 0b3e f664 23bd
00000230: 759c 163e 846e a6be b8a9 2e3e da0a 8fbd
00000240: dd77 09be f2b5 113e cc3d c3bd fb42 7b3e
00000250: aec3 9b3e f9fe 963d 038f 27be 5f20 01be
00000260: 7da3 1c3e ec2d 5d3d cd25 10bd 7771 943e
00000270: 5f61 88be 601f fe3d 840a 2ebe a872 60bd
00000280: 8d7c 9c3d fb7b a33d 648c c23d 08a3 403e
00000290: 1980 a3bd ef99 063b 6104 543e 30b2 c9bd
000002a0: ad85 0f3e 6f8c c4bd cc81 6f3c 4e2a c63d
000002b0: 97f3 68bd d58e 8abe d4bc 07bd 79ce 2b3e
000002c0: 60af d0bd 5efa 8e3d 9447 48bc 2c6a 6d3e
000002d0: 98f8 ea3c e667 7a3e 5f13 61be 6173 3f3e
000002e0: 4fc6 7f3d c58d 7c3d c4fa 66be 4bfe 673d
000002f0: cdac 7cbe a2df 563e 69ab 56bd 6a56 4abd
00000300: 282b dfbd b436 2f3e d3c8 30bd 8fea 05be
00000310: 7e68 35bc 995b 27bc 3173 fcbd a7ca b23d
00000320: f7c6 00be 2f41 e43d a71a 9f3d feb3 2a3d
00000330: d568 dc3c 37c1 e8bd e7c4 a9bc 4d09 be3c
00000340: 82a3 013e 3b82 763d c1e1 f23d 3e17 16be
00000350: 7d7a 1fbd 2190 e53d 2ed7 85bd 02a8 00be
00000360: a68a 00bd 4ebd 1dbe f757 12be afee 0dbe
00000370: 2df7 62bc ca5d 22be c306 293e 7611 393d
00000380: 9746 653e 47a0 ca3c fae7 303e 779d e93d
00000390: b9ae d03d 40d9 a9bd ac42 f5bc 8918 edbd
000003a0: 4b5a 9fbc fd33 1b3e e289 8d3e 331a 10be
000003b0: bcc1 eebc e98e 61be ac34 1d3e 53ac 293d
000003c0: d3ae 3fbe 48ff 343d bcb9 16bc 263d 3b3e
000003d0: bde6 d93d d0df 6f3e 5d88 213b ac40 c7bd
000003e0: 82f9 fe3d eeaf df3d 2d77 103d f78a 723e
000003f0: f21c 21be 996b 303e 4498 043e fb55 d5bb
-0.07873047 -0.025392996 -0.044621516 -0.05743572 -0.009254898 -0.13044985 -0.1429322 0.1523367
-0.1318533 -0.16539109 -0.20083675 -0.048296057 0.029562175 0.017633498 -0.19176044 0.07088555
0.13632995 0.16260247 0.15032183 0.055042908 -0.18134989 -0.10960312 0.103835925 0.10468736
-0.052496437 0.24937643 0.16323815 -0.043235727 -0.020823114 -0.03091184 -0.045987964 0.20426004
0.09571966 -0.08881133 0.12589094 0.11787969 0.11644688 0.0512605 0.19683057 0.07435355
0.124590844 -0.15393534 0.27452207 0.03721926 0.0273523 -0.040613856 0.057312824 0.12273681
-0.08166621 0.032858923 0.024809431 0.22002095 -0.041110963 0.03891104 -0.23254886 0.17551398
0.05572472 -0.03920496 0.04115121 0.2230963 0.07722716 0.1669325 0.1636421 -0.18092726
-0.050413225 -0.061661094 0.13137606 0.067100115 0.09520007 -0.039962295 -0.024359692 0.078774355
0.1654839 0.13207334 0.30376807 0.036610775 0.065130465 -0.063235685 0.27371597 -0.027744457
-0.24015021 -0.11164831 0.013089181 0.20486978 0.2602368 0.109402776 -0.031629216 0.09458011
0.12973607 0.051749885 -0.232545 0.101154424 -0.24757017 -0.07867097 0.052087557 -0.09825948
0.031809915 -0.16694282 0.074512444 0.0780477 0.05813808 0.06972484 0.08841089 0.028223902
0.13570853 -0.124377504 -0.033424728 -0.024889568 0.04617859 -0.027385924 -0.07046598 -0.074194066
0.16369891 -0.1425647 -0.15030494 -0.06251402 -0.11277514 0.030847736 -0.13297246 0.080414034
-0.039881144 -0.050431784 0.045064684 -0.09654696 0.07088324 0.0457353 0.11367503 -0.113751456
0.09409616 -0.12609597 -0.066703714 -0.02133153 0.031537555 0.0963951 0.20418827 -0.015722135
0.19024596 0.12672648 0.1359365 -0.039891206 0.14708121 -0.32506192 0.1705693 -0.06984492
-0.1342463 0.14229563 -0.09533271 0.2453727 0.3042273 0.07372851 -0.16363148 -0.12610005
0.15296741 0.053998873 -0.0351923 0.28992817 -0.26636788 0.12408328 -0.16996199 -0.054796845
0.07640944 0.07982632 0.09499434 0.18812191 -0.07983417 0.002053853 0.20704795 -0.0984844
0.14015837 -0.09597098 0.014618348 0.09676038 -0.05687293 -0.27062097 -0.033139065 0.16777982
-0.101897 0.069813475 -0.012224097 0.23185033 0.028682992 0.24453697 -0.21980046 0.18696357
0.06244498 0.06165864 -0.22556597 0.056638997 -0.24675293 0.20983747 -0.052409563 -0.049398817
-0.10896903 0.17110711 -0.04316027 -0.13077758 -0.011072276 -0.01021471 -0.123266585 0.08730059
-0.12575899 0.11145245 0.077687554 0.04167556 0.026905457 -0.11364978 -0.020723773 0.023197794
0.1266003 0.06018279 0.118594654 -0.14657304 -0.038935173 0.11209131 -0.06535183 -0.1256409
-0.031382225 -0.15404245 -0.14291368 -0.13860582 -0.013852877 -0.1585609 0.16506486 0.045182668
0.22390209 0.02473463 0.17275992 0.11406987 0.10189576 -0.0829339 -0.029939018 -0.11576945
-0.019452235 0.1515655 0.2764426 -0.14072494 -0.029145114 -0.22027172 0.15352124 0.041424107
-0.18719034 0.044188768 -0.009199556 0.18285045 0.10639713 0.23425221 0.002464793 -0.09729132
0.124499336 0.10922228 0.035269905 0.23685823 -0.15733698 0.17228545 0.1294871 -0.006510494

linear_relu_stack.2.bias f4 [32]
00000000: 9f9c 283e ea95 e5bc 0955 7b3e 54bd 1fbe
00000010: caf7 303e 8b81 033d 8774 18be 69f5 4ebc
00000020: 5d33 2dbe 2507 02be 3cd9 c03d 6a9c 173e
00000030: ecaa 053e 351a 383e 11fe e63c 3af3 abbc
00000040: c32a 1c3e 7d65 46bd e83c 8ebd 2375 963e
00000050: c8ed 5fbd c112 513e 1453 e73d 6404 4b3e
00000060: d1f0 a53d 6a6c 4e3c e8de cc3d bd29 3abd
00000070: 5c7d 243e f4ca c83d f532 173e d47a 1a3e
0.16465996 -0.028025586 0.24544157 -0.15599567 0.17282024 0.032105964 -0.14888202 -0.0126317525
-0.16914125 -0.12698038 0.09416434 0.14805761 0.13053483 0.17978747 0.02819732 -0.020990003
0.15250687 -0.04843663 -0.06945211 0.29386243 -0.054670125 0.2041731 0.11295143 0.19825894
0.08102573 0.01259909 0.100034535 -0.04544996 0.16063446 0.09804335 0.14765532 0.15085918

linear_relu_stack.4.weight f4 [2, 32]
00000000: 9ab5 93be 595d 333b 5abc 553e be1b 0a3d
00000010: 5bdc a03e 6dd4 5f3e 502a fa3d 21fc 8c3e
00000020: 1045 203e 6723 fabd 02f4 93bd 1590 273e
00000030: 88fe 1d3e 6b54 8bbe fad4 9dbd 8392 69be
00000040: 4371 f6bd 7874 4f3e f661 1f3d f5a1 363e
00000050: a85b 56be 1c80 2e3e 6e60 94be d969 8abe
00000060: 2702 5d3d a2ac 65be d5ca 1bbe 7e1d 1fbe
00000070: 63c0 61bd b14e 32be b682 26be 8648 52be
00000080: 5b4c c5bc fa8b 9bbe bae6 c9bd 01d1 183e
00000090: 1a53 72be b645 0abe da41 ba3d d214 8bbe
000000a0: 1ee9 b23c 550f 163e 454b 8a3e 4dc3 9cbe
000000b0: 2e93 b4bd 4bdf 243e 6f95 813d fbf6 fa3c
000000c0: 586d 523e 23e4 69be f295 603d f0d2 83be
000000d0: bced 8a3e c890 58be 9d72 313e 1c05 8d3e
000000e0: 976d 2abe 7311 7c3e f951 a53e 48b9 eabd
000000f0: 29d5 8a3e cdea 113e 6e0f 833d a736 803e
-0.28849488 0.0027368872 0.20872632 0.033717863 0.31418118 0.21858378 0.12215102 0.2753611
0.15651345 -0.12213784 -0.07224275 0.16363557 0.15429127 -0.27212843 -0.07706638 -0.22809796
-0.12033322 0.20259273 0.038911782 0.17835219 -0.20933402 0.17041057 -0.2897982 -0.2703388
0.05395713 -0.22429135 -0.15214093 -0.15538594 -0.055115115 -0.17412831 -0.162608 -0.20535478
-0.02408426 -0.3038023 -0.09858461 0.14923479 -0.23664513 -0.13503155 0.090945914 -0.27164322
0.021839675 0.14654286 0.2701055 -0.30617753 -0.08817135 0.16100805 0.0632733 0.030635348
0.20549524 -0.22840934 0.0548305 -0.2574687 0.27134502 -0.2114898 0.17328878 0.2754296
-0.16643368 0.24616031 0.32289103 -0.11461121 0.27115753 0.14249726 0.06399427 0.25041696

linear_relu_stack.4.bias f4 [2]
00000000: 8a46 363e d50b d9bd
0.17800346 -0.1059796
