Parameter/cartPG/1.pth (torch, 7255 bytes, 6 tensors)

linear_relu_stack.0.weight f4 [32, 4]
000000 99 ed 4f be 2e bd 93 be e6 78 75 bd 2e 0b a3 3e
       -0.2030548 -0.2885527 -0.05992975 0.31844467
000010 4e 15 87 3e d0 44 6b be 74 70 a9 3d 29 bc f7 3d
       0.26383442 -0.22975469 0.08273402 0.120964356
000020 7c 44 19 3d 16 3c 2c 3d 0e 0b 2f be 6f 04 d8 be
       0.037418827 0.04204949 -0.17094061 -0.42190883
000030 ef f8 9e be 73 94 97 3e 35 17 a5 3e f2 53 a7 bd
       -0.31049296 0.29605445 0.32244268 -0.08170308
000040 1a b4 ee 3e a2 08 ae bc bb 38 87 3e 13 4a 4c 3e
       0.46621782 -0.02124435 0.2641047 0.19950132
000050 e4 52 03 3e c0 d7 ca be a0 7e 3a be b0 3e 6b be
       0.12824589 -0.3961773 -0.18212366 -0.22973132
000060 f0 dd f3 3e ee b4 34 be 7e 6c 9c 3e 6e 41 66 bc
       0.47630262 -0.17647144 0.30551523 -0.014053686
000070 28 bf 87 3e 6c e4 8d 3e 91 14 c2 3e 26 5d b5 be
       0.26513028 0.27713335 0.37906316 -0.3542263
000080 d2 75 be 3e c9 a3 7a be e5 b3 59 3e 2a 0a ab 3e
       0.37199265 -0.24476542 0.2126003 0.33406192
000090 94 08 f6 3a f6 d5 b5 be 7b 88 5a 3d 6b 17 c3 3e
       0.0018770867 -0.35514802 0.053352814 0.38103804
0000a0 17 17 9c bc 70 84 dd be fe e7 a1 be ec 58 4a 3e
       -0.019053979 -0.43265104 -0.31622308 0.19760484
0000b0 53 2d bd 3e 7d d5 4a be cb 8c 00 be 49 8b 50 bd
       0.36948642 -0.19808002 -0.12553708 -0.050914083
0000c0 86 de f1 3e 54 45 7d be 34 98 80 be a5 fa 48 be
       0.47240084 -0.24733478 -0.25116122 -0.19626863
0000d0 14 58 ea 3d dd a9 cd be 9d f9 e3 be c8 6f 02 bc
       0.11442581 -0.40168658 -0.44526377 -0.007961221
0000e0 b1 5e 32 be 28 88 b2 be 8c 09 ad be 46 8a 68 bd
       -0.17418934 -0.34869504 -0.33796346 -0.056772493
0000f0 66 08 80 be 45 7a 1d 3e 77 d3 81 bd 3e 02 3a bd
       -0.25006407 0.15378673 -0.06339162 -0.045412295
000100 be 20 fb 3e 44 3f e0 be dd dc d1 3e 22 d9 2f 3e
       0.49048418 -0.43798268 0.40988818 0.17172673
000110 e3 fc b0 be 5c 54 cb 3e 6f 5a 79 3e 54 68 53 3e
       -0.34567937 0.397128 0.24350904 0.20645267
000120 d6 da 97 3d 09 34 b9 be 78 b0 dd 3c 04 c0 88 3e
       0.074147865 -0.36172512 0.027061686 0.26708996
000130 fe dd 88 bd b8 ba 46 be 3e 0e b3 3e e7 37 d9 3d
       -0.06682967 -0.19407165 0.34971803 0.10606366
000140 92 f1 bd bd 3f d4 a2 be 33 79 b5 be 81 70 f3 b9
       -0.092745915 -0.31802556 -0.3544403 -0.00046432394
000150 a6 c6 ad 3e 49 cb 3f bd f6 8d 7f 3e f2 c5 7b 3e
       0.3394062 -0.046824727 0.24956498 0.24587229
000160 11 c7 06 be 55 3c ec 3e be ea 86 3e ad 5e f3 be
       -0.13161875 0.4613978 0.2635097 -0.4753317
000170 62 fb d8 3d 2d 88 ec be cc 71 58 3e 17 3c 7b 3e
       0.105948225 -0.46197644 0.2113716 0.24534641
000180 72 de 9b be a1 e2 ff be 81 6d c2 3e ed 44 65 3c
       -0.3044315 -0.49977592 0.3797417 0.013993484
000190 d2 16 8f be 36 2b 92 be 37 18 8d 3e 40 fd 53 3e
       -0.27947098 -0.28548592 0.27557537 0.20702076
0001a0 f1 31 d4 3e 49 d8 b5 bd 26 ba cd 3e 0e b8 f5 3e
       0.41444352 -0.08879144 0.40181082 0.47991985
0001b0 18 fd e9 be 82 17 ad be cf 5e d0 be 4a 9a e1 3e
       -0.45700908 -0.33806998 -0.40697333 0.44063026
0001c0 5e cb 85 bd f2 1a ad 3e 2f 39 57 3e 51 d1 e0 be
       -0.0653293 0.3380962 0.21017908 -0.43909696
0001d0 d5 18 f3 3d fe 69 47 3e 49 5e 12 be 69 49 4c 3d
       0.11869971 0.19474027 -0.1429378 0.049874697
0001e0 75 79 ae be 94 45 3c be 2b 23 f8 3e 20 e6 aa 3e
       -0.3407704 -0.18385917 0.4846433 0.33378696
0001f0 01 e5 df 3e e7 23 ab 3e 41 bc a6 bd 03 74 d6 3d
       0.43729404 0.3342583 -0.08141375 0.10471346

linear_relu_stack.0.bias f4 [32]
000000 09 ee ca 3e d0 a5 98 3e 43 cd a2 be fe c6 a6 bd
       0.3963473 0.29814005 -0.31797227 -0.081434235
000010 28 1f eb 3e 8d 3a e4 3d 09 1c 83 3e 9e fb 4f bd
       0.45922208 0.1114398 0.25607327 -0.05077707
000020 f5 01 ce 3e 85 45 11 bd 43 8d 3d be 3f 4b de 3e
       0.40235868 -0.03546669 -0.18510918 0.43416783
000030 5a 13 24 3d 2c ca 26 3b 70 45 55 be 0d 49 21 be
       0.040057518 0.0025450094 -0.2082727 -0.15750523
000040 4f 93 c7 3d 43 55 8c 3e 83 11 9c 3e 3b ac a7 be
       0.09744894 0.274088 0.3048211 -0.3274859
000050 43 4f d9 be 45 8d c2 3e c7 48 27 3d 3f ee 2b be
       -0.42443284 0.37998405 0.04084089 -0.16790102
000060 0c f4 75 3e 24 70 c5 3c 79 55 95 3c f6 ef d6 be
       0.24018878 0.024101324 0.018229233 -0.4197995
000070 e5 92 0b be 5e ed 27 bd 18 96 9b bd 7d 11 f5 be
       -0.13630255 -0.040997855 -0.075969875 -0.47864905

linear_relu_stack.2.weight f4 [32, 32]
000000 82 fb 19 be 22 0f 6d bd f7 09 2e 3e 80 1d de 3b
       -0.15037349 -0.05787576 0.16995989 0.006778419
000010 47 4b 25 3e 8a e7 33 3e 80 59 db bd 63 f3 d0 bd
       0.16141997 0.17568794 -0.1071043 -0.10202672
000020 8f 49 38 3d 6d a9 2b 3e 51 6c 5e 3c 07 29 34 3e
       0.044992026 0.1676385 0.013575629 0.17593776
000030 31 32 17 be 13 c1 6c bd 31 33 1b be 49 dd 15 3e
       -0.1476524 -0.057801317 -0.15156247 0.14635195
000040 fa 77 04 3d 58 0d dd bd 25 ed 58 3c 19 0a a6 3d
       0.03234098 -0.10793561 0.013240133 0.08107395
000050 b8 fa 27 3e 2a bc cb 3d f3 1f d2 bd cd c6 e8 bd
       0.16404235 0.09947999 -0.1026 -0.11366043
000060 4b ba d1 3d 04 67 24 3e ae 98 0f bd ad a8 15 3e
       0.10240611 0.16054922 -0.035057716 0.14615126
000070 0c e9 1e 3d 7c b9 29 be e1 3f ad bd 81 49 2e 3d
       0.03879647 -0.16574663 -0.084594496 0.042550568
000080 cb d0 cd bd f5 0c 9c 3d 51 7c d3 bd 3d b0 af bd
       -0.1004959 0.07619659 -0.10326446 -0.08578537
000090 bb 31 07 be 20 e9 54 3d 98 86 97 bb a6 0f 40 3d
       -0.13202564 0.051980138 -0.004624199 0.046889924
0000a0 96 62 f0 3c b4 23 05 3e 75 49 5c bc 76 c1 4f 3d
       0.029343884 0.13001901 -0.013445248 0.050721608
0000b0 8d 16 1a be e8 2c 6b bc c2 da 97 bd 70 5d 5f bd
       -0.15047665 -0.014353968 -0.074147716 -0.05453247
0000c0 3f cb 20 3e 1e 63 17 3e 78 df e1 3d d8 eb 00 be
       0.15702532 0.14783904 0.110289514 -0.12589967
0000d0 87 9c c6 bc 63 6b 80 bd c0 8e 2e be ff 9c 75 3d
       -0.02424456 -0.062704824 -0.17046642 0.059964176
0000e0 82 93 15 be 7d 2d 0a be df 06 20 be 29 ec 13 be
       -0.14607051 -0.13493915 -0.15627621 -0.14445557
0000f0 6d a7 05 3e 55 30 23 3e 70 68 29 3e 90 79 aa bc
       0.13052149 0.15936406 0.16543746 -0.020809919
000100 3d 09 09 3e 54 89 d5 bc 2d 6d f2 bd 41 1a 94 bd
       0.1338243 -0.02606646 -0.1183723 -0.0723157
000110 ed 4a ba bd fa e5 28 bd 79 52 a6 3a f5 63 f6 bd
       -0.09096322 -0.041234948 0.0012689374 -0.12030784
000120 10 e1 28 3e 9d b5 19 3d 3e e9 d0 3d a9 b5 8a 3d
       0.16492105 0.037526716 0.102007374 0.0677293
000130 bd a2 08 3e 0f fe 34 be 48 22 64 bd be 02 cb bd
       0.1334333 -0.1767504 -0.055696756 -0.099126324
000140 3e 15 68 bd 88 2f ea 3d 55 27 04 3e f3 20 eb bd
       -0.056660883 0.11434847 0.12905629 -0.11480894
000150 33 0f ef bd 47 66 7a 3c b2 4d 08 3e 85 c0 42 3d
       -0.11672821 0.015283174 0.13310888 0.047546882
000160 c9 1c 31 3e c9 e0 1c be c6 41 94 3d d3 71 7f 3c
       0.17296137 -0.15320124 0.07239108 0.015591103
000170 ce 0c ec bd 51 94 5f bd 24 d1 2c 3e 3b d3 a4 3d
       -0.1152588 -0.054584805 0.16876656 0.080481015
000180 0b 49 05 3e cc d1 1a be f4 10 cc 3d c0 8b e1 bc
       0.13016145 -0.15119094 0.09964171 -0.027532458
000190 c5 89 ec 3d 83 59 be 3d 1d 6b 84 ba 36 ce 2d be
       0.11549715 0.09294417 -0.0010102723 -0.16973194
0001a0 39 40 13 3e 96 52 e9 3d a0 29 48 bd 9a df db 3c
       0.14379968 0.11392705 -0.04886782 0.02684002
0001b0 1f bf c8 bb e8 ee dc bd 7a 4e 34 be 15 2e af bc
       -0.006126299 -0.10787755 -0.17608061 -0.021384278
0001c0 ab 04 07 be e8 35 b3 3d a7 5c 54 3d 74 b0 c2 3d
       -0.13185374 0.08750516 0.051846173 0.09506312
0001d0 12 bd c6 bd 42 7c 9a bd 98 7e 84 bd 63 d5 05 3e
       -0.09704031 -0.075432315 -0.06469458 0.13069682
0001e0 78 48 d5 3d 04 f4 0e 3e 7e 5e 35 be 34 a6 16 be
       0.10414213 0.13960272 -0.17711827 -0.14711839
0001f0 86 b8 27 be 1b de 4d 3d 7e a1 b9 bd 4f 57 cd 3d
       -0.16378984 0.050260644 -0.09064005 0.100264184
000200 8e 37 9c bd 92 e1 28 3d 5a e8 ee bd 05 7e a1 3d
       -0.07627784 0.041230746 -0.11665411 0.078853644
000210 7f b8 23 bd 36 9f d1 3d c4 b5 06 3d b5 7d fd bd
       -0.03997087 0.10235445 0.03288819 -0.12377492
000220 72 ee 8e 3d dd c0 d8 bd 91 65 12 3e 99 5a 05 3e
       0.069790736 -0.10583661 0.14296557 0.13022842
000230 9a 31 26 3e b0 95 1c 3e 21 57 13 3d 59 b3 0b be
       0.16229859 0.15291476 0.035971764 -0.13642634
000240 a8 38 ef bd 1b 1a b0 bd 1f 2a 11 bd 07 52 13 3e
       -0.11680728 -0.08598729 -0.03544056 0.1438676
000250 0e d7 6a bc f1 1f 9a bd 4c 54 c8 3b 8a db 11 bd
       -0.0143335 -0.075256236 0.0061135646 -0.03560976
000260 e5 f8 06 be 7a bb 1d bd 5f cb e7 3d a7 11 98 bd
       -0.13180883 -0.03850887 0.11318087 -0.07425242
000270 ad e8 2d 3e 89 05 1e be bc 94 bf 3d 35 62 30 3e
       0.1698329 -0.15431799 0.09354541 0.17224963
000280 d8 c5 5d 3c d7 b2 eb 3d 5d 92 9c 3d 5b 15 2a 3e
       0.013535939 0.1150872 0.07645104 0.16609709
000290 2d e9 03 be b0 8e c4 bd 04 c3 c2 bc 52 d0 1b 3e
       -0.12881918 -0.09597528 -0.023774631 0.15216187
0002a0 49 b8 7a bc 2b 24 ea bd 98 92 aa 3c c3 f2 b7 3d
       -0.015302726 -0.1143268 0.020821854 0.0898185
0002b0 37 25 4f bb 8e dd 1d 3e 51 f7 29 3e 37 73 69 bd
       -0.0031607875 0.15416548 0.1659825 -0.056994643
0002c0 6a 95 08 be 33 b5 1d 3e ea b1 0d 3e 25 a4 dd bd
       -0.13338247 0.15401153 0.138374 -0.10822324
0002d0 02 01 0c 3e 9c aa 3d bd f8 3c 6d bd ea c8 39 bd
       0.1367226 -0.046305284 -0.057919472 -0.045357622
0002e0 64 96 e3 3c d5 ad 29 3e f7 6d 18 be 72 d8 ba bd
       0.027781673 0.16570218 -0.14885698 -0.09123315
0002f0 b9 8b 6e bd 40 81 20 bd 6b aa e5 bd 90 8f b0 bd
       -0.05823872 -0.039185762 -0.11214145 -0.086211324
000300 25 7f 92 3d ce 6f 10 be 97 25 1b be bc 55 25 3e
       0.07153157 -0.1410515 -0.15151058 0.16145986
000310 bb 1f 38 3d 61 7d d7 bd 4a f3 7e bd a3 34 25 3e
       0.044952136 -0.10521961 -0.062243737 0.1613336
000320 b9 4b 0a 3e 4a c7 1f be ed 7c 44 3d f4 8d 9f bd
       0.13505448 -0.15603366 0.0479707 -0.07790747
000330 5e 41 21 be 66 0e 8f bd 6b d2 83 bb e5 3c 0b 3e
       -0.15747592 -0.06985168 -0.0040228865 0.13597448
000340 fd c6 f5 bc c8 ee 32 be 89 33 b7 bd 71 ff 34 3d
       -0.030002112 -0.174739 -0.089453764 0.04418892
000350 80 c5 10 3e 6d 6c 76 3d dd 70 f1 3c 75 79 c4 3c
       0.1413784 0.060161997 0.029472763 0.023983696
000360 7d c9 91 bd dd 75 1e 3e e5 c5 e7 bd 04 b8 d7 3d
       -0.07118509 0.15474649 -0.11317042 0.10533145
000370 b3 fd 01 3d ca 91 f3 3d 90 77 92 3d b4 61 da bd
       0.031736087 0.118930414 0.07151711 -0.10663167
000380 04 19 94 bd eb ad 69 bd 8e a9 31 3e de b3 e6 bb
       -0.07231334 -0.057050627 0.17349836 -0.007040485
000390 aa 02 08 3e d1 bd 1c be d5 35 68 3d 08 7b 13 3d
       0.13282266 -0.15306784 0.056691963 0.036006004
0003a0 59 7f 1e 3e 10 42 ee bd 85 0f 26 3d b4 65 31 be
       0.15478267 -0.11633694 0.040542144 -0.17323953
0003b0 6b ad a8 bd c6 6d 2e 3e d0 8d bf bc 90 0d f9 bc
       -0.08236202 0.17034063 -0.023383051 -0.030401975
0003c0 62 9b 4d 3d 46 a6 b5 3d 76 7f 2e 3e c0 70 b7 bc
       0.050197013 0.08869605 0.1704081 -0.02239263
0003d0 d6 dd 94 3d cc 91 9b bd c7 38 1b 3e 8c 25 a8 3d
       0.07268874 -0.07596168 0.15158378 0.082102865
0003e0 f3 c3 f2 bd c1 3e aa 3d 57 0b 14 be 43 73 4c 3d
       -0.118537806 0.083127506 -0.14457451 0.04991461
0003f0 bb 60 40 3c 10 75 06 3e 4e ad 3f bd 33 9f 59 bd
       0.011741812 0.13130593 -0.046796136 -0.05313034

linear_relu_stack.2.bias f4 [32]
000000 a2 f4 ee bd 43 85 d9 3a 4f 7c 28 be 93 c3 d7 bd
       -0.11667754 0.0016595501 -0.1645367 -0.1053535
000010 eb 64 53 bd 4f ee e7 bd c2 f8 3a bc b4 44 bd 3d
       -0.051609915 -0.11324751 -0.011411848 0.0924162
000020 c4 a8 31 3d c2 a4 ee bd 9a 17 69 bd fc 2d 30 3e
       0.043373838 -0.11652519 -0.056907274 0.17205042
000030 e1 26 94 3d e9 f0 92 bc 8a f5 ba bd 00 79 14 bd
       0.07233978 -0.01793714 -0.09128864 -0.036248207
000040 3d 74 e0 3d 83 02 28 3e c4 05 9c 3d 03 ca 28 be
       0.10959671 0.16407208 0.07618287 -0.16483311
000050 16 57 fa 3c 12 46 d0 bd ae d4 08 3d 0d 56 14 3e
       0.030559104 -0.10169615 0.033405952 0.14485951
000060 f7 08 71 bd 3d f2 7d 3d a4 45 6a 3c cb 59 0c 3e
       -0.05884644 0.061998595 0.01429883 0.13706128
000070 0b f3 ae bd f6 02 15 3d 25 53 2a 3e 52 4d fd 3d
       -0.085424505 0.036379777 0.1663328 0.12368263

linear_relu_stack.4.weight f4 [2, 32]
000000 e5 d4 5c 3d 24 d8 b8 bd 28 97 07 3e 26 b0 c1 3d
       0.05391397 -0.090256006 0.13241255 0.09457426
000010 c9 63 3a 3d a3 89 f5 bc 1c 1e 3e 3d 26 71 ae 3b
       0.04550532 -0.029972857 0.046415433 0.005323547
000020 7f aa 88 3d 51 1d 0c be 6e e5 99 bc 5e ac 71 bc
       0.066731445 -0.13683058 -0.018786158 -0.014750568
000030 0d ea d7 bd 1d 50 29 bc aa 81 f3 bd fc 20 8d bd
       -0.105426885 -0.010334042 -0.11889966 -0.06891057
000040 db 60 99 bd 1e 05 8d bc cd 14 90 bc f2 5f f9 3d
       -0.07489177 -0.017214354 -0.017588044 0.12176503
000050 79 15 97 bc c7 67 fc bd 7a ce 1e 3e 63 6b 0f 3e
       -0.018442856 -0.123244815 0.15508452 0.14005809
000060 cc e4 b6 bd 53 5d f4 bd 3e 2f df bd 9c ec 17 be
       -0.08930358 -0.11931863 -0.108976826 -0.14836353
000070 9e f6 82 3d 38 37 f8 3d 85 dc 1e be 8b d1 12 3e
       0.06394695 0.12119907 -0.15513809 0.14337747
000080 54 86 30 3e 5d 1b f6 3c 75 5e 56 3d b4 0c 44 3c
       0.17238742 0.030042345 0.052336175 0.011965919
000090 54 ca 8a bd a5 52 1c 3e 66 cf 3a bb 7d 73 3c 3d
       -0.06776872 0.15265901 -0.0028504967 0.046008576
0000a0 9f 76 96 bd 38 af 28 3e bd 13 05 3e d1 a2 1e be
       -0.07346844 0.1647309 0.12995811 -0.15491797
0000b0 79 e0 1b 3e 79 dd ae bd 20 73 8e 3d e3 81 91 3d
       0.15222348 -0.08538336 0.06955552 0.07104852
0000c0 38 e8 0e bd 4a 0a de bd 66 83 9b bd 96 3b ac 3d
       -0.03488943 -0.10841806 -0.07593422 0.084098026
0000d0 72 0c 1f 3e 6b ff cc 3d 80 96 9d bd 3f 67 1a 3c
       0.15532091 0.100096546 -0.07694721 0.00942403
0000e0 bc 52 f3 bc f8 95 0f be 71 8a a4 bd 82 ce c9 bd
       -0.029702537 -0.14022052 -0.08034218 -0.09853841
0000f0 78 dc 09 3c ae 00 c8 bd eb 46 2e 3e c7 35 13 bd
       0.00841438 -0.09765755 0.1701924 -0.035939958

linear_relu_stack.4.bias f4 [2]
000000 94 eb 9e bd bd b0 e3 3d
       -0.07759777 0.111176945
