Parameter/cartPPO/2.pth (torch, 7255 bytes, 6 tensors)

linear_relu_stack.0.weight f4 [32, 4]
000000 29 d8 00 3e b1 c9 79 be a5 60 2f bd f7 18 cb 3e
       0.12582459 -0.24393345 -0.042816777 0.39667484
000010 f6 03 62 be 05 a0 41 be 0c 0b 8f 3e 62 11 32 bf
       -0.22071823 -0.18908699 0.27938116 -0.69557774
000020 64 df 97 3a bf 5f 0a 3f 14 c7 e7 3e b0 03 12 bf
       0.0011586961 0.54052347 0.45269072 -0.57036877
000030 48 20 f1 3e 15 83 85 3e 24 db b6 be 85 72 dc 3e
       0.4709494 0.2607657 -0.35714066 0.4305612
000040 17 a7 e0 3d 3f cc 41 be 03 89 e7 3d ed c1 85 3e
       0.1096937 -0.1892557 0.1130543 0.26124516
000050 db 35 91 3e 9f a7 94 3e 26 6e 34 3d 98 21 0d bd
       0.283614 0.29034135 0.04405036 -0.034455866
000060 a6 6d a8 3e be 34 c4 3e 7e dc e5 3e fe 29 0e 3f
       0.32896155 0.3832149 0.44894785 0.55532825
000070 8a 6a b8 3e 29 cd 00 3f c0 88 9a 3e 17 69 2c 3e
       0.36018783 0.5031305 0.30182457 0.16836964
000080 27 f3 af be 1a 54 47 be ff 4f c1 3d dc c0 0c 3f
       -0.34365198 -0.19465676 0.09439086 0.5498178
000090 cc 65 54 3d ee a0 8e be 96 87 4b be c4 6f 5b be
       0.051854894 -0.27857155 -0.1987594 -0.21429354
0000a0 36 07 0c 3e 21 58 d6 be dd 1c ca be 51 71 a8 3e
       0.13674626 -0.41864112 -0.39475146 0.32898954
0000b0 58 9f e7 be 7f 63 cb 3e 1d 53 41 be 01 0d 6a be
       -0.45238757 0.39724347 -0.18879361 -0.22856523
0000c0 1e 1d ed 3e 86 c9 53 3e b0 f6 5f 3c de b6 e3 3e
       0.46311277 0.20682344 0.013669655 0.44475454
0000d0 2d a1 5b be 7b 09 8a 3e 80 66 e4 3e dc 2f bc be
       -0.21448202 0.26960358 0.4460945 -0.36755264
0000e0 56 23 14 be a3 47 d6 be 01 bf 88 b9 87 74 51 be
       -0.14466605 -0.4185153 -0.0002608225 -0.20454608
0000f0 5b b7 20 3e 39 68 5c bd b1 f9 21 3e e3 f2 b8 be
       0.15694945 -0.053810332 0.15817906 -0.36122808
000100 2e af ce 3e a8 71 fc 3e 83 c1 cb be ef f6 64 3e
       0.40368026 0.49305463 -0.39796075 0.22359823
000110 f5 1a ba be a9 1d 02 bf d7 81 36 3e 1c 3f 0f 3e
       -0.36348692 -0.5082651 0.17822967 0.13988918
000120 da b3 79 3d b8 30 44 be 41 9e ec 3d aa 58 86 3e
       0.060962535 -0.1915921 0.11553622 0.2623952
000130 aa da 4a bd e9 e8 10 be b2 63 22 be 0b 5e 57 3e
       -0.04952494 -0.14151348 -0.15858343 0.21031968
000140 b5 15 18 3b 30 ed 0b 3f 6e af a3 be c6 ce c1 bd
       0.0023206298 0.54658794 -0.3196978 -0.09463267
000150 63 b8 ab be da e0 9f 3e 96 1c 45 be 9b ac 36 3e
       -0.33539113 0.31226236 -0.19249186 0.17839281
000160 1f b8 f2 3e cf 3b 2e 3e cd e4 d4 3e 21 00 14 bf
       0.47406098 0.17015003 0.4158081 -0.57812697
000170 9a f0 d8 3e ab 9b d5 be 16 e4 02 bf f3 72 cb 3d
       0.42371064 -0.41720328 -0.5112928 0.09934034
000180 67 85 1e 3e ec b8 a1 3e 9a 36 70 3e 4b 29 6c 3e
       0.15480576 0.31586397 0.23458329 0.23062627
000190 a8 e1 ef 3e 66 4f b6 be ac bc b5 3e f4 93 67 3e
       0.4685185 -0.3560745 0.35495508 0.22615033
0001a0 39 9e 9f bc 51 55 cf be 79 7a f3 be 26 e1 0b 3f
       -0.019484626 -0.4049478 -0.47554377 0.54640424
0001b0 de e0 06 3d 0b 61 c2 bd f3 88 88 be fc e3 94 3e
       0.032929294 -0.09491166 -0.26666984 0.29080188
0001c0 5d ce 84 3e a8 b2 4a be 42 f1 ad 3e 2b 83 a7 3e
       0.25938693 -0.19794714 0.33973128 0.3271726
0001d0 0d 95 89 be ff 3b b8 3e df 15 02 3e 7c f7 08 be
       -0.2687153 0.35983273 0.12703656 -0.13375658
0001e0 de f3 4a bd ad cc 07 be 81 ef 5d bd 8d eb f2 3d
       -0.049548976 -0.13261671 -0.054183487 0.11861334
0001f0 13 57 4b 3e 3b 23 b7 3e 6c 1e a4 be 36 18 ce 3e
       0.19857435 0.35769066 -0.3205446 0.40252846

linear_relu_stack.0.bias f4 [32]
000000 2f cd 93 3e 76 58 54 3f ef ab f8 3e 6b 04 1d be
       0.2886748 0.8294748 0.48568675 -0.15333717
000010 e3 f1 40 3f e8 0a 46 3f f1 c8 49 be ab 8f 48 3f
       0.7536909 0.7736039 -0.1970556 0.7834422
000020 4f ae 8f be 17 99 13 3f a4 86 10 3f 4f 6e da be
       -0.28062674 0.5765547 0.56455445 -0.42662284
000030 80 c7 b0 3a fa ad c0 3e 17 87 82 3e 19 06 0a 3f
       0.001348719 0.37632734 0.2549369 0.53915554
000040 7a ca 1a 3f 39 4b 6c bd 29 73 44 3f b5 5f ae be
       0.60465205 -0.057688925 0.7673822 -0.34057394
000050 ee 87 21 3f a6 b6 03 be e3 0c 28 3f 96 91 3f 3e
       0.6309804 -0.12862644 0.65644664 0.1870788
000060 c8 9a b9 be bc 2c e1 bd 01 77 98 be 42 3a 56 bd
       -0.362509 -0.109948605 -0.29778293 -0.052301653
000070 b8 af 12 3f b5 72 07 bf e2 2c 46 3f 0f 2f e0 be
       0.57299376 -0.52909404 0.77412236 -0.43785903

linear_relu_stack.2.weight f4 [32, 32]
000000 3e 59 8d bc 92 3a 51 3e 3f 14 25 3e 28 8c 40 be
       -0.017254468 0.20432499 0.16121005 -0.18803465
000010 13 87 c9 3e f1 73 d7 3e 08 34 96 3c 0b 21 d7 3e
       0.39360866 0.42080644 0.018335357 0.42017397
000020 ad 80 b4 3d 9a 84 d7 3e 03 6b 2a 3d 61 0e a4 3c
       0.088136055 0.42093354 0.04160596 0.020026388
000030 03 52 b8 3d 2c 79 3b 3e 6d 76 1e 3e ff e7 e7 3d
       0.090000175 0.18307942 0.15474863 0.113235466
000040 e5 bd b7 3e 62 a5 87 bc 64 b7 82 3e e7 ed 0e bd
       0.35887066 -0.016558353 0.2553054 -0.03489485
000050 28 5b aa 3e a9 7a c6 bb c4 96 97 3e 53 a1 88 3c
       0.33272672 -0.0060571027 0.29607213 0.016678488
000060 f6 cd 02 3e 8c 85 aa bd 49 19 56 bd 58 c9 bd 3b
       0.1277388 -0.08326253 -0.052270208 0.0057918243
000070 c1 5c 9f 3e 78 51 17 be a0 b1 d8 3e ee c7 c6 bc
       0.31125453 -0.14777172 0.42323017 -0.024265256
000080 2d 4f fb bd c0 33 9a bc ff d9 fc 3c 3a a0 b1 3b
       -0.12270961 -0.018823504 0.030865667 0.005420712
000090 23 c9 1e 3d 3b 03 3a 3e ee 3d 82 3d 08 85 17 be
       0.038766038 0.18165295 0.063594684 -0.14796841
0000a0 a2 55 e3 bd 00 7b 16 3e c3 30 26 be 4e 16 22 3c
       -0.111003175 0.14695358 -0.16229539 0.009893013
0000b0 b1 d6 ff bd 78 e0 e3 bd b6 39 0c 3e 1d 63 c5 3d
       -0.12492121 -0.111267984 0.1369389 0.09638045
0000c0 53 db d0 bd d2 e6 fe bd b9 7f af bd 0b b1 55 bd
       -0.10198083 -0.12446369 -0.08569283 -0.052170794
0000d0 87 00 1f 3e 6b 2a 1d 3e 50 68 66 3d 76 2b f2 bd
       0.15527545 0.15348212 0.056251824 -0.11824696
0000e0 71 4c 9e 3d ec 11 ef bd ce 6c f9 3d 74 ce 2c 3e
       0.07729424 -0.1167334 0.12178956 0.1687563
0000f0 86 b0 96 bc a9 07 17 be 29 40 c1 bd 52 4d 9d 38
       -0.01839472 -0.14749016 -0.09436066 7.5007454e-05
000100 47 16 25 bc d7 a0 de 3e 3c 68 c1 3e 5d d7 a6 bc
       -0.010076112 0.43482086 0.37774837 -0.020366365
000110 89 92 73 3e c5 5e a2 3e c9 fb 53 be 2e 5c 64 3e
       0.23786367 0.31712928 -0.20701517 0.22300789
000120 0d e1 04 3b 04 49 96 3e a8 0e 9e 3e c7 14 cc bd
       0.0020275742 0.29352582 0.30870557 -0.099649005
000130 4b 5f a5 bd 3a 21 6c 3e bf 18 80 3e 99 af 8f 3e
       -0.08074816 0.2305955 0.2501888 0.28063658
000140 43 49 fc 3e 72 72 3c be ed 52 bc 3e 2f 3e e6 3c
       0.49274644 -0.18403032 0.36782017 0.028105823
000150 3d 74 bf 3e 55 d1 18 be 62 76 8c 3e 47 51 7b 3d
       0.3739337 -0.14923604 0.2743407 0.06135681
000160 1f ba 5a be 28 74 78 3d b4 58 9f bd 08 31 36 be
       -0.21360062 0.06065765 -0.07780591 -0.17792141
000170 6a 9a 94 3e 09 03 03 be 8c 58 c2 3e e6 86 4b 3c
       0.2902406 -0.12794127 0.3795818 0.012422299
000180 96 e2 30 be 53 8f 6d bc bd 7f 19 3e 29 8b 91 bc
       -0.17273936 -0.014499503 0.14990135 -0.017766552
000190 c9 88 e1 bd 63 0c 2e bd cf 9e cd bc 65 23 05 be
       -0.11012418 -0.04249228 -0.02510014 -0.13001783
0001a0 c1 ae 00 3c fe b2 c8 3d c1 2d da 3d 30 92 94 3c
       0.007854165 0.09799765 0.10653258 0.018136114
0001b0 44 4c 3c bd f5 f1 10 be 2e 35 9a 3d ea aa fc 3d
       -0.04597117 -0.141548 0.075296745 0.12337287
0001c0 56 13 85 3d 9b 03 91 bd b9 14 32 be 84 6a a8 3d
       0.06497829 -0.07080766 -0.17390718 0.08223441
0001d0 bb 3a 13 be 62 64 f1 3d 66 cc 26 be 11 c9 a7 3d
       -0.14377873 0.117867246 -0.1628891 0.08192647
0001e0 e5 17 b5 3d 70 1b 27 3e a5 27 cb 3d 95 04 01 3e
       0.08842448 0.1631906 0.09919671 0.12599404
0001f0 72 95 94 bc f5 b5 6f bd 86 c1 52 3d af ac 5d bd
       -0.018137667 -0.058523137 0.05145409 -0.054119762
000200 d9 7d 18 be e7 59 02 3e 8c 91 54 3d 6d 8b cd 3d
       -0.14891757 0.12729608 0.051896617 0.10036359
000210 ed e2 d6 3d 82 f2 a4 3c 45 d1 c9 bc c4 46 1c 3e
       0.104925014 0.020135168 -0.02463592 0.1526137
000220 28 c5 2f be 7e 2c 64 3d 5a 02 f5 bd ce 3d d7 3d
       -0.17165053 0.055706494 -0.11963339 0.10509835
000230 ff 02 9d bd 8c 23 1b 3d c9 4c 3a 3e 39 30 37 3e
       -0.07666587 0.037875697 0.18193354 0.17889489
000240 99 f4 76 3e 3c 61 1f 3e da d4 61 3d 91 f9 21 be
       0.24116744 0.15564436 0.05513463 -0.15817858
000250 52 3d e4 bb 27 e3 d2 3c 38 c8 42 3e 90 5f df bc
       -0.0069653178 0.02574308 0.1902169 -0.027267247
000260 88 f8 97 3c 8e 64 eb bd 87 e9 1f be c9 a2 96 bd
       0.018551126 -0.11493789 -0.15616427 -0.073552676
000270 b2 e5 9f bd 89 ed 28 3e 18 6f d6 3d 53 f7 b1 bd
       -0.07807483 0.16496862 0.10470408 -0.086897515
000280 83 04 4b 3d b3 63 cb 3e 67 44 f1 3e 60 29 e5 bd
       0.04956485 0.39724502 0.471225 -0.11189532
000290 cc 9c ae 3e 2f 17 fd 3e 3f fe 3d ba 99 8c ec 3e
       0.34104002 0.4943175 -0.00072476635 0.46201017
0002a0 29 09 77 be 69 b1 96 3e 06 fc ae 3d 19 f2 d4 bd
       -0.24124588 0.29432228 0.085441634 -0.10397739
0002b0 9c 5f cf bd fb 34 ea 3d 33 49 55 bc d7 d3 4a 3e
       -0.10125658 0.114358865 -0.01301794 0.19807373
0002c0 13 41 a1 3e 50 44 d0 3d 48 36 2b 3e f2 8f e8 3d
       0.3149496 0.101692796 0.16719925 0.113555804
0002d0 6b 00 5c 3e 20 99 da bd 69 09 93 3e 46 89 21 3e
       0.21484534 -0.106737375 0.28718117 0.15775022
0002e0 c2 9c ee 3d 25 8d 66 be c4 df 28 3d 47 1f 25 bc
       0.11650993 -0.2251478 0.041229025 -0.010078258
0002f0 81 d1 12 3e 2c 5c 60 be 42 4f 5b 3e 4f 91 32 be
       0.14337732 -0.21910161 0.21416953 -0.17438243
000300 12 4c ad 3d 11 3c de bb a1 76 c3 3d 50 19 20 be
       0.08461775 -0.006782063 0.09544111 -0.15634656
000310 d4 cf 1c be 2f 54 15 be 68 17 e4 bc c3 ee 26 bd
       -0.15313655 -0.14582895 -0.027843192 -0.040755045
000320 69 83 f0 bd 90 0c d7 bd 13 51 2c 3e e3 60 1b bd
       -0.117438145 -0.10500443 0.16827802 -0.037934195
000330 4d 94 be 3d c6 cc 2f bd cc 5b 1c be 09 29 31 be
       0.0930563 -0.042919897 -0.15269393 -0.1730081
000340 b6 f2 ec bd f5 f2 a1 3c f7 e2 c8 3d 85 36 f5 3d
       -0.11569731 0.019769171 0.09808915 0.119732894
000350 fc 1d 39 be 7a fe e6 bd e3 22 ee 3d 0c a7 8c 3d
       -0.18077844 -0.11279006 0.11627748 0.06867799
000360 eb ae 78 bd e6 f0 7b bd 2d e9 0d 3e d3 37 ac 3c
       -0.06071369 -0.061509036 0.13858481 0.021022713
000370 86 e6 88 3d 2e 4e 16 3e f8 65 22 be df ce 15 3e
       0.06684594 0.1467826 -0.1585921 0.14629696
000380 b3 47 da 3d d8 c5 c3 3e d2 23 90 3d e2 39 95 bd
       0.10658207 0.3823688 0.07038082 -0.07286431
000390 86 8c a9 3e 9a 5b a5 3e 9d a9 34 be 94 d5 b3 3e
       0.33115023 0.3229645 -0.17642827 0.35123885
0003a0 44 b3 70 be 50 e5 a1 3e 5a 93 50 3e d7 1a 99 3c
       -0.23505884 0.31620264 0.2036871 0.018689556
0003b0 ad 66 cc bd ab 36 a1 3d 0c e3 e4 bc a1 99 c7 3e
       -0.09980521 0.07871755 -0.027940296 0.38984397
0003c0 97 cd 88 3d 74 0e 89 bd 8b 8e 8a 3e 9c c8 3a 3d
       0.06679838 -0.0669221 0.27061877 0.045601472
0003d0 3c 23 a1 3e b8 f3 d0 3d 6f 60 62 3e 32 b5 c6 bd
       0.31472194 0.10202736 0.22107099 -0.09702529
0003e0 26 7f 68 bd 52 49 28 be a5 75 07 3d 7e 3d 93 3d
       -0.056761883 -0.1643422 0.03307118 0.07189463
0003f0 8c ea 10 3e 31 64 20 be 3f 2a 83 3e 82 3b 1b be
       0.14151973 -0.1566322 0.2561817 -0.15159419

linear_relu_stack.2.bias f4 [32]
000000 2b 1e 34 3e 77 18 38 bd 48 2d 01 3f cd 9b 4d be
       0.17589633 -0.044945206 0.5045972 -0.20078965
000010 28 07 8a 3b 24 b6 02 3f da 22 00 3d 8a dc 44 3e
       0.004212279 0.51059175 0.031283237 0.19224754
000020 15 b4 d5 bd 4e 77 8a 3e 15 71 a5 3d b3 36 48 be
       -0.104347385 0.27044147 0.08078209 -0.19552116
000030 9c a9 f9 bd d9 43 3d be 83 d5 1a 3e ea 86 9e bd
       -0.121905535 -0.18482913 0.15120511 -0.077405766
000040 64 65 20 be 8c 50 cb 3e f4 91 e8 3e 8c 72 99 3e
       -0.15663677 0.3970989 0.45423853 0.29970205
000050 1b 90 e4 bc 9a 3f 3b 3c 4a ef f1 bd df e1 ad 3e
       -0.027900746 0.011428738 -0.11813219 0.33961388
000060 06 4b 51 3d 91 bc 17 3e cc 08 3c bd 9e 17 a6 3e
       0.05109694 0.14818026 -0.045906827 0.32439893
000070 74 2c 6c 3e 14 ee c6 3d 1a ba 0a bd b6 07 56 bd
       0.23063833 0.097133785 -0.033868887 -0.052253447

linear_relu_stack.4.weight f4 [2, 32]
000000 18 d2 6f 3e 4b 80 e7 3d 02 91 df 3e bf 84 c1 bd
       0.23419988 0.11303767 0.4366532 -0.094491474
000010 b8 e8 83 3e 5b de f7 3e 33 ab af 3d f0 ce 4f 3e
       0.25763488 0.4841183 0.085775755 0.20293784
000020 ed 87 4a be 20 60 bf 3d 16 6f 81 bd 2f 92 7a be
       -0.19778414 0.09344506 -0.06320016 -0.24469827
000030 ac 1b 79 3d 6e 38 22 be 69 b3 84 3e 4c 84 ce bd
       0.060817406 -0.15841839 0.2591813 -0.100838274
000040 00 79 1e be c2 fa c6 3e 63 06 f4 3e 36 9f d1 3e
       -0.15475845 0.38863188 0.47661123 0.4094178
000050 b6 22 c6 3c 18 d6 1d 3e 24 71 8c bd 01 23 d2 3e
       0.024186473 0.15413702 -0.06857517 0.4104233
000060 94 1b 1a be b8 84 10 3e 26 62 ea bc cb 84 24 3e
       -0.15049583 0.14113128 -0.028611254 0.16066281
000070 35 db 05 3f e8 11 1c 3d bf 55 78 3e c3 df 5b bd
       0.5228761 0.038103014 0.2425146 -0.053680193
000080 77 3a eb 3e ab 47 17 be e1 ba 0b 3f e8 24 6d be
       0.45943043 -0.14773433 0.5458203 -0.2315861
000090 51 a3 3a 3e 00 2a b7 3e d0 d8 56 be f0 b0 f2 3e
       0.18226363 0.3577423 -0.20981145 0.47400618
0000a0 28 7f 9e bd 28 6a e9 3e 5b 29 a6 3a e0 57 c1 bd
       -0.07739097 0.45588803 0.001267712 -0.09440589
0000b0 18 af 8e bd 58 35 39 bd c0 49 54 3e 3e 4f da bd
       -0.0696699 -0.04521689 0.20731258 -0.106596455
0000c0 3c b1 de bd 21 a6 82 3e 3f fc d9 3e 88 b9 ac 3e
       -0.108736485 0.2551737 0.4257526 0.337353
0000d0 44 3c 60 be ae fd be bd d8 57 e1 bd e7 ba cb 3e
       -0.2189799 -0.09325729 -0.11003083 0.39791033
0000e0 9c 86 b0 bd fb 9a 8c bd d6 da 93 bd c5 bb c9 3e
       -0.08619425 -0.06865498 -0.07219474 0.3940107
0000f0 89 ff 87 3e c9 8d 0b be cc 1c 28 3e cb 77 9a bd
       0.26562145 -0.13628305 0.16417235 -0.0754238

linear_relu_stack.4.bias f4 [2]
000000 84 c7 ee 3e 80 23 fa 3e
       0.46636593 0.4885521
