Parameter/cartAC/1.pth (torch, 7255 bytes, 6 tensors)

linear_relu_stack.0.weight f4 [32, 4]
0	0xbec74019	-0.3891609
1	0x3ca74743	0.020419722
2	0x3d2c5a74	0.04207845
3	0x3e89986f	0.2687411
4	0x3e9de3e5	0.30837932
5	0x3ef1810d	0.4716877
6	0x3effc75a	0.4995678
7	0xbdc0d415	-0.094154514
8	0xbe862bc8	-0.26205277
9	0x3e570d11	0.21001078
10	0xbee0fccb	-0.43942866
11	0xbd99c942	-0.0750909
12	0xbdef8383	-0.11695006
13	0xbef7868d	-0.48344842
14	0xbccd8e19	-0.025092172
15	0xbebeefa3	-0.37292203
16	0x3eed8411	0.4638982
17	0x3e7f8d89	0.24956335
18	0xbd64bf61	-0.055846576
19	0xbe7a8739	-0.24465646
20	0xbedc2f67	-0.43004915
21	0x3e3c83c8	0.18409646
22	0x3e928265	0.28615108
23	0xbee1f283	-0.44130334
24	0xbe93173f	-0.28728673
25	0x3d87ab7e	0.066245064
26	0x3ec10af3	0.37703666
27	0x3efc8af4	0.49324763
28	0x3e10349d	0.1408257
29	0xbb0bf421	-0.002135523
30	0x3e9db9d7	0.30805847
31	0x3e134656	0.143823
32	0x3eac6f4b	0.3367866
33	0xbda6f864	-0.081528455
34	0x3ec24714	0.37944853
35	0x3e1dde83	0.15416913
36	0x3e05540f	0.13020347
37	0x3d800d0b	0.06252488
38	0xbe9c2b04	-0.30501568
39	0xbef5d598	-0.48014522
40	0xbd9f0bd8	-0.07765931
41	0x3b8d11b0	0.004305087
42	0x3e498646	0.19680128
43	0x3eb6946b	0.3566011
44	0xbe8a8ded	-0.27061406
45	0xbee7b662	-0.45256335
46	0x3eecf8c3	0.4628354
47	0xbdaa1388	-0.083045065
48	0xbcbd27c3	-0.023090249
49	0x3ea81b0e	0.3283314
50	0xbef2b9a9	-0.47407272
51	0x3e7d7acf	0.24753879
52	0x3efc353b	0.49259362
53	0x3e15a512	0.1461375
54	0x3e810b44	0.25203907
55	0x3ec28d55	0.37998453
56	0x3ea0bad4	0.3139254
57	0x3e25a0a0	0.16174555
58	0x3ee613c8	0.44936967
59	0xbe979b56	-0.296107
60	0xbcecef35	-0.028922657
61	0xbe4a05dc	-0.19728798
62	0xbd5e61e0	-0.05429256
63	0xbda33ca7	-0.07970553
64	0x3e6bee68	0.23040164
65	0xbe9110d3	-0.28333148
66	0x3df0e0db	0.11761638
67	0xbef7529c	-0.48305213
68	0x3e9b691b	0.30353627
69	0x3ecbcbfb	0.39804062
70	0xbe61093c	-0.21976179
71	0x3e2fe145	0.17175777
72	0xbeb396ed	-0.35076085
73	0xbe0d2bb7	-0.13786207
74	0x3e4cb6aa	0.19991556
75	0xbdbae73d	-0.091261365
76	0x3e948304	0.29006207
77	0x3e4819b5	0.19541056
78	0xbecd5704	-0.4010545
79	0xbe5bd86a	-0.21469274
80	0x3c852f1d	0.016257817
81	0xbefa5318	-0.4889152
82	0xbe8845be	-0.2661571
83	0xbcbeb559	-0.023279833
84	0x3c13b0ca	0.009014318
85	0xbd36e118	-0.04464826
86	0xbb4b1e8f	-0.0030993556
87	0xbe9093f2	-0.28237873
88	0x3b3d2ecf	0.0028867011
89	0xbe0a05cd	-0.13478775
90	0x3d9b5ca6	0.07586031
91	0xbe38237d	-0.17982288
92	0x3eff2952	0.49836212
93	0xbe448429	-0.1919104
94	0x3e772efe	0.2413902
95	0xbefe2131	-0.49634698
96	0x3ebbbb8a	0.36666518
97	0x3ea479cd	0.32124177
98	0xbed0d7c5	-0.4078962
99	0xbea84601	-0.3286591
100	0x3efb5364	0.4908706
101	0x3e76cdf8	0.24102008
102	0x3d8317ae	0.06401001
103	0x3dfa6ab9	0.12227387
104	0xbe66be48	-0.22533524
105	0xbef8fd94	-0.48630965
106	0x3dbd7499	0.09250755
107	0xbea209ca	-0.31648093
108	0xbdd5e082	-0.10443212
109	0xbd9edab9	-0.07756562
110	0x3ebe1483	0.37125024
111	0x3e4701b8	0.1943425
112	0xbe853866	-0.2601959
113	0xbee3c79c	-0.44488227
114	0xbecaacf2	-0.39585072
115	0xbba75ced	-0.005107513
116	0x3e318018	0.1733402
117	0xbe110a00	-0.14163971
118	0xbd83df22	-0.064390436
119	0x3e04f835	0.12985308
120	0xbdc7eedb	-0.09762355
121	0x3e9c2774	0.3049885
122	0x3ed19a25	0.40937915
123	0x3ea89bfa	0.329315
124	0xbde44fce	-0.11148034
125	0xbe2a1b77	-0.1661204
126	0xbd93ff2d	-0.07226405
127	0xbea1f2a9	-0.31630448

linear_relu_stack.0.bias f4 [32]
0	0x3d97555c	0.07389328
1	0xbe3e1d0e	-0.18565771
2	0xbd8e2dc3	-0.06942322
3	0xbe86157e	-0.26188272
4	0x3e9e563f	0.30925176
5	0xbe46e30e	-0.19422552
6	0x3ec7e874	0.39044535
7	0x3e9443dc	0.28958023
8	0xbed4b426	-0.41543692
9	0x3efd604b	0.49487528
10	0xbee4942c	-0.44644296
11	0xbed70628	-0.41996884
12	0xbe38d780	-0.18050957
13	0x3eed261e	0.46318144
14	0xbd8c7edf	-0.06860136
15	0x3ef0ec2c	0.47055185
16	0xbdaa4950	-0.083147645
17	0xbe92f8ef	-0.28705546
18	0x3e8b08e3	0.27155218
19	0x3d652f42	0.05595327
20	0x3ed38271	0.41310456
21	0xbe5f5b34	-0.21812135
22	0x3dfa4dd2	0.12221874
23	0xbea55962	-0.32294756
24	0x3db7aa99	0.08968086
25	0xbec8f682	-0.3925057
26	0xbef49884	-0.4777261
27	0xbe905627	-0.2819073
28	0x3dc5ce31	0.096584685
29	0xbe93d8b6	-0.28876275
30	0xbd0f173c	-0.034934267
31	0xbed933bb	-0.4242228

linear_relu_stack.2.weight f4 [32, 32]
0	0xbdc420b6	-0.095765516
1	0x3e216d58	0.15764368
2	0xbc41f858	-0.011838995
3	0x3e2d9b70	0.16953826
4	0x3da63a96	0.08116643
5	0xbe174fc2	-0.14776519
6	0x3d59458d	0.053044844
7	0xbe31b6cf	-0.17354892
8	0xbe25036d	-0.16114588
9	0xbdd2ddcc	-0.10296211
10	0xbdad453b	-0.0846047
11	0xbd6d2467	-0.057896044
12	0x3d817801	0.06321717
13	0xbd53a833	-0.05167408
14	0xbddb757f	-0.1071577
15	0xbd836243	-0.06415226
16	0xbe23897d	-0.15970416
17	0xbdfaeea2	-0.12252547
18	0x3d3c707e	0.04600572
19	0x3dd5274c	0.10407886
20	0x3e1f56a6	0.15560398
21	0x3d97c7c1	0.07411147
22	0x3e238398	0.15968168
23	0xbd8bfae9	-0.06834967
24	0xbdd63056	-0.10458438
25	0xbe292d9b	-0.16521303
26	0xbd9a2390	-0.07526314
27	0x3dc8175f	0.09770083
28	0x3c525571	0.012837754
29	0xbd52d82e	-0.051475696
30	0x3db90d00	0.09035683
31	0xbe14ca32	-0.14530256
32	0x3ce7c8f2	0.02829406
33	0x3d18c16c	0.037293836
34	0x3d8bb227	0.06821089
35	0x3e021aa9	0.12705483
36	0xbd4b5166	-0.049638174
37	0x3e114deb	0.1418988
38	0x3d7cb586	0.06169655
39	0x3e25bd0d	0.16185398
40	0x3be9f9be	0.0071403673
41	0x3e27a624	0.16371971
42	0x3dd6ce29	0.10488541
43	0xbb842698	-0.004032921
44	0x3e173fd8	0.14770448
45	0x3d33b5d7	0.043874588
46	0xbd87b9a5	-0.06627206
47	0xbdf1966d	-0.117962696
48	0x3ce85806	0.028362285
49	0xbc1fb3bd	-0.009747443
50	0x3d09edcd	0.03367405
51	0x3e27c61f	0.16384171
52	0xbd2cd827	-0.042198326
53	0x3d8354fe	0.06412695
54	0xbd20faa0	-0.039301515
55	0x3df48aeb	0.11940559
56	0x3e01e315	0.12684281
57	0x3e203091	0.15643527
58	0xbdc95f03	-0.09832575
59	0xbd617c7a	-0.05505035
60	0xbe1b5b74	-0.15171605
61	0xbe1d0e83	-0.15337567
62	0x3c88b758	0.016688988
63	0x3ddfa037	0.109192304
64	0xbe2b3d47	-0.16722594
65	0xbd11d937	-0.035607543
66	0xbc914a82	-0.017735723
67	0x3de4759b	0.11155244
68	0xbd792d21	-0.060834054
69	0x3d574932	0.05256004
70	0xbdeba696	-0.11506383
71	0xbcac73c0	-0.021051288
72	0xbd32a926	-0.043618344
73	0xbe122dc7	-0.14275275
74	0x3cb3af43	0.021934157
75	0x3ae10175	0.0017166572
76	0xbdba4663	-0.090954565
77	0x3e34e12a	0.17664018
78	0xbcfdbee8	-0.03097482
79	0x3d4baf14	0.049727514
80	0xbc206e1f	-0.00979188
81	0x3db76cbc	0.08956286
82	0xbe2da1d7	-0.16956268
83	0xbdda4747	-0.10658126
84	0x3dc1cf69	0.094633885
85	0x3de3cef1	0.11123455
86	0xbdd9be52	-0.10632004
87	0xbd7cf187	-0.061753776
88	0x3d32bb57	0.043635692
89	0xbe150f68	-0.14556658
90	0x3dcf9d06	0.10137372
91	0xbd8fe9aa	-0.0702699
92	0x3db9d409	0.090736456
93	0x3e1b7503	0.15181355
94	0xbe34f750	-0.17672467
95	0x3e24aa4e	0.16080591
96	0x3d8888d6	0.066667244
97	0xbda6b64b	-0.081402384
98	0xbd0f8a60	-0.035044074
99	0x3d483397	0.048877325
100	0xbd5dabbd	-0.05411886
101	0xbe30a2f7	-0.17249666
102	0xbe33aa22	-0.1754537
103	0xbce07086	-0.027397405
104	0x3e2e1a48	0.17002213
105	0xbd1658a6	-0.036705635
106	0xbdf47d56	-0.119379684
107	0xbe20b3a7	-0.15693532
108	0x3e10fcc4	0.14158922
109	0x3d097b8e	0.033565097
110	0xbb649cb4	-0.0034883441
111	0xbb6719c5	-0.0035263163
112	0x3dbe5c52	0.092949525
113	0xbd0c07bc	-0.034187064
114	0x3e32ce30	0.17461467
115	0x3e0f739c	0.14008945
116	0xbdae753d	-0.08518455
117	0x3b88262f	0.0041549425
118	0xbd8f3a86	-0.06993584
119	0x3d4b5391	0.049640242
120	0xbe34b338	-0.17646492
121	0xbce6183d	-0.02808773
122	0xbbe8909e	-0.007097318
123	0x3dad7d32	0.08471145
124	0x3e02e4c0	0.12782574
125	0x3d7fc4ab	0.062443417
126	0xbe169432	-0.1470497
127	0x3d8386b9	0.06422181
128	0x3d51d559	0.051228855
129	0xbe0d5f2b	-0.13805835
130	0x3da463ea	0.080268696
131	0xbe322974	-0.17398626
132	0x3e13378b	0.14376657
133	0x3c50ccdc	0.012744155
134	0xbdd515b7	-0.104045324
135	0x3da18f2a	0.078886345
136	0x3dc0c4ca	0.094125345
137	0x3ca5c62a	0.020236094
138	0x3d91928f	0.07108032
139	0xbdcc398b	-0.09971913
140	0x3dede113	0.11615195
141	0x3c9c1f40	0.01905787
142	0xbde4ca73	-0.111714266
143	0xbd8f46fe	-0.069959626
144	0xbe255599	-0.16145934
145	0xbe26e139	-0.16296853
146	0xbd9d30e7	-0.07675343
147	0xbd8095a7	-0.06278544
148	0xbd532707	-0.05155089
149	0xbd3b9c26	-0.04580321
150	0x3e11a755	0.14223988
151	0x3c6ac58f	0.014329328
152	0xbe3019a8	-0.17197287
153	0x3c16020b	0.0091557605
154	0x3d951113	0.07278647
155	0x3bacc67f	0.005272686
156	0xbe01be72	-0.12670305
157	0xbd9d3c94	-0.0767757
158	0x3e09057b	0.13380997
159	0x3d8af7e3	0.06785562
160	0xbcb8ce6c	-0.022559367
161	0xbd55fc8c	-0.0522428
162	0xbdced3e4	-0.10099009
163	0xbdac4c54	-0.08412996
164	0x3dfc2973	0.12312593
165	0xbda77b49	-0.08177812
166	0x3d8e3544	0.06943753
167	0x3d0a30da	0.033737995
168	0xbdef69bc	-0.11690089
169	0x3daabfe4	0.083373815
170	0xbe225895	-0.15854104
171	0x3e144a97	0.14481579
172	0x3bf739c9	0.0075447303
173	0xbdf785d4	-0.120860726
174	0x3d887b20	0.06664109
175	0x3e26df82	0.16296199
176	0x3e029dd2	0.12755516
177	0xbdb86b34	-0.090048224
178	0xbe0a4401	-0.13502504
179	0x3d28e97c	0.041238293
180	0x3c4beaa2	0.012446078
181	0xbe110b1e	-0.14164397
182	0x3d474e81	0.04865885
183	0xbdcc9992	-0.09990229
184	0xbe089ca0	-0.13340998
185	0x3dcf1ceb	0.101129375
186	0xbe294ed9	-0.16533984
187	0x3da50708	0.08057982
188	0xbdc62a16	-0.09675996
189	0xbdac417c	-0.08410928
190	0x3d9a8e34	0.07546654
191	0x3dfbf96e	0.12303434
192	0xbdc43f7f	-0.095824234
193	0xbd1cd348	-0.03828743
194	0xbdb32617	-0.087474994
195	0xbda28d9c	-0.07937166
196	0xbdba3a28	-0.09093124
197	0xbdc3739c	-0.09543535
198	0x3df31a61	0.11870266
199	0x3c794026	0.015213048
200	0x3da46462	0.08026959
201	0x3dd42ab7	0.1035971
202	0xbd539945	-0.05165984
203	0xbb7d32a4	-0.003863492
204	0x3d8d286e	0.06892477
205	0x3d24a4ec	0.040196344
206	0xbd387f07	-0.045043018
207	0xbe2559cf	-0.1614754
208	0xbdda6730	-0.10664213
209	0x3db64cd4	0.089013726
210	0xbe18a54e	-0.14906809
211	0xbdb6de0f	-0.08929073
212	0xbda7bb13	-0.081899785
213	0x3db96fe1	0.09054542
214	0xbd89faf1	-0.067373164
215	0x3dc63220	0.09677529
216	0xbc1c1781	-0.009527088
217	0xbdb0b426	-0.086281106
218	0x3e042347	0.12904082
219	0x3dc16247	0.09442573
220	0xbdab27ae	-0.08357178
221	0xbd3f237a	-0.046664692
222	0x3d9946be	0.07484196
223	0xbe1aed7e	-0.15129659
224	0xbe21f5fd	-0.15816493
225	0xbd87c23a	-0.06628843
226	0x3dfb7a94	0.12279239
227	0xbbe7b7e6	-0.007071483
228	0xbe0bf285	-0.13666733
229	0xbe169348	-0.14704621
230	0x3c18f8cd	0.0093366625
231	0xbde4c1cd	-0.11169777
232	0xbd5a7ba1	-0.053340558
233	0xbdcb386b	-0.0992287
234	0xbd8ed3ad	-0.06973968
235	0xbe087708	-0.13326657
236	0xbe019fc0	-0.12658596
237	0xbde51d6d	-0.11187253
238	0xbda58d0d	-0.08083544
239	0x3c2a21f3	0.010384071
240	0xbd78dfb8	-0.06076023
241	0x3cc12ed8	0.023581907
242	0x3e33191d	0.17490049
243	0xbdd4010b	-0.103517614
244	0x3cf8aae5	0.030354926
245	0xbcd3ae38	-0.02583991
246	0x3e18511c	0.14874691
247	0x3da0b538	0.07847065
248	0x3c864b2b	0.016393265
249	0x3e06736f	0.13129972
250	0x3e0e0ac4	0.13871294
251	0xbd0442ac	-0.032290146
252	0xbe0867c2	-0.1332083
253	0xbdd0e4be	-0.10199879
254	0xbd7a6da5	-0.06113972
255	0x3da052d8	0.07828301

linear_relu_stack.2.bias f4 [32]
0	0xbdb75051	-0.08950866
1	0x3e0421d0	0.12903523
2	0xbdce2c8c	-0.100670904
3	0x3dc0c26c	0.09412083
4	0x3dd88c5b	0.10573646
5	0xbc0c7d1b	-0.008574749
6	0x3e288b2c	0.1645934
7	0xbe128757	-0.1430944
8	0xbac4fd5a	-0.0015029118
9	0xbdba8924	-0.09108189
10	0x3dd1a1e2	0.10235955
11	0x3deef40c	0.11667642
12	0xbe04c725	-0.12966593
13	0xbd178225	-0.03698935
14	0x3d286476	0.041111432
15	0x3c3909c5	0.011293833
16	0xbe27dffe	-0.1639404
17	0x3cef18cc	0.029186629
18	0xbe2c2c83	-0.16813855
19	0x3bdd843f	0.0067601497
20	0x3d2cdfc0	0.042205572
21	0xbc57ab4d	-0.0131634
22	0xbdad6a46	-0.08467536
23	0xbe021130	-0.12701869
24	0xbd1ed505	-0.03877737
25	0x3c71db46	0.0147617515
26	0xbdbb9b27	-0.09160452
27	0xbd8507b0	-0.06495607
28	0x3ce27663	0.027644342
29	0xbe1f2714	-0.15542251
30	0xbdb60750	-0.088881135
31	0xbda77a3c	-0.08177611

linear_relu_stack.4.weight f4 [2, 32]
0	0x3cd03600	0.025416374
1	0xbdb96400	-0.090522766
2	0x3c575d97	0.013144872
3	0x3ca17ddc	0.019713335
4	0xbd620815	-0.05518349
5	0x3cd3d723	0.025859421
6	0x3d985c08	0.074394286
7	0x3c210114	0.009826917
8	0x3d49c9ba	0.049264647
9	0xbdd59327	-0.10428458
10	0x3cc7d930	0.024395555
11	0x3d910959	0.07081861
12	0xbdb452cd	-0.088048555
13	0xbd1381c3	-0.036012422
14	0xbda95435	-0.08268014
15	0xbe1fa75c	-0.15591186
16	0xbe049633	-0.12947921
17	0xbd80b322	-0.06284167
18	0xbd01a86c	-0.03165476
19	0xbdb1b68b	-0.086773954
20	0xbe3481f8	-0.17627704
21	0x3ba688a3	0.0050822063
22	0xbe28a4bc	-0.16469091
23	0x3e2b043b	0.16700833
24	0xbe25a51b	-0.16176264
25	0xbded0180	-0.11572552
26	0x3bffc05d	0.007804914
27	0xbe188811	-0.14895655
28	0xbc049303	-0.008091691
29	0xbcad8e91	-0.021186145
30	0x3d0a613a	0.03378413
31	0xbdeed829	-0.11662323
32	0xbdbe2a63	-0.092854284
33	0x3dd753f2	0.10514058
34	0x3de3152d	0.11088023
35	0xbb890404	-0.004181387
36	0xbe2bdc67	-0.16783296
37	0xbdef8116	-0.11694543
38	0xbd622eef	-0.05522054
39	0xbe0ea8df	-0.13931607
40	0xbe0c17ca	-0.1368095
41	0x3e0bacad	0.1364009
42	0xbd27684f	-0.04087096
43	0x3cc0e906	0.023548614
44	0xbdb6850b	-0.08912095
45	0x3d0980db	0.03357015
46	0xbe0c2745	-0.13686855
47	0x3e09f1fd	0.13471217
48	0x3e12a3ea	0.14320341
49	0xbe1c288a	-0.1524984
50	0xbd168d65	-0.036755938
51	0x38e6ed60	0.00011011469
52	0xb9c764b3	-0.00038031265
53	0xbcd55424	-0.026041098
54	0x3c4d3ade	0.012526242
55	0xbe34c31e	-0.17652556
56	0xbe2856ab	-0.16439311
57	0x3e204844	0.15652567
58	0xbccd65c3	-0.025072938
59	0x3e1e9f67	0.15490495
60	0xbdb82369	-0.08991129
61	0x3dd59aa3	0.10429885
62	0xbded59da	-0.115894035
63	0x3d274467	0.040836718

linear_relu_stack.4.bias f4 [2]
0	0xbe146088	-0.14489949
1	0x3e13d205	0.14435585
