Parameter/cartAC/2.pth (torch, 7255 bytes, 6 tensors)

linear_relu_stack.0.weight f4 [32, 4]
000000 40 18 44 3d 28 56 b2 3e 38 df 48 3e 72 43 ce 3e
       0.04787469 0.34831357 0.19616401 0.40285832
000010 b0 32 6a 3e 60 63 0c 3e 88 63 89 be 9c e1 72 3e
       0.22870898 0.13709784 -0.2683375 0.23718876
000020 24 97 89 3e 00 44 05 3c 74 cf 4d be 9c 84 69 3e
       0.26873124 0.008133888 -0.20098668 0.22804493
000030 58 b1 5b be 68 25 56 be b4 d7 65 be 14 1f 98 3e
       -0.2145437 -0.20912707 -0.22445565 0.2971121
000040 8c 1b 7f be d0 ce 75 3e 90 77 8e 3d 5e 2a bc 3e
       -0.24912852 0.24004674 0.069563985 0.36751074
000050 2c 46 39 3e 1a db e9 3e a0 45 2a 3d 00 0b 8b bd
       0.18093175 0.45674974 0.041570306 -0.067892075
000060 3c a6 a3 be aa ef b7 be 3a 39 91 3e 9c 47 1b be
       -0.31962764 -0.35925037 0.28363973 -0.15164036
000070 b0 8f e0 3d 00 91 55 3b 7e c9 bd 3e f8 f3 f2 3e
       0.10964906 0.0032587647 0.3706779 0.47451758
000080 40 76 3c bc a0 28 53 3e 0c 8d cc 3e 40 42 a5 3d
       -0.011502802 0.20620966 0.3995136 0.08069277
000090 52 90 8d 3e c0 8d 51 bd ac 22 fd 3e 08 02 1c 3e
       0.2764917 -0.051160574 0.49440515 0.1523515
0000a0 c0 2d 92 be a4 67 fe be 30 6f 6e be d0 3a bc bd
       -0.2855053 -0.49688447 -0.23284602 -0.09190905
0000b0 b0 12 bc 3d 00 f9 5f bd 42 13 ca 3e f8 e9 11 3e
       0.09183252 -0.054680824 0.39467818 0.14249408
0000c0 48 d2 61 be 46 21 ad be f8 c2 85 bd e4 1e 11 3e
       -0.22052872 -0.33814448 -0.06531328 0.1417194
0000d0 34 ef 43 be 88 c9 92 bd 42 26 b0 be 2e 2d eb be
       -0.19134218 -0.07167345 -0.34404188 -0.45932907
0000e0 9a 89 c9 be 24 bb 14 3e 2c 9b 8f 3e 98 0d 91 be
       -0.39362794 0.14524513 0.28048074 -0.28330684
0000f0 b0 39 2d bd 5e 2c c7 3e 18 bc d6 3e 18 5d 8d 3d
       -0.042291343 0.38901037 0.4194038 0.06902522
000100 e8 36 c6 3e bc 1f ea 3e b8 d5 5e be c0 be d0 bd
       0.38713765 0.45727336 -0.21761215 -0.10192633
000110 7a 29 88 3e fc a4 f0 be 2a 92 b9 be 60 e4 13 3e
       0.26594144 -0.47000873 -0.36244327 0.14442587
000120 f0 15 37 bd a4 1f 49 be f0 21 e9 3e be 9d f6 be
       -0.044698656 -0.19640976 0.45533705 -0.48167223
000130 fc 83 64 3e 30 ed b5 3e 40 b6 ec bc 30 d8 3b 3e
       0.22315973 0.35532522 -0.028895497 0.18344188
000140 84 95 e2 be a0 64 ed be 20 a0 45 3d c0 04 59 bd
       -0.44254696 -0.46365833 0.04824841 -0.052983046
000150 b0 88 9f bd ac dc 1a 3e d4 b4 6b be 00 ce d6 ba
       -0.07789743 0.15123242 -0.23018199 -0.0016388297
000160 94 32 c1 be c4 e9 9c 3e 92 30 f8 3e 46 6b 96 be
       -0.377339 0.306471 0.48474556 -0.29378718
000170 5e db ec 3e 9c d4 00 3e 2c a2 3c 3e 60 73 41 bd
       0.46261114 0.12581104 0.18421239 -0.04722917
000180 4e 19 b5 3e a0 2a 94 be ce e5 bb 3e b8 6b c4 bd
       0.35370868 -0.2893877 0.36698765 -0.09590858
000190 dc da 1d be 3a 24 fd be f8 cb e4 bd 58 0f 6a be
       -0.1541552 -0.494417 -0.111717165 -0.22857416
0001a0 10 79 6d 3e a4 f5 ea be 02 ab c1 be 24 3b 08 3e
       0.23190713 -0.45890534 -0.3782578 0.1330381
0001b0 28 8d a6 3d c8 9d 38 3e f0 5a 36 3e 00 1a d1 3c
       0.08132392 0.18028939 0.17808127 0.025525093
0001c0 40 b9 27 3d a0 b0 de bc 3e a3 82 be 40 c2 04 3c
       0.040948153 -0.02718383 -0.2551517 0.008102953
0001d0 20 b8 46 be 56 45 b9 be 58 39 d9 3e 90 23 d1 be
       -0.19406176 -0.36185712 0.42426562 -0.40847445
0001e0 76 7c fe be 40 ee 94 bd fc 4d 97 be d8 4f 3a 3e
       -0.4970433 -0.07272005 -0.29551685 0.1819452
0001f0 30 de 0d bd 00 6d 9b 3e 14 41 eb 3e 90 ca 18 3d
       -0.034635723 0.30356598 0.45948088 0.037302554

linear_relu_stack.0.bias f4 [32]
000000 ec a2 71 3e 58 48 86 be 32 c3 82 3e b8 fc e3 3e
       0.23597306 -0.2622707 0.25539547 0.44528747
000010 54 35 cf 3e 90 a3 08 bd e8 a9 e4 be 2a 03 92 3e
       0.40470374 -0.03335911 -0.44660878 0.2851804
000020 40 94 90 3d 60 44 9e bd 72 88 f4 3e 7e 13 c0 be
       0.070595264 -0.07727885 0.4776035 -0.3751487
000030 80 9a 05 bc 68 f7 3e 3e 48 6c fc 3e e4 25 2c 3e
       -0.008154511 0.18649065 0.49301362 0.16811329
000040 90 cb 34 bd 24 c5 a6 3e 2c 2d 52 be 4a 92 b6 3e
       -0.044139445 0.3257228 -0.20525044 0.35658485
000050 e0 e7 cd be 20 36 b9 3d 44 5b c8 be f8 d1 8f be
       -0.4021597 0.09043527 -0.3913213 -0.2808988
000060 7a 02 dd be 80 07 f9 3c a4 88 b5 be a8 28 8a be
       -0.43165952 0.030399084 -0.3545581 -0.26984143
000070 b6 2e e8 3e 80 41 78 bd 88 48 91 3e 00 f2 bc bd
       0.45348138 -0.06060934 0.2837565 -0.09225845

linear_relu_stack.2.weight f4 [32, 32]
000000 30 c2 a0 3c c6 a6 73 3d 44 0e f8 bd 0a 33 f1 3d
       0.019623846 0.05948522 -0.12112096 0.11777313
000010 7e 83 f1 3d fa 67 33 bd 42 89 82 bd 6b da 61 bd
       0.11792658 -0.04380033 -0.06373836 -0.05513994
000020 e4 46 a8 3c cb 62 e8 bd 69 e9 5b bd be 51 28 3e
       0.020541616 -0.11346968 -0.053689394 0.16437432
000030 a1 15 b6 bc f0 df 27 bd 5c 75 f6 3d 09 d5 03 be
       -0.02222711 -0.040985048 0.12034103 -0.12874235
000040 7b bf 1c be 75 ca 09 be 08 8b e2 3d 5a d6 4c 3d
       -0.15307419 -0.13456137 0.11061674 0.05000911
000050 fa 0f d2 3d d3 2d 36 3d 86 ec 00 3e e0 08 2a bc
       0.102569535 0.044477295 0.12590227 -0.0103780925
000060 be d3 4d 3c 2f 3b 11 3e 64 b1 71 bd 83 7f bb bc
       0.01256269 0.14182733 -0.059007064 -0.02288795
000070 db ce 8a 3c b6 ac 22 be 12 c9 48 bd 98 c4 0d be
       0.01694434 -0.15886196 -0.04901988 -0.13844526
000080 ce 67 71 3c f6 63 f1 bc 32 7e ce bd 7f 5f 8c 3d
       0.014734222 -0.02946661 -0.100826636 0.06854152
000090 1c 46 92 bd 33 6b cd bd 87 c1 2c 3d 19 44 47 3b
       -0.071422786 -0.10030212 0.04217675 0.003040558
0000a0 42 0e 45 3d 03 fe c9 3d 92 1e 33 bd fc 29 0e 3e
       0.0481093 0.09862902 -0.043730326 0.13883203
0000b0 fc fc dc bd f4 1d 0e be 5a 42 20 be 68 6b 1d bd
       -0.107904404 -0.13878614 -0.15650311 -0.03843251
0000c0 3b 5a 09 bd 57 8e 93 bd 25 e6 2c bc f1 ae 1c bd
       -0.033533316 -0.072048835 -0.010552918 -0.038252775
0000d0 2b 37 16 be b5 32 75 bd 40 dc c4 3d c8 ad 61 3d
       -0.14669482 -0.05986281 0.09612322 0.05509737
0000e0 c0 5c 27 bd da a9 b9 3d 1c cd cb 3d a0 67 00 3e
       -0.040859938 0.090656 0.09951231 0.1253953
0000f0 18 e1 e7 3d a0 8a 61 bc c5 5e 27 be 68 98 88 bd
       0.1132223 -0.013765961 -0.16344745 -0.06669694
000100 ca d1 1e 3e d4 40 4b 3d 82 93 1e 3e 1e 6e 02 3e
       0.15509716 0.04962237 0.15485957 0.12737319
000110 aa f5 09 be 8d ef ba 3d fd 28 1c ba 32 6c ea 3c
       -0.1347262 0.09127722 -0.00059570355 0.028616045
000120 96 2a 8e bd 55 88 1d 3d 3b 32 c3 bd 47 7c 9b 3c
       -0.069417164 0.038460094 -0.09531065 0.018980158
000130 58 e7 1a be 7e 2c 27 3e fe 9b 6e bd 00 f2 1f 3e
       -0.15127313 0.16325566 -0.058254234 0.1561966
000140 47 f1 ca 3d d6 8d d3 3b 0a e1 e5 3d 1f 19 1d 3e
       0.09909301 0.006456117 0.112245634 0.15341614
000150 6c 9f 03 3e 6e b5 37 bd 7a a4 d3 bd 4b d5 e3 3d
       0.12853783 -0.04485076 -0.10334106 0.11124667
000160 c6 b0 ec bd 3b 18 14 3e ef 82 89 bd e4 0c 9e 3d
       -0.11557154 0.14462368 -0.06714427 0.077173024
000170 21 4b 35 bd 21 62 a1 3c d0 d0 2b 3e 72 78 60 3b
       -0.0442611 0.019700112 0.16778874 0.0034251479
000180 0e b8 9c bd 8b 48 7d 3c ac 4d 1e be ae 08 ff bd
       -0.07652293 0.01545919 -0.15459317 -0.124528274
000190 68 f1 14 be 6b eb fd 3d 20 95 84 3a f0 59 ef bd
       -0.14545214 0.12398418 0.0010115243 -0.11687076
0001a0 a3 f0 a2 3d d9 3c 88 bc 2e 75 a2 bd 3d 88 1b be
       0.07956054 -0.016630577 -0.079325065 -0.1518869
0001b0 a3 a7 f9 3d 82 3b 1d 3e 7d 7a 2b 3e 1d 5e 2c be
       0.12190177 0.15354732 0.16745944 -0.16832776
0001c0 92 49 0d be e5 72 00 bd ae b8 aa 3d c8 ba f5 3d
       -0.13797596 -0.031359572 0.08336006 0.11998516
0001d0 3f d0 fc 3d 60 3d db 3d 2d 38 a5 3d 51 51 ca 3d
       0.12344407 0.10705066 0.08067355 0.09878791
0001e0 e5 25 f0 3d 50 6a 0d be 4e 50 c3 3d 78 aa 15 3d
       0.11725978 -0.13810086 0.09536801 0.036539525
0001f0 29 2e a0 bd c0 b6 81 3d 16 59 69 3c ac 1c e5 3d
       -0.07821304 0.06333685 0.014242431 0.11187109
000200 cf ba bd 3b 23 92 fb 3d 6c f7 b9 bd f9 35 a6 bb
       0.0057900916 0.12283733 -0.09080395 -0.005072352
000210 8e d7 0b 3d 6e 3d 0b bc 73 c3 ce bc 3f d3 5f 3d
       0.034141116 -0.008498533 -0.025239682 0.05464482
000220 14 d6 0e 3e e5 ec 2f be 28 10 1a 3e ef dc c0 bc
       0.13948852 -0.17180212 0.15045226 -0.02354285
000230 91 d8 d4 3d 7d 00 67 3c df 02 c6 3d 48 1a 05 3d
       0.10392869 0.0140992375 0.09668516 0.032495767
000240 a4 c5 dc bd 65 d4 57 bd 06 93 0d bd 3a 32 80 3d
       -0.107798845 -0.05269279 -0.03456404 0.0625958
000250 f1 a5 15 bd f9 e2 93 bd 6c 5a 4a 3d 98 34 1f 3e
       -0.036535207 -0.07221026 0.04940264 0.15547407
000260 e4 71 c1 bd fc f5 0b 3d 34 cd 07 3e 3f 71 9a bd
       -0.09445551 0.034170136 0.13261873 -0.07541131
000270 e3 be c8 3c 8e 98 85 bd e8 a4 fd 3d 1b e7 20 be
       0.024505084 -0.06523238 0.12384969 -0.1571316
000280 04 68 cd 3d 7d 69 d1 bd 23 e8 1a 3c 61 9b de bd
       0.10029605 -0.102251984 0.00945476 -0.1086948
000290 cb e2 db bd 48 6f fa 3d ba 59 7a 3d 62 6b 95 3d
       -0.10736617 0.122282565 0.061120726 0.07295872
0002a0 f8 63 f6 3d 1d f4 de 3d bf c6 de bd b4 cd 0f 3d
       0.12030786 0.10886405 -0.108777516 0.035108283
0002b0 5c 46 02 3d 3c 57 b2 bb 9f 7f ca 3d 7e fb a7 3c
       0.03180538 -0.005442528 0.09887623 0.020505663
0002c0 c7 d2 c3 3d bb d9 32 be d5 cd 1c 3c fa 4b e2 3c
       0.09561687 -0.1746587 0.009570559 0.02762412
0002d0 e3 aa ca bd d5 28 1b be 4f bf 1d bd 0b b4 b8 bd
       -0.09895875 -0.15152295 -0.038512524 -0.090187155
0002e0 48 39 24 be 9f 7f c6 bd 89 42 28 be 2f df 1b 3c
       -0.16037476 -0.096923105 -0.16431631 0.00951366
0002f0 f1 de 1b 3e bc 8e c8 3d fc 7b ad bd 6a 48 74 bd
       0.15221764 0.097928494 -0.08470914 -0.059639372
000300 ec 6c a3 bd 44 af 1c 3e d6 fe 15 3d 5a 9f b7 3d
       -0.079797596 0.15301234 0.036619984 0.08965941
000310 c2 a2 80 bd 99 e9 b1 bd f2 f6 22 3c c7 f1 18 3e
       -0.062810436 -0.08687133 0.009946572 0.1493598
000320 de bb b5 bd 36 7d 09 be ff 25 21 3e 19 5c fd bd
       -0.088737234 -0.1342667 0.1573715 -0.12371082
000330 b4 d9 45 bd 18 5f c4 bd 29 0f 2e 3e 78 ea 03 be
       -0.04830332 -0.0958845 0.1699797 -0.12882411
000340 d0 14 07 be 90 69 5e bc e3 87 a4 bd 52 aa ba 3c
       -0.13191533 -0.013574973 -0.08033731 0.022786293
000350 cc 79 ca 3d b2 ed 42 3d 6b eb ad bd e5 79 14 be
       0.09886512 0.047589965 -0.08492168 -0.14499624
000360 a8 48 95 3d e9 e1 22 bd fc e9 31 3c 73 25 29 bb
       0.07289249 -0.039766226 0.010859009 -0.0025809675
000370 46 24 21 be 18 32 b9 3c 12 77 5d 3d 81 c7 9e bb
       -0.15736493 0.022606894 0.054068632 -0.00484556
000380 74 89 0e 3e 89 bd 9a 3a 5f ac 2e bc eb 38 bc bd
       0.13919622 0.0011805753 -0.010661214 -0.09190544
000390 97 00 b8 3d db c1 db bc 1b 4f 2b 3e 0d 62 01 bd
       0.089844875 -0.026825836 0.16729395 -0.03158765
0003a0 8e b1 0f 3e 81 d0 f7 3d 86 19 56 bd 7f ca 2f 3e
       0.14032575 0.12100316 -0.052270435 0.1716709
0003b0 50 ac b3 bd 4d 54 e3 bd fa c6 54 3d cd d6 83 3d
       -0.087731004 -0.111000635 0.05194757 0.064374544
0003c0 6c fa 14 3e ff 80 fe bc 85 1b 34 3e 78 8b f1 bc
       0.14548653 -0.03106737 0.17588623 -0.02948545
0003d0 9c ca c1 3d 57 03 2c be 41 b3 e7 bc f5 61 5b 3d
       0.09462473 -0.16798149 -0.028283717 0.053560216
0003e0 0a 9b 1d 3e 4f 65 d8 bd 63 60 20 3d 6c 33 e5 3d
       0.15391174 -0.10566198 0.03915442 0.111914486
0003f0 1d a6 c8 bd f8 6b 63 3d 0e b2 2b be 12 3e 07 3d
       -0.097973086 0.05552289 -0.16767141 0.03301818

linear_relu_stack.2.bias f4 [32]
000000 76 67 6b bd 26 f5 05 be 85 03 a7 3d ec af f3 bd
       -0.057471715 -0.13081798 0.08154968 -0.11898789
000010 24 9b fb bd 01 14 fb ba 27 d2 1e bd e1 b2 82 ba
       -0.1228545 -0.0019155742 -0.038774636 -0.0009971523
000020 4c 32 f5 3d 30 87 8b 3c ba f8 28 3e 87 00 06 be
       0.11972484 0.017032236 0.16501132 -0.13086139
000030 76 89 90 3d d4 c4 f0 bd c7 62 41 bd 47 9d 13 3e
       0.070574686 -0.11756292 -0.047213342 0.14415465
000040 f8 65 f6 bd b5 9b b3 bd e6 77 b7 3d 35 f5 d3 bc
       -0.12031168 -0.08769933 0.08958416 -0.02587376
000050 41 7d 2b bc 6c 50 08 be ff 0e d0 bd 96 1b dd 3c
       -0.010466875 -0.13311929 -0.1015911 0.026990693
000060 d0 35 d1 3d a0 3e d2 3c 85 db 2d 3e 05 5c c2 bd
       0.10215342 0.025664628 0.16978271 -0.094902076
000070 38 d1 ef 3d dd ed 22 bd 9e 57 26 3e d2 6a f8 3d
       0.11709827 -0.039777625 0.16244361 0.12129749

linear_relu_stack.4.weight f4 [2, 32]
000000 49 b8 17 be 2f 54 3a bd 2d c9 86 3d 32 c0 b4 3d
       -0.14816393 -0.04549044 0.0658134 0.08825721
000010 fb 0f 34 3e 98 66 46 3d a9 9d d5 bd 4a dc 01 be
       0.17584221 0.048437685 -0.10430462 -0.1268169
000020 74 64 8b 3d 26 e8 b8 bd e5 fb 04 3e e4 48 7e 3d
       0.06806269 -0.09028654 0.12986715 0.062081233
000030 cf 6a 24 3e 34 74 a1 3c 10 0f 08 3e 6b 0f 5c bd
       0.16056369 0.01970873 0.13286996 -0.05372564
000040 ee 53 45 3d d7 04 e1 bd 4f fd a2 3d e5 93 09 be
       0.048175745 -0.10987251 0.07958471 -0.13435324
000050 48 48 8f bd 6f 64 c1 3b 6d 58 08 3d 41 c8 b1 bd
       -0.069962084 0.005901865 0.033287454 -0.086807735
000060 c4 90 a5 3d fb 84 0b 3d 5d 26 2f be 24 10 20 be
       0.080842525 0.034062367 -0.17104478 -0.15631157
000070 1b 61 ce 3d 05 7e c6 3c 90 f5 18 3e ae 08 75 3d
       0.10077115 0.024230013 0.14937425 0.05982273
000080 e9 0c 07 be 09 21 11 3e 17 00 18 be 25 7a 1f be
       -0.13188519 0.14172758 -0.14843784 -0.15573938
000090 58 8f b5 3d 7e 77 d4 bc ee d7 83 bd b2 6e 20 3e
       0.08865231 -0.025935885 -0.0643767 0.15667227
0000a0 f1 49 f5 bd 06 95 29 be f0 69 9b 3c 16 4e f1 3d
       -0.11976994 -0.16560754 0.018971413 0.11782472
0000b0 cd 31 e4 bb 9a 25 1f 3e 35 6a 96 3b 22 a1 70 bd
       -0.0069639445 0.15541688 0.0045902976 -0.05874742
0000c0 f9 bc 2f 3e 76 c8 2f be 75 55 13 be 20 9f 34 3d
       0.17161931 -0.17166314 -0.14388068 0.044097066
0000d0 9d 67 0f 3d 0f f1 8f 3c 0f 8f cc bd 1c 5d eb 3d
       0.035010923 0.017571 -0.09988224 0.114923686
0000e0 b1 3b 62 3d 58 88 e0 3d 94 bb 23 be 66 66 bf bd
       0.055232707 0.109635055 -0.15989524 -0.09345703
0000f0 76 70 0d 3e 7d cb 0e 3e 7f 09 21 be 22 81 1e 3e
       0.13812432 0.13944812 -0.15726279 0.15478948

linear_relu_stack.4.bias f4 [2]
000000 49 0a 22 3e 37 7d 29 3e
       0.15824236 0.16551672
